preTrained/RoboschoolHalfCheetah-v1/TD3_RoboschoolHalfCheetah-v1_0_solved_actor_target.pth (torch_old, 532664 bytes, 6 tensors)

l1.weight f4 [400, 26]
00000000: a466 093e 1ad9 0cbe 2678 1dbe a7f6 a3bd
00000010: 90a1 033d 4eb7 903e b31f 3cbe 3add 663d
00000020: 8413 75bd 71d9 da3d 52cd e8ba 5e2f 29bd
00000030: f2eb 593e 6f05 aa3c 334a 75bc 9cef f13d
00000040: 9514 0cbe 8b23 673d 4f39 25bd 7ee9 173d
00000050: f732 2ebe 3622 39be 35be 0f3e 8977 40bc
00000060: 1c9c 8cbd 22f0 993d 083e bb3e 2cd2 1fbe
00000070: d8c2 3bbe 066f 9ebb 4c24 573d dc8f 823e
00000080: 72d7 a83d ed52 9bbc ba47 e83d e0b7 3ebe
00000090: 1d1a 86bd 225a 573d e0a9 b83d e935 c0bd
000000a0: 7824 3fbe 74fd 863d da57 51bd 9a41 5c3d
000000b0: 3d35 02be 3bc9 fa3d 3079 37be 420e a33d
000000c0: aa94 e63d 70e5 3fbe 062b b93d 7137 2e3e
000000d0: 836d 303f 5fdd 44be 3118 93be f24a c43e
000000e0: 88ce 2abe c711 0ebf 833d 223e cde0 d6bf
000000f0: b2ec be3e 5ccc 3a3f 696a 233f 5630 2b3f
00000100: 2d08 1d3f 007a 3b3f bec8 05bf 59ec 55be
00000110: b455 21bf e41d c33e a7d8 f53e 79c1 72bd
00000120: c4a4 b8bd 189f dfbc 3e14 27be 423b 06bf
00000130: 7899 203d f140 103e fb31 10c0 90dc 7cbc
00000140: cd7b 0ebf 4d78 b7bd b274 10be b2fb 6fbf
00000150: 70d8 223c f70d 8240 bc76 053e 05ec a2be
00000160: 8ca8 533f 2020 36bd 6bc2 5e3d a76a d43d
00000170: 81ce c93e 0349 813c 9717 f2bd 9296 803e
00000180: 94a5 b53c 9a71 483e e152 c8bd 2938 16be
00000190: 0211 973d eec8 f63d 68c4 fbbc d80e 82bd
000001a0: 9eec 683f 4b8d 233e 45b4 a9be 6e4e 4e3e
000001b0: 2906 033e 8de1 563f 4c1c 69bd 6673 d9be
000001c0: 3b78 fd3e 9871 983e 46c0 90bf 667a eebe
000001d0: 7510 b1be 74c0 a2be 3f71 58bf 050b f63d
000001e0: 68e8 81bf 364b 80be 9568 3f3e 3e57 a43d
000001f0: 162e 6c3e 3eff d63d 2087 193d 5d00 0cbe
00000200: 7013 293c 3f3a 123e c17d 07bf 5d6f 243e
00000210: 177f 0fbf f54c cdbd f780 213e d836 16be
00000220: c2f7 d93d 396e 09be 6dbc d23f 3f9b cf3e
00000230: f465 efbe b3bd 913e 38c7 43bf 4df8 d23b
00000240: 58d8 e4bc ee98 f7be b3f5 f83e b709 15be
00000250: 2495 10be 9f4b c13e 30d0 633c 7279 e0bd
00000260: 2ed4 ce3d 2612 afbe 045c cabd 5d2a 29be
00000270: 1ec6 55bf 1498 743d de51 7f3c 8380 35bf
00000280: fa1e 993d 5c16 0d3f 54ab 07bd e293 413f
00000290: 9952 933f 3d15 9fbe fe71 f4bd 5645 81be
000002a0: 0eec efbe 4ee5 20bd 0b75 24bf 6969 903e
000002b0: df72 aebf 5285 613e 26ff bebf 97b5 cd3c
000002c0: 1e59 2b3d 3ea5 82bd fde3 293e dd47 803e
000002d0: 0f49 11be 80bd 703b ad0d d5be 596a 36be
000002e0: af04 9fbe c141 9f3d d695 e63d 24d5 77bf
000002f0: 92be 03be eb5b 493f 6bd3 873f 4b81 083f
00000300: 7604 d4bd fad0 3d3e 0b5c 5ebe 7bf8 0ebe
00000310: 49be a13e 6b66 b8bf 370a d9bf d295 bfbe
00000320: 7811 0abe fb64 20be fd24 a0bd c3bd 44be
00000330: 53aa 00be 1fa3 b4be ea27 c1bd 9ec5 c53d
00000340: f200 2dbe 6194 1f3e e8ee 74bf de0d 203f
00000350: ee60 ed3d af99 953e 82c5 f13d 8fbf 823e
00000360: efe7 8dbe 3914 0a3f 8e44 e83e b410 e33e
00000370: e578 fbbb f30b b7be bd4d 52be a5f9 dd3e
00000380: 5b05 7ebe fff1 81be 20b6 17bf 93fa 873f
00000390: cfbd 00bf fad7 8a3d 6b2f 0f3e 50e6 77be
000003a0: f296 9ebd 46f2 bf3d 5d19 e53e 20e7 1c3c
000003b0: bc73 37bf 4945 113f 509e af3c 4b77 a53d
000003c0: 5f8c 333e 2b9e d9be 49cf bb3e 5ab2 083f
000003d0: e8f5 c13e 9e6a a63e 9e3d 3cbd 924e 443f
000003e0: 2e51 21bf 3237 bfbe 90b1 9abe 3dcd ccbe
000003f0: 3912 cfbf 356d 3fbf 46e1 f4bd 68b8 92bd
0.1341806 -0.13754693 -0.15377864 -0.080060296 0.0321365 0.2826485 -0.18371467 0.05636332
-0.059833065 0.10686005 -0.0017761386 -0.04130494 0.21281412 0.020754544 -0.014971304 0.1181328
-0.13679726 0.05643038 -0.040337857 0.03708791 -0.17011629 -0.18079457 0.14037402 -0.011747249
-0.06865713 0.07516505 0.36570764 -0.15607518 -0.18336046 -0.0048350124 0.05252485 0.2550038
0.08244218 -0.01896044 0.11341806 -0.1862483 -0.065479495 0.05257619 0.09016776 -0.093852825
-0.18666255 0.06591311 -0.051109172 0.0537735 -0.12715621 0.12245413 -0.17917323 0.07961704
0.11258824 -0.18739867 0.09041409 0.17013337 0.689171 -0.19225071 -0.28729394 0.3833843
-0.16680348 -0.55495876 0.15843777 -1.6787354 0.3728996 0.7296808 0.63834244 0.6687063
0.613406 0.7323303 -0.52259433 -0.2089094 -0.630214 0.38108742 0.48016855 -0.05926654
-0.090158015 -0.027297541 -0.16316316 -0.5243417 0.03920886 0.14087273 -2.2530506 -0.015433446
-0.55657655 -0.089584924 -0.14107016 -0.9374343 0.009939298 4.0642047 0.13033575 -0.31820694
0.8267906 -0.04446423 0.05438463 0.10371905 0.39415362 0.015781885 -0.11820906 0.25114876
0.02217368 0.19574586 -0.09781433 -0.14669861 0.07376291 0.12050043 -0.030733302 -0.063504875
0.9098605 0.15971868 -0.33145347 0.20147106 0.12795319 0.83937913 -0.05691175 -0.42470855
0.4950579 0.29774165 -1.1308677 -0.46577758 -0.34582868 -0.31787455 -0.845478 0.120138206
-1.014905 -0.2505738 0.18692239 0.080244526 0.23064455 0.10497902 0.03748238 -0.13672014
0.010319576 0.14280032 -0.5292626 0.16058107 -0.560533 -0.10024444 0.15771852 -0.14669359
0.10642959 -0.13420953 1.6463753 0.4054813 -0.46757472 0.28465042 -0.7647586 0.006438291
-0.027935192 -0.48358864 0.48624954 -0.14554487 -0.14119393 0.37753007 0.013904616 -0.10960664
0.10099064 -0.34193534 -0.09880832 -0.16520067 -0.8350543 0.059715346 0.0155834835 -0.7089922
0.074766114 0.5511224 -0.033122376 0.75616276 1.1509582 -0.3107089 -0.11935805 -0.25248212
-0.46859783 -0.039281182 -0.64241093 0.28205422 -1.3628806 0.22023514 -1.4921615 0.025111003
0.041833036 -0.06379174 0.16590877 0.25054827 -0.14188026 0.0036734045 -0.41611996 -0.17814006
-0.3105826 0.077762134 0.11259048 -0.968096 -0.12865666 0.7865588 1.0611395 0.53322285
-0.10352413 0.1853675 -0.21714799 -0.13961975 0.3159049 -1.4406255 -1.6956242 -0.3741899
-0.13483226 -0.15663521 -0.07819555 -0.19213013 -0.12564974 -0.35280702 -0.09431441 0.09656833
-0.16894892 0.15583946 -0.9567704 0.6252116 0.115907535 0.29218814 0.1180525 0.25536773
-0.27716014 0.5393711 0.45364803 0.4434868 -0.007674324 -0.35751304 -0.20537467 0.43354526
-0.2480673 -0.2537994 -0.59262276 1.0623344 -0.50289625 0.067794755 0.13982932 -0.24208951
-0.07743634 0.09372382 0.44745913 0.009576589 -0.7166097 0.56746346 0.021437794 0.08079394
0.17534016 -0.42503485 0.36681584 0.5339714 0.37882924 0.32503217 -0.0459572 0.7668239
-0.63014495 -0.37346798 -0.30213594 -0.40000334 -1.6177436 -0.7477601 -0.1195703 -0.07164079

l1.bias f4 [400]
00000000: 1108 c1be 510a 4abe c2da 7dbe e72a 6bbf
00000010: c4e1 fabe 4b85 24bf 7565 9bbc aff6 a3be
00000020: 4faf 21bf 7c5e 25bf cad6 dfbd 7d49 d63e
00000030: f9bf ebbe ba98 bdbe e42c 71be ddee d23e
00000040: c106 7cbf 2e40 1dbf e9bb 22be fe1f 53bf
00000050: f6ee d0be f290 8cbe 3cb0 40bf 0dd0 83be
00000060: aaae c3be 847e 48be 6b14 69bf 9768 01be
00000070: 967a 7bbf e5d2 11bf a1e1 1abf 9441 78bf
00000080: d578 0ebf 8c29 a8be 2d0f 35bf 7e02 18bf
00000090: 3c3e 74bf 573a e33e 710b b8be bf55 20bf
000000a0: 6972 d7be 6069 bfbe 2013 12bf 3b3b 18be
000000b0: 204c 1dbf 25de 7bbf 24c2 87be c35f 0bbe
000000c0: b496 403e aacc dcbe 8d33 08bf ee72 39be
000000d0: 43f7 0dbf bf9c 24bf e0d3 f23e 0482 6fbf
000000e0: 148d b3be 806a 1abf 856e a2bd 3b95 27bf
000000f0: 22a6 80bf 834f 39bf 9462 f8be a0e7 1ebf
00000100: 2aa5 9b3d 765e fdbe f3e6 2cbe 3ca9 cebe
00000110: dace 22be b23a 71be 69b9 72be 685a 68bf
00000120: ad17 09bf a9f7 40bf 3b01 61bf f6f9 48bf
00000130: 800c 0bbf c1f8 ffbe a666 ecbe 1b00 69bf
00000140: 0198 86be 5383 a8be 6980 0abf c3a9 1dbe
00000150: 1d19 d0be 9c5e 1dbf 38eb 3abe 66ac 1fbf
00000160: ef74 d4be 965f 2a3e c8dc 1abf 6779 8fbf
00000170: 9bf0 00bf 9fa7 2fbf 4cf6 aebe e393 f5be
00000180: eb28 04bf bdfe e83d 9a8f f0be 89ea 36be
00000190: 7a10 16bf 478f 22be 8457 a6be 5e57 4ebf
000001a0: 940f 6fbf 92d4 ffbe 3b52 33be 8cf5 14bf
000001b0: 0c75 f9be 54ad 023f f1dc c03d 3451 edbe
000001c0: 873c 05bf 1126 f13e 58dd 13bf 8cb3 0dbf
000001d0: 2db8 9ebe 3a3a 5abf f5cb 0dbf 77c1 a03d
000001e0: d233 ebbe 700d 31bf abbb 00bf bf8c e8be
000001f0: 6230 5fbf 91eb 9dbe 3146 0ebf c2d3 d6be
00000200: c271 77be a9ed 2fbe 78d7 c1be 2074 9bbe
00000210: 7648 5fbf e27d 0bbf c41c 063d 404e aebd
00000220: 4c10 193d d8bf 1bbf 2932 a8be 3586 40bf
00000230: acfe 2abf 04b6 70bf 6f8d 4fbe 4881 b5be
00000240: 6680 15be e839 bbbe 244c 52bf 10fb a9be
00000250: 5d0d debe e81a 38bf 434a 1fbf f44e 01bf
00000260: 4bd7 16bf 24b6 24bf 47ca adbe 9e17 90be
00000270: 331e 74bf b056 c0bd 8b91 08bf fc1e 1ebf
00000280: 3a16 17bf 5622 4dbe 0392 a7be b293 b2be
00000290: f206 32be 8391 2ebf 0a2b 4d3e 6cbf 18bf
000002a0: f74f 3ebe dcfb 18bf 5636 31be d6ed 85be
000002b0: 9166 c8be a98e 45bf d999 18bf c2c5 52bf
000002c0: 6b8e 16bf dc90 0dbf 35d2 36be 937d 6ebe
000002d0: 8bb1 60bf f058 e4be eb2a b8bd 6986 d3be
000002e0: 50b3 20bf 8790 a3be aff3 0fbf e839 88be
000002f0: 233e 21bf 225a 25bf 7642 fa3d 62b3 debe
00000300: 302b a43d d34e cbbe 147b fdbe a7ae 2cbe
00000310: c1a2 41be c190 44bf 5cca e3be cfa9 04bf
00000320: b361 26bf 3143 30be 0727 c3be 5d8a 2dbf
00000330: 72e8 d3be e2ac 1dbf 40f2 3abf c36a edbe
00000340: e731 48bf f30c 24bf 7bea b3be f4b3 dcbe
00000350: 15d1 23be dc76 9abd 9815 f7be f49d 71be
00000360: a681 f93d 8e04 9abe c638 43bf dc6d 73be
00000370: a35d 6fbf a721 973e b1f0 2cbf 1044 94be
00000380: 23ba 69bf 9e4d 2d3e b56c 30bf 0e98 29bf
00000390: 0c69 253e 9651 8b3e d5f9 84bf dc1a 70bd
000003a0: 6e74 27bf 5f18 0fbf 3eeb 9ebe 40cd c5bd
000003b0: 7d3f 96be b309 0cbf 5289 29bf 87d6 0cbf
000003c0: 099d 393d 53bc 6fbf 3e03 12bf d042 1bbf
000003d0: 5af1 21bf 5b89 8bbf 8306 f03d a5cd 7cbf
000003e0: 9c1d 51bf 0b56 e4be 9d2c 19bf db94 cbbe
000003f0: 8abb 87bf b05b 04bf e55e fcbd 4278 5fbf
-0.37701467 -0.19730498 -0.2479048 -0.9186234 -0.4900037 -0.6426589 -0.018969277 -0.32024142
-0.63158125 -0.64597297 -0.1092964 0.41852942 -0.460449 -0.37030584 -0.2355228 0.41197863
-0.98447806 -0.61426055 -0.15891995 -0.8247069 -0.40807313 -0.27454334 -0.7526891 -0.25744668
-0.38219196 -0.19579512 -0.9104678 -0.12637554 -0.98233926 -0.56962425 -0.6050053 -0.96975064
-0.55653125 -0.32844198 -0.7072628 -0.593788 -0.9540746 0.44380447 -0.3594623 -0.6263084
-0.42079476 -0.37385082 -0.5706043 -0.14866345 -0.6144428 -0.9838584 -0.26515305 -0.13610749
0.18807489 -0.43124896 -0.5320366 -0.18110248 -0.55455416 -0.64301676 0.47427273 -0.93557763
-0.35068572 -0.60318756 -0.07931236 -0.6546208 -1.00507 -0.7238695 -0.4851271 -0.6207218
0.07599862 -0.4948613 -0.16884975 -0.4036349 -0.1589922 -0.23557547 -0.23703541 -0.9076295
-0.5355175 -0.753779 -0.878925 -0.7850641 -0.5431595 -0.49994472 -0.46172065 -0.91015786
-0.26287845 -0.32912692 -0.5410219 -0.1539679 -0.4064416 -0.6147249 -0.18253791 -0.62372434
-0.41495463 0.16638026 -0.60493135 -1.1208924 -0.50367135 -0.68615144 -0.34172285 -0.4796439
-0.51624936 0.113767125 -0.4698456 -0.17862906 -0.5861889 -0.15874968 -0.32488644 -0.8060206
-0.93383145 -0.49966866 -0.17511837 -0.58187175 -0.48722112 0.5104573 0.09417141 -0.46351016
-0.5204548 0.47099355 -0.5775962 -0.5535209 -0.3099989 -0.85245097 -0.5538934 0.078494005
-0.45937973 -0.6916113 -0.5028636 -0.4541988 -0.871832 -0.30843785 -0.55575854 -0.41958433
-0.24164489 -0.17180504 -0.37859702 -0.30362034 -0.8721994 -0.54488957 0.032742277 -0.08511019
0.037369058 -0.60839605 -0.3285077 -0.75204784 -0.6679485 -0.94027734 -0.20268796 -0.35450196
-0.14599761 -0.36567616 -0.8214743 -0.33199358 -0.4336957 -0.71916056 -0.6222269 -0.505111
-0.5892226 -0.64340425 -0.33943388 -0.28143018 -0.9535858 -0.09391534 -0.5334708 -0.6176603
-0.5901829 -0.2003263 -0.32728586 -0.34878308 -0.17385462 -0.68190783 0.2003595 -0.59667087
-0.18585192 -0.59759307 -0.17305884 -0.26158017 -0.39140752 -0.7717081 -0.5960975 -0.82333004
-0.5881106 -0.5529916 -0.17853625 -0.2329009 -0.8777091 -0.44599104 -0.08992561 -0.41313484
-0.6277361 -0.31946203 -0.56231207 -0.2660668 -0.6298544 -0.64590657 0.12219708 -0.43496233
0.0801605 -0.39708576 -0.49507964 -0.168635 -0.18909742 -0.76783377 -0.44490325 -0.5182161
-0.6499283 -0.17213131 -0.38115713 -0.6778925 -0.4138828 -0.61591923 -0.73025894 -0.46370515
-0.78201145 -0.6408226 -0.35139832 -0.43106043 -0.15997727 -0.07542202 -0.48258662 -0.2359541
0.121829316 -0.300816 -0.76258504 -0.23772377 -0.93502253 0.29517862 -0.67554766 -0.28958178
-0.9129965 0.1692414 -0.68915874 -0.6624764 0.16153353 0.27210683 -1.0388743 -0.058619365
-0.6541203 -0.5589656 -0.3103885 -0.09658289 -0.29345313 -0.547023 -0.6622516 -0.5501484
0.045315776 -0.93646735 -0.570362 -0.6064882 -0.632589 -1.0901293 0.11719992 -0.9875129
-0.81685805 -0.44596896 -0.598337 -0.39762005 -1.0604107 -0.51702404 -0.12322787 -0.87292874

l2.weight f4 [300, 400]
00000000: 228f e33c ca49 d1bb 15c1 02be 0d71 0abe
00000010: ae8f 14bd e1af d03b 483b c93c e760 24bd
00000020: bad4 ddbc a66d a5bc 14fc 8d3c 5b0a f9bd
00000030: 5ef1 91bd 9feb 2cbc 590b cbbc 5615 a83c
00000040: b4c9 7fbc 892d dd3b 2b57 61bd b07e b4bd
00000050: 8156 d53c a697 1ebc 1478 71bd 7f4e b53c
00000060: 2d78 01bd 372d 303d c0b5 c23b c7b5 26bd
00000070: 3a87 d3bc 13d9 65bd 9531 03bc f633 19bd
00000080: 6ee2 9abd ffdc b03b 97e3 a8bd b673 9ebd
00000090: 5402 f5bb ff5e 2cbd 0c68 ff3c d575 01bd
000000a0: 6eb5 ae3b aeb7 9ebc 2d14 81bb 6cb9 f3bc
000000b0: 054a 87bb 1e53 a23c 6668 90bd 73eb 703c
000000c0: 70ad 403c 989a 30bc cc53 f9bc 5795 b43c
000000d0: d4b7 f6bc 76bb aa3c be47 9abd 3dbb 0dbd
000000e0: ce50 1fbc 148b 72bb 9db8 8fbd 3e36 1fbd
000000f0: f6d7 9fbd 2552 82bd b798 353c 16de 12be
00000100: 9497 f2bc ee02 203d 3d2b 0cbd b119 493d
00000110: 2b04 f33c 14ff 003d 6777 333d d1ea 48bd
00000120: 07aa 29bd 6e1a 1abd 6494 f8bc 2749 29bd
00000130: 27d9 aabb 53e9 743c 213a 543d c9b4 d43c
00000140: e5a3 04bd 8ced 083b ea83 65bc 8a8d e63c
00000150: 4fe5 b23c b93f 48bd ba03 52bd 7cad 4f3c
00000160: 25ab 08bd 6931 47bd bf50 3e3c 2a21 51bd
00000170: 1fa0 2abd b7ec a7bd 4a9c 56bd de96 9ebd
00000180: f65a 1fbd 818b 48bd 5928 5b3d 027b ea3c
00000190: 40ec 3bbc ea3c 5cbd a956 46bd ec26 01bd
000001a0: 449e fabc 0f48 aebc 9854 c43c 93d2 e4bc
000001b0: c946 45bd b9a7 583c cf63 00bd 108f b7bb
000001c0: af6a afbd 7d8e 09bc 7dad 88bd c1d6 49bc
000001d0: 7e7a 1d3d cdcc 82bd 259a 0fbd 12ed d1bd
000001e0: c822 32bb 9c86 76bd 7420 fdbc 4bc0 e9bc
000001f0: 889c 3ebd e98e 46bd 562b 9cbd 9d90 9e3b
00000200: 4dc6 81bd d6ab 91bd 25e5 8fbd 04ee 0d3c
00000210: fbc3 e5bd 0901 c1bc 0eea acbc cc90 f3bc
00000220: 6311 80bc d0f8 b5bd 92d4 53bb a8f4 b43b
00000230: 5596 86bd 7b3a 65bd 1faa 20bd eca3 013c
00000240: a109 da3a a41a 053c 7cf4 78bd 37f7 b83c
00000250: b0f6 39bc c593 823d 5a29 5fbd 1146 d83b
00000260: 3340 e6bd 0e36 183c 4344 703c 1f53 a2bd
00000270: 6578 85bc 42b3 d1bd bf21 313c 9ecc 94bc
00000280: 0a0a e53c da59 d9bc 3670 90bd 2695 2d3c
00000290: c850 3bbc 273b 23bd f287 d9bc 155d 02be
000002a0: 63be 713c 6598 88bd b913 c7bd 7f00 a9bd
000002b0: 4d8d 973c ede9 86bd 3bdc e2bc 4551 8bbb
000002c0: 8c07 0d3c 430f fd3a ba3c 55bc 9fee b83c
000002d0: f55f 81bd 390c db3c 8dd9 9cbc c7f9 a3bd
000002e0: 7886 37bd 8608 94bd cad7 63bc 5422 78bd
000002f0: dbff 67bc cf17 353b 0e7a 95bd fbca e8bc
00000300: 52e0 50ba 9680 13bd 069b 9fbd e5c8 02bd
00000310: c72c c9bc ac1d 0e3c 6daf 963c 7d2b 0dbd
00000320: 62a6 dc3c 7e91 ae3a ba2f 53bd 978b a6bb
00000330: d588 82bd c65a 98bd 8ddf 82bd a492 71bd
00000340: 64d8 75bd 6938 4abc e863 493c e782 2fbd
00000350: 6d93 0abd 5a86 dcbc 68e4 bebd 75d8 08be
00000360: d692 91bc fd02 01bb 4359 60bd 85bf 1bbd
00000370: 68a9 33bc 7ee9 97bd 313f 49bd 4621 93bd
00000380: 121e e73c 94cf 71bd f2f6 53bc 4169 d53b
00000390: 236a 65bd f939 cabc 4f43 b43c 2eef 9bbd
000003a0: 1564 85bc 23b4 61bc 238e 783c c667 1abc
000003b0: fe5a 1cbd 7e64 10bd 4a90 58bd edd6 1e3c
000003c0: 0b48 63bd b4b4 8f3c 3b8b e3bd f55a 86bc
000003d0: 6c10 8b3c c1c7 d83c 3c26 f8bc 65a4 86bd
000003e0: b190 4abd 2e84 98bc 362a a43c 3a93 ea3c
000003f0: 650a 8fbc e3ef efbc 75ef 80bd aca0 74bd
0.027778212 -0.00638697 -0.12768967 -0.13519688 -0.036269836 0.0063686226 0.0245644 -0.040131476
-0.027078975 -0.020193886 0.017332114 -0.12160178 -0.07126115 -0.010554223 -0.024785684 0.020517986
-0.015612055 0.006749813 -0.05501477 -0.08813226 0.026042225 -0.0096797105 -0.058952406 0.022132156
-0.03160875 0.04301187 0.0059420764 -0.0407007 -0.025821317 -0.05611522 -0.008007427 -0.03740307
-0.07562719 0.0053974385 -0.08246534 -0.07736914 -0.007477084 -0.042082783 0.031177543 -0.031606514
0.0053316867 -0.019374695 -0.0039391727 -0.029751502 -0.004128697 0.019815024 -0.070511624 0.014704573
0.011760101 -0.0107790455 -0.030435465 0.022043867 -0.030116953 0.020841341 -0.07533215 -0.034602392
-0.009723855 -0.0037009167 -0.07017634 -0.03887009 -0.07804863 -0.06363324 0.011083773 -0.14342532
-0.029613294 0.039065294 -0.034220923 0.049096767 0.029665073 0.03149326 0.043815043 -0.049052063
-0.041421916 -0.03762286 -0.030344196 -0.04132953 -0.005213875 0.014948207 0.05181325 0.025965111
-0.032382865 0.0020893542 -0.014008502 0.028143663 0.021837858 -0.048888896 -0.051273085 0.012675639
-0.03336634 -0.048631106 0.011615931 -0.05105702 -0.04165661 -0.08199447 -0.052395143 -0.077436194
-0.038905106 -0.048961166 0.053505275 0.028623108 -0.011469901 -0.05376903 -0.04842249 -0.03153126
-0.030593045 -0.021274595 0.023966119 -0.02793244 -0.04816321 0.013223582 -0.031345185 -0.005601771
-0.0856527 -0.008395788 -0.06673715 -0.012319268 0.038446896 -0.06386719 -0.035059113 -0.10250296
-0.0027181376 -0.060186967 -0.030899264 -0.028534075 -0.046536 -0.048476133 -0.07625453 0.0048390166
-0.06336651 -0.07112853 -0.07026128 0.008662704 -0.11219021 -0.023560064 -0.0211077 -0.02973213
-0.01563329 -0.08885348 -0.0032322747 0.0055223294 -0.06571642 -0.055963974 -0.03922474 0.007912617
0.001663495 0.008124027 -0.060780033 0.022578819 -0.011350319 0.06375841 -0.054482795 0.0066001494
-0.11242714 0.009290231 0.014664712 -0.0792601 -0.01629276 -0.10239269 0.010811268 -0.018163975
0.027958889 -0.026532102 -0.070526525 0.010594642 -0.011432834 -0.039851334 -0.026554082 -0.1273082
0.014754864 -0.06669692 -0.09720559 -0.08252048 0.018499995 -0.065875866 -0.027692905 -0.0042516314
0.008607756 0.0019306917 -0.013014967 0.02257472 -0.063171305 0.026739227 -0.019146705 -0.080066256
-0.044805974 -0.07228188 -0.013906429 -0.060579613 -0.014160122 0.00276326 -0.07298671 -0.028417101
-0.00079679966 -0.0360113 -0.0779324 -0.03192987 -0.024557484 0.0086740665 0.018394196 -0.0344653
0.026934806 0.0013318507 -0.051559187 -0.0050825584 -0.06373755 -0.07439189 -0.06390295 -0.058977738
-0.06002082 -0.012342551 0.012291886 -0.042849448 -0.033832002 -0.026919533 -0.09320909 -0.13363822
-0.017770212 -0.001968562 -0.054772627 -0.038024444 -0.010965683 -0.07417582 -0.04913253 -0.07184081
0.02821258 -0.059035853 -0.012937294 0.0065127914 -0.056009423 -0.024685847 0.022004751 -0.07613979
-0.016283074 -0.013775858 0.015170607 -0.009424156 -0.038172714 -0.035252087 -0.05287198 0.009694797
-0.055488627 0.01754222 -0.111105405 -0.016400794 0.016975604 0.026462438 -0.03029167 -0.065743245
-0.049454395 -0.018617716 0.020039659 0.028634656 -0.017461011 -0.029289192 -0.06295673 -0.05972354

l2.bias f4 [300]
00000000: e3e7 e8bd b8c6 3ebd a748 e9bf 6572 86bd
00000010: f04d b9bd 207f bcbd 254d 87bd 7699 9fbd
00000020: a68f ecbe df5f 9f3e 2b9e 6abd 0629 99bd
00000030: 1c36 29bf cec4 af3e c03a 31be 15b5 703f
00000040: ae69 92bd 6abf d9bd 1039 3dbf ae63 13be
00000050: 7efc 973e d936 60bf 1384 6fbf 106e b0bd
00000060: 898a c1be 57b2 abbd 9068 33bd 5668 16bf
00000070: 0efa 9ebf 341d f0bd b88e 3fbe 6cc8 88be
00000080: 1ad6 d6bd ce35 17be 8cf4 f2bd b185 c0bf
00000090: df31 c0bc 444c aabf 2a9b debd 4dcc 00bd
000000a0: e7d7 a5bd 5b87 80bd 8237 90be 2bb0 b5be
000000b0: 4eb3 99bc 5888 323e 0fc7 aabf 6565 04be
000000c0: b0d8 bebd b7db 073f a621 d93d 0569 06be
000000d0: 050b 05bf 9ee1 1dbe 21d9 953e cb30 6abf
000000e0: 60bd 88bf 3fed 26bd 73b2 edbd 4c9a 61be
000000f0: 5798 27bd a8ed b1bd e243 43bf b40a f1bc
00000100: 0187 4fbd d1ca 823e 7d9b 0bbe 1351 61bd
00000110: 64ed febd ea6e 5cbd 7d9c 203f c4a5 ffbc
00000120: 8830 b7bd 0ff7 aebc 58f7 5bbf cb3d ecbd
00000130: b21d 59bd ff56 a5bd a5d9 16bf c5e4 81bd
00000140: 1097 bebd 72b2 d4bd 78dc b1bd c1a5 cdbd
00000150: 85c2 0ebe a89d 01bf 6f78 853d 463b 2ebf
00000160: b4eb c93b 5a7a 5ebf c1b9 1abf b7a3 afbd
00000170: c652 eb3e 5c41 1fbf 3d76 8cbd ef18 0cbe
00000180: efa1 0f3f 97e6 49bf 5cc7 ffbc 7d2a 09bd
00000190: e6d3 15bf 9ca1 7ebd d507 fb3e 6949 95bf
000001a0: bc85 0fbe 2f35 21bd 901d 9dbf dc22 393d
000001b0: 0fe3 483e 7552 163e 6717 47bf 6272 54ba
000001c0: 9fa9 b8be 3ac1 1fbf 54fe 96bf e56d 8dbf
000001d0: e22c d1bd 6c4b 7dbc 89b8 f4be a3fb 3cbf
000001e0: ccc9 223f 8d51 09be 434b 543e 3005 1cbf
000001f0: c2f1 d1bd ff56 a5bd 3b35 023f 0738 a3bd
00000200: d821 943d 5da1 073e 6ab8 1cbf 8fc7 743f
00000210: 1243 0d3e 07ae a0bd a241 d9bd 46eb 9bbd
00000220: e27a ddbd 014d c8be ead6 53bf 6aba debe
00000230: 2add d3bd 507e 8fbf e797 88be a606 253e
00000240: 5258 90bd 5254 dfbd 1ba1 63be fe4c 72bf
00000250: 8dd9 133f 6138 0dbf 65e6 41bf a41a 9dbf
00000260: cd93 d93d 40bf b6bd 8b9b ecbd acfb 46be
00000270: 4217 d2bf 6813 0bbf 3fb4 a3bc 7d63 8cbc
00000280: 7e5b 9ebf c4d7 5bbf afc0 18bf 21e0 c9bd
00000290: 9400 21be 3b07 2fbf 8d14 0fbf afad a8bd
000002a0: 9d47 0dbe 7edb 91bd a9ea d7bf 1611 17be
000002b0: 6976 48be 7dcb 83bd 8faf 23bf c2ae 80bf
000002c0: 41e3 07be 5fbd 22be ebbc e8bc 57de 07be
000002d0: bfe3 6ebf 5e05 97bd b624 9bbe 5d1f 02be
000002e0: 5e2f e1be e5e7 01be 2667 8dbd 1485 f3bd
000002f0: 703c bebc d9fc 04bf ef30 a9be d843 b3bf
00000300: 7805 17ba 8bca e0bd 043e debe 7db2 803f
00000310: ed84 02be ddee 87bd 3b85 64bd 3524 8cbe
00000320: ee94 cdbe d2f4 57bd 160c 1cbd c11c bcbe
00000330: d29f 2b3f 90cc 33bd 2963 c6bf b260 d2bc
00000340: dcc3 f1bc fda5 9cbf 537d a33e 1921 3d3f
00000350: 9622 92bd 9048 30be 3887 3abe fe6f 473f
00000360: c1ad 7ebe 45ed 313e 672a abbd 9e4b 1dbd
00000370: c6fb 92bf 3a38 5cbe 8d28 623e df59 24be
00000380: 510e c1bd 6d92 86bd 088d b2bd 9ffe 2dbf
00000390: 9f9f 28be df4d 37bf a45d e5bd bf13 abbf
000003a0: b462 4d3b ba54 d6be 0f15 aabf 57be a9bd
000003b0: 5631 9bbd ee7f a93e 44e6 10bf 1b72 efbd
000003c0: 1759 a4bd a3ec c2be 7976 c2bd 47f1 31bf
000003d0: 2d9a 8cbd 25ac 0cbe f948 163f 9a8b 58bd
000003e0: 7ab8 73be e10d 7fbf 5dda 00be 49cb cabd
000003f0: 7c0e 7dbf 89a4 4a3e 2eef e33e 5ec7 18be
-0.11372354 -0.04657623 -1.8225297 -0.06564788 -0.090480685 -0.09203935 -0.06606511 -0.07792942
-0.46203345 0.3112783 -0.057279747 -0.07478528 -0.6609819 0.34329838 -0.17307568 0.9402631
-0.07149063 -0.106322125 -0.73915195 -0.14393494 0.29684824 -0.8758369 -0.93560904 -0.08614743
-0.37801006 -0.08383625 -0.04380089 -0.58752954 -1.2420061 -0.1172432 -0.18706787 -0.2671541
-0.104900554 -0.14766619 -0.1186305 -1.5040799 -0.02346128 -1.3304524 -0.10869439 -0.031444836
-0.08097821 -0.06275817 -0.2816735 -0.35485968 -0.018762257 0.17434824 -1.3341998 -0.12929304
-0.093186736 0.53069633 0.10602121 -0.13126 -0.5196994 -0.15418097 0.2926722 -0.914807
-1.0682793 -0.0407536 -0.11606302 -0.22031516 -0.040916767 -0.086879075 -0.76275456 -0.029424049
-0.05066586 0.25545362 -0.13633533 -0.05500896 -0.124476224 -0.053816713 0.6273878 -0.031206973
-0.089448035 -0.021358041 -0.8592429 -0.115352236 -0.053006835 -0.08073234 -0.5892585 -0.063424625
-0.09306157 -0.10385598 -0.08684629 -0.10041381 -0.13941391 -0.5063119 0.065171115 -0.68059194
0.006162131 -0.86905444 -0.6043969 -0.08576148 0.4596159 -0.62209105 -0.0685849 -0.13681386
0.56106466 -0.7886748 -0.031222992 -0.033487786 -0.58526456 -0.06216584 0.49029413 -1.1663028
-0.1401586 -0.03935736 -1.2274647 0.04519926 0.19617866 0.14679892 -0.77770084 -0.00081042026
-0.3606691 -0.62404215 -1.1796365 -1.1049162 -0.10213639 -0.0154598765 -0.4779704 -0.7382147
0.6358917 -0.13410015 0.20731835 -0.60945415 -0.1025119 -0.08073234 0.50862473 -0.07969671
0.07233018 0.13245149 -0.61218894 0.95617 0.13795117 -0.07845693 -0.106082216 -0.07613234
-0.10814454 -0.3912125 -0.8274981 -0.43501598 -0.10344918 -1.1210423 -0.26678392 0.16115817
-0.07048096 -0.10904755 -0.22229426 -0.9464873 0.5775383 -0.5516415 -0.7574218 -1.2273755
0.10623894 -0.08923197 -0.11553105 -0.19431943 -1.6413348 -0.54326487 -0.019983409 -0.017137283
-1.2371671 -0.8587611 -0.5966901 -0.09857202 -0.15722877 -0.6837041 -0.55890733 -0.082362525
-0.1379685 -0.07121943 -1.6868488 -0.14752612 -0.1957642 -0.06435297 -0.63939756 -1.0053332
-0.13270284 -0.15892552 -0.028410396 -0.1326841 -0.9331626 -0.073740706 -0.30301446 -0.12707277
-0.4398145 -0.12686117 -0.0690444 -0.11890617 -0.023222178 -0.51948315 -0.33045146 -1.4005079
-0.0005761008 -0.10976132 -0.4340669 1.005447 -0.1274602 -0.066373564 -0.05579112 -0.27371374
-0.40152687 -0.052723713 -0.038097464 -0.36740687 0.6704074 -0.043896258 -1.5499011 -0.025680874
-0.029512338 -1.2238156 0.31931552 0.7387863 -0.07135503 -0.1721518 -0.18215644 0.7790526
-0.2487097 0.17375667 -0.08357697 -0.038402192 -1.1483085 -0.21505824 0.22085781 -0.16049908
-0.09426559 -0.06570897 -0.08718306 -0.67966646 -0.1646714 -0.71603197 -0.11199501 -1.3365401
0.003133935 -0.41861516 -1.3287677 -0.082882576 -0.075777695 0.33105415 -0.5660136 -0.11691686
-0.08024805 -0.38071164 -0.09495253 -0.69508785 -0.06865344 -0.13737543 0.587051 -0.05286751
-0.23800841 -0.9963055 -0.12583299 -0.09902055 -0.98850226 0.19789328 0.44518417 -0.14919803

l3.weight f4 [6, 300]
00000000: 4d61 963b a1ba 493d 0495 51be d3a7 e8bb
00000010: b5de 083c 0bbf 64bc 9fc3 3b3d 6f93 bc3a
00000020: 5b12 163d 1dd9 9a3e 0d2a 1abc 17c6 2fbd
00000030: 5d04 293f d028 adbf f1c2 cb3d 4381 1e3f
00000040: 8c90 8b3c 1f8b ba3c 16fc a6bf 680a a83d
00000050: 23a9 67be 727b 78bf 3319 60bf 6255 5d3d
00000060: c12b c0bd e05c b0bd c50e 14bd a89d 4fbe
00000070: ed36 763e 1f1e afbd 9304 7ebc 7807 6ebf
00000080: 10ac 473d f7ec 283c 06ca acbe 3ef4 b53e
00000090: 2109 893d 9a74 f53e d0b4 383c 0f4d a93d
000000a0: 0f2e 2abd 255b 0d3d a773 0d3e 48a8 f13e
000000b0: a8c2 b4bc 158c 06bf 0446 823e 6c62 f5bc
000000c0: d5d1 933d 37ca eebc 2ff7 943c 00d2 b63c
000000d0: da10 61bc 4681 1c3e b87e f0bc ed52 82be
000000e0: 3d29 ab3f ee0a 273d 9d76 81bd 8842 bb3e
000000f0: 5e3c 12bc 71ba 42bd d848 c7bc 0e26 a3bb
00000100: 2012 313d 6475 493d c6be 98bb 1247 d03e
00000110: e1f1 c5bd 4dc6 013d c7ec 803e a6bb 183d
00000120: de90 9fbd 0bd8 fdbc 1ef5 8fbf 6f6e a5bd
00000130: 84db 75bc 8549 05bd aeaa 143f 36e2 afbc
00000140: df2f 2bbc d471 0a3c 6eaf 963c 87ec 20be
00000150: 5283 533d de07 513f 6f68 773f 7755 7c3e
00000160: d85c ccbd fcf1 07bf 222f 50bf 1082 b5bd
00000170: e866 a8be 7432 4bbf dee5 2ebc 47f7 813e
00000180: 2e97 d9bc 165f 23bf 3fc1 be3c b1c8 49bd
00000190: 7216 6ebf 0cee 713d a2ac 243f 1365 953f
000001a0: 5eb1 3bbf 8756 803d 0e9d ba3e 2275 70be
000001b0: 0b01 53bf 0b1a f33e c7bc dfbe 01e1 c0bd
000001c0: 86ea 073f 2dba 59be 440d 9f3f 7da0 063e
000001d0: 8718 22bd 39f6 cd3c 66b5 b53e 2ae0 3abf
000001e0: e000 c3bc 459d 8f3d 26c0 1dbe 7a63 423e
000001f0: 861f 253c c357 f33c 7dc7 dd3e 2919 4abd
00000200: 60e6 3abd 04af acbe d451 92be cc04 b0be
00000210: 4869 1fbe 6e68 26bc 514b d4bc 0036 37bb
00000220: 03e3 e13c fecc a23e 7d21 973e 0dc5 153f
00000230: c769 bb3c 3284 5ebf d1ca b4bc 4fc4 03be
00000240: 309e 053f 484b 3ebc 1479 f5bc 2197 c93d
00000250: 4310 93be 9db4 60bf fd93 9f3d f8c8 923f
00000260: 79ca fc3d 0e4f 183c 8e59 903d 8653 e1be
00000270: 14cd 00bf f7f5 ad3f 665a a33d 592f debb
00000280: 6235 5abd 0c40 0e3f e73c 90be f7b2 a1bd
00000290: f6d4 08bf 135c 1c3f f2e9 eabd f6b8 20bd
000002a0: a7e5 2a3d d5f8 803d 19ab 593f 1ba8 e6bc
000002b0: f06a 30bd da7a e03b 8d63 1fbe ad2d 8bbf
000002c0: 1d81 a93e 83b7 7bbc ab82 e0bc 8b7d b2bc
000002d0: 288e a03e 33f6 693d 473d 0d3f bbd5 61bd
000002e0: 9476 8c3d 7397 653d dded 89be 5c8a 05be
000002f0: 3944 413d dc9b bcbd affd 3cbd 07f1 32be
00000300: ca12 56bf 3463 f53c 131f 0ebd b2d3 ef3e
00000310: cf38 a3bc 41a9 c2bc abe9 ec3b f277 e43d
00000320: a712 58bd ad9b 12bb 4080 4d3c 44cc 62bf
00000330: 9c6d 913e a729 28bc 1d11 14be 560a 153d
00000340: 3ee2 acbc b932 df3e 15d9 d33d 23ad 12bd
00000350: 419d 443d 661a 9dbc 3f0c a63d 4ee2 033e
00000360: e532 edbe 1b65 773f 4569 073e fbc5 ed3c
00000370: 6de3 793e 1c28 733a 3534 22be a1e3 d73d
00000380: 2d8c 9f3c 7e96 29bc 55d0 8d3d 6582 14bf
00000390: e1ff 4bbd b14f 09bf f61e 10bc 9f20 a0be
000003a0: 7fa3 9abf f492 203f 85e1 c53f 5124 cebc
000003b0: 35a6 87ba ac18 bbbf f7e5 e7be c5d7 18bb
000003c0: f380 6f3d d9a8 ed3d 0dee 8a3c b463 323e
000003d0: 5f87 2b3d 704c 333b 8ba5 89bd 5f2f a93d
000003e0: ee87 c23e 584c 54bf 8f4f b33c 6ef5 1bbe
000003f0: 2035 e1be 537d 753e 0f88 f5bd cd9c 0abc
0.004589236 0.04925025 -0.20467001 -0.0071000843 0.008353879 -0.013961564 0.045840856 0.00143872
0.0366386 0.3024377 -0.00940944 -0.042913523 0.6602228 -1.352808 0.099492915 0.6191599
0.017036699 0.022771416 -1.304568 0.0820511 -0.22623114 -0.9706336 -0.8753845 0.054036506
-0.093833454 -0.086114645 -0.036146898 -0.20274985 0.2404439 -0.08550667 -0.01550402 -0.92980146
0.048748076 0.010310403 -0.33747882 0.35537905 0.06691194 0.47940522 0.011273578 0.08266651
-0.04154783 0.03451075 0.13813649 0.471987 -0.022065476 -0.525575 0.25444043 -0.029954158
0.07217757 -0.029149158 0.018184273 0.022316933 -0.013736928 0.15283689 -0.0293573 -0.25453892
1.337196 0.040781908 -0.06321452 0.36574197 -0.0089255255 -0.047541086 -0.024326727 -0.0049789017
0.043230176 0.049184218 -0.004661414 0.40679222 -0.09665275 0.031683255 0.25180647 0.03728833
-0.07791303 -0.030986806 -1.1246679 -0.08077704 -0.01500595 -0.032540817 0.58072937 -0.02147017
-0.010448425 0.00844999 0.018394198 -0.15715228 0.05163891 0.8165263 0.9664373 0.24641977
-0.09978646 -0.53103614 -0.8132192 -0.08862698 -0.3289101 -0.7937386 -0.010674922 0.2538397
-0.026561346 -0.63816965 0.023285506 -0.04926366 -0.93003 0.05906491 0.64325917 1.167147
-0.73317516 0.06266504 0.36447948 -0.23482183 -0.82423466 0.47480807 -0.43698713 -0.09417916
0.5309223 -0.21262427 1.2425923 0.13147159 -0.039574172 0.025141822 0.3548996 -0.729983
-0.023804128 0.07012419 -0.1540533 0.1898326 0.010078317 0.029704934 0.4331626 -0.0493404
-0.04562986 -0.33727276 -0.28578055 -0.3437866 -0.15567505 -0.010156734 -0.02591482 -0.002795577
0.027574068 0.31797022 0.29517737 0.585038 0.022877587 -0.86920464 -0.022069367 -0.12867855
0.521945 -0.011614628 -0.029964961 0.09843279 -0.28723344 -0.87775594 0.077918984 1.1467581
0.12343306 0.009296192 0.07048331 -0.44009036 -0.50312924 1.3590688 0.079762265 -0.0067805466
-0.053273566 0.5556648 -0.28171465 -0.07895463 -0.5344995 0.61077994 -0.11470403 -0.039238892
0.04172292 0.06297461 0.850267 -0.02815633 -0.043070734 0.0068505825 -0.1556532 -1.0873314
0.33106318 -0.015363577 -0.027406057 -0.02178838 0.31358457 0.05711956 0.55171627 -0.05513547
0.068585545 0.056052636 -0.26939288 -0.13041061 0.047184203 -0.09209415 -0.04614037 -0.17474757
-0.8362242 0.02995453 -0.034697603 0.46841198 -0.01992455 -0.023762347 0.007230004 0.1115569
-0.052752163 -0.0022370622 0.012542784 -0.88592935 0.28403938 -0.010263837 -0.14459653 0.03638681
-0.021103974 0.43593386 0.103441395 -0.035809647 0.04800153 -0.019177627 0.081078045 0.12879297
-0.46327892 0.9663865 0.13223751 0.029025069 0.24403162 0.0009275691 -0.15840228 0.10541464
0.01947602 -0.010350822 0.06924502 -0.58011466 -0.049804572 -0.53637224 -0.008796444 -0.31274888
-1.2081145 0.6272423 1.5459448 -0.025163801 -0.0010349216 -1.4616904 -0.45292637 -0.0023321968
0.058472585 0.11604471 0.016959215 0.17420846 0.041877147 0.0027358793 -0.06721028 0.082609884
0.3799433 -0.8292899 0.021888522 -0.15230343 -0.43985844 0.23973589 -0.11988842 -0.008460236

l3.bias f4 [6]
00000000: 5485 1bbf 2197 88be e3a8 183d c2a8 10bd
00000010: 4fac fd3b e223 7d3e
-0.6075032 -0.26677802 0.037270438 -0.03531719 0.007741488 0.2472072
