preTrained/RoboschoolHalfCheetah-v1/TD3_RoboschoolHalfCheetah-v1_0_solved_actor.pth (torch_old, 532660 bytes, 6 tensors)

l1.weight f4 [400, 26]
0	0x3e0965e0	0.13417768
1	0xbe0cd91a	-0.13754693
2	0xbe1d78dd	-0.15378137
3	0xbda3f6bc	-0.08006045
4	0x3d03a190	0.0321365
5	0x3e90b7df	0.28265283
6	0xbe3c1fb3	-0.18371467
7	0x3d66dce6	0.05636301
8	0xbd751427	-0.059833672
9	0x3ddad8c1	0.10685874
10	0xbae8ccef	-0.001776127
11	0xbd292eb2	-0.041304298
12	0x3e59ec0d	0.21281452
13	0x3caa0599	0.020754622
14	0xbc754a23	-0.014971289
15	0x3df1efe6	0.11813335
16	0xbe0c1499	-0.13679732
17	0x3d6723ad	0.056430507
18	0xbd2539dd	-0.040338386
19	0x3d17ea1a	0.03708849
20	0xbe2e333b	-0.1701173
21	0xbe392236	-0.18079457
22	0x3e0fbe35	0.14037402
23	0xbc4077b1	-0.011747287
24	0xbd8c9c1c	-0.06865713
25	0x3d99f022	0.07516505
26	0x3ebb3e76	0.3657109
27	0xbe1fd22c	-0.15607518
28	0xbe3bc2db	-0.1833605
29	0xbb9e6fc1	-0.0048350994
30	0x3d57244c	0.05252485
31	0x3e828fa5	0.25500217
32	0x3da8d772	0.08244218
33	0xbc9b522f	-0.018960087
34	0x3de8473d	0.113417126
35	0xbe3eb872	-0.18625048
36	0xbd861a78	-0.06548017
37	0x3d575ab1	0.052576724
38	0x3db8aa23	0.09016826
39	0xbdc035e0	-0.09385276
40	0xbe3f250d	-0.18666478
41	0x3d86fd12	0.06591238
42	0xbd51586b	-0.051109713
43	0x3d5c4252	0.053774185
44	0xbe023548	-0.12715638
45	0x3dfac895	0.12245289
46	0xbe3779a2	-0.17917493
47	0x3da30e42	0.07961704
48	0x3de694aa	0.11258824
49	0xbe3fe62b	-0.18740146
50	0x3db92b06	0.09041409
51	0x3e2e3771	0.17013337
52	0x3f2bf7ab	0.67174786
53	0xbe44dd5f	-0.19225071
54	0xbe899821	-0.26873878
55	0x3ecfc294	0.4057814
56	0xbe2ace88	-0.16680348
57	0xbf12333b	-0.5710942
58	0x3e223d83	0.15843777
59	0xbfd65772	-1.6745436
60	0x3ebc9120	0.36829472
61	0x3f3facfd	0.74873334
62	0x3f22ea13	0.6363842
63	0x3f2c6422	0.6734029
64	0x3f175f48	0.5912976
65	0x3f387314	0.72050595
66	0xbefdf8a6	-0.49603766
67	0xbe4602d4	-0.19337016
68	0xbf216850	-0.63049793
69	0x3ec3e89e	0.3826341
70	0x3efd6d7e	0.49497598
71	0xbdab6a3e	-0.083698735
72	0xbd78528e	-0.060625605
73	0xbcdf9f18	-0.027297541
74	0xbe27143e	-0.16316316
75	0xbf02ecc5	-0.5114253
76	0x3d209978	0.03920886
77	0x3e1040f1	0.14087273
78	0xc01063d4	-2.256093
79	0xbc7cdc90	-0.015433446
80	0xbf0df12f	-0.5544614
81	0xbdf520b4	-0.11969128
82	0xbe1074b2	-0.14107016
83	0xbf6a56af	-0.9153852
84	0x3c22d870	0.009939298
85	0x4082737b	4.0765967
86	0x3e02102b	0.1270148
87	0xbeaff79e	-0.34368604
88	0x3f50612c	0.8139827
89	0xbd05278b	-0.032508414
90	0x3d14c62a	0.036321796
91	0x3de5bc9a	0.112176135
92	0x3eca018e	0.3945431
93	0x3cb2660a	0.021777172
94	0xbde6051e	-0.11231445
95	0x3e73870b	0.23781984
96	0x3cde445e	0.02713221
97	0x3e6b3842	0.2297068
98	0xbdc94557	-0.09827679
99	0xbe163829	-0.14669861
100	0x3d971102	0.07376291
101	0x3de0a257	0.10968464
102	0xbcfbc468	-0.030733302
103	0xbd820ed8	-0.063504875
104	0x3f6d4c70	0.9269476
105	0x3e238d4b	0.15971868
106	0xbeb06a83	-0.34456262
107	0x3e436e77	0.19085108
108	0x3e030629	0.12795319
109	0x3f5a4e82	0.85276043
110	0xbd691c4c	-0.05691175
111	0xbee3a6c1	-0.4446316
112	0x3f00af0b	0.50267094
113	0x3e954c8f	0.29159972
114	0xbf8eca6e	-1.1155527
115	0xbef386e0	-0.4756384
116	0xbea7a288	-0.3274119
117	0xbea54db8	-0.32285857
118	0xbf595356	-0.84892786
119	0x3dbc6189	0.09198291
120	0xbf7ec02b	-0.99511975
121	0xbe68334d	-0.2267582
122	0x3e31b8fe	0.17355725
123	0x3db44b29	0.08803398
124	0x3e68a632	0.22719648
125	0x3dd6ff3e	0.10497902
126	0x3d198720	0.03748238
127	0xbe1c2134	-0.15247041
128	0x3c291370	0.010319576
129	0x3e123a3f	0.14280032
130	0xbf0adde0	-0.54244804
131	0x3e246f5d	0.16058107
132	0xbf083334	-0.5320313
133	0xbda0bdf2	-0.07848729
134	0x3e2180ed	0.15771838
135	0xbe2bc1a8	-0.16773093
136	0x3dd9f7c2	0.10642959
137	0xbe0c6e33	-0.13713913
138	0x3fd3ef95	1.655749
139	0x3edd874e	0.43267292
140	0xbef34d48	-0.47519898
141	0x3e8f70e0	0.28015804
142	0xbf54cd4c	-0.8312576
143	0xbce3e14e	-0.027817395
144	0xbbd00f23	-0.0063494607
145	0xbefe6905	-0.496895
146	0x3ef5f29a	0.48036653
147	0xbe03947d	-0.12849613
148	0xbddabad2	-0.106801644
149	0x3eb75845	0.35809532
150	0x3c779a08	0.0151124075
151	0xbde07972	-0.10960664
152	0x3dced42e	0.10099064
153	0xbea222ed	-0.3166727
154	0xbdca5c04	-0.09880832
155	0xbe292a5d	-0.16520067
156	0xbf4edfaf	-0.80810064
157	0x3d74980c	0.059715316
158	0xbc4ad818	-0.012380622
159	0xbf385346	-0.72002065
160	0x3d991efa	0.074766114
161	0x3f0c69d9	0.5484901
162	0xbd07ab54	-0.033122376
163	0x3f3c109d	0.7346285
164	0x3f8fe05f	1.1240348
165	0xbea4c41e	-0.32180876
166	0xbdbb3a3b	-0.09141966
167	0xbe82fbb7	-0.25582668
168	0xbedf7249	-0.4364188
169	0xbd5c1002	-0.053726204
170	0xbf234c48	-0.6378827
171	0x3e8c55e2	0.27409273
172	0xbfaa5dd2	-1.3309882
173	0x3e5f861b	0.21828501
174	0xbfc3d3d8	-1.5299025
175	0x3c68fb6e	0.014220102
176	0x3cc6ef99	0.024284171
177	0xbd82a53e	-0.06379174
178	0x3e29e3fd	0.16590877
179	0x3e64f85b	0.22360365
180	0xbe11490f	-0.14188026
181	0x3b70bd80	0.0036734045
182	0xbed66a41	-0.4187794
183	0xbe366a59	-0.17814006
184	0xbe9c392b	-0.30512366
185	0x3da9acc8	0.082849085
186	0x3de695d6	0.11259048
187	0xbf794ddf	-0.97384447
188	0xbe03be92	-0.12865666
189	0x3f487f07	0.7831883
190	0x3f8ae451	1.0850927
191	0x3f09e6a7	0.5386757
192	0xbddeccf3	-0.10878935
193	0x3e4c82ba	0.19971743
194	0xbe60a805	-0.21939094
195	0xbe3151cd	-0.17316361
196	0x3ea54d31	0.32285455
197	0xbfb793d8	-1.4341993
198	0xbfda3a52	-1.7049048
199	0xbeb86422	-0.36013895
200	0xbe06b142	-0.13153556
201	0xbe176369	-0.14784016
202	0xbd401d16	-0.04690274
203	0xbe44bdc3	-0.19213013
204	0xbe00aa53	-0.12564974
205	0xbeb21e2b	-0.3478864
206	0xbdc127ea	-0.09431441
207	0x3dc5c59e	0.09656833
208	0xbe44126d	-0.19147654
209	0x3e1f9461	0.15583946
210	0xbf6c845d	-0.9238947
211	0x3f232e09	0.6374212
212	0x3ded60ee	0.115907535
213	0x3e88f434	0.26748812
214	0x3df1c582	0.1180525
215	0x3e963fe0	0.29345608
216	0xbe9efe91	-0.31053594
217	0x3f0c8517	0.5489058
218	0x3eed65f6	0.46366853
219	0x3eef19f1	0.4669948
220	0x3c2c6b7e	0.010523675
221	0xbec9cc63	-0.39413747
222	0xbe47f670	-0.19527602
223	0x3ef12792	0.47100502
224	0xbe63546d	-0.22200175
225	0xbe9677b8	-0.29388213
226	0xbf0ec29b	-0.55765694
227	0x3f8d26d8	1.1027479
228	0xbeed7710	-0.463799
229	0x3d8ad7fa	0.067794755
230	0x3e0f2f6b	0.13982932
231	0xbe80917b	-0.25110993
232	0xbd9e96f2	-0.07743634
233	0x3dbff246	0.09372382
234	0x3ee4f823	0.44720563
235	0x3c1ce720	0.009576589
236	0xbf356caa	-0.70868933
237	0x3f1466ab	0.5796916
238	0x3caf9e50	0.021437794
239	0x3d9cd3dd	0.07657597
240	0x3e338c5f	0.17534016
241	0xbed6c265	-0.41945186
242	0x3ebd7f9d	0.37011424
243	0x3f0bc095	0.5459073
244	0x3ebd7145	0.3700048
245	0x3ea100e9	0.31446007
246	0xbd6124a0	-0.05496657
247	0x3f448fa8	0.767817
248	0xbf21b5c4	-0.6316798
249	0xbec05fab	-0.3757299
250	0xbe97f829	-0.2968152
251	0xbecabb48	-0.3959601
252	0xbfce1aa2	-1.6101878
253	0xbf422145	-0.75832015
254	0xbdf4482e	-0.1192783
255	0xbd92b868	-0.07164079

l1.bias f4 [400]
0	0xbec1080e	-0.37701458
1	0xbe4a0b0b	-0.19730775
2	0xbe6ada9f	-0.2293496
3	0xbf6aa03a	-0.91650736
4	0xbf00cbfb	-0.5031125
5	0xbf1d3973	-0.61415786
6	0xbd403d31	-0.046933357
7	0xbea12b1e	-0.31478208
8	0xbf1944cc	-0.598706
9	0xbf23575e	-0.63805187
10	0xbddfd708	-0.10929686
11	0x3edcae58	0.43101764
12	0xbeeef392	-0.46670204
13	0xbecf7f24	-0.40526688
14	0xbe6ddaf0	-0.2322805
15	0x3ee59b83	0.4484521
16	0xbf78a40c	-0.97125316
17	0xbf0ea36d	-0.5571812
18	0xbe2518ed	-0.1612279
19	0xbf53132f	-0.82451147
20	0xbecaf134	-0.39637148
21	0xbe915e53	-0.28392276
22	0xbf403971	-0.7508765
23	0xbe8f1f85	-0.27953735
24	0xbec0e1c9	-0.3767226
25	0xbe4b3e10	-0.19847894
26	0xbf6914c7	-0.9104733
27	0xbe0f5fae	-0.14001343
28	0xbf7c3771	-0.98522097
29	0xbf11d2d0	-0.569623
30	0xbf228e0c	-0.63497996
31	0xbf7841a2	-0.9697515
32	0xbf0cd9ed	-0.5502003
33	0xbe9ac03f	-0.30224797
34	0xbf37a4b1	-0.71735674
35	0xbf18028d	-0.5937889
36	0xbf743e3f	-0.9540748
37	0x3eddff56	0.43358868
38	0xbeb421a2	-0.3518191
39	0xbf2055c5	-0.62630874
40	0xbedbc18d	-0.42921105
41	0xbec2d8f6	-0.38056153
42	0xbf12ab70	-0.5729284
43	0xbe22c780	-0.15896416
44	0xbf1d6afd	-0.61491376
45	0xbf7de518	-0.99177694
46	0xbe71c6da	-0.23611012
47	0xbe0ac825	-0.13552912
48	0x3e50de53	0.2039731
49	0xbedccd3e	-0.43125337
50	0xbf0f9e96	-0.5610136
51	0xbe2c7d63	-0.16844706
52	0xbf0bda10	-0.5462961
53	0xbf26ea15	-0.6520093
54	0x3ef0b01d	0.47009364
55	0xbf6e9e02	-0.9320985
56	0xbeb14bce	-0.34628147
57	0xbf1ac005	-0.6044925
58	0xbd6a2942	-0.057168253
59	0xbf23ca81	-0.6398087
60	0xbf802e2d	-1.0014092
61	0xbf377b24	-0.7167227
62	0xbefdb8d0	-0.49555063
63	0xbf1f0200	-0.62112427
64	0x3d944de4	0.07241419
65	0xbef2df51	-0.47436002
66	0xbe25df61	-0.16198494
67	0xbecd2eec	-0.4007486
68	0xbe3a2436	-0.18177876
69	0xbe67035d	-0.22559877
70	0xbe812c94	-0.25229323
71	0xbf6d17f0	-0.9261465
72	0xbf058505	-0.52156097
73	0xbf40f859	-0.7537895
74	0xbf610132	-0.8789245
75	0xbf455e6b	-0.77097195
76	0xbf0b30fd	-0.54371625
77	0xbf009b51	-0.50236994
78	0xbef81def	-0.48460338
79	0xbf69008c	-0.9101646
80	0xbe8b06cf	-0.27153632
81	0xbea2e493	-0.31815013
82	0xbf0c7406	-0.5486454
83	0xbe26c54e	-0.16286203
84	0xbed635ab	-0.4183782
85	0xbf1f1256	-0.62137353
86	0xbe3aeb3b	-0.18253796
87	0xbf22ba50	-0.6356554
88	0xbedcef7a	-0.43151456
89	0x3e271bca	0.16319194
90	0xbf1b80e5	-0.6074355
91	0xbf90960d	-1.1295792
92	0xbf021e85	-0.5082782
93	0xbf2f1cdf	-0.6840343
94	0xbea6d27b	-0.3258246
95	0xbef2f4a6	-0.47452277
96	0xbeffff8d	-0.49999657
97	0x3e031091	0.12799288
98	0xbef77b9f	-0.48336503
99	0xbe45b964	-0.19309002
100	0xbf1582b2	-0.5840255
101	0xbe228f8a	-0.15875068
102	0xbea27f9d	-0.31737986
103	0xbf50a817	-0.81506485
104	0xbf6f2de3	-0.9342939
105	0xbef880ea	-0.48535854
106	0xbe3e3250	-0.1857388
107	0xbf13a4fa	-0.5767361
108	0xbefa19e6	-0.48847884
109	0x3f0444b7	0.5166735
110	0x3db670e1	0.08908249
111	0xbef1b8ac	-0.47211206
112	0xbefe1f54	-0.49633276
113	0x3eeb974a	0.46013862
114	0xbf159593	-0.5843136
115	0xbf0c6a47	-0.54849666
116	0xbe9a19b9	-0.3009775
117	0xbf59bb97	-0.85051864
118	0xbf08f1e5	-0.534941
119	0x3dde58c1	0.10856772
120	0xbeeec953	-0.46637973
121	0xbf310de7	-0.6916184
122	0xbf030bdd	-0.51189977
123	0xbee93655	-0.45549265
124	0xbf5f309b	-0.8718354
125	0xbe953ebd	-0.29149428
126	0xbf0d50e6	-0.55201566
127	0xbed6d420	-0.41958714
128	0xbe75bb81	-0.23997308
129	0xbe2e5cc9	-0.17027582
130	0xbec1113e	-0.37708467
131	0xbea1dda9	-0.31614426
132	0xbf5ef5ed	-0.87094
133	0xbf0daaeb	-0.55338925
134	0x3d06a9bf	0.032876726
135	0xbda34361	-0.07971836
136	0x3cb04002	0.021514896
137	0xbf1a5448	-0.60284853
138	0xbeaa6da3	-0.3328677
139	0xbf43a1f9	-0.76419026
140	0xbf307589	-0.68929344
141	0xbf71213d	-0.9419134
142	0xbe3fe92a	-0.18741289
143	0xbeb58140	-0.35450172
144	0xbe30e6b2	-0.17275503
145	0xbebf192e	-0.37323898
146	0xbf51addd	-0.8190592
147	0xbeb5d288	-0.35512185
148	0xbee1b1fc	-0.44081104
149	0xbf381af6	-0.7191614
150	0xbf200826	-0.62512434
151	0xbf02540b	-0.5090949
152	0xbf185f84	-0.59520745
153	0xbf23e55e	-0.6402186
154	0xbeadca8e	-0.339436
155	0xbe96f1ea	-0.2948144
156	0xbf741dfe	-0.95358264
157	0xbde95cc0	-0.11394644
158	0xbf05a8a3	-0.52210444
159	0xbf1cc9e2	-0.6124555
160	0xbf150dd0	-0.582242
161	0xbe5c7e16	-0.21532473
162	0xbeabbb41	-0.335413
163	0xbeb179e3	-0.34663305
164	0xbe450e5e	-0.19243762
165	0xbf33dd3e	-0.70259464
166	0x3e5f62e1	0.21815063
167	0xbf16b76b	-0.58873624
168	0xbe416acd	-0.18888398
169	0xbf190ae8	-0.59782267
170	0xbe2f6bba	-0.17130938
171	0xbe805c35	-0.25070348
172	0xbed20eeb	-0.41027007
173	0xbf458f4f	-0.77171797
174	0xbf1a1f76	-0.60204256
175	0xbf551b87	-0.8324513
176	0xbf1b0f8f	-0.60570616
177	0xbf0d5444	-0.55206704
178	0xbe3f918d	-0.18707867
179	0xbe6e7dbe	-0.23290154
180	0xbf60b243	-0.87772006
181	0xbee6801e	-0.4501962
182	0xbdbc910d	-0.09207354
183	0xbed941f3	-0.42433128
184	0xbf22b40c	-0.6355598
185	0xbea2c883	-0.31793603
186	0xbf111116	-0.56666696
187	0xbe835ebc	-0.25658214
188	0xbf29e29a	-0.6636139
189	0xbf24d9b3	-0.6439468
190	0x3dc96af8	0.09834856
191	0xbedeb3f6	-0.43496674
192	0x3d8bdde1	0.068294294
193	0xbecae5db	-0.3962849
194	0xbefd7b0c	-0.4950794
195	0xbe22d9f2	-0.15903452
196	0xbe41a2fb	-0.18909828
197	0xbf4490e8	-0.7678361
198	0xbee1f450	-0.44131708
199	0xbf0618c1	-0.5238152
200	0xbf25540c	-0.6458137
201	0xbe332f9a	-0.17498627
202	0xbed0aaa5	-0.4075519
203	0xbf2b091b	-0.6681077
204	0xbed8c367	-0.4233658
205	0xbf140a8e	-0.57828605
206	0xbf3af2db	-0.7302682
207	0xbef495e7	-0.47770616
208	0xbf485e0d	-0.7826851
209	0xbf1f69ad	-0.62270623
210	0xbebb2b13	-0.365563
211	0xbee2c1c5	-0.4428846
212	0xbe07f7b2	-0.13278082
213	0xbdac6bae	-0.08418976
214	0xbef8936e	-0.4854998
215	0xbe736b8e	-0.23771498
216	0x3dfba7d3	0.12287869
217	0xbe9a04c9	-0.30081776
218	0xbf33b889	-0.70203453
219	0xbe7044c3	-0.2346373
220	0xbf6d5233	-0.9270355
221	0x3ea04004	0.3129884
222	0xbf2ca538	-0.67439604
223	0xbe92d548	-0.28678346
224	0xbf6eda04	-0.93301415
225	0x3e1da641	0.15395452
226	0xbf3152dc	-0.6926706
227	0xbf29976d	-0.6624668
228	0x3de89f0b	0.1135846
229	0x3e88f179	0.2674673
230	0xbf84fa37	-1.038886
231	0xbd701b2e	-0.05861967
232	0xbf2b0f37	-0.6682009
233	0xbf0fd1ad	-0.56179315
234	0xbe9eeb64	-0.31038964
235	0xbd932d8f	-0.07186424
236	0xbe97a93c	-0.29621303
237	0xbf0c6417	-0.54840225
238	0xbf262ed2	-0.6491519
239	0xbf0b8c3e	-0.5451087
240	0x3d671978	0.056420773
241	0xbf6fbc59	-0.9364677
242	0xbf14f864	-0.58191514
243	0xbf173443	-0.5906412
244	0xbf23320c	-0.6374824
245	0xbf893bfe	-1.0721433
246	0x3dfe5ba6	0.12419824
247	0xbf7b73fd	-0.9822386
248	0xbf4cbd2d	-0.7997616
249	0xbee0b8d9	-0.43891028
250	0xbf1b5dd0	-0.6069002
251	0xbed2a2db	-0.41139874
252	0xbf85673f	-1.0422133
253	0xbf04c78f	-0.51867
254	0xbddc395e	-0.107531294
255	0xbf5f78f9	-0.87293965

l2.weight f4 [300, 400]
0	0x3ce38ea1	0.027777972
1	0xbbd14a6c	-0.0063870456
2	0xbe02c1bc	-0.12769216
3	0xbe0a713b	-0.13519756
4	0xbd148fc3	-0.036269914
5	0x3bd0afae	0.006368599
6	0x3cc93a88	0.024564043
7	0xbd2460ed	-0.040131498
8	0xbcddd568	-0.0270793
9	0xbca56d58	-0.02019374
10	0x3c8dfba7	0.017331911
11	0xbdf90998	-0.12160033
12	0xbd91f206	-0.071262404
13	0xbc2cec46	-0.010554379
14	0xbccb0bf9	-0.024785982
15	0x3ca814f6	0.020517807
16	0xbc7fc9b7	-0.015612057
17	0x3bdd2cec	0.00674974
18	0xbd6157b7	-0.055015292
19	0xbdb47f67	-0.088133626
20	0x3cd55643	0.02604211
21	0xbc1e984e	-0.009679867
22	0xbd71785c	-0.058952674
23	0x3cb54e41	0.022132041
24	0xbd017846	-0.031608842
25	0x3d302c8b	0.04301123
26	0x3bc2b5ac	0.005942067
27	0xbd26b5fa	-0.04070089
28	0xbcd38766	-0.025821399
29	0xbd65d91a	-0.056115247
30	0xbc033229	-0.008007565
31	0xbd193400	-0.037403107
32	0xbd9ae2c5	-0.07562784
33	0x3bb0dc7a	0.0053973766
34	0xbda8e3b6	-0.082465574
35	0xbd9e7442	-0.07737018
36	0xbbf5027a	-0.007477102
37	0xbd2c5f87	-0.04208329
38	0x3cff683a	0.031177629
39	0xbd01764c	-0.031606957
40	0x3baeb544	0.005331667
41	0xbc9eb7ae	-0.019374695
42	0xbb81143f	-0.003939181
43	0xbcf3b993	-0.029751575
44	0xbb874a20	-0.0041287094
45	0x3ca25312	0.019815002
46	0xbd906867	-0.07051163
47	0x3c70eb2f	0.01470451
48	0x3c40acf0	0.0117599815
49	0xbc309b22	-0.010779174
50	0xbcf95480	-0.0304358
51	0x3cb49521	0.022043766
52	0xbcf6b885	-0.030117283
53	0x3caabb1e	0.020841178
54	0xbd9a47e6	-0.07533245
55	0xbd0dbb8d	-0.03460269
56	0xbc1f518b	-0.009724031
57	0xbb728b65	-0.0037009355
58	0xbd8fb8c5	-0.07017664
59	0xbd1f36f8	-0.03887078
60	0xbd9fd829	-0.07804901
61	0xbd825263	-0.0636337
62	0x3c359895	0.011083742
63	0xbe12de62	-0.14342645
64	0xbcf29816	-0.029613536
65	0x3d200295	0.039064962
66	0xbd0c2be6	-0.034221552
67	0x3d4919dd	0.04909693
68	0x3cf303aa	0.029664833
69	0x3d00feb8	0.03149292
70	0x3d337701	0.043814663
71	0xbd48eacf	-0.049052056
72	0xbd29aa2f	-0.041422065
73	0xbd1a1ac4	-0.037623182
74	0xbcf8947f	-0.030344246
75	0xbd2949c9	-0.041330133
76	0xbbaad96e	-0.005213908
77	0x3c74e8b1	0.014948056
78	0x3d5439e8	0.051813036
79	0x3cd4b3fa	0.025964726
80	0xbd04a40b	-0.032383006
81	0x3b08ecc7	0.0020893083
82	0xbc65835e	-0.014008371
83	0x3ce68d32	0.028143499
84	0x3cb2e4d4	0.02183763
85	0xbd483fd4	-0.048888996
86	0xbd520470	-0.051273763
87	0x3c4fad7c	0.012675639
88	0xbd08ab64	-0.033366576
89	0xbd47315f	-0.04863107
90	0x3c3e5046	0.011615818
91	0xbd51219c	-0.051057443
92	0xbd2aa0c7	-0.041657235
93	0xbda7ed1f	-0.08199524
94	0xbd569cb0	-0.052395523
95	0xbd9e96de	-0.077436194
96	0xbd1f5b9b	-0.03890572
97	0xbd488bcc	-0.048961446
98	0x3d5b27b1	0.05350465
99	0x3cea7a78	0.02862285
100	0xbc3bec42	-0.0114699025
101	0xbd5c3da4	-0.053769723
102	0xbd46572f	-0.04842299
103	0xbd012662	-0.031530745
104	0xbcfa9e3f	-0.030593036
105	0xbcae4892	-0.021274839
106	0x3cc45409	0.023965852
107	0xbce4d2ad	-0.02793249
108	0xbd45471e	-0.048163526
109	0x3c58a741	0.01322347
110	0xbd006433	-0.031345557
111	0xbbb78f7e	-0.0056018224
112	0xbdaf6b3e	-0.08565377
113	0xbc098eba	-0.008395845
114	0xbd88ae1e	-0.06673835
115	0xbc49d75d	-0.012319413
116	0x3d1d7ac6	0.038447164
117	0xbd82ccfa	-0.063867524
118	0xbd0f9ae3	-0.03505982
119	0xbdd1ed91	-0.1025039
120	0xbb32230e	-0.0027181539
121	0xbd768723	-0.06018747
122	0xbcfd20e9	-0.030899482
123	0xbce9c0a7	-0.028534247
124	0xbd3e9d02	-0.046536453
125	0xbd468f57	-0.048476543
126	0xbd9c2b52	-0.0762545
127	0x3b9e904e	0.00483898
128	0xbd81c6a1	-0.063367136
129	0xbd91ac16	-0.07112901
130	0xbd8fe5df	-0.07026266
131	0x3c0dedee	0.008662684
132	0xbde5c4a7	-0.11219149
133	0xbcc1010e	-0.023560073
134	0xbcace95a	-0.021107364
135	0xbcf390c5	-0.029732117
136	0xbc8011ad	-0.015633428
137	0xbdb5f943	-0.088854335
138	0xbb53d549	-0.0032323173
139	0x3bb4f4b6	0.005522336
140	0xbd8696d5	-0.06571738
141	0xbd653a91	-0.055964056
142	0xbd20aa57	-0.03922495
143	0x3c01a3b4	0.007912565
144	0x3ada098c	0.0016634925
145	0x3c051a42	0.008123936
146	0xbd78f4de	-0.0607804
147	0x3cb8f68b	0.022578498
148	0xbc39f724	-0.011350427
149	0x3d829416	0.063759014
150	0xbd5f29d4	-0.05448325
151	0x3bd845ab	0.006600102
152	0xbde6403f	-0.11242723
153	0x3c183644	0.009290282
154	0x3c7043bd	0.014664588
155	0xbda25329	-0.07926018
156	0xbc85789e	-0.016292866
157	0xbdd1b3a9	-0.102393456
158	0x3c3120fd	0.010811088
159	0xbc94cca3	-0.018163985
160	0x3ce50955	0.027958551
161	0xbcd95a5d	-0.026532346
162	0xbd9070eb	-0.070527874
163	0x3c2d94a9	0.010594525
164	0xbc3b50ff	-0.011432885
165	0xbd233b9a	-0.039851762
166	0xbcd9885e	-0.026554283
167	0xbe025db6	-0.1273106
168	0x3c71be00	0.014754772
169	0xbd889906	-0.06669812
170	0xbdc71435	-0.09720651
171	0xbda90120	-0.08252168
172	0x3c978d02	0.018499855
173	0xbd86ea35	-0.0658764
174	0xbce2dc77	-0.027693016
175	0xbb8b51a5	-0.004251676
176	0x3c0d06cb	0.008607577
177	0x3afd0eaf	0.0019306744
178	0xbc553cee	-0.013015015
179	0x3cb8ee0e	0.02257445
180	0xbd8160a1	-0.063172586
181	0x3cdb0bbc	0.026738994
182	0xbc9cd8c5	-0.019146333
183	0xbda3f9c8	-0.08006626
184	0xbd37872a	-0.044806637
185	0xbd940886	-0.07228188
186	0xbc63d6fc	-0.013906237
187	0xbd7822c7	-0.06058004
188	0xbc68000d	-0.014160168
189	0x3b35179a	0.0027632476
190	0xbd957a89	-0.07298762
191	0xbce8cb2f	-0.028417198
192	0xba50e0b7	-0.00079680554
193	0xbd138127	-0.03601184
194	0xbd9f9b99	-0.0779335
195	0xbd02c952	-0.031930275
196	0xbcc92cc7	-0.024557484
197	0x3c0e1d6d	0.008674008
198	0x3c96aebd	0.018393869
199	0xbd0d2be2	-0.034465678
200	0x3cdca6d2	0.026935015
201	0x3aae9120	0.0013318397
202	0xbd53302a	-0.051559605
203	0xbba68bc7	-0.0050825807
204	0xbd828955	-0.0637385
205	0xbd985afe	-0.074392304
206	0xbd82dfe7	-0.06390362
207	0xbd719356	-0.0589784
208	0xbd75d8e4	-0.060021296
209	0xbc4a3883	-0.012342575
210	0x3c496325	0.012291704
211	0xbd2f8372	-0.042849965
212	0xbd0a9369	-0.033831988
213	0xbcdc8671	-0.026919575
214	0xbdbee45d	-0.093209006
215	0xbe08d899	-0.13363875
216	0xbc919303	-0.017770296
217	0xbb010320	-0.00196857
218	0xbd605953	-0.054772686
219	0xbd1bbf38	-0.038024157
220	0xbc33a9d7	-0.010965786
221	0xbd97ea3b	-0.07417723
222	0xbd493f27	-0.049132492
223	0xbd93216e	-0.071841106
224	0x3ce71dc3	0.028212434
225	0xbd71d033	-0.059036445
226	0xbc53f71b	-0.0129373325
227	0x3bd568d8	0.0065127425
228	0xbd656a6e	-0.056009702
229	0xbcca3a3c	-0.024685971
230	0x3cb442ec	0.022004567
231	0xbd9bef59	-0.07614011
232	0xbc856452	-0.016283188
233	0xbc61b459	-0.013775908
234	0x3c788e0e	0.015170587
235	0xbc1a684e	-0.009424282
236	0xbd1c5afb	-0.038172703
237	0xbd10647c	-0.03525208
238	0xbd589072	-0.05287213
239	0x3c1ed647	0.009694642
240	0xbd634880	-0.055489063
241	0x3c8fb451	0.017542036
242	0xbde38ba2	-0.11110617
243	0xbc865b08	-0.016400829
244	0x3c8b0fbd	0.016975278
245	0x3cd8c72a	0.026462156
246	0xbcf826b0	-0.030291885
247	0xbd86a4d3	-0.065744065
248	0xbd4a90f2	-0.049454637
249	0xbc988440	-0.01861775
250	0x3ca429af	0.020039408
251	0x3cea9322	0.028634612
252	0xbc8f0ad7	-0.017461224
253	0xbceff024	-0.029289313
254	0xbd80efc5	-0.062957324
255	0xbd74a112	-0.05972392

l2.bias f4 [300]
0	0xbde8e896	-0.11372487
1	0xbd3ec730	-0.04657668
2	0xbfea306e	-1.829603
3	0xbd8672f7	-0.065648966
4	0xbdb94e65	-0.09048156
5	0xbdbc7f1d	-0.092039324
6	0xbd874d30	-0.06606519
7	0xbd9f9977	-0.07792943
8	0xbef05ec0	-0.4694729
9	0x3ea4cb0c	0.32186162
10	0xbd6a9e5b	-0.057279926
11	0xbd99299c	-0.074786395
12	0xbf2fe83e	-0.6871375
13	0x3eaad39f	0.3336458
14	0xbe313b6b	-0.17307822
15	0x3f71d3f4	0.9446404
16	0xbd9269cf	-0.07149088
17	0xbdd9bf65	-0.10632209
18	0xbf3d3979	-0.7391582
19	0xbe136436	-0.14393696
20	0x3e8680fd	0.26270285
21	0xbf626fd3	-0.8845188
22	0xbf6f84aa	-0.93561804
23	0xbdb06e79	-0.08614821
24	0xbec18ab3	-0.37801132
25	0xbdabb28d	-0.08383665
26	0xbd3368e1	-0.043801192
27	0xbf166880	-0.58753204
28	0xbf9fe3e9	-1.2491428
29	0xbdf01d3a	-0.117243245
30	0xbe3f8f20	-0.18706942
31	0xbe8bcac3	-0.27303132
32	0xbdd6d69b	-0.104901515
33	0xbe173600	-0.14766693
34	0xbdf2f49d	-0.118630625
35	0xbfc058b7	-1.5027074
36	0xbcf8bf47	-0.030364646
37	0xbfa7c4d8	-1.3106947
38	0xbdde9b2a	-0.10869439
39	0xbd00cc5b	-0.03144489
40	0xbda5d84a	-0.080978945
41	0xbd8087c2	-0.06275894
42	0xbe90818a	-0.2822383
43	0xbeb38d92	-0.35068947
44	0xbc99b3ab	-0.01876243
45	0x3e218799	0.15774383
46	0xbfaae731	-1.3351804
47	0xbe0465af	-0.12929414
48	0xbdbed927	-0.09318762
49	0x3f028f2e	0.50999725
50	0x3db2708a	0.087128714
51	0xbe0669ae	-0.13126251
52	0xbf050b11	-0.5197001
53	0xbe1de1db	-0.15418188
54	0x3ea15deb	0.31516966
55	0xbf6a30fa	-0.9148098
56	0xbf881a40	-1.0633011
57	0xbd26ed78	-0.04075381
58	0xbdedb31f	-0.1160643
59	0xbe59e3fc	-0.21278375
60	0xbd2798b2	-0.040917106
61	0xbdb1ede7	-0.086879544
62	0xbf434207	-0.76272625
63	0xbcf10b15	-0.02942423
64	0xbd4f8758	-0.050666183
65	0x3e7373ac	0.23774594
66	0xbe0b9c19	-0.13633765
67	0xbd23f9b5	-0.04003306
68	0xbdfeee12	-0.12447752
69	0xbd5c6efe	-0.053816788
70	0x3f1f2a74	0.62174153
71	0xbcffa664	-0.03120727
72	0xbdb730cb	-0.089448534
73	0xbcaef740	-0.021358132
74	0xbf5d7f5f	-0.8652248
75	0xbdec3dfe	-0.115352616
76	0xbd591e21	-0.05300725
77	0xbda5574f	-0.080732934
78	0xbf172646	-0.59042776
79	0xbd81e54f	-0.06342565
80	0xbdbe97bc	-0.09306285
81	0xbdd4b29e	-0.10385631
82	0xbdb1dce4	-0.0868471
83	0xbdcda63d	-0.10041473
84	0xbe0ec2f3	-0.13941555
85	0xbf029700	-0.5101166
86	0x3d879c6c	0.06621632
87	0xbf33d13f	-0.7024116
88	0x3bc8aeb7	0.0061243433
89	0xbf5e7aa1	-0.86905867
90	0xbf1be2f7	-0.60893196
91	0xbdafa447	-0.08576255
92	0x3eea3347	0.45742247
93	0xbf21f01e	-0.63257015
94	0xbd8c7648	-0.06858498
95	0xbe0df93f	-0.13864611
96	0x3f1786bf	0.5918998
97	0xbf4ef790	-0.808465
98	0xbcffc812	-0.03122333
99	0xbd092a8b	-0.033487838
100	0xbf15d3ec	-0.5852649
101	0xbd7ea1d8	-0.062166065
102	0x3efe0711	0.49614766
103	0xbf94c14d	-1.1621491
104	0xbdd07d8b	-0.101801954
105	0xbd2135df	-0.039358016
106	0xbf9da034	-1.2314515
107	0x3cc0501a	0.023475695
108	0x3e582c5f	0.21110676
109	0x3e1651f8	0.14679706
110	0xbf49abe7	-0.7877793
111	0xba5472f5	-0.0008104288
112	0xbebc270a	-0.36748534
113	0xbf1d849a	-0.6153046
114	0xbf981e3b	-1.1884226
115	0xbf8d6e9a	-1.1049378
116	0xbdd12d97	-0.10213774
117	0xbc7d4c01	-0.015460015
118	0xbee9dd2f	-0.45676562
119	0xbf3dca5e	-0.7413691
120	0x3f21785e	0.6307429
121	0xbe095192	-0.13410023
122	0x3e4604aa	0.19337717
123	0xbf1d067c	-0.6133802
124	0xbdd1f256	-0.102513
125	0xbda5578c	-0.08073339
126	0x3f029c80	0.5102005
127	0xbda33861	-0.07969738
128	0x3d94f5a0	0.07273412
129	0x3e12fc94	0.14354163
130	0xbf20cd65	-0.6281341
131	0x3f783ada	0.969648
132	0x3e0aef14	0.13567764
133	0xbda0ae20	-0.07845712
134	0xbdd94227	-0.10608321
135	0xbd9bebd6	-0.076133415
136	0xbddd7b82	-0.10814573
137	0xbec84d11	-0.39121297
138	0xbf53d735	-0.82750255
139	0xbedebb03	-0.43502054
140	0xbdd3dd6b	-0.103449665
141	0xbf9316fd	-1.149139
142	0xbe91c719	-0.28472212
143	0x3e207219	0.15668525
144	0xbd5eabfb	-0.054363232
145	0xbddf5467	-0.1090477
146	0xbe63a16f	-0.22229551
147	0xbf6ab60b	-0.91684026
148	0x3f13943f	0.5764808
149	0xbf0ffeb2	-0.5624801
150	0xbf442b06	-0.7662815
151	0xbf9f9891	-1.2468435
152	0x3dd4caa0	0.1039021
153	0xbdb6bf94	-0.089232594
154	0xbdec9bfa	-0.11553188
155	0xbe5ca319	-0.21546592
156	0xbfd21770	-1.6413403
157	0xbf00f5c5	-0.50375015
158	0xbca3b43b	-0.019983402
159	0xbc8c63a3	-0.017137354
160	0xbf9e5c26	-1.2371871
161	0xbf5c2f2e	-0.8600949
162	0xbf1cbb72	-0.6122352
163	0xbdc9e035	-0.09857217
164	0xbe239d9a	-0.15978089
165	0xbf31b9dd	-0.6942423
166	0xbf0f14ba	-0.55891
167	0xbda8ae5e	-0.08236383
168	0xbe0d47d1	-0.13796927
169	0xbd91db92	-0.07121958
170	0xbfd7ea02	-1.6868289
171	0xbe17119b	-0.1475281
172	0xbe487723	-0.19576697
173	0xbd83cb81	-0.064353
174	0xbf23b046	-0.63940847
175	0xbf7f200e	-0.99658287
176	0xbdfbbc8c	-0.12291822
177	0xbe22be14	-0.15892822
178	0xbce8bd27	-0.028410507
179	0xbe0692ad	-0.1314189
180	0xbf6e08ae	-0.92981994
181	0xbd9705a1	-0.073741205
182	0xbe98c009	-0.2983401
183	0xbe02200f	-0.12707542
184	0xbee60342	-0.4492436
185	0xbe01e842	-0.12686256
186	0xbd8327f9	-0.064041086
187	0xbdf3858e	-0.11890708
188	0xbcbe3cb9	-0.023222314
189	0xbf0599d5	-0.52187854
190	0xbea931ab	-0.33045706
191	0xbfb343f4	-1.4005113
192	0xba221fe5	-0.0006184562
193	0xbde0caed	-0.10976205
194	0xbeef8b37	-0.467859
195	0x3f7ed24a	0.99539626
196	0xbe02855f	-0.1274619
197	0xbd87ef8b	-0.06637486
198	0xbd6485e0	-0.055791736
199	0xbe8c24aa	-0.27371722
200	0xbed2827a	-0.4111517
201	0xbd57f500	-0.052723885
202	0xbd1c0cbb	-0.03809808
203	0xbec5a51e	-0.38602537
204	0x3f28917f	0.6584701
205	0xbd33cd14	-0.04389675
206	0xbfc663ae	-1.549917
207	0xbcd2612a	-0.025681097
208	0xbcf1c400	-0.029512405
209	0xbf9ca5aa	-1.2238057
210	0x3eab205a	0.3342312
211	0x3f40b25a	0.7527214
212	0xbd922309	-0.07135589
213	0xbe304923	-0.172154
214	0xbe3a8792	-0.18215778
215	0x3f4efef9	0.8085781
216	0xbe8363b1	-0.25661996
217	0x3e3c160e	0.18367788
218	0xbdab2a68	-0.08357698
219	0xbd1d4c2c	-0.03840272
220	0xbf92fc7b	-1.1483301
221	0xbe5c3845	-0.2150584
222	0x3e644701	0.22292711
223	0xbe245a53	-0.16050081
224	0xbdc10e49	-0.09426553
225	0xbd8692af	-0.065709464
226	0xbdb28d6c	-0.0871838
227	0xbf2dff3e	-0.67967594
228	0xbe289fb4	-0.16467172
229	0xbf382e0d	-0.7194527
230	0xbde55e5c	-0.11199638
231	0xbfab145a	-1.3365586
232	0xbc54ac76	-0.012980571
233	0xbecc9800	-0.39959717
234	0xbfaa1551	-1.3287755
235	0xbda9be69	-0.08288271
236	0xbd9b3176	-0.07577793
237	0x3ea3e65c	0.32011688
238	0xbf0cd56d	-0.5501316
239	0xbdef7265	-0.11691741
240	0xbda4593a	-0.08024831
241	0xbebb842d	-0.3662428
242	0xbdc2768a	-0.09495266
243	0xbf302cd4	-0.688184
244	0xbd8c9a58	-0.06865376
245	0xbe0cacbb	-0.13737766
246	0x3f12a965	0.57289726
247	0xbd588c19	-0.052867983
248	0xbe74c089	-0.23901571
249	0xbf7600b9	-0.9609485
250	0xbe00daa4	-0.12583405
251	0xbdcacbd8	-0.09902161
252	0xbf8007e4	-1.0002408
253	0x3e449dcc	0.1920082
254	0x3edc666d	0.43046895
255	0xbe18c7d8	-0.14919984

l3.weight f4 [6, 300]
0	0x3b9660d1	0.004589178
1	0x3d49baba	0.049250342
2	0xbe4dedc0	-0.20110226
3	0xbbe8a862	-0.007100151
4	0x3c08df65	0.008354043
5	0xbc64bf6d	-0.013961655
6	0x3d3bc389	0.045840774
7	0x3abc92c2	0.0014386999
8	0x3c8cc38b	0.017183086
9	0x3e9a8c69	0.3018525
10	0xbc1a298c	-0.00940932
11	0xbd2fc6b7	-0.04291412
12	0x3f223a08	0.633698
13	0xbfae7c1d	-1.3631626
14	0x3dcbc387	0.09949403
15	0x3f1d6d60	0.6149502
16	0x3c8b9054	0.017036594
17	0x3cba8aeb	0.02277132
18	0xbfa6fc02	-1.3045657
19	0x3da80b24	0.0820525
20	0xbe750c62	-0.23930505
21	0xbf7c6c7f	-0.9860305
22	0xbf601974	-0.8753884
23	0x3d5d556d	0.054036546
24	0xbdc02c73	-0.09383478
25	0xbdb05d80	-0.08611584
26	0xbd140e16	-0.036146246
27	0xbe4f9d14	-0.20274764
28	0x3e81c80b	0.25347933
29	0xbdaf1eca	-0.085507944
30	0xbc7e03d8	-0.015503846
31	0xbf6e2bea	-0.9303576
32	0x3d47ab58	0.04874739
33	0x3c28ed3c	0.010310467
34	0xbeacc981	-0.33747485
35	0x3eb33ae1	0.3500586
36	0x3da1dc11	0.079033025
37	0x3eee28e5	0.46515575
38	0x3c38b4ca	0.011273572
39	0x3da94d07	0.08266645
40	0xbd2a2e0b	-0.041547816
41	0x3d0d5b80	0.03451109
42	0x3e0eb64d	0.1393673
43	0x3ef41946	0.47675532
44	0xbcb4c339	-0.022065746
45	0xbf032877	-0.5123362
46	0x3e831c94	0.2560774
47	0xbcf56264	-0.029954143
48	0x3d93d12e	0.07217632
49	0xbca9ea00	-0.020741463
50	0x3cf5e3d8	0.03001587
51	0x3cb6d288	0.022317186
52	0xbc6110a4	-0.013736878
53	0x3e1c814e	0.15283701
54	0xbb8bedbd	-0.004270284
55	0xbe82534f	-0.25454184
56	0x3fac3f65	1.3456846
57	0x3d270abc	0.04078172
58	0xbd8176e7	-0.06321507
59	0x3eb4eff7	0.3533933
60	0xbc123d0c	-0.0089256875
61	0xbd42bae2	-0.047541507
62	0xbcc7480c	-0.024326347
63	0xbba3259c	-0.0049788486
64	0x3d3112c3	0.043230783
65	0x3d038df8	0.032117814
66	0xbb98bf3c	-0.004661469
67	0x3ed04d94	0.40684187
68	0xbdc5f25b	-0.09665366
69	0x3d01c6f6	0.031683885
70	0x3e6f1114	0.23346359
71	0x3d18bc03	0.037288677
72	0xbd9f914d	-0.07791386
73	0xbcfdd76f	-0.030986516
74	0xbf8fbc8e	-1.1229417
75	0xbda56ecc	-0.080777735
76	0xbc75dc26	-0.015006101
77	0xbd0549a6	-0.03254094
78	0x3f14c70a	0.5811621
79	0xbcafe1f8	-0.021470055
80	0xbc2b3002	-0.010448458
81	0x3c0a716b	0.0084498925
82	0x3c96af9f	0.01839429
83	0xbe20ed12	-0.15715435
84	0x3d538361	0.051638965
85	0x3f4f8efc	0.8107755
86	0x3f7df0ff	0.99195856
87	0x3e6c3d89	0.23070349
88	0xbdcc1fa6	-0.09966974
89	0xbf07f1c9	-0.5310331
90	0xbf51c4f8	-0.81941175
91	0xbdb582c6	-0.08862834
92	0xbea1f1c6	-0.3162977
93	0xbf4fb5f5	-0.8113702
94	0xbc2ee57e	-0.010674832
95	0x3e90ad5c	0.28257263
96	0xbcecdf14	-0.028914966
97	0xbf235e99	-0.6381622
98	0x3cbec0db	0.02328532
99	0xbd49c8e4	-0.04926385
100	0xbf6e15ba	-0.930019
101	0x3d71ee74	0.059065297
102	0x3f247cd6	0.64252985
103	0x3f955ce5	1.1668974
104	0xbf4356b9	-0.76304203
105	0x3d8056eb	0.06266578
106	0x3eb885a1	0.3603945
107	0xbe5cb4ad	-0.21553297
108	0xbf571d49	-0.8402906
109	0x3ef3194f	0.47480246
110	0xbedf84a6	-0.4365589
111	0xbdc0e113	-0.094179295
112	0x3f07ae6a	0.5300051
113	0xbe6cc761	-0.23122932
114	0x3f9f6975	1.2454058
115	0x3e06a0d4	0.13147289
116	0xbd221927	-0.03957477
117	0x3ccdf649	0.025141852
118	0x3eb6fb79	0.35738733
119	0xbf3b081f	-0.73059267
120	0xbd0e5dc5	-0.034757394
121	0x3d8f9df9	0.07012553
122	0xbe290365	-0.16505201
123	0x3e41265e	0.18862292
124	0x3c251ef9	0.010078185
125	0x3cf35760	0.02970475
126	0x3ede5c7d	0.43429938
127	0xbd4a1933	-0.049340438
128	0xbd3ac7ec	-0.045600817
129	0xbeb02a84	-0.34407437
130	0xbe9811ad	-0.29700986
131	0xbeb31731	-0.3497863
132	0xbe0e96d5	-0.13924725
133	0xbc266810	-0.010156646
134	0xbcd44a87	-0.025914444
135	0xbb373630	-0.0027955882
136	0x3ce1e333	0.027574157
137	0x3ea2ccc3	0.31796846
138	0x3e972126	0.29517478
139	0x3f15c44c	0.5850265
140	0x3cbb6950	0.022877365
141	0xbf64f55a	-0.89436877
142	0xbd0aab05	-0.033854503
143	0xbe21beec	-0.15795487
144	0x3f0e46be	0.55576694
145	0xbc3e4b65	-0.011614655
146	0xbcf57934	-0.02996502
147	0x3ddd35ad	0.108012535
148	0xbe896b19	-0.26839522
149	0xbf622b5f	-0.8834743
150	0x3da385b7	0.079844885
151	0x3f910ec3	1.133263
152	0x3dc078a3	0.0939801
153	0x3c184fc8	0.009296365
154	0x3d9059de	0.07048391
155	0xbecb1d34	-0.39670718
156	0xbf00cca3	-0.5031225
157	0x3faf5f3e	1.3700941
158	0x3da359a9	0.07976086
159	0xbbde2e92	-0.006780454
160	0xbd5a35ff	-0.05327415
161	0x3f0e3f7d	0.55565625
162	0xbea44b35	-0.32088628
163	0xbda1b36c	-0.0789555
164	0xbf09b8f0	-0.5379782
165	0x3f2080d0	0.6269655
166	0xbdeae92e	-0.11470257
167	0xbd20b8ab	-0.039238613
168	0x3d2ae61b	0.041723352
169	0x3d80f8dc	0.06297466
170	0x3f59aaec	0.8502643
171	0xbce6a81c	-0.028156333
172	0xbd306b3e	-0.043071024
173	0x3be07a98	0.006850552
174	0xbe1f62d7	-0.15565048
175	0xbf8dcb22	-1.1077616
176	0x3eaf734e	0.34267658
177	0xbc7bb760	-0.015363544
178	0xbce082ab	-0.027406057
179	0xbc6a4b77	-0.014300219
180	0x3e9644a1	0.29349235
181	0x3d69f657	0.057119694
182	0x3f116fcf	0.5681123
183	0xbd61d654	-0.05513604
184	0x3dbc8e19	0.092067905
185	0x3d65981c	0.056053266
186	0xbe8c49a6	-0.2739994
187	0xbe0589cb	-0.13040845
188	0x3d414498	0.047184557
189	0xbdf420ab	-0.119202934
190	0xbd3cfd8a	-0.04614023
191	0xbe32f0f4	-0.17474729
192	0xbf5612bf	-0.83622354
193	0x3cf56397	0.029954715
194	0xbd1b1fd2	-0.037872143
195	0x3ee8ba43	0.45454606
196	0xbca33919	-0.019924687
197	0xbcc2a9fb	-0.023762694
198	0x3bece9aa	0.0072300034
199	0x3de47787	0.111556105
200	0xbd9d0d6a	-0.07668574
201	0xbb129b33	-0.0022370338
202	0x3c4d7f9d	0.012542632
203	0xbf633365	-0.88750297
204	0x3e977bb5	0.29586568
205	0xbc2829e1	-0.010263891
206	0xbe14109b	-0.1445946
207	0x3d150ac8	0.036387235
208	0xbcace1f4	-0.021103837
209	0x3edf31e8	0.43592763
210	0x3dba2b4c	0.090902895
211	0xbd315492	-0.043293543
212	0x3d449db3	0.048001956
213	0xbc9d1ae7	-0.019177867
214	0x3da60c78	0.08107847
215	0x3dfb6fee	0.12277208
216	0xbeed3e47	-0.46336576
217	0x3f750830	0.9571562
218	0x3e0769a8	0.13223898
219	0x3cedc607	0.02902509
220	0x3e7a03aa	0.2441546
221	0x3a7328a4	0.000927577
222	0xbe1d93e4	-0.15388447
223	0x3dd7e33b	0.10541388
224	0x3c9f8bdb	0.019475868
225	0xbc2995c8	-0.010350652
226	0x3d8dd105	0.06924633
227	0xbf1481f4	-0.5801079
228	0xbd4c0001	-0.04980469
229	0xbf06c86f	-0.5264959
230	0xbc101f65	-0.008796548
231	0xbea020ba	-0.31274968
232	0xbf9b0454	-1.2110696
233	0x3f1ccf65	0.6125396
234	0x3fc5e43b	1.5460275
235	0xbcce244f	-0.025163798
236	0xba87a6c2	-0.001034938
237	0xbfbad4f9	-1.4596244
238	0xbee0c20f	-0.43898055
239	0xbb18d776	-0.0023321784
240	0x3d6f810c	0.058472678
241	0x3ddaef7d	0.1069021
242	0x3c8aee46	0.01695932
243	0x3e3265db	0.17421667
244	0x3d2b87f0	0.041877687
245	0x3b334c9c	0.0027358895
246	0xbd8ce384	-0.06879333
247	0x3da92fca	0.08261068
248	0x3ebf946d	0.37417927
249	0xbf5292db	-0.82255334
250	0x3cb34f1d	0.02188831
251	0xbe1bf5be	-0.15230462
252	0xbee571d1	-0.44813398
253	0x3e70a1c6	0.23499212
254	0xbe00f78b	-0.1259443
255	0xbc0a9cf2	-0.00846027

l3.bias f4 [6]
0	0xbf1a5347	-0.6028332
1	0xbe75d8d7	-0.24008499
2	0x3d352c98	0.04423198
3	0xbcc9b53e	-0.024622556
4	0xbc01e6ad	-0.007928533
5	0x3e856fab	0.26061758
