preTrained/RoboschoolWalker2d-v1/TD3_RoboschoolWalker2d-v1_0_solved_actor.pth (torch_old, 526264 bytes, 6 tensors)

l1.weight f4 [400, 22]
000000 b3 2c b8 3d 48 ea 9b 3d d6 ae 3f be 5d d7 83 3f
       0.08992901 0.07613045 -0.18719038 1.0300099
000010 4d ba c6 bd 3c 30 09 bf 98 57 2e 3e 69 23 99 3f
       -0.09703503 -0.53589225 0.17025602 1.1963931
000020 c7 3d 2f 3f 1c bb 1d bf 3b f6 5b 3f cd 7c 20 3e
       0.6845364 -0.6161363 0.8592259 0.15672608
000030 b7 d9 bc 3e 53 e9 27 be d6 95 dc bf fc 41 e6 be
       0.36884853 -0.163976 -1.7233226 -0.44972217
000040 c0 a3 0e 3f 4d d9 bc 3e 55 6b 82 be 87 b7 bb be
       0.5571861 0.36884537 -0.25472513 -0.36663458
000050 05 18 80 be 7c 6a 88 3e 08 2d ac bf a6 da 44 be
       -0.25018325 0.2664374 -1.3451242 -0.19224033
000060 92 c8 21 be e5 93 2c 3e ba 02 12 3e cd 7a 87 bf
       -0.15799168 0.16853292 0.14258853 -1.0584351
000070 70 9f 07 3e 62 10 d8 bf e3 7c 8e 3e 15 95 68 3f
       0.13244414 -1.688 0.27829656 0.9085248
000080 e9 0e 3b bf d2 1a cb be 0d e6 13 be 36 e8 2c be
       -0.73069626 -0.396689 -0.14443226 -0.16885456
000090 b9 1d fc be ba ab 63 bf 23 11 01 bf a3 5b d2 be
       -0.49241427 -0.8893391 -0.50416774 -0.41085538
0000a0 d9 98 52 be 7d c2 ef be ea 40 11 bf 7e 1f 2e be
       -0.20566119 -0.4682807 -0.56739676 -0.17004201
0000b0 a7 82 9b 3d e0 23 74 3c 75 0d 88 be 73 d3 d0 3d
       0.07593279 0.014901131 -0.26572767 0.10196581
0000c0 ba 08 4e 3e da ec a6 3d 3a 44 14 3e e6 0f 31 bd
       0.20120516 0.081506446 0.14479151 -0.043228053
0000d0 49 57 9b be be 40 58 bd 5e 3c 19 bd 9f 73 52 3d
       -0.3034003 -0.052796118 -0.037411086 0.051379796
0000e0 ce ec 6f 3d c8 2c 65 3d c9 34 8e be 95 ce 18 3d
       0.058575444 0.05595091 -0.27774647 0.037306387
0000f0 4a 20 5f be 0d 58 f9 bd 6d dc 9a 3d d2 a8 e6 3d
       -0.21789661 -0.121749975 0.07561574 0.11262669
000100 e9 30 8d bd 3a db 70 be aa b8 42 bd be 63 a0 bd
       -0.068940945 -0.23521128 -0.04753939 -0.07831524
000110 a8 1d 8e be e5 cb ff bd 71 a4 57 be 35 47 18 3e
       -0.27757 -0.12490062 -0.21058823 0.14870913
000120 10 1e 8a 3d 17 07 03 3e cd 27 41 3d e7 b4 ec bd
       0.06744015 0.12795673 0.047157098 -0.11557942
000130 40 9d 95 be 69 81 14 bb 6c e8 80 3b 46 85 4e 3d
       -0.29221535 -0.0022660142 0.003933957 0.05042007
000140 9a b7 48 be 5e c7 31 3e 82 65 2a be 39 0d 13 3e
       -0.19601288 0.17361209 -0.16640285 0.14360513
000150 39 c5 4e be cb 2b b9 bb c0 2c 8b bc a3 d7 b4 3d
       -0.20192422 -0.0056509725 -0.016989112 0.08830192
000160 d6 f3 f2 3d d0 ba 26 3c 60 08 8a be 7a 2c b1 3d
       0.11862914 0.0101763755 -0.26959515 0.08651061
000170 40 7f c4 3d 0a 1f 2a bd 6c ef d6 3d d3 63 18 3e
       0.095945835 -0.041533507 0.10494885 0.1488183
000180 e9 a5 b8 bd cc f3 37 be da c4 2c be 0d 2e 5a bd
       -0.0901602 -0.17964095 -0.16871968 -0.053266574
000190 46 dd 74 3c 25 a7 ba bd ae b2 5b be b6 3b 56 3e
       0.014945334 -0.091139115 -0.2145488 0.20921215
0001a0 41 e1 28 bb 73 46 1c 3e 0d 31 1f be 92 29 ce 3b
       -0.0025769027 0.15261249 -0.15546055 0.0062915767
0001b0 7d b0 8d 3d 37 a7 4d 3d 9e 29 c1 3e ad 69 16 be
       0.06918428 0.050208297 0.37727064 -0.1468875
0001c0 1c 19 ab bd 81 46 fb 3d c1 09 be bd 65 e9 84 bc
       -0.083543986 0.12269307 -0.09279204 -0.016224572
0001d0 b0 74 44 3d ab 6c 0c 3e 5b d2 77 3c 8e ee af bd
       0.047962844 0.13713329 0.015125836 -0.085904226
0001e0 ca d9 9c be 63 79 e8 3d 06 90 77 3d 4b 4d 4a bd
       -0.3063491 0.11351278 0.060440086 -0.04939012
0001f0 52 16 3f 3c c5 58 7d be 99 96 0a be a7 3a 91 bd
       0.011663036 -0.24740894 -0.13534011 -0.07091265
000200 13 6e 95 be 1c 20 04 3d 1c 94 a0 3c d6 0c 12 be
       -0.29185542 0.032257184 0.019601874 -0.14262709
000210 bc 8e fd 3d a8 cd 73 bd d1 4e a0 bc 14 48 27 3d
       0.1238074 -0.0595223 -0.019568833 0.040840223
000220 e8 ac dc 3d 67 8a 69 3c 70 67 19 bd 4c c1 83 3e
       0.10775167 0.014254189 -0.03745216 0.2573341
000230 aa fd e8 bd e9 30 ef 3d aa e3 6e be 27 b9 ae 3d
       -0.113765076 0.11679251 -0.23329034 0.08531409
000240 f5 46 95 bd fb 92 ff 3d ce 75 3c be 21 5a ac 3d
       -0.072889246 0.12479206 -0.18404314 0.08415628
000250 5c 2f 39 be 72 6b 5f 3e 67 97 6b be 14 3d 65 be
       -0.18084472 0.21818331 -0.23006974 -0.2238658
000260 d6 eb 94 be b9 0f 15 be ba 4c a2 3f 00 36 d5 ba
       -0.2908618 -0.14556779 1.2679665 -0.0016266704
000270 69 9d f1 be 3b 4a ac 3e f8 5a f5 3d 44 cd aa 3e
       -0.47190407 0.33650383 0.119802415 0.3335973
000280 e8 0e 5a 3d 39 1d 0b 3f 04 ec fd be d7 14 b6 be
       0.053236872 0.54341465 -0.49594128 -0.35562775
000290 49 b6 b5 be 7e 2e 2e 3e 5c 5d e3 3d 39 b5 ca 3c
       -0.35490635 0.17009923 0.11101791 0.024744617
0002a0 5e be 55 be 74 83 79 3c 8f 3b f5 be 78 cc ba 3e
       -0.208734 0.015229095 -0.47897002 0.36484122
0002b0 09 e0 b1 bf 3e 1a 5a 3d 9e 35 b4 bd 23 6e 98 be
       -1.3896495 0.053247683 -0.08799289 -0.29771528
0002c0 48 31 4a 3e b6 ca 0e 3e b3 8f 90 be ec 5b 3b bd
       0.19745362 0.13944516 -0.28234634 -0.04574196
0002d0 c8 18 46 3e 50 7b 31 3c c4 9e d8 3d 1b 70 b2 3e
       0.19345391 0.010832623 0.10577157 0.34851155
0002e0 2b 45 30 3e 57 6c 6d bc 40 ca 39 be cd 72 04 3e
       0.17213885 -0.014491162 -0.18143559 0.12934418
0002f0 6d 16 66 be a8 56 89 be 83 65 79 3d 10 2a 1c 3e
       -0.22469492 -0.26823926 0.060887825 0.1525042
000300 60 5d 57 bd 23 58 79 3e 28 40 9d be fd 85 a2 bd
       -0.052579284 0.24350028 -0.3071301 -0.079357125
000310 2f cf 99 be f2 b0 52 be ae 2c e3 3d b0 7f 12 bd
       -0.3004088 -0.20575312 0.11092506 -0.035766304
000320 bf 0c 8b be 50 cb e9 bd c2 56 0e 3e 7b cb 0b 3d
       -0.27158162 -0.11415732 0.13900283 0.0341296
000330 0c 86 f8 3d d1 90 54 3e 12 06 96 be e9 10 15 3e
       0.121349424 0.20758368 -0.29301506 0.14557232
000340 42 1c d6 bc 3c e0 9f bd 7b bc 53 be dc 54 1b be
       -0.026136521 -0.07806441 -0.20677368 -0.1516909
000350 eb bf a1 3b a7 b4 89 3d b6 f5 40 be 60 70 68 3e
       0.0049362085 0.0672391 -0.18843731 0.22699118
000360 de f3 e1 bd 32 9b 71 be f1 ff 3f ba 0e fe 5c be
       -0.11032842 -0.23594359 -0.000732421 -0.21581289
000370 f5 54 7c 3e 58 11 a1 3c 25 ee 56 be c9 d8 0f 3e
       0.24641784 0.01966159 -0.20989282 0.1404754
000380 b8 77 33 3d 62 05 ab 3c 04 ab da 3d a8 9d 4b bd
       0.043815345 0.02087659 0.1067715 -0.0497109
000390 d3 1b ef bd 51 6d 46 be e3 58 63 bd fa 0b b3 bd
       -0.11675229 -0.19377638 -0.05550469 -0.08742519
0003a0 9a 09 96 be ec a3 05 3e bf d3 96 be 6d 65 5f bd
       -0.293042 0.13050812 -0.29458424 -0.054540087
0003b0 51 fc 79 be ce 07 45 3e d0 21 94 be 8c 3e 2d 3c
       -0.24412657 0.19241259 -0.28932047 0.010573994
0003c0 89 d2 3f be ba 95 41 be 19 b9 fa 3e e1 f4 f9 bd
       -0.18732657 -0.18904772 0.48969343 -0.1220491
0003d0 d7 b7 7d be c8 0b 08 3d b6 85 4a be 88 65 0d 3e
       -0.2477716 0.03321436 -0.19777569 0.13808262
0003e0 28 a8 c7 3c 95 6d 20 3c 28 66 a3 be 41 48 d2 3d
       0.024372175 0.009791751 -0.31913877 0.102676876
0003f0 6b 94 89 be 77 70 57 bd 25 de 33 be c4 dc 8b 3d
       -0.26871046 -0.05259749 -0.1756521 0.06829217

l1.bias f4 [400]
000000 b6 55 6a 3d af 51 f4 bd 3b 17 e5 bd b4 9e b7 bd
       0.057210647 -0.119296424 -0.111860715 -0.08965817
000010 53 cf 84 be 7c 86 80 be cb 68 8f bd 2b f5 f1 be
       -0.25939426 -0.25102603 -0.070024095 -0.4725736
000020 fd 5c 92 be 4c a2 47 be d1 2e 91 bd 68 87 72 be
       -0.2858657 -0.19495505 -0.07089008 -0.23684466
000030 48 11 50 be da 9c a1 be aa ea 6a 3d de bd 11 3d
       -0.20319092 -0.3156498 0.0573527 0.035581462
000040 9c 13 ed be 40 0f fa be 24 56 b2 bd b1 5c 10 bf
       -0.46304023 -0.4883976 -0.08707836 -0.56391436
000050 fb 0c 7c 3d 92 03 ac bd 18 d4 29 3e 6d f6 ba bd
       0.061535817 -0.083991185 0.16584814 -0.09129033
000060 67 01 f8 be 6b 49 b5 be 76 b9 94 3d d9 c1 64 be
       -0.4843857 -0.35407576 0.07261936 -0.22339572
000070 0d 18 95 be 4e 2c 10 3e 78 f8 ca be e2 80 c6 be
       -0.29119912 0.14079401 -0.39642692 -0.38770205
000080 9a d3 84 bd ad ff 01 be 24 9c 98 be ee 32 32 bf
       -0.06485672 -0.12695189 -0.29806626 -0.6960896
000090 aa 64 82 bd c7 14 3b be 5e da 8e be 00 5c b6 be
       -0.063668564 -0.18269645 -0.27900976 -0.35617065
0000a0 9c 6e f9 3d e0 43 37 be c2 30 4d be 7a 18 52 be
       0.121793 -0.17896986 -0.20038131 -0.2051715
0000b0 f5 ca f5 3d 90 1f f9 3d d8 0f 87 be 32 33 aa 3d
       0.120016016 0.12164223 -0.26379275 0.08310546
0000c0 c3 6d 2d be 21 c6 d2 be 3c b6 b7 bd 62 c2 65 bf
       -0.16936402 -0.41166785 -0.08970305 -0.8974973
0000d0 10 e6 c8 be 60 d6 a1 be 9a 05 92 be bc 34 2a 3e
       -0.39238024 -0.31608868 -0.285199 0.16621679
0000e0 bb 1b 5b 3e 20 d2 cd bd 82 07 5e be 06 13 78 be
       0.21397297 -0.10049844 -0.21682552 -0.24226007
0000f0 a4 61 2d be 7a e7 5b be ca 9d 1d be 7e 1f b4 be
       -0.16931778 -0.2147502 -0.15392223 -0.35180277
000100 0d a8 1a be 59 46 4a 3e e0 3d 89 3e ed d2 c1 be
       -0.15103169 0.19753398 0.2680502 -0.37856236
000110 68 c0 a0 be 7e 56 e5 be 83 47 d6 bd 97 4d ac be
       -0.31396794 -0.4479255 -0.104628585 -0.33652946
000120 12 8a 96 3e 6a 9e 33 3e 26 21 9e be 03 3d c0 be
       0.29402214 0.17540899 -0.30884665 -0.37546548
000130 78 20 c5 be d8 ed 2e 3e c3 52 8d bc 2a f4 b8 3d
       -0.38501334 0.17082918 -0.017251378 0.090309456
000140 2e 26 2d be 62 3c 0e be d6 72 54 be 47 21 ac be
       -0.16909096 -0.13890222 -0.20746931 -0.3361914
000150 14 1f 1f be 55 f9 5c bd 04 67 b2 3d 26 47 46 be
       -0.15539199 -0.05394872 0.08711055 -0.19363078
000160 80 94 88 be a8 6d 01 be 7d 45 8d be 5a aa b6 be
       -0.26675797 -0.12639487 -0.27592078 -0.35676843
000170 52 88 c1 bd 4f 1c de bd 20 16 2a be 3c 15 5f 3e
       -0.09449829 -0.10845243 -0.16610003 0.21785444
000180 21 66 a3 3c e0 33 83 be 4c 9c 86 3e bb fc 98 be
       0.01994616 -0.25625515 0.2629112 -0.29880318
000190 25 3f df 3d d7 e5 4e be 5f 90 38 bf f2 21 49 bf
       0.10900716 -0.20204864 -0.7209529 -0.7856742
0001a0 21 e5 1a be 25 77 a3 be 20 d4 f7 bd fb 39 82 be
       -0.15126468 -0.31926838 -0.121010065 -0.2543486
0001b0 77 ce 3d be ca b6 94 be e5 dd 0e be 2d 99 9a be
       -0.18535791 -0.29045707 -0.13951834 -0.3019499
0001c0 0d f7 03 bd e0 34 00 be ed 4f 6c bd ac 0b b4 be
       -0.032218028 -0.1252017 -0.05769341 -0.35165155
0001d0 4f 18 d3 bd 45 e3 a4 be b2 3f 98 bf 4a df 9f be
       -0.10307371 -0.32204643 -1.1894438 -0.31225044
0001e0 4a df 36 be dc e6 99 bf 2c 38 24 bf 2c e6 0c bf
       -0.17858616 -1.2023578 -0.6414821 -0.55038714
0001f0 a7 ab 76 3d af ff 51 bc f0 93 ed 3c 18 06 d5 bd
       0.060222294 -0.012817307 0.029001206 -0.10401553
000200 08 af 12 bf 56 fa 80 be 3d 5a 50 be ee 33 0d be
       -0.57298326 -0.2519099 -0.20346923 -0.13789341
000210 2d 5d f2 be 33 36 5d 3e b2 29 45 3e ce 96 9c be
       -0.47336712 0.21602707 0.19254187 -0.30583805
000220 39 c8 f3 be 74 a7 0a be f5 d4 fa bd 75 2e f8 bd
       -0.47613695 -0.13540441 -0.122476496 -0.12118236
000230 df e6 27 3e 82 fe 92 be e5 51 1f bf 8e 7e 45 be
       0.16396664 -0.287098 -0.62234336 -0.19286558
000240 96 4c 80 be 84 cf 14 3e 6c 5c 5e 3e 64 b8 5c bd
       -0.2505843 0.14532286 0.21714944 -0.053886786
000250 7c 3b d5 be a4 34 97 bd b7 d1 c8 3d ab c7 6c 3d
       -0.41646945 -0.07383087 0.09805625 0.057807606
000260 40 f7 dd be 36 b9 66 be 79 d3 91 be 8c 47 de bb
       -0.433527 -0.2253159 -0.28481653 -0.0067834314
000270 e1 17 24 be 3c 0a 04 be 12 c8 62 be 8f b8 a2 be
       -0.16024734 -0.12894529 -0.22146633 -0.31781432
000280 f1 07 8f be 11 c7 1e 3e e9 37 69 3f b3 4a 8b be
       -0.27935746 0.15505625 0.9110094 -0.27205428
000290 e6 2b 3c be 2d 35 3f bd 9c 27 c0 3e 92 72 43 be
       -0.18376121 -0.04668157 0.3753022 -0.19086674
0002a0 75 73 8b be 2e c2 6e be 06 0f 1a 3f c9 4c 15 3d
       -0.27236524 -0.23316261 0.60179174 0.03645018
0002b0 16 3a e6 3d d4 6d 02 be 83 40 43 be bc 95 47 bc
       0.11241548 -0.12737209 -0.19067578 -0.012181696
0002c0 1f c7 76 be ef 0c cb be dd 6f 16 bd 8e 81 e0 bd
       -0.24099396 -0.39658305 -0.036727775 -0.109622106
0002d0 55 bb 72 be f8 1b 2e be b5 cf b2 bd 77 ec 9a be
       -0.23704274 -0.17002857 -0.08731023 -0.30258533
0002e0 70 41 4b be b3 cf 64 bd 2e fa 85 bd 5c d5 d8 bd
       -0.19849181 -0.05586214 -0.065418586 -0.1058757
0002f0 c0 6c 15 3e 65 ec 4d be d3 21 b1 be 70 32 21 3a
       0.14592266 -0.20109709 -0.34596118 0.00061491784
000300 50 3a 5a 3e b1 cb 0b 3d 38 9a 7e bd 9a 97 8c be
       0.21311307 0.034129802 -0.062158793 -0.27459413
000310 56 43 3b be 53 b8 b0 3e 96 3d 49 be 52 90 c4 3d
       -0.18287405 0.34515628 -0.196524 0.095978394
000320 b0 90 10 3f b5 b1 bf bd d4 fc 86 be 75 1b a6 be
       0.56470776 -0.09360067 -0.26364768 -0.32442823
000330 e3 52 e8 bd fe ae 56 be 40 46 73 be 5a b9 b8 bc
       -0.113439344 -0.20965192 -0.23757267 -0.02254932
000340 a4 42 64 3b 7a 75 bf 3c 73 b7 60 be d2 67 38 be
       0.003482976 0.023371447 -0.2194498 -0.18008354
000350 f0 2b a0 be 10 35 93 be 89 ad 27 be 2a a5 2b bc
       -0.31283522 -0.2875142 -0.16374792 -0.01047639
000360 2e 76 cb 3e 9b 7f 56 3e 23 37 11 be 14 22 f4 3d
       0.397386 0.20947115 -0.14181189 0.119205624
000370 3f 13 82 bd d1 c1 a2 bd 04 d1 ec be c2 0c 93 3e
       -0.06351327 -0.07947124 -0.46253216 0.2872067
000380 37 92 17 bf d2 67 cf bd 13 c9 96 be af 1a e1 be
       -0.5920748 -0.10127224 -0.29450282 -0.4396567
000390 dd 2c 8f be 9e c4 b1 be fe ac 54 be 17 ff 92 be
       -0.27963915 -0.3472032 -0.20769116 -0.28710243
0003a0 ae e3 6b be 7f 6c c3 3e 8f 83 d8 be d8 56 a6 be
       -0.23036072 0.38168713 -0.4228787 -0.32488132
0003b0 54 5b 41 bd 15 f7 8c bd b5 c7 b9 be 00 5f aa be
       -0.047206238 -0.06883065 -0.36285177 -0.33275604
0003c0 21 96 6c bf 26 71 b0 bd 25 06 bc bd e2 69 74 bd
       -0.9241658 -0.08615331 -0.091808595 -0.05967129
0003d0 b1 5b 81 bd 86 d0 ed bd 12 72 ad be a3 9e c1 be
       -0.06316317 -0.11612038 -0.3387609 -0.37816343
0003e0 de 12 da bc 15 be 9f be 67 3f 2d be c7 ad 3a be
       -0.026620325 -0.3119971 -0.16918717 -0.18230353
0003f0 8f bc 85 be 8a af fd bd eb ca a2 be 9e d7 cf 3d
       -0.2612042 -0.12386997 -0.3179544 0.101485476

l2.weight f4 [300, 400]
000000 0d 46 2e bd 98 40 ea bd 9a fd b2 3c ef a3 50 bc
       -0.042547274 -0.114381015 0.021849442 -0.012734397
000010 00 93 17 bc 00 f8 1c 3c 1d 75 e0 3c 8e 33 59 bd
       -0.009251356 0.009580612 0.027399594 -0.053027682
000020 c5 48 05 bd b2 a1 ac 3c b8 25 3f bc 1d 10 30 bd
       -0.0325401 0.021073196 -0.011666708 -0.042984117
000030 93 b6 01 bd f3 69 01 bd 08 dc f5 3c 66 13 ac 3c
       -0.031668257 -0.03159518 0.030012146 0.021005344
000040 db 5d 2d 3d 94 72 5b bd 58 aa 03 3c 56 4f 13 bd
       0.042325836 -0.053576067 0.008036219 -0.035964333
000050 30 26 21 bb be b8 97 3c b0 5b 08 bd 94 5a 62 3b
       -0.0024589412 0.01852071 -0.033290565 0.0034538852
000060 86 e1 cc 3c 49 83 15 3d c8 a1 59 bc ba 38 a0 3c
       0.025009882 0.036502156 -0.013283201 0.0195583
000070 44 bd 1d 3a 1b 0d a7 3a db 21 4e bd 00 7a 99 bd
       0.00060172775 0.0012744995 -0.050325256 -0.07493973
000080 1a 7a b6 bb 8d 6e c1 bc 34 b5 51 bc 11 e3 77 3c
       -0.005568755 -0.023612285 -0.01279955 0.01512982
000090 62 5c d5 3c 78 16 15 bd 52 76 b4 bd db 21 a3 bd
       0.026045028 -0.03639838 -0.0881163 -0.07965442
0000a0 35 a0 c6 3b 56 2d 14 bd a7 e1 26 bd 4c 03 9e 3b
       0.0060615786 -0.03617605 -0.040742543 0.0048221704
0000b0 08 11 44 bd 3a 6d 6f 3c e7 6d 59 3b 9f 10 67 bd
       -0.047867805 0.014613444 0.003317708 -0.056412335
0000c0 70 ea 6e 3c d6 da ea bc 84 36 2b bd bd f8 93 bd
       0.014582261 -0.028668802 -0.041800037 -0.072251774
0000d0 8c f7 32 bb 64 35 53 3c 7e db 8e bd 29 1f 38 3d
       -0.0027308194 0.012891147 -0.069754586 0.04495159
0000e0 6c 8f c3 bc 1f 79 3c bd de c6 04 39 4a df 39 bc
       -0.0238721 -0.046013948 0.00012662585 -0.01134474
0000f0 6d 03 96 bd 4f d8 87 bb fb 5a 6a bd 58 08 0c 3c
       -0.07324872 -0.004145659 -0.057215672 0.008546911
000100 75 7b 0d 3c 79 a0 48 bd 3b 37 1f bd bf 09 68 bd
       0.0086353915 -0.048981164 -0.03887103 -0.05664992
000110 b5 84 48 3c e2 2b 92 bc 89 b2 a5 3c 1d d8 9a bb
       0.012238671 -0.01784319 0.020226734 -0.0047254697
000120 b6 d5 0c bd 9f 54 ea bc b0 bf 01 3b 86 a2 ef 3c
       -0.034383498 -0.028604804 0.0019798093 0.029252302
000130 8a 5f 42 bd 3e 3b f4 bc 2c 22 eb 3b 80 88 4a 3b
       -0.047454394 -0.029813405 0.0071757045 0.0030904114
000140 55 ba ad 3c fc 43 09 bd a6 81 d2 bc 40 27 d5 bb
       0.021207014 -0.0335121 -0.025696587 -0.006504923
000150 9f 03 7e bc 4a b5 84 bc 5a 3d d8 bc 7b 1a ae bd
       -0.015503793 -0.016199727 -0.026396442 -0.085011445
000160 30 14 be 3c f5 58 9d bc 29 3c 0a 3d 75 40 4b 3d
       0.023202986 -0.019207457 0.03374878 0.049622018
000170 bc 5f f9 bc cb 39 74 bd f2 64 ff bc 2b 01 81 bd
       -0.030441158 -0.05962543 -0.031176064 -0.06299051
000180 52 bc 2f bd 67 9b 27 bd 18 f5 83 bd 43 5f d1 bd
       -0.042904206 -0.040919688 -0.06443232 -0.10223248
000190 88 77 7f bd 00 66 b5 bc d4 4a 09 3c c8 25 3b bc
       -0.062369853 -0.022143364 0.008379657 -0.011422582
0001a0 d9 2b 05 bd ba 15 3f bc 67 c0 c0 bc 80 a3 70 3a
       -0.03251252 -0.011662895 -0.023529245 0.0009179637
0001b0 a5 eb b4 bd e2 0f 23 bd ce d2 12 bd 16 54 29 39
       -0.08834008 -0.03981007 -0.03584557 0.0001614842
0001c0 67 bf 3d bd 89 12 9f bd cd 97 09 be c4 ca f4 3c
       -0.046325114 -0.07767207 -0.13436814 0.029881842
0001d0 b4 3c 8c bc a8 cc ec bb ca e4 08 bb 9f e9 63 bd
       -0.01711879 -0.0072265454 -0.0020888322 -0.05564272
0001e0 e4 7f 35 bd e2 d1 c2 b9 94 18 00 bc dd 3c e8 bc
       -0.04431142 -0.00037158938 -0.00781836 -0.028349334
0001f0 e1 d5 93 bc 7b c6 bd bd 8d 90 39 bd 54 21 91 bc
       -0.018046321 -0.09266373 -0.04530387 -0.017716087
000200 4e 5d 0f bd f3 54 1d bd 26 e6 a1 bc 1e 4d 0d 3c
       -0.03500109 -0.038411092 -0.019763064 0.008624343
000210 3d 12 9c bc 40 88 00 bc 06 a2 6a bd 46 b3 71 bd
       -0.019051665 -0.0078449845 -0.057283424 -0.05900886
000220 92 f4 a5 bb 8e 3b 23 3c 3f f2 1d 3d 7e d1 28 3d
       -0.0050645554 0.009962929 0.038561102 0.041215412
000230 02 c7 8a bc 4e 12 f5 bc eb be b4 bd fe e9 16 bd
       -0.016940597 -0.029915955 -0.08825477 -0.036844246
000240 8a 2c b9 bc 7e ac 42 3c 5c 4c 91 3c d2 68 10 be
       -0.022604246 0.011881946 0.017736606 -0.14102486
000250 ce 79 11 bd d8 45 16 bd aa 43 d3 3c 54 2d a5 bc
       -0.035516553 -0.036687702 0.0257891 -0.020163216
000260 a1 01 e7 bc 9a a7 26 bb 34 3f 79 bc 93 6a 8a 3b
       -0.028199019 -0.0025429488 -0.015212823 0.0042241304
000270 8b 65 46 bd f6 de 32 3b eb 28 d1 bc 60 4d a7 bc
       -0.048436683 0.002729354 -0.025532207 -0.020422637
000280 9d 1c 60 3c a5 98 fa bc 21 8b 4a bd 33 84 05 bd
       0.013678697 -0.030590365 -0.04944909 -0.032596778
000290 12 fe 05 3b 00 8d f5 bc 9a 4c b1 3c 04 2c c1 3b
       0.0020445627 -0.02997446 0.021642972 0.0058951396
0002a0 4c 61 6d bd e7 62 16 3c 38 0d 02 3d 03 2f f2 3c
       -0.057954118 0.009178854 0.031750888 0.029563433
0002b0 14 5d bb bd 82 52 60 bb 42 a7 14 bd b0 c4 7c bc
       -0.091486126 -0.0034228866 -0.036292322 -0.015427753
0002c0 cb e2 28 3d 55 1f 7d 3c ad 40 34 3d 97 5a d2 3c
       0.04123191 0.015449365 0.044006992 0.025677962
0002d0 df f0 19 bd 51 81 6e 3c 98 89 33 bd e6 42 0f bd
       -0.03758323 0.014557199 -0.04383239 -0.03497591
0002e0 8c 33 35 3c c2 29 54 bd 33 1f 0c bd e0 57 24 bd
       0.011059653 -0.051797636 -0.03420944 -0.040122867
0002f0 95 37 40 bd 6b 2b 19 3c b9 98 72 bd 2b 35 11 bd
       -0.046928007 0.009348731 -0.05922768 -0.035451096
000300 92 0c 28 bd ac af ac 3c f6 79 2d bb 9f 9e 37 bd
       -0.041027613 0.02107986 -0.00264704 -0.044829007
000310 e4 3b 06 bd 01 e1 b5 3c 41 08 27 bd 27 ce ef bc
       -0.03277196 0.022202017 -0.040779356 -0.029273106
000320 a2 67 7d bc 40 f9 4b bd 6d 30 90 bc 1e f1 f3 bc
       -0.0154666025 -0.04979825 -0.017601216 -0.02977806
000330 1f 1c c5 bc 76 89 ef 3c 38 9d 09 bd da 1b 1d bd
       -0.02406126 0.029240351 -0.0335972 -0.03835664
000340 82 87 6d bd 78 87 fe bc fa 6e 32 3c b9 f3 89 bc
       -0.05799056 -0.031070456 0.010890717 -0.016839849
000350 05 60 04 3d 45 52 a8 bc a7 9a 15 bc f1 93 03 3d
       0.032318134 -0.020547042 -0.00913111 0.03212351
000360 13 f0 06 bd 73 22 c8 bb df b1 52 bd 36 11 a7 bd
       -0.032943796 -0.0061076223 -0.051439162 -0.081575796
000370 10 01 53 bd f4 66 b0 bd c7 11 0a 3b 10 85 6d bd
       -0.051514685 -0.08613387 0.0021067725 -0.057988226
000380 a2 e5 01 bd 24 b4 6b bc a6 2a 46 bd 18 70 86 3b
       -0.031713136 -0.014386211 -0.048380516 0.004102718
000390 f0 a6 18 bb 39 87 0b bd dd 76 44 bd f5 44 5e bd
       -0.0023292862 -0.034064505 -0.04796492 -0.05426498
0003a0 5f db 32 3d 96 ca 7d bd 4d 51 87 bd 1d 0a 02 3d
       0.04366624 -0.06196078 -0.06607304 0.031747926
0003b0 20 6b 40 bd e6 f4 d3 bc f0 6b 86 bd 8e e8 e1 ba
       -0.046977162 -0.025873613 -0.06563556 -0.0017235444
0003c0 17 97 7a 3c 63 f1 73 bd 5c 8d 00 bb 00 dd ca bd
       0.015294812 -0.059556376 -0.0019615507 -0.09905434
0003d0 6a 2d a1 3b 3f 24 4c bd 4b 06 50 3b 9c ec 71 bc
       0.004918744 -0.049839254 0.0031742032 -0.014765885
0003e0 a0 cb 17 3c 1c 90 a7 3c 69 9e 35 bd 9e 71 b9 bb
       0.009264857 0.020454459 -0.044340525 -0.005659296
0003f0 56 9d de 3b fe 80 0c bd 42 27 8f 3a 01 b7 f5 3c
       0.0067936582 -0.034302704 0.0010921734 0.02999449

l2.bias f4 [300]
000000 5e 54 0a be fe 54 af be 36 de 26 3e 2b e6 35 bf
       -0.13508746 -0.3424453 0.16295704 -0.71054333
000010 f8 88 f6 be 0a d2 19 be 29 bd ab be cf fd b3 bd
       -0.48151374 -0.1502153 -0.33542755 -0.087886445
000020 7f 10 22 be fd b6 99 bc c4 93 a5 be 29 b0 1d bd
       -0.15826605 -0.018764013 -0.323393 -0.038498078
000030 ff 98 15 3e f5 42 10 be 23 f3 60 bf 06 0f e7 bd
       0.14609145 -0.14088042 -0.87871 -0.11282162
000040 b6 ee e4 bb 46 9d 92 bf 80 d1 65 bd 85 8b 8e bd
       -0.0069864644 -1.1454246 -0.056107998 -0.06960205
000050 db 62 8f bd 86 0a 08 be d1 29 46 bd b3 e5 f3 bd
       -0.07001277 -0.13285264 -0.048379723 -0.11909046
000060 ab 01 fa bc 55 b6 0a bf 95 de 02 bf 7b 02 14 bd
       -0.030518373 -0.54184467 -0.51120883 -0.036135178
000070 69 24 96 bd 4f 25 cd bd 64 c7 20 bd 0c 78 03 bf
       -0.073311634 -0.10016882 -0.039252654 -0.5135505
000080 5c 18 62 be b4 b9 73 bf 66 d9 9a bd 05 98 00 be
       -0.22079605 -0.95205235 -0.07560997 -0.12557991
000090 33 69 a8 bf 95 ef 32 bf e9 07 34 bd e6 15 87 bd
       -1.3157104 -0.69896823 -0.043952856 -0.06595974
0000a0 28 a0 08 bf 1f 3d 14 be a5 de 7f be 44 a8 1e bf
       -0.5336938 -0.14476441 -0.24987276 -0.619755
0000b0 4c a8 09 bc b5 5c 4a be d8 62 d2 be bc 36 51 bf
       -0.0084019415 -0.19761927 -0.41091037 -0.81724143
0000c0 56 30 89 be 9a 33 a3 bd f0 ca 10 bf c8 ed 0b bf
       -0.2679469 -0.079688266 -0.5655966 -0.546597
0000d0 da fc 33 bb 1c 55 dc bd 4a 2c 5e bd ba 5e a8 be
       -0.0027463944 -0.10758421 -0.054241456 -0.3288477
0000e0 35 ed 98 bf e0 43 5d bf df 37 03 bf 70 24 a0 bb
       -1.194739 -0.86431694 -0.5125713 -0.004887156
0000f0 45 62 63 bd 45 27 fb be a7 d2 ea be 36 43 58 bf
       -0.05551364 -0.49053398 -0.4586384 -0.84477556
000100 cf e6 17 be 50 2d 24 bf a3 43 c6 bc 9f 2c 96 3c
       -0.1483414 -0.6413164 -0.024202174 0.018331824
000110 47 25 00 bf 9c 76 27 bd e0 f7 18 bd d8 e6 2e bf
       -0.5005688 -0.0408846 -0.037345767 -0.6832099
000120 97 3b 95 bc ec 63 b2 bc 7c 6a 0d be d2 af 61 bf
       -0.018216891 -0.021776162 -0.13810152 -0.88158906
000130 c9 11 11 bd c5 8b 1e bd 49 5f d2 3e 55 79 b3 bd
       -0.035417352 -0.038707513 0.41088322 -0.087633766
000140 e6 8c 28 bd 79 3a 83 bc a3 59 01 be e7 b2 43 bf
       -0.041149996 -0.016019093 -0.1263185 -0.7644486
000150 da 4a 0f bf 70 f6 68 bf e0 dd 31 be a3 47 aa be
       -0.5597359 -0.91001034 -0.17369795 -0.3325778
000160 0d ae ce bc 5a 2b 5d bf c5 b2 69 be b5 03 84 bd
       -0.025229478 -0.86394274 -0.22822101 -0.064460196
000170 cb fa 49 bf 62 b1 fb bc 0c 45 a2 bd d9 e1 f3 3d
       -0.78898305 -0.030724231 -0.07923326 0.119083114
000180 6f a5 30 be 8e 38 2c bf 99 ba 9f bf 91 3d 1f be
       -0.17250608 -0.67273796 -1.247882 -0.1555083
000190 80 ad ff be bc c6 25 bd 3c 5e 2f be 48 71 f9 bd
       -0.49937057 -0.04047273 -0.17125791 -0.1217981
0001a0 07 c6 68 bd bb 81 8c bd d6 4b 1e bf 8e c3 ef bd
       -0.05682948 -0.068606816 -0.61834466 -0.11707221
0001b0 ed 81 d6 bd 52 6a fb bc a1 62 92 bf 22 2e 2b be
       -0.10474 -0.030690346 -1.1436349 -0.16716817
0001c0 36 19 95 be 76 e6 55 bd 49 9d 68 be f4 c7 83 bd
       -0.29120797 -0.052221738 -0.2271625 -0.064346224
0001d0 3e 2a f8 be ae 76 a7 bd b6 d8 f3 be 1e 53 0a bf
       -0.48469728 -0.08176933 -0.47626275 -0.54033077
0001e0 cf 8e db be fd 51 27 bf 58 3c 17 bf ab fd 8a bd
       -0.42882392 -0.6535948 -0.5907645 -0.067866646
0001f0 c2 fa ad be 21 b9 5e bf 08 c6 56 bf 43 ff a9 bd
       -0.33980376 -0.87001234 -0.8389592 -0.083006404
000200 03 cc 45 bd 4d e5 90 bf 83 4d f2 bc 7e 71 06 bf
       -0.048290264 -1.1319977 -0.029577976 -0.52516925
000210 d4 89 ba bd 3e de 9f bd e9 6d 63 be 6f a5 a6 be
       -0.0910832 -0.07806061 -0.22209896 -0.3254809
000220 41 1d 2b bf 43 2f 13 bd 0a cb 53 3d 50 b8 0c bf
       -0.6684151 -0.035933744 0.051707305 -0.5496874
000230 65 61 cb 3e 20 5f 0f 3e 8d ed 72 bf 3e b7 34 bf
       0.39722744 0.14001131 -0.94893724 -0.70592105
000240 4c e3 8a 3d b9 8b 07 be 0e 9d d6 bd 68 e4 75 bf
       0.06781635 -0.13236894 -0.104791746 -0.96051645
000250 31 ae 9f bd 86 3a 06 be 28 f1 59 3e b6 16 00 be
       -0.07796896 -0.13108262 0.212834 -0.12508664
000260 31 d7 e9 be b9 5d 70 bd 6c 9e 48 bf 70 e0 80 bd
       -0.4567199 -0.05868313 -0.7836673 -0.06292808
000270 e4 ec c8 bd 42 22 09 3e aa c0 7f be 99 67 55 3f
       -0.09810808 0.13391975 -0.2497584 0.833612
000280 d2 01 62 bd 17 a9 dd bd 1a 62 4f 3f de 00 f1 be
       -0.055177517 -0.10823267 0.81009066 -0.47070974
000290 c0 74 b5 bf b2 10 af bd a4 03 2e bc 8c a5 3a be
       -1.4176254 -0.08548106 -0.010620985 -0.18227214
0002a0 64 08 88 bd 45 b1 b4 3d b7 05 7b bd f9 a3 a0 bd
       -0.066422254 0.08822874 -0.061284747 -0.07843775
0002b0 44 f6 cf 3e 72 f5 19 bd 87 21 38 3e 72 48 9a bc
       0.40617573 -0.03758759 0.1798154 -0.018833373
0002c0 f0 7c bf 3a 58 d3 4c 3c d7 27 31 bf 8a c8 e2 be
       0.0014609378 0.01250156 -0.69201416 -0.44293624
0002d0 0f f9 53 bf 2c c5 3c be 2a a5 a7 be ab b3 00 bf
       -0.8280191 -0.1843459 -0.32743198 -0.5027415
0002e0 34 51 48 bd bd 8a 01 3e aa 5f e4 bd 0b 40 97 bc
       -0.048905566 0.1265058 -0.11151059 -0.018463155
0002f0 55 d2 6a bd 5c 6e e3 be f4 fb 55 bf e4 84 14 bd
       -0.057329495 -0.44420135 -0.83587575 -0.036259547
000300 55 f0 91 be f9 19 2c bd 84 fd 9d 3e f1 b8 d4 bd
       -0.2850367 -0.042016957 0.3085748 -0.10386837
000310 85 72 2f bd 21 d5 b3 be 54 9a 6e be 0e 4d c5 bc
       -0.042833824 -0.35123542 -0.23301059 -0.024084594
000320 48 b1 30 bd 29 c7 05 be 5a 1b 7f be b6 ec 91 bd
       -0.04313782 -0.13064255 -0.24912778 -0.07125227
000330 9b 34 4d bf 5c 19 2c bf 79 41 6d bf f4 fd aa bd
       -0.80158395 -0.67226195 -0.9267803 -0.08349219
000340 8b 27 9e bd 63 7a 8f bd c8 a3 ea bc 39 5a 05 bf
       -0.07722386 -0.07005765 -0.02864255 -0.52090794
000350 36 92 81 bc a9 81 1c bc 53 a7 aa be 50 73 dd bd
       -0.01581679 -0.009552398 -0.33330783 -0.1081301
000360 ab 8e 58 3d 24 e5 d1 bb 9b 71 7f bf 36 48 2f bd
       0.052870434 -0.0064054895 -0.99782723 -0.042793475
000370 dc ba 3a 3d fd 3c 69 bf c0 a6 b2 bd 93 83 bb 3e
       0.04558836 -0.91108686 -0.08723211 0.3662382
000380 09 2e 6d bf b3 1a 9e bd 9b 12 de bd 9c 34 3b be
       -0.9264837 -0.07719936 -0.108433925 -0.18281788
000390 f8 67 14 bc 96 69 1f be 6c ea 0a be 32 f1 1d 3d
       -0.009057991 -0.15567622 -0.13565987 0.0385601
0003a0 86 0c 21 be 44 a1 8c be fb b1 80 bd 3c 8c 96 bd
       -0.15727434 -0.27466786 -0.06283947 -0.07350966
0003b0 dd 96 48 3e a9 9d b7 bd 55 96 81 3e 7e b9 71 bf
       0.195888 -0.08965618 0.25310007 -0.94423664
0003c0 4a 28 8f bf 84 5f 6b bc 27 e2 a4 bc ff 37 a9 bd
       -1.118417 -0.014366034 -0.02012737 -0.082626335
0003d0 64 80 9a bd 56 b6 db be ea 12 68 3c d0 a5 5a bf
       -0.0754402 -0.4291255 0.014164666 -0.8540926
0003e0 f4 b4 57 be 37 2b 08 bf fb 32 2f bd c3 40 ff bd
       -0.21065122 -0.5319094 -0.04277323 -0.12463524
0003f0 a7 17 7c 3e ce fd 5d 3e ba 9d a7 bd 57 10 8a be
       0.24618398 0.2167885 -0.08184381 -0.2696559

l3.weight f4 [6, 300]
000000 8a 09 8f bd 0c d0 c4 bf 0d 89 06 3d 1e db 8e 3e
       -0.06984241 -1.5375991 0.032845546 0.27901548
000010 b2 6e f7 bd e2 8a ea bc 5d e2 0a bf 41 fb 06 3c
       -0.1208166 -0.028630678 -0.5425165 0.008238615
000020 48 83 0f 3d a6 f4 ff bc 17 0d 36 3f 92 30 55 ba
       0.03503731 -0.031244587 0.71113724 -0.0008132543
000030 4e 21 c6 3e 86 3a 1c 3d 52 9a 6b be d8 14 9f 3a
       0.38697284 0.03814175 -0.23008087 0.0012136949
000040 7d f0 0e bf b7 a9 d7 3d aa 5b 3f bc fa 7d d7 bc
       -0.55835706 0.105304174 -0.011679569 -0.026305187
000050 b2 1b 62 bc ff 95 9c bd 2e 54 01 3d 73 ca 2c 3c
       -0.013800548 -0.07645797 0.03157442 0.0105463145
000060 0b 3b df 3c b1 cd 90 3f 54 b0 e7 3e d0 3a af bd
       0.027249834 1.1312772 0.45251715 -0.085561395
000070 25 62 f9 ba 02 bc 85 bc d6 c8 d6 3c e5 b5 85 be
       -0.0019026442 -0.016325 0.026218813 -0.26115337
000080 0c c3 10 3e 47 ec 4c bf 6a 1a d1 bd 07 0a c4 bc
       0.14136904 -0.8004803 -0.10210116 -0.023930563
000090 05 53 6b bf 14 56 1a 3d d4 26 89 bd 4d 66 76 bc
       -0.9192355 0.037679747 -0.06696859 -0.015039039
0000a0 ec 8f 33 bd 11 d4 76 3c 5c cb 21 be 5b 5f c1 3d
       -0.043838426 0.015065209 -0.15800232 0.09442016
0000b0 80 91 ed bc 1a f2 8a 3c 34 42 e9 be 3e 5e cc be
       -0.029000044 0.016961146 -0.4555832 -0.3991565
0000c0 cc b4 10 be 01 ae 45 bd 77 f3 14 3d 68 ed 4e 3f
       -0.14131469 -0.048261646 0.036365 0.80831003
0000d0 d8 b8 8f 3c 4b b9 4c bd e0 93 07 bc 6b e1 41 be
       0.017544195 -0.049981397 -0.008275002 -0.18933646
0000e0 04 a4 ce 3e 21 b4 d8 bd fb 1a 23 3d 1e c6 aa bc
       0.4035951 -0.10581232 0.039820652 -0.020846423
0000f0 62 b1 45 bd 08 17 53 3f 9c 98 19 be 53 29 8e 3e
       -0.04826487 0.8245702 -0.14999622 0.27765903
000100 f9 50 6a bd ca 5e ee 3c e8 aa 07 be 88 57 a3 3e
       -0.057206128 0.029097933 -0.1324879 0.3190272
000110 17 97 c1 3c 59 f5 bb bc 31 1a 9d bd bb b2 b5 bf
       0.023631616 -0.02294414 -0.07671011 -1.4195169
000120 4c a6 21 3d b7 f6 88 bd 35 16 12 bd dd 3d 93 be
       0.039465234 -0.06687682 -0.03566571 -0.28758135
000130 08 91 ff 3c c0 52 16 b8 3c 4d 51 3e f9 5c 0f bc
       0.031197086 -3.5839854e-05 0.20439619 -0.008750194
000140 12 3e 3c ba 92 b1 99 bd 4f f8 19 3d c2 7f 5c 3e
       -0.000718088 -0.07504572 0.03759032 0.2153311
000150 4d 81 d4 be 72 d7 49 3d 8d 9e 1c 3e db a6 08 c0
       -0.415049 0.04927773 0.15294857 -2.135184
000160 e4 b5 25 bd 40 c1 a2 be 6c 5c 87 be 44 29 81 bc
       -0.040456668 -0.31788063 -0.264377 -0.015766747
000170 f8 c1 3a be 38 71 f3 bc f6 05 22 bd a0 18 3b 3e
       -0.18238056 -0.029717073 -0.039556466 0.18271112
000180 5d a4 8c 3f dc 2b 6c 3d b0 64 26 3f eb 3e 15 3d
       1.098766 0.057659015 0.64997387 0.036436956
000190 20 f8 69 be e2 1b ea bc 33 f2 13 bd 86 9b b2 3d
       -0.22848558 -0.028577749 -0.03611965 0.0872107
0001a0 77 85 b5 bc b9 07 69 be a4 7a 8e bd ca 31 53 bd
       -0.022158368 -0.22756852 -0.069569856 -0.051561154
0001b0 12 a8 a3 bd 7f f9 d9 be 90 76 bf bd 7b f3 71 bf
       -0.07991041 -0.42573163 -0.09348786 -0.94512147
0001c0 8d 4e 85 bd b5 5f 62 bd e1 e3 2a be 51 9d aa 3e
       -0.06509123 -0.055267055 -0.16688491 0.33323148
0001d0 26 14 11 bf ab 51 0c be 22 ca 15 3e ed e4 99 3c
       -0.5667137 -0.13703029 0.14627889 0.018785918
0001e0 d7 59 0b 3f 63 c8 54 3e 8c d6 b4 be 7b 02 8d bb
       0.5443396 0.20779566 -0.35319936 -0.004303274
0001f0 e2 44 92 be 5e bf 7c 3e b6 6c 43 be 19 28 1a 3c
       -0.28568178 0.24682376 -0.19084439 0.009408974
000200 02 fa 0f bd af a5 7d 3f 33 ba 87 bd 29 d0 35 bd
       -0.035150535 0.9908094 -0.066273116 -0.04438797
000210 b5 24 06 bd 9e 56 4c bd 92 70 c3 3e 75 f8 79 3d
       -0.03274985 -0.049887292 0.38171822 0.061027963
000220 19 dd 20 bc 66 62 ad 3d ca 46 a8 be 3e e1 f1 be
       -0.009818339 0.08466034 -0.32866508 -0.4724216
000230 cf 64 3d 3e 98 12 61 bd d1 19 29 bd e6 73 80 bf
       0.18495487 -0.054949373 -0.041284386 -1.0035369
000240 a1 6d 39 3f 91 6c 15 bd 23 2c 29 3e d3 22 fd 3c
       0.72432905 -0.03648049 0.16520743 0.030900395
000250 60 34 c7 3c 23 ab 38 3d 29 90 c4 3e b3 0c da 3b
       0.024316967 0.045085084 0.38391235 0.006654346
000260 5e c6 96 3f 73 bd d9 bc 82 c3 f4 be ce be 8e 3b
       1.1779287 -0.026579594 -0.4780541 0.004356242
000270 14 2d e5 bd 65 84 bd 3d 8a d7 ab bd 80 47 e1 3e
       -0.111902386 0.09253768 -0.0839072 0.43999863
000280 ef 26 05 bd 00 29 1c bc 74 d1 90 3e fa 09 69 bd
       -0.032507833 -0.00953126 0.282848 -0.05689428
000290 32 2f 47 be 6c eb d9 bc 07 b1 51 be 8d 68 ae bd
       -0.19451597 -0.026601516 -0.20477687 -0.08516035
0002a0 e4 9a 2a bc fb 1a 00 3e 19 30 8f bd 2a 69 88 ba
       -0.010412905 0.12510292 -0.06991596 -0.0010407318
0002b0 60 83 48 3f 8e 9d 4a bd 83 74 a4 3d 98 bb 09 bd
       0.7832546 -0.049466662 0.08030035 -0.03362617
0002c0 e7 0b c2 bd f2 7d 1b 3d a9 fe 9b 3e 63 3a e9 bf
       -0.094749264 0.037961908 0.30467728 -1.8220943
0002d0 5c 48 5e bf d0 13 e4 bd fa 01 7b bc 4f 92 8e 3e
       -0.8682916 -0.111365914 -0.0153202955 0.27846
0002e0 b6 a3 e3 bd 19 fe 33 be c7 8d 7a bd 5b 90 fa 3b
       -0.1111521 -0.175774 -0.061170366 0.007646603
0002f0 ec 74 60 bb 59 9d 0d 3e eb 40 93 3e b9 5c 71 3c
       -0.0034249378 0.13829555 0.28760466 0.014731579
000300 4b d6 4f be 60 ff 08 bb ce 38 8e be da dd 81 3d
       -0.2029659 -0.0020904168 -0.27777714 0.06341143
000310 37 57 a6 bd 32 11 22 3f 2b 6f bd 3d f0 4f 31 3c
       -0.08122104 0.6330749 0.09249719 0.010822281
000320 87 9f 21 3d 19 39 1b 3d 26 a6 00 bd 55 69 53 bd
       0.039458778 0.03789625 -0.03140845 -0.051614124
000330 d3 b9 b1 be 2f 17 87 be 23 e7 8b 3d 6f a6 20 be
       -0.34712085 -0.26384875 0.06831195 -0.1568849
000340 49 b5 3d 3c d6 ef 57 b9 32 58 ac bb ac b0 90 be
       0.011578866 -0.00020593344 -0.005259537 -0.2825979
000350 96 4d 22 bd c6 32 e5 3c ea 09 ab be 7b 25 0c be
       -0.039624773 0.027978312 -0.33406 -0.13686173
000360 7b 2d c7 3e 44 60 a9 bd b8 de 15 3e 8c 82 28 3e
       0.38901886 -0.08270314 0.14635742 0.1645605
000370 fe f6 02 3d 5b 97 03 3f de 79 7e bc d5 97 8b bc
       0.03197383 0.51402825 -0.015531985 -0.017040173
000380 9a 72 0e bf b6 cb 04 3d 75 03 25 bc ae 27 8f 3e
       -0.5564362 0.032420836 -0.010071625 0.2795996
000390 1a 1e ca 3e e8 67 c7 bc 8f 2c 2b bd 7a f7 92 3d
       0.3947609 -0.024341539 -0.04179054 0.07176109
0003a0 b4 ec 59 3d 11 a4 58 3d 03 c9 43 bd d5 b0 7b bd
       0.053204253 0.05289084 -0.04779912 -0.061447937
0003b0 43 77 cd 3e f8 d0 a1 3c be db 86 be 85 5b 80 3e
       0.40130052 0.019752964 -0.26339525 0.25069824
0003c0 95 84 d0 3e 99 3e 91 bd 7c dc c9 3c 10 35 27 3d
       0.40726152 -0.07092018 0.024641268 0.04082209
0003d0 db f3 56 be 6f 9c 92 3d 0c ca 30 bd 97 00 08 bf
       -0.20991461 0.071587436 -0.043161437 -0.531259
0003e0 96 5e 8a 3e aa f0 8a 3e 2e 8f a7 bd 5c 90 81 bd
       0.27025288 0.27136737 -0.08181606 -0.063263625
0003f0 38 17 6c be 40 9d 8a be 19 1e cf bc 34 1d 0f c0
       -0.23055732 -0.27073097 -0.025282906 -2.2361574

l3.bias f4 [6]
000000 e2 58 d2 3e 68 49 f9 be 51 2a 6f 3e ac 28 a2 bd
       0.41083437 -0.48688817 0.23355986 -0.07917914
000010 f7 02 cd bd 89 69 56 3b
       -0.10010331 0.0032716712
