preTrained/RoboschoolWalker2d-v1/TD3_RoboschoolWalker2d-v1_0_solved_actor_target.pth (torch_old, 526264 bytes, 6 tensors)

l1.weight f4 [400, 22]
000000 da 78 8e 3d 48 ea 9b 3d d7 88 36 be 39 c2 83 3f
       0.06956644 0.07613045 -0.17825638 1.0293647
000010 4d ba c6 bd ce a9 09 bf 98 57 2e 3e f9 16 98 3f
       -0.09703503 -0.53774726 0.17025602 1.1882011
000020 68 da 2e 3f c1 68 1c bf 4a f6 5d 3f 37 f1 fa 3d
       0.6830201 -0.6109734 0.8670393 0.12253039
000030 8c 15 c0 3e 18 c6 22 be 34 2d dc bf e3 23 ec be
       0.3751644 -0.1589588 -1.7201295 -0.4612113
000040 fe 37 11 3f e1 bd bf 3e aa 70 7c be 6f be ba be
       0.5672606 0.37449554 -0.24652353 -0.36473414
000050 ed 0d 64 be 70 96 8e 3e ba 94 ac bf a6 da 44 be
       -0.22270937 0.2784915 -1.3482888 -0.19224033
000060 f9 54 19 be 02 78 1e 3e ba 02 12 3e 76 50 88 bf
       -0.14973821 0.15475467 0.14258853 -1.0649555
000070 70 9f 07 3e 5c 0c d9 bf ad 26 8f 3e b9 9f 63 3f
       0.13244414 -1.6956897 0.27959195 0.8891559
000080 31 04 37 bf eb 90 be be 67 8f 13 be 3b 5d 21 be
       -0.7149077 -0.3721994 -0.14410172 -0.15758221
000090 e6 27 fc be 27 b9 65 bf 81 55 fb be bc 23 c1 be
       -0.4924919 -0.89735645 -0.49088672 -0.37722576
0000a0 3f c9 51 be 92 df ea be 1b b3 10 bf 93 a3 2c be
       -0.20486926 -0.45873696 -0.56523293 -0.16859274
0000b0 96 82 9b 3d e0 23 74 3c 55 0d 88 be d1 d3 d0 3d
       0.07593267 0.014901131 -0.26572672 0.10196651
0000c0 ba 08 4e 3e 3e ed a6 3d 3a 44 14 3e 8f 10 31 bd
       0.20120516 0.08150719 0.14479151 -0.043228682
0000d0 d6 56 9b be 9a 40 58 bd c6 3b 19 bd 72 73 52 3d
       -0.30339688 -0.052795984 -0.03741052 0.05137963
0000e0 8a ed 6f 3d 6b 2c 65 3d 55 34 8e be 2d cf 18 3d
       0.058576144 0.055950563 -0.277743 0.037306953
0000f0 fa 1f 5f be b4 57 f9 bd f5 dc 9a 3d 1b a8 e6 3d
       -0.21789542 -0.12174931 0.075616755 0.11262532
000100 2d 30 8d bd 0c db 70 be e0 b8 42 bd be 63 a0 bd
       -0.068939544 -0.2352106 -0.04753959 -0.07831524
000110 ad 1d 8e be 44 cb ff bd 71 a4 57 be 05 48 18 3e
       -0.27757016 -0.12489942 -0.21058823 0.14871223
000120 10 1e 8a 3d 9d 06 03 3e 18 28 41 3d 8b b4 ec bd
       0.06744015 0.12795492 0.047157377 -0.11557873
000130 36 9d 95 be 9d 81 14 bb 34 e9 80 3b 31 85 4e 3d
       -0.29221505 -0.0022660263 0.00393405 0.05041999
000140 41 b7 48 be 60 c7 31 3e 87 65 2a be bd 0d 13 3e
       -0.19601156 0.17361212 -0.16640292 0.1436071
000150 41 c5 4e be 57 2c b9 bb 8d 2c 8b bc bf d7 b4 3d
       -0.20192434 -0.0056510377 -0.016989017 0.08830213
000160 c4 f3 f2 3d d0 ba 26 3c 5d 08 8a be af 2c b1 3d
       0.11862901 0.0101763755 -0.26959506 0.08651101
000170 40 7f c4 3d 36 1f 2a bd 6c ef d6 3d 5e 63 18 3e
       0.095945835 -0.04153367 0.10494885 0.14881656
000180 f7 a5 b8 bd 9e f4 37 be 8f c4 2c be 59 2e 5a bd
       -0.0901603 -0.17964408 -0.16871856 -0.053266857
000190 9b dd 74 3c 3f a7 ba bd a2 b2 5b be 6a 3b 56 3e
       0.014945413 -0.09113931 -0.21454862 0.20921102
0001a0 06 e2 28 bb e6 45 1c 3e 8d 31 1f be 01 29 ce 3b
       -0.0025769486 0.15261039 -0.15546246 0.006291509
0001b0 14 b1 8d 3d 50 a7 4d 3d a9 29 c1 3e ad 69 16 be
       0.069185406 0.05020839 0.37727097 -0.1468875
0001c0 6f 18 ab bd 03 47 fb 3d c1 09 be bd 6d e9 84 bc
       -0.0835427 0.12269404 -0.09279204 -0.016224587
0001d0 b0 74 44 3d 15 6c 0c 3e a3 d2 77 3c ef ed af bd
       0.047962844 0.13713105 0.015125903 -0.08590304
0001e0 8e d9 9c be f3 78 e8 3d 3b 90 77 3d 80 4d 4a bd
       -0.3063473 0.11351194 0.060440283 -0.049390316
0001f0 67 16 3f 3c b4 58 7d be 8d 96 0a be 8e 3a 91 bd
       0.011663056 -0.24740869 -0.13533993 -0.070912465
000200 8e 6d 95 be dd 1f 04 3d 3e 94 a0 3c b6 0c 12 be
       -0.29185146 0.03225695 0.019601937 -0.14262661
000210 9c 8e fd 3d a8 cd 73 bd b7 4e a0 bc df 47 27 3d
       0.12380716 -0.0595223 -0.019568784 0.040840026
000220 e8 ac dc 3d 63 8a 69 3c 70 67 19 bd 8e c0 83 3e
       0.10775167 0.014254185 -0.03745216 0.25732845
000230 c2 fd e8 bd 7b 30 ef 3d 23 e3 6e be 8f b8 ae 3d
       -0.113765255 0.11679169 -0.23328833 0.085312955
000240 7e 46 95 bd 04 93 ff 3d c0 75 3c be 87 59 ac 3d
       -0.07288836 0.12479213 -0.18404293 0.084155135
000250 77 2f 39 be c1 6b 5f 3e 2a 98 6b be d3 3c 65 be
       -0.18084513 0.21818449 -0.23007265 -0.22386484
000260 de eb 94 be 06 0f 15 be 17 4c a2 3f 00 36 d5 ba
       -0.29086202 -0.14556512 1.2679471 -0.0016266704
000270 cc 9c f1 be ae 4a ac 3e f8 5a f5 3d 6e cd aa 3e
       -0.4718994 0.33650726 0.119802415 0.33359855
000280 e8 0e 5a 3d ed 1c 0b 3f 94 eb fd be 28 14 b6 be
       0.053236872 0.5434101 -0.49593794 -0.35562253
000290 a0 b5 b5 be 47 2e 2e 3e ea 5d e3 3d 68 b5 ca 3c
       -0.3549013 0.17009841 0.11101897 0.024744704
0002a0 6a be 55 be 3b 84 79 3c 5c 3b f5 be f8 cb ba 3e
       -0.20873418 0.01522928 -0.4789685 0.3648374
0002b0 5f e0 b1 bf d1 1a 5a 3d 40 35 b4 bd 86 6d 98 be
       -1.3896598 0.05324823 -0.08799219 -0.2977106
0002c0 99 30 4a 3e b6 ca 0e 3e 76 8f 90 be b8 5b 3b bd
       0.19745101 0.13944516 -0.28234452 -0.045741767
0002d0 c8 18 46 3e 97 7b 31 3c c4 9e d8 3d 20 70 b2 3e
       0.19345391 0.010832689 0.10577157 0.3485117
0002e0 6f 45 30 3e 23 6c 6d bc 28 ca 39 be ad 72 04 3e
       0.17213987 -0.014491114 -0.18143523 0.1293437
0002f0 ca 16 66 be 04 57 89 be c3 65 79 3d 8d 2a 1c 3e
       -0.22469631 -0.268242 0.060888063 0.15250607
000300 42 5d 57 bd b4 57 79 3e e6 3f 9d be ae 86 a2 bd
       -0.052579172 0.24349862 -0.30712813 -0.07935844
000310 a6 ce 99 be 62 b0 52 be b3 2c e3 3d b0 7f 12 bd
       -0.30040473 -0.20575097 0.1109251 -0.035766304
000320 85 0c 8b be 3b cb e9 bd c2 56 0e 3e ec cb 0b 3d
       -0.2715799 -0.11415716 0.13900283 0.034130022
000330 0c 86 f8 3d da 90 54 3e e6 05 96 be 5d 11 15 3e
       0.121349424 0.20758381 -0.29301375 0.14557405
000340 2a 1c d6 bc 8d e0 9f bd 5a bc 53 be 7e 54 1b be
       -0.026136477 -0.078065015 -0.20677319 -0.1516895
000350 3e c0 a1 3b c4 b4 89 3d 51 f5 40 be 5b 70 68 3e
       0.004936247 0.067239314 -0.18843581 0.2269911
000360 6b f3 e1 bd 03 9c 71 be 38 ff 3f ba e2 fd 5c be
       -0.110327564 -0.2359467 -0.00073241023 -0.21581224
000370 8c 54 7c 3e 58 11 a1 3c 8a ed 56 be 6c d9 0f 3e
       0.24641627 0.01966159 -0.20989051 0.14047784
000380 b8 77 33 3d ae 05 ab 3c 04 ab da 3d 38 9e 4b bd
       0.043815345 0.020876732 0.1067715 -0.049711436
000390 63 1b ef bd 51 6d 46 be 73 58 63 bd 5f 0c b3 bd
       -0.116751455 -0.19377638 -0.055504274 -0.08742594
0003a0 06 09 96 be 5d a3 05 3e 5e d3 96 be 81 65 5f bd
       -0.2930376 0.130506 -0.29458135 -0.05454016
0003b0 c4 fb 79 be 48 08 45 3e 86 21 94 be 6f 3e 2d 3c
       -0.24412447 0.1924144 -0.28931826 0.010573967
0003c0 89 d2 3f be 79 95 41 be 14 84 f2 3e e1 f4 f9 bd
       -0.18732657 -0.18904676 0.47366393 -0.1220491
0003d0 f3 b9 67 be 99 7c 47 3d c1 85 4a be 03 c8 21 3e
       -0.22629528 0.04870281 -0.19777586 0.15798955
0003e0 29 a8 c7 3c e1 aa 53 bc 22 5c 99 be 85 3e f5 3d
       0.024372177 -0.012919159 -0.29953104 0.11974815
0003f0 7d d3 7e be de 52 81 bd 62 ec 24 be 76 9f 8f 3d
       -0.24885364 -0.06314634 -0.16105798 0.07012837

l1.bias f4 [400]
000000 e9 76 87 3d 74 6a e3 bd 8b 16 e5 bd b0 9e b7 bd
       0.06614477 -0.11104289 -0.1118594 -0.08965814
000010 dd ce 84 be 2f 86 80 be 25 68 8f bd 14 f5 f1 be
       -0.25939074 -0.25102374 -0.07002286 -0.47257292
000020 66 5c 92 be e9 a1 47 be d6 2e 91 bd 7e 89 5c be
       -0.2858612 -0.19495358 -0.07089011 -0.21536824
000030 4a 11 50 be 4f 9c a1 be dc 99 dd 3c 95 be 11 3d
       -0.20319095 -0.31564566 0.027050905 0.035582144
000040 81 38 f1 be 4c 0f fa be 90 55 b2 bd 8d f8 0b bf
       -0.47113422 -0.48839796 -0.08707726 -0.54676133
000050 73 0d 7c 3d 97 03 ac bd 06 2e 27 3e 28 f6 ba bd
       0.061536264 -0.08399122 0.1632615 -0.09128982
000060 bc 00 f8 be 08 49 b5 be 2a e6 98 3d 63 c1 64 be
       -0.4843806 -0.3540728 0.07465775 -0.22339396
000070 cb 22 8a be c2 35 07 3e 4a c6 d5 be d9 80 c6 be
       -0.2697967 0.132041 -0.41752845 -0.38770178
000080 8d d3 84 bd 0f fa 00 be 83 7d 94 be 8e 0b 32 bf
       -0.064856626 -0.1259539 -0.29002008 -0.6954888
000090 b2 f0 62 bd a0 14 3b be e4 ee 95 be 08 5c b6 be
       -0.055405326 -0.18269587 -0.29283822 -0.3561709
0000a0 71 6d 17 3e 48 43 37 be 91 30 4d be 4d 99 52 be
       0.14787842 -0.1789676 -0.20038058 -0.20566292
0000b0 d6 4f e6 3d 37 1c f4 3d fb 99 86 be fb 61 8d 3d
       0.11245696 0.11919444 -0.26289353 0.06903454
0000c0 4f 6d 2d be d2 71 d0 be e3 34 ad bd 59 2f 62 bf
       -0.16936229 -0.40711838 -0.08457353 -0.88353497
0000d0 59 e5 c8 be 1f d6 a1 be 37 68 93 be 78 c2 29 3e
       -0.39237478 -0.31608674 -0.28790447 0.1657809
0000e0 04 fe 4a 3e 81 d1 cd bd 21 0b 6a be 1f d4 7e be
       0.19823462 -0.10049725 -0.22855808 -0.24885605
0000f0 cb ce 21 be fa e6 5b be a6 9d 1d be 7f d2 b9 be
       -0.15801542 -0.2147483 -0.1539217 -0.36293408
000100 d6 a7 1a be 6f c0 4a 3e c3 d5 8a 3e ad 2e ba be
       -0.15103087 0.1979997 0.27116212 -0.36363736
000110 ff bf a0 be d3 55 e5 be 22 47 d6 bd 43 1b a9 be
       -0.3139648 -0.4479204 -0.10462786 -0.33028612
000120 19 24 95 3e ef a5 2e 3e e6 20 9e be 37 c4 bf be
       0.29129103 0.17055486 -0.30884475 -0.37454388
000130 76 9d c5 be 4a 21 34 3e ed c3 89 bc 6a 7e 8e 3d
       -0.38596696 0.17590824 -0.016817058 0.06957705
000140 37 26 2d be 25 3c 0e be 62 72 54 be 47 21 ac be
       -0.16909109 -0.13890131 -0.20746759 -0.3361914
000150 ec d1 29 be 8b 42 0c bd 90 41 b5 3d cc 5c 59 be
       -0.16583985 -0.034243148 0.08850396 -0.21226805
000160 1a 94 88 be 3d 6d 01 be 45 45 8d be 28 aa b6 be
       -0.26675493 -0.12639327 -0.2759191 -0.35676694
000170 7f 80 9d bd d2 1b de bd d7 15 2a be 1b 10 6b 3e
       -0.07690524 -0.1084515 -0.16609894 0.22955362
000180 e6 66 a3 3c 25 33 83 be b6 7f 7c 3e 38 28 9b be
       0.019946527 -0.25624958 0.24658093 -0.30304122
000190 be ef bf 3d 49 e5 4e be 9a c1 3b bf 19 9c 49 bf
       0.09371899 -0.20204653 -0.7334229 -0.7875381
0001a0 c6 e4 1a be 87 76 a3 be 6c d3 f7 bd ed 39 82 be
       -0.15126333 -0.31926367 -0.121008724 -0.2543482
0001b0 87 88 46 be be b6 94 be e2 12 23 be e0 5d 99 be
       -0.19388019 -0.2904567 -0.15925172 -0.29954433
0001c0 75 f6 03 bd aa 70 22 be c7 76 14 bd 10 0b b4 be
       -0.03221746 -0.1586329 -0.036246087 -0.3516469
0001d0 c9 66 e3 bd 97 e2 a4 be 7d 33 97 bf fe de 9f be
       -0.11103589 -0.32204124 -1.1812588 -0.31224817
0001e0 48 df 36 be bf bb 99 bf cc 83 24 bf c4 c3 11 bf
       -0.17858613 -1.201042 -0.64263606 -0.5693934
0001f0 ed fb 6a 3d 94 61 8e bc 90 6c 59 3d 94 7d fe bd
       0.05736916 -0.017380513 0.05308205 -0.12426296
000200 8f 23 13 bf 9d f9 80 be f2 59 50 be 28 07 0a be
       -0.57476133 -0.2519044 -0.20346811 -0.13479292
000210 8f 83 fd be b7 3e 62 3e cc 4a 49 3e 5e 96 9c be
       -0.49514434 0.22094236 0.19657439 -0.3058347
000220 0b f9 f7 be f5 a6 0a be 6a 7b 0d be 2b c5 d2 bd
       -0.48432192 -0.13540252 -0.1381661 -0.10291513
000230 f2 f9 18 3e 1e fe 92 be 09 fc 21 bf 41 7e 45 be
       0.14939097 -0.287095 -0.632752 -0.19286443
000240 5f 4c 80 be 9a 98 19 3e 9e ed 62 3e c2 ae 36 bd
       -0.25058267 0.14999619 0.22160956 -0.044600256
000250 2a 3b d5 be 8f 9d b1 bd 19 9a c0 3d cc 7f 95 3d
       -0.416467 -0.0867263 0.09404392 0.07299766
000260 d8 e2 dc be 83 b8 66 be e6 d2 91 be 5e 34 97 3c
       -0.43141818 -0.22531323 -0.28481215 0.018457588
000270 77 17 24 be fd 09 04 be eb c7 62 be e7 b7 a2 be
       -0.16024576 -0.12894435 -0.22146575 -0.3178093
000280 45 07 8f be f5 a4 26 3e 9c 47 69 3f c9 1c 8e be
       -0.27935234 0.16273864 0.9112489 -0.27756336
000290 88 2b 3c be e0 34 3f bd fb 04 bc 3e b9 d6 2a be
       -0.18375981 -0.046681285 0.3672255 -0.16683473
0002a0 66 01 8d be 8b c1 6e be 40 19 17 3f 97 67 4e 3c
       -0.2754013 -0.23316018 0.59022903 0.01259794
0002b0 3c 79 f7 3d 45 18 0e be 65 86 46 be 69 95 47 bc
       0.120836705 -0.13876446 -0.19387205 -0.012181618
0002c0 ac c6 76 be e9 0c cb be 7d 4a e0 bc 1b 81 e0 bd
       -0.24099225 -0.39658287 -0.027379269 -0.10962125
0002d0 bc ba 72 be 87 1b 2e be 70 cf b2 bd ce eb 9a be
       -0.23704046 -0.17002688 -0.08730972 -0.3025803
0002e0 41 41 4b be 98 bd 33 bd 15 fa 85 bd 0a d5 d8 bd
       -0.19849111 -0.043881983 -0.0654184 -0.10587509
0002f0 33 9d 1d 3e 11 ec 4d be c0 21 b1 be 89 fa 83 bc
       0.15391998 -0.20109583 -0.34596062 -0.016110675
000300 a0 f0 6b 3e 59 0a d8 3c cc 99 7e bd 9d fb 8a be
       0.2304101 0.026372122 -0.06215839 -0.2714509
000310 b8 42 3b be e2 88 a6 3e a1 fe 4e be 4b 5a cd 3d
       -0.1828717 0.32526308 -0.2021432 0.10026988
000320 9f 65 12 3f 39 26 e4 bd ad fc 86 be 17 1b a6 be
       0.5718631 -0.11140103 -0.2636465 -0.32442543
000330 ab 52 e8 bd 35 fa 50 be 16 12 74 be b8 b8 b8 bc
       -0.11343893 -0.20407946 -0.23835024 -0.022549018
000340 87 14 1c 3c 48 8c d7 b7 0c 1a 56 be 41 03 49 be
       0.0095263785 -2.569532e-05 -0.20908374 -0.19630148
000350 db a2 9c be ce 34 93 be 6f ad 27 be 0f a5 2b bc
       -0.30593 -0.28751224 -0.16374753 -0.010476365
000360 fa 1e cc 3e 4e 44 4f 3e b0 65 0f be 5c 00 f2 3d
       0.39867383 0.202409 -0.14003634 0.11816475
000370 dd 12 82 bd 75 a4 7f bd ab d0 ec be ae ea 9b 3e
       -0.06351254 -0.062412698 -0.4625295 0.30452484
000380 00 df 16 bf 93 ba 01 be dd 0b 92 be 3b 1a e1 be
       -0.5893402 -0.12668829 -0.28524676 -0.43965325
000390 c5 2c 8f be 71 f8 ae be fa ac 54 be 69 e8 94 be
       -0.27963844 -0.3417392 -0.2076911 -0.29083565
0003a0 2b e3 6b be 35 c0 c5 3e 56 ca db be 77 56 a6 be
       -0.23035876 0.38623205 -0.42927808 -0.32487842
0003b0 de 9d a9 bd 5d f6 8c bd 47 0e b8 be 7f 5e aa be
       -0.08282064 -0.068829276 -0.35948393 -0.3327522
0003c0 13 96 6c bf 30 71 b0 bd 08 06 bc bd 33 38 8c bd
       -0.92416495 -0.08615339 -0.09180838 -0.06846657
0003d0 45 5b 81 bd 23 d0 ed bd 1f ac aa be 78 c5 bc be
       -0.063162364 -0.116119646 -0.33334443 -0.36869407
0003e0 3a 12 da bc 04 09 9f be db ec 26 be 80 ad 3a be
       -0.02662002 -0.31061566 -0.1630129 -0.18230247
0003f0 5d bc 85 be 6c af fd bd a7 ca a2 be d2 44 c3 3d
       -0.26120272 -0.12386975 -0.31795236 0.09534611

l2.weight f4 [300, 400]
000000 b7 45 2e bd 6b 40 ea bd 4f fe b2 3c 62 a3 50 bc
       -0.042546954 -0.11438068 0.02184978 -0.012734266
000010 00 93 17 bc cd f8 1c 3c 62 75 e0 3c 92 33 59 bd
       -0.009251356 0.009580803 0.027399722 -0.053027697
000020 c5 48 05 bd b2 a1 ac 3c b8 25 3f bc 1d 10 30 bd
       -0.0325401 0.021073196 -0.011666708 -0.042984117
000030 e5 b5 01 bd 55 69 01 bd 4b dc f5 3c 66 13 ac 3c
       -0.03166761 -0.031594593 0.03001227 0.021005344
000040 76 5e 2d 3d 92 72 5b bd ac aa 03 3c 5e 4f 13 bd
       0.042326413 -0.05357606 0.008036297 -0.035964362
000050 30 26 21 bb 0d b9 97 3c 75 5b 08 bd 52 5b 62 3b
       -0.0024589412 0.018520856 -0.033290345 0.0034539294
000060 86 e1 cc 3c 6d 83 15 3d c8 a1 59 bc ba 38 a0 3c
       0.025009882 0.03650229 -0.013283201 0.0195583
000070 ad bd 1d 3a 46 0d a7 3a 31 21 4e bd 7e 79 99 bd
       0.00060173386 0.0012745045 -0.050324623 -0.07493876
000080 b8 79 b6 bb 8d 6e c1 bc 34 b5 51 bc d3 e3 77 3c
       -0.005568709 -0.023612285 -0.01279955 0.015130001
000090 62 5c d5 3c 78 16 15 bd 18 76 b4 bd 5f 21 a3 bd
       0.026045028 -0.03639838 -0.08811587 -0.079653494
0000a0 e0 a0 c6 3b 56 2d 14 bd 87 e1 26 bd fd 03 9e 3b
       0.0060616583 -0.03617605 -0.040742423 0.004822253
0000b0 a1 10 44 bd 6a 6d 6f 3c 29 6e 59 3b 03 10 67 bd
       -0.04786742 0.014613489 0.0033177233 -0.056411754
0000c0 f2 ea 6e 3c 53 da ea bc 1f 36 2b bd 1e f8 93 bd
       0.0145823825 -0.028668558 -0.04179966 -0.07225059
0000d0 48 f7 32 bb 64 35 53 3c 85 db 8e bd 29 1f 38 3d
       -0.0027308036 0.012891147 -0.06975464 0.04495159
0000e0 f1 8e c3 bc e0 78 3c bd 0c c7 04 39 40 df 39 bc
       -0.02387187 -0.046013713 0.00012662652 -0.011344731
0000f0 c6 02 96 bd 35 d8 87 bb fb 5a 6a bd dc 08 0c 3c
       -0.07324748 -0.004145647 -0.057215672 0.008547034
000100 f4 7b 0d 3c 98 a0 48 bd 06 37 1f bd 3b 09 68 bd
       0.00863551 -0.04898128 -0.038870834 -0.056649428
000110 40 85 48 3c 2e 2b 92 bc 2e b3 a5 3c 7e d7 9a bb
       0.0122388005 -0.017842855 0.020227041 -0.0047253957
000120 b6 d5 0c bd f3 53 ea bc b0 bf 01 3b 52 a3 ef 3c
       -0.034383498 -0.028604483 0.0019798093 0.029252682
000130 09 5f 42 bd 1c 3b f4 bc fa 22 eb 3b 80 88 4a 3b
       -0.047453914 -0.029813342 0.0071758004 0.0030904114
000140 a6 ba ad 3c 7d 43 09 bd 82 81 d2 bc 40 27 d5 bb
       0.021207165 -0.033511627 -0.02569652 -0.006504923
000150 04 03 7e bc 15 b5 84 bc b2 3c d8 bc f7 19 ae bd
       -0.015503649 -0.016199628 -0.02639613 -0.08501046
000160 97 14 be 3c e6 58 9d bc 29 3c 0a 3d 40 41 4b 3d
       0.023203177 -0.01920743 0.03374878 0.049622774
000170 84 5f f9 bc 8c 39 74 bd ec 64 ff bc a5 00 81 bd
       -0.030441053 -0.059625193 -0.031176053 -0.06298951
000180 52 bc 2f bd af 9a 27 bd e5 f4 83 bd e2 5e d1 bd
       -0.042904206 -0.040919002 -0.06443194 -0.102231756
000190 e4 76 7f bd f0 65 b5 bc 4c 4b 09 3c d0 25 3b bc
       -0.062369242 -0.022143334 0.008379769 -0.011422589
0001a0 d5 2b 05 bd a0 15 3f bc 31 c0 c0 bc 80 a3 70 3a
       -0.032512505 -0.011662871 -0.023529144 0.0009179637
0001b0 48 eb b4 bd e2 0f 23 bd 5e d2 12 bd de 54 29 39
       -0.08833939 -0.03981007 -0.035845153 0.00016148711
0001c0 70 bf 3d bd 4e 12 9f bd 15 97 09 be db ca f4 3c
       -0.046325147 -0.07767163 -0.1343654 0.029881885
0001d0 b4 3c 8c bc a8 cc ec bb 2d e4 08 bb fb e8 63 bd
       -0.01711879 -0.0072265454 -0.0020887956 -0.05564211
0001e0 b8 7f 35 bd e1 d1 c2 b9 94 18 00 bc cb 3c e8 bc
       -0.044311255 -0.00037158935 -0.00781836 -0.0283493
0001f0 be d5 93 bc 78 c6 bd bd 8d 90 39 bd c6 20 91 bc
       -0.018046256 -0.092663705 -0.04530387 -0.017715823
000200 35 5d 0f bd 36 54 1d bd bf e5 a1 bc dc 4d 0d 3c
       -0.035001 -0.038410388 -0.019762872 0.00862452
000210 8e 11 9c bc bf 87 00 bc 13 a2 6a bd ac b2 71 bd
       -0.01905134 -0.007844864 -0.057283472 -0.059008285
000220 07 f4 a5 bb ee 3b 23 3c cd f2 1d 3d 9e d1 28 3d
       -0.0050644907 0.009963019 0.03856163 0.04121553
000230 fd c6 8a bc f4 11 f5 bc c0 be b4 bd 06 ea 16 bd
       -0.016940588 -0.029915787 -0.08825445 -0.036844276
000240 8a 2c b9 bc 28 ad 42 3c 85 4c 91 3c 66 68 10 be
       -0.022604246 0.011882104 0.017736683 -0.14102325
000250 d6 79 11 bd 2e 45 16 bd 09 44 d3 3c cf 2c a5 bc
       -0.035516582 -0.03668707 0.025789278 -0.020162968
000260 2b 01 e7 bc ef a6 26 bb 34 3f 79 bc cc 6a 8a 3b
       -0.0281988 -0.002542909 -0.015212823 0.004224157
000270 81 65 46 bd 0f df 32 3b 32 28 d1 bc 57 4d a7 bc
       -0.048436645 0.0027293598 -0.025531862 -0.02042262
000280 1a 1d 60 3c 04 98 fa bc 71 8a 4a bd 1d 84 05 bd
       0.013678813 -0.030590065 -0.049448434 -0.032596696
000290 c4 fe 05 3b 00 8d f5 bc 9a 4c b1 3c c8 2c c1 3b
       0.0020446042 -0.02997446 0.021642972 0.005895231
0002a0 33 61 6d bd a5 63 16 3c 64 0d 02 3d ab 2f f2 3c
       -0.057954025 0.009179031 0.03175105 0.029563745
0002b0 80 5c bb bd 3b 52 60 bb 1e a7 14 bd 44 c4 7c bc
       -0.09148502 -0.00342287 -0.036292188 -0.015427653
0002c0 cf e2 28 3d ab 1f 7d 3c ad 40 34 3d 39 5b d2 3c
       0.041231927 0.015449445 0.044006992 0.025678264
0002d0 3e f0 19 bd 7a 81 6e 3c 60 89 33 bd e6 42 0f bd
       -0.03758263 0.014557237 -0.043832183 -0.03497591
0002e0 8c 33 35 3c ba 29 54 bd bd 1e 0c bd 87 57 24 bd
       0.011059653 -0.051797606 -0.034209 -0.040122535
0002f0 79 37 40 bd 25 2c 19 3c 5c 98 72 bd 16 35 11 bd
       -0.046927903 0.009348904 -0.059227332 -0.035451017
000300 92 0c 28 bd 3e b0 ac 3c cf 79 2d bb 9f 9e 37 bd
       -0.041027613 0.021080133 -0.0026470309 -0.044829007
000310 b5 3b 06 bd 5f e1 b5 3c cf 07 27 bd 83 cd ef bc
       -0.032771785 0.022202192 -0.04077893 -0.0292728
000320 8c 67 7d bc 40 f9 4b bd 26 30 90 bc e4 f0 f3 bc
       -0.015466582 -0.04979825 -0.017601084 -0.029777952
000330 d1 1b c5 bc 76 89 ef 3c 8d 9c 09 bd 2e 1b 1d bd
       -0.024061115 0.029240351 -0.033596564 -0.038356
000340 7b 87 6d bd 0c 87 fe bc 57 6f 32 3c 45 f3 89 bc
       -0.057990532 -0.031070255 0.010890803 -0.016839633
000350 b4 60 04 3d 47 52 a8 bc 16 9a 15 bc f1 93 03 3d
       0.032318786 -0.020547045 -0.009130975 0.03212351
000360 65 ef 06 bd 09 22 c8 bb 2a b1 52 bd 2f 11 a7 bd
       -0.03294315 -0.006107573 -0.051438488 -0.081575744
000370 da 00 53 bd 40 66 b0 bd 84 12 0a 3b 5b 84 6d bd
       -0.051514484 -0.08613253 0.0021068165 -0.057987552
000380 8d e5 01 bd 83 b3 6b bc 21 2a 46 bd 18 70 86 3b
       -0.031713057 -0.014386061 -0.04838002 0.004102718
000390 8e a6 18 bb 2d 87 0b bd dd 76 44 bd 72 44 5e bd
       -0.0023292634 -0.03406446 -0.04796492 -0.054264493
0003a0 5f db 32 3d fc c9 7d bd 0d 51 87 bd 44 0a 02 3d
       0.04366624 -0.061960205 -0.06607256 0.03174807
0003b0 09 6b 40 bd 9a f4 d3 bc 5d 6b 86 bd 7b e8 e1 ba
       -0.046977077 -0.025873471 -0.06563447 -0.0017235422
0003c0 3b 97 7a 3c e4 f0 73 bd d3 8c 00 bb 79 dc ca bd
       0.015294845 -0.059555903 -0.0019615188 -0.09905333
0003d0 26 2e a1 3b 3f 24 4c bd 59 06 50 3b 7c ec 71 bc
       0.0049188314 -0.049839254 0.0031742065 -0.014765855
0003e0 cd cb 17 3c 86 90 a7 3c 30 9e 35 bd 18 71 b9 bb
       0.0092648985 0.020454656 -0.044340312 -0.005659234
0003f0 81 9d de 3b 65 80 0c bd 4c 27 8f 3a 93 b7 f5 3c
       0.0067936783 -0.034302134 0.0010921746 0.029994762

l2.bias f4 [300]
000000 25 54 0a be cf 54 af be 0a 8f 1b 3e 10 e6 35 bf
       -0.13508661 -0.3424439 0.15191284 -0.7105417
000010 a5 0a 04 bf c6 d1 19 be f2 c3 b9 be d3 5b 8a bd
       -0.5157874 -0.15021428 -0.36282307 -0.06755795
000020 ef 0f 22 be 6e b6 99 bc f2 7b af be 9e af 1d bd
       -0.1582639 -0.018763747 -0.3427425 -0.03849756
000030 5b eb 21 3e e6 42 10 be 28 40 68 bf 73 0e e7 bd
       0.15812437 -0.1408802 -0.90722895 -0.11282053
000040 7d 73 ed 3b 0c c6 93 bf 43 d1 65 bd 0d 8b 8e bd
       0.0072464333 -1.1544814 -0.05610777 -0.069601156
000050 ad 62 8f bd 35 0a 08 be 59 29 46 bd 2c e5 f3 bd
       -0.07001243 -0.13285144 -0.048379276 -0.119089454
000060 3c 01 fa bc 35 bf 12 bf 81 41 04 bf 46 02 14 bd
       -0.030518167 -0.5732301 -0.5166245 -0.03613498
000070 5e 24 96 bd d9 24 cd bd 07 c7 20 bd 11 bf 01 bf
       -0.07331155 -0.10016794 -0.039252307 -0.5068217
000080 36 ca 6f be c6 bc 70 bf 0e d9 9a bd c3 97 00 be
       -0.23416981 -0.94038045 -0.07560931 -0.12557893
000090 ef 68 a8 bf cf c8 34 bf f0 07 34 bd ad 15 87 bd
       -1.3157023 -0.7061891 -0.043952882 -0.06595931
0000a0 e7 6d 08 bf de 3c 14 be 04 de 7f be 50 ba 23 bf
       -0.532927 -0.14476344 -0.24987036 -0.63956165
0000b0 45 a8 09 bc 59 5c 4a be 42 62 d2 be ce 32 4e bf
       -0.008401935 -0.1976179 -0.4109059 -0.8054627
0000c0 b6 d1 8d be 57 33 a3 bd 84 7b 10 bf 51 24 12 bf
       -0.2769906 -0.07968777 -0.5643847 -0.57086664
0000d0 38 fc 33 bb 22 55 dc bd 3a 2c 5e bd 34 ed b2 be
       -0.0027463567 -0.10758425 -0.054241396 -0.34946597
0000e0 32 f6 98 bf 4c a6 5e bf d5 37 03 bf bf 23 a0 bb
       -1.1950133 -0.869725 -0.5125707 -0.0048870738
0000f0 d3 61 63 bd 9d c5 fb be 63 fe ef be 06 5d 56 bf
       -0.055513214 -0.49174204 -0.4687377 -0.8373569
000100 fe 37 05 be 57 2d 24 bf 09 17 b6 bc 80 4e f7 bb
       -0.1300964 -0.64131683 -0.02222778 -0.0075471997
000110 b1 0c fb be f7 75 27 bd ce f7 18 bd a7 e6 2e bf
       -0.4903312 -0.040883984 -0.0373457 -0.683207
000120 8e 3b 95 bc a0 63 b2 bc fd 69 0d be 0b 0f 63 bf
       -0.018216874 -0.02177602 -0.13809963 -0.8869483
000130 26 11 11 bd 26 8b 1e bd 2d a2 e1 3e f8 78 b3 bd
       -0.035416745 -0.03870692 0.44069043 -0.08763307
000140 09 78 3c bd 2d 3a 83 bc ed 58 01 be 05 eb 42 bf
       -0.046012912 -0.016018951 -0.12631579 -0.7613986
000150 ca 2f 0c bf f3 f5 68 bf 1d 43 47 be 0f 47 aa be
       -0.5476042 -0.9100029 -0.19459195 -0.33257338
000160 d1 ad ce bc 28 a6 61 bf 20 02 72 be bd 03 84 bd
       -0.025229366 -0.8814416 -0.23633623 -0.064460255
000170 2b 1f 47 bf 44 b1 fb bc 0f 45 a2 bd 85 36 09 3e
       -0.77781934 -0.030724175 -0.07923328 0.13399704
000180 cb 53 3c be 42 2b 33 bf 97 10 a0 bf a2 9e 31 be
       -0.1839134 -0.6998788 -1.2505063 -0.1734567
000190 98 93 fb be b7 c6 25 bd 2f 5e 2f be b4 70 f9 bd
       -0.49136043 -0.040472712 -0.17125772 -0.121796995
0001a0 83 c5 68 bd 2d 81 8c bd cf 61 1c bf 5b c3 ef bd
       -0.056828987 -0.06860576 -0.61086744 -0.11707183
0001b0 ba 81 d6 bd b8 7d 79 bb 53 1b 90 bf 87 2d 2b be
       -0.10473962 -0.003806932 -1.1258339 -0.16716586
0001c0 2e 19 95 be ed 98 74 bd e3 9c 68 be 9a 63 99 bd
       -0.29120773 -0.059716154 -0.22716098 -0.074897006
0001d0 76 f1 fa be 3f 77 88 bd 44 a7 01 bf 95 52 0a bf
       -0.49012345 -0.066633694 -0.5064585 -0.5403226
0001e0 ba 17 e8 be 07 52 27 bf 0e 3c 17 bf ad fd 8a bd
       -0.45330602 -0.6535954 -0.5907601 -0.06786666
0001f0 b7 fa ad be d3 63 61 bf 79 c6 56 bf 2f ff a9 bd
       -0.33980343 -0.88042945 -0.83896595 -0.083006255
000200 99 cb 45 bd 55 bd 8c bf 5c 4d f2 bc 5e e9 02 bf
       -0.04828987 -1.099528 -0.029577903 -0.5113734
000210 90 89 ba bd 36 de 9f bd 1e e5 5a be 63 a2 a2 be
       -0.09108269 -0.07806055 -0.21376464 -0.31764516
000220 4b 9a 2f bf 8e 2e 13 bd ee 66 76 3d dd b7 0c bf
       -0.6859481 -0.03593307 0.060156755 -0.54968053
000230 21 21 d1 3e 9a a2 20 3e 6b 37 70 bf 6a c3 34 bf
       0.40845588 0.15687028 -0.9383456 -0.7061068
000240 d1 c3 a9 3d a5 8b 07 be 98 8c 29 be 24 db 6b bf
       0.08289302 -0.13236864 -0.16557539 -0.9213126
000250 c6 ad 9f bd 25 3a 06 be 6c be 1e 3e 77 16 00 be
       -0.077968165 -0.13108118 0.15502328 -0.1250857
000260 47 19 ee be 44 5d 70 bd a2 5d 45 bf d5 df 80 bd
       -0.4650366 -0.058682695 -0.77096 -0.062926926
000270 41 8b c8 bd ea d3 27 3e 54 c0 7f be 0a 42 5a 3f
       -0.097921856 0.16389433 -0.24975711 0.8525702
000280 7b 01 62 bd fa a8 dd bd 3f 92 4c 3f 8c 00 f1 be
       -0.055177193 -0.10823245 0.79910654 -0.4707073
000290 e3 93 b3 bf 0f 10 af bd 0d 14 89 bc e8 a4 3a be
       -1.4029506 -0.08547985 -0.016733194 -0.18226969
0002a0 dd 07 88 bd 77 b1 b4 3d 64 05 7b bd df a3 a0 bd
       -0.06642125 0.08822911 -0.061284438 -0.07843756
0002b0 da 48 c6 3e ee f4 19 bd 33 29 14 3e be 47 9a bc
       0.38727456 -0.0375871 0.14468841 -0.018833037
0002c0 42 96 ab 3c 98 d3 4c 3c f4 f2 2a bf ef 87 d8 be
       0.020945672 0.01250162 -0.6677697 -0.4229121
0002d0 7c 41 53 bf a8 c4 3c be 82 9f a2 be 20 ab f6 be
       -0.82521796 -0.18434393 -0.3176232 -0.48177433
0002e0 e9 50 48 bd d3 07 ff 3d f3 5e e4 bd f6 3f 97 bc
       -0.048905287 0.12452664 -0.111509226 -0.018463116
0002f0 bb d1 6a bd 49 17 d7 be 5a fb 55 bf be 84 14 bd
       -0.05732892 -0.42009953 -0.8358666 -0.036259405
000300 e0 b5 8a be 77 19 2c bd b7 7f 9a 3e b2 b8 d4 bd
       -0.27091885 -0.042016473 0.30175564 -0.1038679
000310 7f 72 2f bd d0 e6 b5 be a3 50 62 be 09 4d c5 bc
       -0.0428338 -0.35527658 -0.22101073 -0.024084585
000320 40 b1 30 bd 85 c6 05 be b4 1a 7f be ae ec 91 bd
       -0.04313779 -0.1306401 -0.2491253 -0.07125221
000330 90 9d 47 bf f2 3a 2a bf 71 b9 68 bf df fd aa bd
       -0.77974796 -0.66496193 -0.9090796 -0.08349203
000340 26 27 9e bd 1d 7a 8f bd a3 a3 ea bc ed 59 05 bf
       -0.07722311 -0.07005713 -0.028642481 -0.5209034
000350 f5 91 81 bc 46 81 1c bc 3b 19 aa be 12 73 dd bd
       -0.015816668 -0.009552306 -0.33222374 -0.108129635
000360 e7 ca 57 3d 7a e4 d1 bb a7 51 81 bf 10 c9 bf bc
       0.052683737 -0.0064054104 -1.0103043 -0.023411304
000370 97 be 3b 3d a2 0b 6e bf 08 a6 b2 bd 3f db c1 3e
       0.045836058 -0.929865 -0.08723074 0.37862584
000380 a3 2d 6d bf a6 1a 9e bd 72 12 de bd e0 33 3b be
       -0.9264776 -0.077199265 -0.10843362 -0.18281507
000390 dc 7d 73 3b 06 69 1f be 25 ea 0a be cb c2 8c 3d
       0.0037153875 -0.15567407 -0.13565882 0.06873091
0003a0 8f 0c 21 be 35 a1 8c be bd b1 80 bd 7e 8b 96 bd
       -0.15727447 -0.2746674 -0.06283901 -0.07350825
0003b0 ce 8e 3f 3e 20 9d b7 bd c9 31 88 3e f2 72 71 bf
       0.1870682 -0.08965516 0.26600483 -0.9431602
0003c0 98 15 8e bf 23 5f 6b bc cf e1 a4 bc 27 d7 b4 bd
       -1.110034 -0.014365944 -0.020127205 -0.088300996
0003d0 80 92 9b bd c2 b5 db be 62 13 68 3c 1f de 57 bf
       -0.07596302 -0.42912108 0.0141647775 -0.84323305
0003e0 aa 3b 32 be 4e 72 04 bf 6f 32 2f bd 34 40 ff bd
       -0.17405573 -0.51736915 -0.042772707 -0.12463418
0003f0 80 a2 7d 3e 6d 36 61 3e 07 9d a7 bd 2d 10 8a be
       0.2476902 0.21993418 -0.081842475 -0.26965466

l3.weight f4 [6, 300]
000000 d5 08 8f bd d0 d0 c4 bf 03 9f e6 3c 84 db 8e 3e
       -0.069841065 -1.5376225 0.028151995 0.27901852
000010 ec 1e 04 be a3 8a ea bc aa d8 04 bf 85 4b 3b 3c
       -0.12902421 -0.02863056 -0.51893103 0.0114315795
000020 b5 82 0f 3d ac f4 ff bc d2 36 35 3f 3a 30 55 ba
       0.03503676 -0.031244598 0.70786774 -0.00081324915
000030 ba ec dd 3e 2e 3a 1c 3d 0a 6d 5f be a6 14 9f 3a
       0.4334467 0.038141422 -0.21818939 0.0012136891
000040 42 ed 0b bf a8 31 04 3e 28 5b 3f bc 11 7e d7 bc
       -0.546589 0.12909567 -0.011679448 -0.02630523
000050 0a 1c 62 bc 96 95 9c bd 75 53 01 3d 07 ca 2c 3c
       -0.01380063 -0.07645719 0.03157373 0.010546214
000060 51 3b df 3c 7c 67 8c 3f 20 68 e4 3e 3f 3a af bd
       0.027249964 1.0969081 0.4461069 -0.085560314
000070 dc 61 f9 ba 95 bb 85 bc 99 c9 d6 3c e5 fe 88 be
       -0.0019026357 -0.016324798 0.026219176 -0.2675697
000080 22 98 03 3e 6a 1c 4f bf 22 1a d1 bd 99 09 c4 bc
       0.12851003 -0.8090273 -0.102100626 -0.023930358
000090 a3 52 6b bf 1a e6 18 3d 95 26 89 bd 93 66 76 bc
       -0.9192297 0.037328817 -0.06696812 -0.015039104
0000a0 6a 51 1a bd f4 d3 76 3c f6 cb 21 be e1 6b d3 3d
       -0.0376753 0.015065182 -0.15800461 0.10323311
0000b0 db 90 ed bc f5 f1 8a 3c bb 41 e9 be 07 d8 cd be
       -0.028999737 0.016961077 -0.4555796 -0.40203878
0000c0 61 ac 01 be e9 ad 45 bd 1f 49 de 3d e0 71 4f 3f
       -0.12663414 -0.048261557 0.108537905 0.81033134
0000d0 9d b8 8f 3c d0 b9 4c bd 75 93 07 bc 2e 01 51 be
       0.017544085 -0.049981892 -0.008274903 -0.20410606
0000e0 6a b7 dd 3e 9c 8f e4 bd 57 1a 23 3d 9f c5 aa bc
       0.43303996 -0.11160204 0.03982004 -0.020846186
0000f0 d0 b1 45 bd db 4d 55 3f f7 51 21 be 2f b1 89 3e
       -0.04826528 0.83321923 -0.15753923 0.26892993
000100 d3 8c 59 bd 53 5e ee 3c fa 1e 10 be 44 f0 b5 3e
       -0.053112816 0.029097712 -0.14074317 0.3553487
000110 19 b4 d6 3b 9f f5 bb bc 9e 19 9d bd 80 b2 b5 bf
       0.006552231 -0.02294427 -0.07670902 -1.4195099
000120 76 a6 21 3d 25 f6 88 bd dd 16 12 bd 4c 36 9e be
       0.03946539 -0.06687573 -0.035666335 -0.309008
000130 73 91 ff 3c 76 52 16 b8 06 35 60 3e 34 5d 0f bc
       0.031197285 -3.5839585e-05 0.21895227 -0.008750249
000140 71 49 cb bc bd b1 99 bd 0e f8 19 3d 89 ab 67 3e
       -0.024815293 -0.07504604 0.03759008 0.22624029
000150 bc 27 f7 be e3 eb 49 3d 50 29 19 3e 3c a7 08 c0
       -0.48272502 0.049297225 0.14957166 -2.1352072
000160 87 b5 25 bd 4c 21 91 be 30 f6 85 be 45 29 81 bc
       -0.04045632 -0.28345716 -0.2616439 -0.01576675
000170 3b 58 3a be c4 70 f3 bc c7 05 22 bd 80 6a 41 3e
       -0.1819772 -0.029716857 -0.03955629 0.18888283
000180 85 04 8b 3f ed f5 83 3d f6 a2 26 3f 3f 97 a3 3c
       1.0860754 0.06443391 0.6509241 0.01996958
000190 0c 4e 70 be 7a 1c ea bc de f1 13 bd 18 9b b2 3d
       -0.23467273 -0.028578032 -0.036119334 0.08720988
0001a0 30 85 b5 bc ea 07 69 be 65 66 8e bd 4a 31 53 bd
       -0.022158235 -0.22756925 -0.06953124 -0.051560678
0001b0 86 a8 a3 bd 99 e1 d7 be 78 5f a5 bd 4b f4 71 bf
       -0.07991128 -0.42164305 -0.0807485 -0.94513386
0001c0 fc 4e 85 bd 5e aa 67 bd 16 e4 2a be 7d c4 c1 3e
       -0.06509206 -0.05655896 -0.1668857 0.3784522
0001d0 d9 21 09 bf 04 37 14 be dd 2b 15 3e 86 e4 99 3c
       -0.5356727 -0.14474112 0.14567514 0.018785726
0001e0 9a 2f 04 3f 52 c8 54 3e f7 d6 b4 be dc 02 8d bb
       0.51635134 0.20779541 -0.35320255 -0.0043033194
0001f0 f5 44 92 be 83 e2 87 3e 91 6c 43 be b6 27 1a 3c
       -0.28568235 0.26540002 -0.19084384 0.009408882
000200 3c fa 0f bd de 4a 83 3f bd b9 87 bd f4 b5 ad bc
       -0.03515075 1.0257223 -0.06627224 -0.021204926
000210 45 24 06 bd 99 56 4c bd 04 a2 c0 3e ff 46 9c 3d
       -0.032749433 -0.049887273 0.37623608 0.07630729
000220 ff fb ca bb 5f 62 ad 3d 5a 3f 9b be 8b e1 f1 be
       -0.006194591 0.084660284 -0.3032177 -0.47242388
000230 ea bb 2e 3e ee 25 81 bd 8b 23 e8 bc 0c 04 7e bf
       0.17063871 -0.06306063 -0.02833726 -0.99224925
000240 74 33 3a 3f fe 6b 15 bd d6 a8 0e 3e 43 d5 58 3d
       0.7273476 -0.036479943 0.13931593 0.052937757
000250 60 34 c7 3c 6f ab 38 3d 04 aa b4 3e c1 0c da 3b
       0.024316967 0.045085367 0.35285962 0.0066543524
000260 a3 39 95 3f 12 bd d9 bc dd 1d f6 be 9d be 8e 3b
       1.1658214 -0.026579414 -0.4806966 0.004356219
000270 6b 2c e5 bd 6f 1e b6 3d 0f d7 ab bd c5 a7 eb 3e
       -0.11190113 0.088925235 -0.083906285 0.46026435
000280 5d 26 05 bd c5 29 1c bc 87 96 6f 3e 7b 09 69 bd
       -0.03250729 -0.009531443 0.23397265 -0.056893807
000290 d2 34 44 be f1 eb d9 bc 3e 54 4e be 17 68 ae bd
       -0.19160774 -0.026601763 -0.20149323 -0.08515947
0002a0 6e 9b 2a bc c3 1a 00 3e e5 2f 8f bd 84 69 88 ba
       -0.010413034 0.12510209 -0.06991557 -0.0010407423
0002b0 df de 4d 3f f8 9d 4a bd 61 f5 e1 3d 05 bb 09 bd
       0.804182 -0.049467057 0.110331304 -0.03362562
0002c0 f3 29 bc bd e6 7d 1b 3d 71 f2 9b 3e 38 48 eb bf
       -0.09187689 0.037961863 0.30458406 -1.8381414
0002d0 c5 98 61 bf 2b 13 e4 bd ca 47 35 bc 56 2f 91 3e
       -0.8812373 -0.111364685 -0.011064479 0.28356427
0002e0 3a a4 e3 bd 98 c0 34 be 14 8d 7a bd fb 90 fa 3b
       -0.11115308 -0.17651594 -0.0611697 0.0076466775
0002f0 9b 74 60 bb 35 85 3e 3e 4d 41 93 3e 83 5d 71 3c
       -0.003424919 0.18605502 0.28760758 0.014731768
000300 a7 5f 42 be bd fe 08 bb 8f 74 90 be bd dd 81 3d
       -0.18981801 -0.002090379 -0.28213927 0.06341121
000310 3f 57 a6 bd 0f 40 1a 3f b2 86 be 3d d8 4f 31 3c
       -0.081221096 0.60253996 0.09303035 0.010822259
000320 6f 9f 21 3d 5e 38 1b 3d cc a6 00 bd c2 68 53 bd
       0.03945869 0.037895553 -0.03140907 -0.051613577
000330 60 06 b2 be 65 7e 69 be 65 5f 99 3d 37 a6 20 be
       -0.3477049 -0.22802122 0.07488898 -0.15688406
000340 0f b6 3d 3c 5a ef 57 b9 f7 57 ac bb 0d b1 90 be
       0.011579051 -0.00020593163 -0.0052595097 -0.2826008
000350 a6 4d 22 bd ab 32 e5 3c 2f 7d 93 be fd 24 0c be
       -0.039624833 0.027978262 -0.28806445 -0.13685985
000360 30 e6 c4 3e 96 60 a9 bd 7e ef 13 3e 27 25 33 3e
       0.3845687 -0.082703754 0.14446828 0.17494641
000370 e5 e6 fb 3c 61 0e 04 3f 8b 7a 7e bc 92 e7 8a bc
       0.030749748 0.5158444 -0.015532146 -0.016956124
000380 0d 72 0e bf bd cb 04 3d 2e 04 25 bc 4d 27 8f 3e
       -0.5564278 0.032420862 -0.010071797 0.27959672
000390 6a f6 d0 3e 51 67 c7 bc f7 2b 2b bd 14 16 c9 3d
       0.40813 -0.024341257 -0.041789975 0.09818664
0003a0 ba ec 59 3d d2 a3 58 3d c1 c8 43 bd 43 b1 7b bd
       0.053204276 0.052890606 -0.047798876 -0.061448347
0003b0 bd f6 ce 3e a7 d0 a1 3c 40 af 89 be d5 cc 82 3e
       0.4042262 0.019752814 -0.26891518 0.255469
0003c0 07 5a c8 3e 3d 3f 91 bd 39 dc c9 3c 55 70 1f 3d
       0.39131185 -0.0709214 0.024641143 0.038925488
0003d0 06 41 63 be 76 9c 92 3d 3f ca 30 bd bb dc 09 bf
       -0.22192773 0.07158749 -0.043161627 -0.5385243
0003e0 35 8d 6a 3e 7e 45 69 3e f7 8e a7 bd 9e 8f 81 bd
       0.22905429 0.22780415 -0.08181565 -0.06326221
0003f0 42 d5 71 be c2 30 85 be 89 1d cf bc ec 1d 0f c0
       -0.23616508 -0.26013762 -0.025282638 -2.2362013

l3.bias f4 [6]
000000 b3 ab d4 3e 9d 84 f1 be 2a c0 7e 3e 87 20 6b bd
       0.41537246 -0.47171488 0.24877992 -0.057404067
000010 74 d8 bf bd 4b ec 4f bc
       -0.09367457 -0.012690614
