preTrained/BipedalWalker-v2/ONE/TD3_BipedalWalker-v2_0_solved_crtic_1.pth (torch_old, 529794 bytes, 5 tensors)

l1.weight f4 [400, 28]
00000000: d9f6 09be 3c63 033f acd6 243f f876 86bd
00000010: ec83 42bf ecb0 9b3e d3cc 8abf 1175 b83e
00000020: dc77 edbd f6d1 50bf 227a dabe 91b3 d93e
00000030: 9dd7 44bf b7af c5bf 6a66 40bf 7065 3dbf
00000040: 64b7 6bbf ea6c 44bf 9ef9 5ebf 198d 3abf
00000050: c591 56bf 341a 3cbf 3fb5 81bf 1e55 26bf
00000060: f024 3cbe 5dd8 c5be 3f08 273e 4a10 d5be
00000070: c86d 13be 66f2 53be 3748 dabe 7758 cabc
00000080: 89c3 1bbe 02e4 3d3e a3bf 93be 1fc6 5a3e
00000090: aa36 9dbd 72b2 34be bc05 6dbe 83f1 c33d
000000a0: ccd6 5f3e bcc9 a0be d391 febe 12aa c2be
000000b0: f0d5 cbbe 521a d3be d103 bfbe c5f9 98be
000000c0: e29d b5be 41e0 b9be 3275 11bf 1dbb 26bf
000000d0: 4326 fbbd 411d 713e 5186 79be b6ae 4b3d
000000e0: c1cd 183f 78bc 34bf 502f 0bbd e1ab b9bf
000000f0: fa19 d23d f505 533f e381 c0bc 2a59 cc3e
00000100: 4486 5b3f 33ab e23d bbb8 aebf 990c 063f
00000110: 2aab 29bf f518 783f cd08 1fbf 7c96 20bf
00000120: 7d71 56bf 8d25 4abf ff93 11bf 37ec 61bf
00000130: ea5a 50bf 807f 18bf b6d4 33bf a29a dcbe
00000140: 04b2 7ebe dd72 a33f 14f1 883e 223c 313f
00000150: 7954 8f3f fab3 cb3e e89c d1bf 0fdd 3c40
00000160: 6798 203f 31c0 72bd 0be8 e3bf 15e6 913b
00000170: 86f6 81bf a6e2 913f d2b5 fb3e 4c0b 6cbd
00000180: b5b9 833e 171e 143f 5948 de3d d028 d53d
00000190: d241 babb ceaf 54be eb90 e33d c743 123e
000001a0: 5263 cb3d 630c 553d 12af 99be 573a a4be
000001b0: b8de e83e 08b0 17bf 229f 3b3e d05e 6bbd
000001c0: 88d8 1cc0 4f37 f9c0 a861 f93f bf29 cf3f
000001d0: f94d 173d 1b90 9e3d 3a66 963e dbb2 73be
000001e0: 9bb3 aebe 8701 c2bf 44be 613d 862c 31bf
000001f0: 1408 a93b cc2b adbe 9c63 043e a93b 873d
00000200: 096f 2bbd 403a 94be 7989 2abe 63f3 f8bd
00000210: 9ec9 c2be 13b6 2abf 47d1 963d 7aca 1f3e
00000220: c1fc ac3e ecc2 91bd 121e 9b3e 1812 bd3d
00000230: e302 9e3f 1db8 97c0 b5b8 aa3e 5298 0541
00000240: 054b 183e d64f 51be 9365 eabd f8c2 cfbe
00000250: 124c 933e 8e22 dc3e 2d00 e23d baf2 55bf
00000260: 2dcb 303e a94f c9be ce4f 7f3d 9936 15be
00000270: f5ae 2dbe 9d76 7bbd 0f3a 1bbb c046 efbc
00000280: b8b2 263e 28c8 d03e 0a47 d3bd 7944 dabe
00000290: bd26 5539 1d97 213f d254 12be 677c 8b3e
000002a0: 6774 523f c1eb c740 f8be 40bf d739 7a40
000002b0: 5e12 053f 830a 793e f9f8 9e3e 0df6 563f
000002c0: f7b8 22bf 47d4 23bf 883e d13e 4a82 76be
000002d0: 057f 933e a118 edbf 7bc0 a03e f81a d13e
000002e0: 8638 013f 6a7f 0d3f 0c44 c33e fea8 fb3e
000002f0: dad4 1e3f f7b4 df3e c947 1fbe 5797 aabe
00000300: bc8b 58be 2e2b 56be dc34 483e 31d6 103e
00000310: cfe6 843f 8440 06be 259a df3e 062e 533f
00000320: 0bd8 4c3f 537c 1b3f 446d ffbe 5179 743f
00000330: 6402 3fbf 979c 18bf b969 533f df2f 5ebf
00000340: f1ef 5cbf 2559 9c3e b761 06bf 14cd acbe
00000350: ecaf fcbe d334 83be 6542 82be 7397 67be
00000360: 9ad6 72be 067a e7be 4944 9bbe 20cd 37bf
00000370: 2860 f4be 14ef f2bd 1c32 8c3e e1fe 9f3f
00000380: 0cbd 0a40 72f7 3440 949d 02c0 6717 93bf
00000390: 528d 08be d391 d8be faa0 4abe 7358 39be
000003a0: d172 d63e bdf3 fc3f b062 bf3e 7920 a53f
000003b0: cdbd 493e 1763 593e 9a98 97bd 49cf 5e3e
000003c0: 964c 993d 89da 993e de40 ba3d 7d52 513e
000003d0: 5f4e 9d3e 667a 2c3e 09de 48bd 20e2 0fbf
000003e0: d775 1bbe bf17 57be e949 7a3e e942 e53e
000003f0: 9273 0abf fe93 babf 060f 9f3f 9dd6 4340
-0.13473071 0.51323295 0.64390063 -0.0656566 -0.75982547 0.30408418 -1.0843757 0.36026815
-0.11595127 -0.81570375 -0.42671305 0.4251981 -0.768915 -1.5444249 -0.7515627 -0.73982906
-0.92076707 -0.7672869 -0.87099636 -0.7287155 -0.83816177 -0.7347748 -1.0133437 -0.6497363
-0.18373466 -0.38641635 0.1631174 -0.4161399 -0.14397347 -0.20697936 -0.4263322 -0.024700386
-0.1521131 0.1854401 -0.28857145 0.2136464 -0.07676442 -0.17646196 -0.23146719 0.09567549
0.21859282 -0.3140391 -0.4972063 -0.38020378 -0.3981166 -0.41231018 -0.373076 -0.2987806
-0.35472018 -0.36303905 -0.5681945 -0.6512926 -0.12263157 0.23546316 -0.24367644 0.049727164
0.59688956 -0.7060008 -0.033980668 -1.4505578 0.10258861 0.82430965 -0.023499435 0.39911777
0.8575175 0.1106781 -1.3650125 0.5236297 -0.662768 0.9691308 -0.62122804 -0.6272962
-0.8376692 -0.7896355 -0.5686645 -0.8825106 -0.81388724 -0.5956955 -0.70246446 -0.43086725
-0.24872595 1.2769428 0.26746428 0.6923238 1.1197654 0.3978575 -1.6376009 2.9509923
0.6273255 -0.05926532 -1.7805189 0.0044524767 -1.0153358 1.1397293 0.49162155 -0.05762796
0.2572762 0.57858413 0.10853643 0.10408175 -0.005684116 -0.20770189 0.11111625 0.14283668
0.09931053 0.052013766 -0.3001638 -0.3207576 0.4548242 -0.5925298 0.18322423 -0.057463467
-2.450716 -7.7880015 1.9482927 1.6184615 0.036939595 0.0774233 0.29374868 -0.23798697
-0.34121403 -1.5156716 0.055113092 -0.6920856 0.0051584337 -0.33822477 0.12928623 0.06603176
-0.04185394 -0.2895069 -0.16654004 -0.12155797 -0.38044447 -0.66684073 0.07364135 0.15604582
0.33786586 -0.071172565 0.3029638 0.09231967 1.2344631 -4.741225 0.33344045 8.349688
0.14872368 -0.20440611 -0.11445155 -0.40578437 0.28768975 0.42995113 0.1103519 -0.83573496
0.17265005 -0.39318588 0.062331967 -0.14571609 -0.16961272 -0.061392415 -0.0023685729 -0.02920854
0.16279113 0.40777707 -0.10316284 -0.42630365 0.00020327694 0.63121206 -0.14290169 0.2724335
0.82208866 6.2475286 -0.75291395 3.9097803 0.5198115 0.24320416 0.31049326 0.83969194
-0.63563484 -0.63995785 0.4086802 -0.24073139 0.28807846 -1.8523141 0.3139685 0.40840888
0.5047687 0.55272543 0.38137853 0.49152368 0.62043536 0.43692753 -0.15554728 -0.33318588
-0.21147054 -0.20914909 0.19551414 0.14144208 1.0382937 -0.13110548 0.4367229 0.824921
0.80017155 0.6073658 -0.4988805 0.95497614 -0.7461302 -0.5961394 0.82583195 -0.86791795
-0.8630362 0.30536762 -0.5249285 -0.33750212 -0.49352968 -0.2562624 -0.2544128 -0.22616367
-0.23714676 -0.45210284 -0.30325535 -0.7179737 -0.4772961 -0.11862007 0.2738198 1.2499658
2.1677885 2.8276029 -2.0408678 -1.1491517 -0.1333516 -0.42298755 -0.1978797 -0.18100147
0.41884473 1.9761883 0.3737998 1.2900535 0.1970131 0.21229206 -0.07402153 0.2175876
0.07485311 0.30049542 0.09094404 0.20441623 0.30723855 0.16843566 -0.049039874 -0.56204414
-0.15181671 -0.21005152 0.24442257 0.4477761 -0.54082596 -1.4576414 1.242646 3.059974

l1.bias f4 [400]
00000000: 655e b1be ffca 2cbe eff2 21be 9aa9 02bf
00000010: 426c 953e 86f8 57bf 581d 09bf a3a7 01bf
00000020: df43 87be 2893 39be 0048 843d 1b42 50be
00000030: f5ae 09bf e64f 3e3f 9223 22bf d3ab f8be
00000040: 46a3 043e 91d2 14bf 4651 81bf eb8a 03bf
00000050: e59e ccbd 459a 26be 64c6 e3bd 4a31 85be
00000060: 3dab 4f3c 982b af3d 2e48 d9be bcde 12bf
00000070: 8593 97be efa2 a9be ba7d 1fbf fc9b 7dbe
00000080: 81c4 8dbe e0c2 21bf 7ac9 0b3f 9ae4 e0be
00000090: fd82 92be 0b26 95bf d9d7 fe3e bd16 30be
000000a0: 17f8 18bf 9148 0abf 1dcb 0b3d b915 74bf
000000b0: 1956 80be 0957 78bd 71bf 02bf 9c93 0ebe
000000c0: e15e 01bf ebb0 bc3e 18a6 3cbe c666 35bf
000000d0: 489f 4fbd 2618 9cbe 4a7e 2a3f c791 aebe
000000e0: b32f 62bd b402 5abf 9006 85bf b36e 21be
000000f0: 1b26 02bf ddc7 403f 495c 67bf c349 12bd
00000100: 6d30 2bbf e843 0abe 95f4 0abf 2f66 c8bd
00000110: 9578 fabe b9f1 a4be 6cef 6dbe eb4b 9bbe
00000120: 0001 ddbe 71a3 2fbf a57a f1be 137b a9be
00000130: dd96 b9be bed3 3bbe 7291 10bf 8df8 eabe
00000140: c966 a2be cbd1 0a3e 80c6 31bf 5637 98be
00000150: ffd5 cdbe 0098 7ebe 5faf 8cbe 82ba 2abf
00000160: 4981 b6bd 4fad 863d 9d7e d9bd 5e75 513c
00000170: c9c5 fbbe 5aec 38bf f148 293f 0298 3ebf
00000180: 30da 663e 9356 55be 176b dcbe 936e 8fbe
00000190: e061 97be 74e5 733f 8984 4f3f 9861 b2be
000001a0: b576 083f f5f4 b2bd 4093 6cbf ea01 71be
000001b0: 1e3d dbbe c962 0bbf 9522 6cbf a33b 24be
000001c0: c6fe ea3c aaea d3be e1d6 2abe 0920 02bf
000001d0: 41a1 72be 7369 143f 5221 163f 86c8 83be
000001e0: 626d ea3d 5915 f7be 9b8c 1dbe 1b80 10bf
000001f0: 4089 52be dd63 44bf 2c66 25bf 45e1 0abf
00000200: 4c85 a5be c326 dbbe 60d5 38bd 8459 c9be
00000210: 7f89 38bf a71e 86be 3c19 8cbe 6a6f 4b3f
00000220: df83 a2be 6b21 d2be c4e7 2abe fc42 8e3f
00000230: 720d 103f c3aa 603e 8ca6 dfbe 8124 b0be
00000240: e025 a9be 04f6 963e 3865 aabc cf0a 65bf
00000250: 6181 0a3f 95bf 72bf 5c58 cfbe dde7 0ebf
00000260: 7357 1ebf 1dd5 593d 70a0 aabe eaf0 81bd
00000270: 0d88 a9be f0a0 5bbf ccc2 96be 2358 8fbf
00000280: 7c10 a63d b258 95bf 4c19 b6be 0bd4 51bf
00000290: 2b1e 853e d100 4ebf 7bf7 01bf 885e 30bf
000002a0: 59dd 75bf 1570 51bf 92e1 2cbf cb81 fe3c
000002b0: f6a2 a63e c548 dabe b3fb 82be 26a2 63bf
000002c0: ba1f 81bf 59b5 09bf fc68 04bf f671 243d
000002d0: 93ea bdbe d8a3 aabe 51e4 54bf 28dc 9abe
000002e0: 6338 70bf 3b06 59bf 9683 c8be 1f79 79bf
000002f0: a5ff 65bf f86d 31bf 0788 60bf bc3c 69bf
00000300: a0c1 84bf aed7 5c3e 0437 26bf 566f 0cbf
00000310: 6aa9 5fbf f9cb dabe 6ca0 c0bd c551 08bf
00000320: 2181 2ebf 98a8 6cbe beb9 16bf c73a 6bbf
00000330: bbe7 50bf ca73 a4be 8593 8cbe a7dc c8be
00000340: f3f5 95be 753b 57be b232 57bf 1915 20bf
00000350: c6a7 bdbe f0ce 0fbf b510 6b3e f402 e73e
00000360: 0a1a c0bd 5c32 5fbe 01e2 95be 6805 07be
00000370: 30a3 0dbf 774d 8dbd e225 b9bd c782 b1bd
00000380: 3b17 76bf 3642 03bf c76c 22bf 97d1 68be
00000390: 6d47 f83e 496a 76be f57d e7be 4516 4cbe
000003a0: dd0f 24bf 1dac 72bf 8bbc 0cbe 24ff ecbe
000003b0: f14c 59be 7585 9cbe 7d64 35bf 7345 f8be
000003c0: fd78 3ebe 7269 8fbe 4e02 71be 0007 a4bc
000003d0: 5ac8 c23e 57e9 0abf 03eb 08bf b2a1 553f
000003e0: bd8a 3dbe f904 3abf 337d d6be 98bc 7abf
000003f0: 17bc 3a3f c924 a9bd bcb5 4bbf a95b 80be
-0.3464233 -0.16874312 -0.15815328 -0.5104004 0.29184157 -0.8436359 -0.535604 -0.5064642
-0.2641897 -0.18122542 0.064590454 -0.20337717 -0.5378259 0.74340665 -0.63335526 -0.4856859
0.12952909 -0.581338 -1.0102928 -0.51383847 -0.09991244 -0.16269787 -0.111218244 -0.26014167
0.012675104 0.08553237 -0.4243788 -0.57371116 -0.29604736 -0.3313212 -0.6230122 -0.24766535
-0.27688983 -0.6318798 0.54604304 -0.4392441 -0.2861556 -1.1652235 0.49774054 -0.17196174
-0.59753555 -0.5401698 0.03412925 -0.95345646 -0.25065687 -0.06062988 -0.51073366 -0.13923496
-0.505354 0.36853728 -0.18422735 -0.70859945 -0.05068901 -0.30487174 0.6659895 -0.34095594
-0.05522127 -0.85160375 -1.0392628 -0.15764885 -0.50839394 0.7530497 -0.9037519 -0.035714876
-0.66870767 -0.13502467 -0.5427945 -0.09785115 -0.48920122 -0.3221567 -0.23235863 -0.30331358
-0.43164825 -0.68608767 -0.47163883 -0.3310171 -0.36247912 -0.18342492 -0.5647193 -0.45892754
-0.31719044 0.13556592 -0.6944351 -0.29729718 -0.4020233 -0.24862671 -0.27477548 -0.6669084
-0.08911378 0.06576025 -0.10619853 0.01278433 -0.49174336 -0.72235644 0.66126925 -0.74450696
0.2254417 -0.20833807 -0.43050453 -0.2801405 -0.2956686 0.9527199 0.8106161 -0.34840083
0.5330613 -0.08738128 -0.92412186 -0.23535886 -0.42820066 -0.5444761 -0.9224027 -0.16038375
0.028685939 -0.41389972 -0.16683532 -0.5083013 -0.23694326 0.579734 0.5864459 -0.25738925
0.11446644 -0.48258474 -0.15385668 -0.56445473 -0.20560169 -0.7671488 -0.64609027 -0.54249984
-0.3232826 -0.4280301 -0.045125365 -0.39326108 -0.720848 -0.2619526 -0.27363002 0.7946688
-0.31741235 -0.4104112 -0.16689974 1.1114192 0.56270516 0.2194014 -0.43681753 -0.3440285
-0.3303671 0.2948457 -0.020800218 -0.8946962 0.54103667 -0.9482358 -0.404971 -0.55822545
-0.61852187 0.053181756 -0.3332553 -0.06344779 -0.3311161 -0.85792446 -0.29445493 -1.1198772
0.08108613 -1.1667693 -0.35566175 -0.81964177 0.2599958 -0.80469996 -0.5076825 -0.68894243
-0.96040875 -0.8181165 -0.67531693 0.03106775 0.32546204 -0.42633644 -0.25582656 -0.88919294
-1.0087807 -0.5379234 -0.51722693 0.040147744 -0.37093028 -0.33328128 -0.83160883 -0.3024609
-0.9383604 -0.8477513 -0.39162892 -0.9745044 -0.8984321 -0.69308424 -0.8770756 -0.911083
-1.037159 0.2156665 -0.649277 -0.54857385 -0.8736788 -0.42733744 -0.09405598 -0.5324977
-0.68165785 -0.23111188 -0.5887717 -0.9188656 -0.8160359 -0.3211959 -0.27456298 -0.39230844
-0.29289207 -0.21018775 -0.8406173 -0.6253219 -0.37042063 -0.56175137 0.22955592 0.4511944
-0.093799666 -0.21796554 -0.2927399 -0.13185656 -0.5532713 -0.06899541 -0.09040429 -0.08667522
-0.96129197 -0.51272905 -0.6344723 -0.22736202 0.48491994 -0.24063982 -0.45213285 -0.1993037
-0.64086705 -0.94793874 -0.13743798 -0.46288407 -0.21220757 -0.3057057 -0.7085646 -0.48490486
-0.18600841 -0.28010136 -0.23536035 -0.02002287 0.3804348 -0.542623 -0.534836 0.8344985
-0.18509956 -0.7266384 -0.41892394 -0.9794402 0.7294325 -0.08258969 -0.7957418 -0.2506993

l2.weight f4 [300, 400]
00000000: bbc5 3c3c d541 3bbc c8cf c9bd 476b 6cbc
00000010: 53c2 94bc 5066 153d 29b7 17ba 48f5 19bd
00000020: 6ed5 2b3c fac8 35bc b09d 513d 6366 babc
00000030: edbc 84bd 6a04 973b 736e e9bb db08 71bc
00000040: e295 04bd daa9 d1bc ae10 663d 96f4 35bd
00000050: d5ba 87bd d9ae 41bd 5a02 053c e957 1a3c
00000060: 178a 19bd 3209 6ebd 4bb7 1ebd ac55 cebc
00000070: 3d97 3c3b f549 29bd 27e2 95bc 8c1b 28bd
00000080: 5283 91bd 5141 0ebb 7ee8 61bd 7b25 7fbd
00000090: c153 89bd b668 c6bc 172c 88bc 00d6 18bd
000000a0: 0753 59bb f799 7fbc e9a3 6ebd 79ab 91bc
000000b0: 78e0 0d3c 54cc 6cbd 9b00 7e3d 46ec afbd
000000c0: c020 42bd 0cf2 c4bd 9619 aebc 2993 22bc
000000d0: d799 a1bd 073d 293c 5aa4 3c3b 040a 92bd
000000e0: 021d 473d bc6f 383c 2ded b6bd 4ef8 92bc
000000f0: 95e1 093d 05eb debd aac3 bd3c ee0b 1ebd
00000100: 32a8 773c 229f 123d 7f31 043c 7fb5 dcbb
00000110: a695 523d 168d c13c 8f23 c1bc 049d bcbc
00000120: 0be6 2a3c 5490 583d 6b3b b23b 59f5 133c
00000130: 13e6 95bc 97f8 47bd 3d2f 94bd 6fe4 91ba
00000140: 9d87 b5bd 60b8 cfbc 3dcd 6ebc 48a8 e23b
00000150: 7c13 16bd 7229 24bd 7ddc c7bd 29cb 1bbc
00000160: 5862 babd 7040 08bc 233a 273b 8620 98bb
00000170: 488f 2fbd b529 ffbc dede 5dbc 0d28 54bd
00000180: 999a 77bd d029 b0bc 0a47 f2bb 3a31 453c
00000190: 3d5a 51bd 480e 76bd 6709 31bd 7f08 89bc
000001a0: 82cd 23bd e3d9 87bd 5676 0ebd 0d36 63bd
000001b0: c19c 4abd f713 f83c 6dbd 27bd b1de adbb
000001c0: 4578 73bd d554 b4bd c46d 17bd bef2 993c
000001d0: 2963 053d fbb6 b6bd 666a 1f3c eefb f33c
000001e0: ddac 4ebd f00d 0f3d 636e 7cbd 675b 81bc
000001f0: 57f2 623c 8d3b 29bd a5a9 88bc 1549 8bbd
00000200: 7dfa 0fbc a24d de3c 51c3 c8bc df69 c4bc
00000210: 6665 d13b c5b9 1a3d a675 0abd b496 c83c
00000220: fa8e 9fbc 1e1a f8bb 8a89 9ebc 5976 35bd
00000230: 831e 7dbd 57e2 283d b801 c6bc a438 43bc
00000240: 9a4c 19bd 2ea2 aabc e1a5 7c3c 84cf eebd
00000250: de95 97bd 5628 f03b b5f6 8dbd f6ba adbd
00000260: 0969 20bd a1c7 27bd e47f 9ebd fccc 63bd
00000270: 7f67 a0bc e884 e3bc b4c0 2b3c 4d60 ecbc
00000280: 210a 8abd be1f f6bd 6557 6d3c 7b13 643c
00000290: c590 0fbd 2436 83bd 7fcb b8bd 7f61 90bc
000002a0: fec7 92bc 2c2c 2abd b7fe f3ba 6e40 623d
000002b0: ffaa 423c 4043 903b 0d10 59bd b70d 323d
000002c0: 4eba b6bc 9fc7 79bd a46b 36bd 29cc a2bb
000002d0: f74d 17bd 71a9 06bd e0db e53b 05d6 2cbd
000002e0: 35da 33bd a3c4 8fbd ffdf 013c f710 28bd
000002f0: 5bd0 71bd 6772 7dbd 3843 4abc 9dee 12bd
00000300: 4c44 80bd 1559 5ebc 5671 b5bd ee89 36bd
00000310: 12c6 03bd 98c9 83bc 6adc bfbd cf84 2c3d
00000320: e9fa 4fbb d7c1 c43b 7ffc 94bc f0e7 b7bd
00000330: ce39 343d e9d5 41bd d129 58bc 2101 b7bc
00000340: ec26 1bbd 8623 b4bd 078a 943c 08c3 8dbd
00000350: 89b9 383c 3604 71bd 0629 5ebd eac2 a0bd
00000360: 4e14 d9bb afc0 3abc 8084 73ba 34d4 98bc
00000370: f465 64bd 2518 24bd 92ba 7fbd cb84 5bbd
00000380: 4212 f73c bf32 29bd 3363 4fbd 1a40 693d
00000390: 02a3 bbbd e90b d23b dedd 75bd 005c bd3b
000003a0: 9403 a93c e46a 02bd b71a 133c 1ce5 6abd
000003b0: d80f 1ebd a33a 003d 665a 4a3c bbb2 a3bd
000003c0: 51cb 9fbd 67a0 e7bc dfc2 24bd 7cc3 373c
000003d0: a264 34bc 8e30 7fbc 5fed 3abd 45e0 0bbd
000003e0: 9b54 94bc eb7a 0e3b b5c5 2cbd c0f8 b0bd
000003f0: f907 3bbd d6b4 98bd 52bd 9ebd e4d7 db3c
0.011521752 -0.01142927 -0.09854084 -0.014429874 -0.018159067 0.036474526 -0.0005787486 -0.037587434
0.010487897 -0.01109528 0.051175773 -0.0227539 -0.06481347 0.0046086805 -0.0071237623 -0.014711584
-0.032369502 -0.025593687 0.05616825 -0.04442271 -0.06627432 -0.04728589 0.008118236 0.0094203735
-0.03748521 -0.058114238 -0.03874902 -0.025187336 0.0028776668 -0.041330297 -0.018296314 -0.041041896
-0.071051255 -0.0021706412 -0.055153362 -0.062291604 -0.06705428 -0.024219852 -0.016622586 -0.03731346
-0.003316106 -0.015600673 -0.058261786 -0.01778196 0.008659475 -0.05781205 0.062012296 -0.085899875
-0.047394514 -0.09616479 -0.021252435 -0.009922781 -0.07890671 0.010329491 0.0028784485 -0.071308166
0.04861165 0.011257108 -0.089319564 -0.017940667 0.033662397 -0.1088467 0.023164589 -0.038585596
0.0151157845 0.035796292 0.008068441 -0.006735503 0.051412247 0.023626845 -0.023576526 -0.02302409
0.010430823 0.052872017 0.005439212 0.009030663 -0.018298184 -0.048821058 -0.072355725 -0.0011130701
-0.08863757 -0.025356472 -0.0145753 0.0069170333 -0.036639675 -0.040078588 -0.09758852 -0.009508886
-0.09100789 -0.008316144 0.002551683 -0.004642549 -0.042861253 -0.031147817 -0.013541905 -0.051796008
-0.06045017 -0.021504313 -0.0073937224 0.012035662 -0.05111145 -0.060072213 -0.043221857 -0.016727684
-0.03999091 -0.066333555 -0.034780823 -0.05547147 -0.0494659 0.030282957 -0.040952135 -0.005306088
-0.05944087 -0.08805243 -0.036969915 0.018792506 0.03256527 -0.089216195 0.009729957 0.029783215
-0.050457824 0.0349254 -0.06162871 -0.015790654 0.013851724 -0.041316558 -0.016682455 -0.06801049
-0.008787748 0.027136628 -0.024507197 -0.023976265 0.0063902615 0.03777482 -0.033803605 0.024485923
-0.019477356 -0.007571473 -0.019352693 -0.04430232 -0.061796676 0.04123148 -0.024170741 -0.01191536
-0.03742657 -0.020829286 0.015420408 -0.11660674 -0.07401632 0.007329027 -0.06931821 -0.084829256
-0.03916267 -0.040961865 -0.07739237 -0.05561541 -0.0195806 -0.027773336 0.010482956 -0.028854514
-0.06740213 -0.12017773 0.0144861685 0.01392066 -0.035050172 -0.06406811 -0.09023189 -0.017624615
-0.01791763 -0.04154603 -0.001861534 0.055237226 0.011881589 0.004402548 -0.052993823 0.04347011
-0.022305634 -0.06098139 -0.044536248 -0.0049681854 -0.036939587 -0.032876436 0.0070147365 -0.042196292
-0.04390927 -0.07019927 0.00792694 -0.041031804 -0.059036594 -0.06187668 -0.012345128 -0.03587209
-0.062630266 -0.0135710435 -0.08859508 -0.044565134 -0.032171316 -0.016087338 -0.093682125 0.042118844
-0.0031735247 0.006004553 -0.018186806 -0.089797854 0.04400044 -0.04732314 -0.013193564 -0.022339405
-0.037878916 -0.08795838 0.018132223 -0.06921965 0.011274704 -0.058841906 -0.05423834 -0.07849677
-0.006624735 -0.011398478 -0.00092894584 -0.018655874 -0.055761293 -0.04006209 -0.062433787 -0.053593438
0.030160073 -0.04130816 -0.050631713 0.056945898 -0.09161951 0.006410111 -0.060026042 0.0057787895
0.020631589 -0.03184022 0.008978537 -0.057347402 -0.03858933 0.03130592 0.012350654 -0.079930745
-0.078024514 -0.028274728 -0.040224906 0.011216041 -0.011010321 -0.015575541 -0.04563653 -0.034149427
-0.01810675 0.0021740745 -0.042180736 -0.08641195 -0.0456619 -0.07456367 -0.07750954 0.026836343

l2.bias f4 [300]
00000000: 13e7 82bd 2ce0 8dbd 546d 39bd 87b2 f1bc
00000010: 2992 a03c 8d9b 9e3c d5d0 e2bd 6ebc 3b3e
00000020: e6e5 9c3c cdf6 97bd 4506 b8bd 677b cf3b
00000030: 7e0b 2fbd d4c5 10bf eeef 5ebd 7157 5a3d
00000040: 0aef babf 2182 08bd 9be4 52bc 1669 173d
00000050: 047a 1fbd e936 a23f c490 8bbd 1ec2 66bc
00000060: 0c6c 85bd 65e8 d23f 9d12 97bd 74b1 cebd
00000070: d925 e8bd 0ec1 98bd 95cb bb3f a70c 7b3e
00000080: b61e d03d eede 4abb 3731 bb38 3cfc 43be
00000090: 79da 60bd 25ee aebd a5c9 2d3d add4 82bd
000000a0: a82e a03f 7198 cb3c 2c61 dcbf 601b d5bd
000000b0: d9ff 8abf 9817 92bd 6b8d 21be be25 823f
000000c0: a534 6f3c a655 fc3e 1cfc e83b b735 d3bb
000000d0: 5519 c03e 6542 383d e045 87bc 2c70 913d
000000e0: 8d89 b43c d9a0 d4be 1801 0cbd b681 0fbe
000000f0: 3079 28bd c9f2 5dba 9365 a5bd bc84 9fbc
00000100: 2a23 8f3f b0a8 a8bd b5cb e0bd b5a8 7dba
00000110: 0888 813f 0865 fbbc 7c90 983c 2a53 87bd
00000120: f845 5abc 96e5 3d3d 1a9b b13c 2f1d c0be
00000130: 388c 40bd 8174 04bc ebf2 04be 34a7 b7bd
00000140: a14a 62bd 6589 ccbc 97f9 503e 03a7 1ebd
00000150: 9ec8 75bc 8e01 13bd bc06 763f 6aa3 19bd
00000160: fac0 39bd a17d 85bd d292 b33f 767b f33d
00000170: a474 a3bd 2168 25bd d8b6 6dbc bdc2 acbd
00000180: beb4 06bc 96ee 693c f0bb 913e 2a39 85bf
00000190: 3dcd babd b231 fc3b 9358 05bd 399e a33f
000001a0: 84c2 89bf 96e7 a73c 7280 8cbe 57dd fdbd
000001b0: 16a6 e13c af1d e1bd a0eb 693e d45d 03bd
000001c0: 8690 1abd 6a94 3fbe f436 96bd 370b 67bd
000001d0: d93d d0bd db9b b13f a4cb 1ebd be74 c13a
000001e0: 8d32 4bbd 08ed e4bc 5509 a43c 98ed ddbc
000001f0: 0fdf b4be 5c9f 263f bd52 203c dde8 5b3c
00000200: b8c2 7bbc 6f1d 65be 4c40 853e 1d2a b4bc
00000210: 2f48 0abd e911 5bbd 7737 1bbd 56fd e73c
00000220: 8cc0 86bd 792a 80bd 1b3c 50be 43da 003c
00000230: 6150 a7bd 3bc3 cebc 7de1 c53c 8992 4bbd
00000240: 27d7 09bd e7af c83b fdaa a23e e63b 9fbd
00000250: e49d 5abd 5f41 a9bd abb7 6fbd 617c e1be
00000260: c69b c9be 6308 473c d75f 15be 0d43 aebf
00000270: 0d3a 233b e9a0 70be c8f4 123e 6fa3 01bd
00000280: 3890 2dbd 5480 17bc 09a1 adbf aa00 603e
00000290: f935 133d 1d7f 88bf 3732 a63f 99b9 61bd
000002a0: c74d ccbd 23c7 e6bd cf1b 90bd bef5 7d3d
000002b0: 9897 9ebb 5700 fcbe 36c3 033f 5d9f b2bd
000002c0: 00b7 d8bd 965b abbd 24cf d5bc 7998 8bbd
000002d0: 44e2 46bd 57d7 2a3e 2c4b edbd 8d51 a6bb
000002e0: 06cc e5bd 7817 debc bfaf 6fbd 9d41 1fbd
000002f0: b572 323e f876 8ebb c0de 3fbd 4aba 64bd
00000300: e0e0 f43b a3bd 283f b13a 4dbd b623 cfbc
00000310: c767 98be 2ecb d93c 1dae 68bd 78d1 97bd
00000320: 43ba 5bbc 47b1 123f ccca ad3f f984 d1bc
00000330: 2490 ee3c 5912 b83f 2773 803e 8987 f6bc
00000340: 0b64 c23f a9d5 dc3c bf57 37bf 4285 7c3f
00000350: 9242 96bd f777 91bd 2b6f d0bd 668e e43d
00000360: 9600 b0bd 11f8 c5bf 0902 58bd 0c3d bcbc
00000370: 45c4 9abc 90ce debd 66bd 70bd 9c00 403c
00000380: c52c 60bd 1b5a ce3f 9a8f 5bbb 58dc e13c
00000390: 4077 b0bc 4914 80bc a10f dc3f 8b6d 78bc
000003a0: 3952 71bd b48f aabb fbf8 e0bb 7b0f 08bd
000003b0: 4fec 453c a728 40bd 164c 733e 90d6 5cbd
000003c0: e9be 4abd 1e22 b0bc 964a 81bd 1a15 e3bd
000003d0: 2bea 39bd 5d2e 83be 7305 75bf ba5b 65bf
000003e0: ee7e 8fbc 5e50 a13f bafd bb3d 7dfe 3e3e
000003f0: e614 353f 915b 33bd 71e0 453b c1d1 c6bd
-0.0639173 -0.06927523 -0.04527028 -0.029504074 0.019600945 0.019361282 -0.11074988 0.18333599
0.019152593 -0.074201204 -0.08985571 0.0063318494 -0.04273557 -0.5655186 -0.054428034 0.053306047
-1.4604199 -0.033327226 -0.012871887 0.036965452 -0.038934723 1.2673007 -0.06814721 -0.014084367
-0.06514749 1.6477171 -0.07376597 -0.1009244 -0.11335344 -0.07458697 1.4671503 0.24516545
0.10162108 -0.003095563 8.926022e-05 -0.19139189 -0.05489585 -0.08541516 0.04242863 -0.06388221
1.2514238 0.024852963 -1.7217155 -0.10405612 -1.0859329 -0.071334064 -0.15776603 1.0167768
0.014599954 0.49284095 0.007110132 -0.0064456123 0.37519327 0.044985194 -0.016512811 0.07101473
0.022038246 -0.41528967 -0.03418073 -0.14014325 -0.0411312 -0.0008466659 -0.08076014 -0.019472472
1.1182606 -0.082352996 -0.10976354 -0.00096763234 1.0119638 -0.030687824 0.018623583 -0.06607659
-0.013322346 0.04636153 0.021680404 -0.37522265 -0.047008723 -0.008084417 -0.12983291 -0.08967438
-0.055246953 -0.024967859 0.20407711 -0.038733494 -0.015001444 -0.035890155 0.96104026 -0.03750936
-0.045350052 -0.065181024 1.4029181 0.11888783 -0.07981232 -0.04038251 -0.014508925 -0.08435581
-0.008221803 0.014278075 0.28463697 -1.040807 -0.09121177 0.007696354 -0.032555174 1.2782661
-1.0762486 0.020496171 -0.27441746 -0.12395733 0.027545016 -0.1099199 0.2284379 -0.032071903
-0.037735485 -0.18708959 -0.073347 -0.05640718 -0.101680465 1.3875688 -0.038768426 0.0014759523
-0.049608756 -0.027945057 0.020023981 -0.027090833 -0.3532643 0.65086913 0.009785351 0.013422218
-0.015366249 -0.2237451 0.26025617 -0.021992737 -0.033760246 -0.053483877 -0.037894692 0.028319042
-0.06579694 -0.06258101 -0.20335428 0.007864538 -0.08169628 -0.025239578 0.024155373 -0.049700294
-0.03365245 0.006124485 0.3177108 -0.077750966 -0.053373232 -0.08264422 -0.05852477 -0.44040206
-0.39376658 0.012147996 -0.14587341 -1.3614212 0.0024906427 -0.23498882 0.14351189 -0.031650003
-0.042373866 -0.009246904 -1.3564769 0.21875253 0.035940144 -1.0663792 1.2984074 -0.05510864
-0.09975772 -0.11268451 -0.07036554 0.062001936 -0.0048398487 -0.4921901 0.51469743 -0.087218024
-0.105817795 -0.08367078 -0.026099749 -0.06816191 -0.048555627 0.16683708 -0.115866035 -0.0050756396
-0.11220555 -0.0271108 -0.058517214 -0.038880933 0.1742657 -0.0043476783 -0.04684329 -0.05584172
0.0074730963 0.6591436 -0.0501048 -0.025285583 -0.29766676 0.026586141 -0.056806672 -0.07413
-0.0134111075 0.57301754 1.3577514 -0.025576102 0.029121466 1.4380599 0.25087854 -0.030093925
1.5186781 0.02695735 -0.71618265 0.98640835 -0.07336916 -0.071029596 -0.101774536 0.11159973
-0.08593862 -1.5466329 -0.052736316 -0.022978328 -0.018892417 -0.108792424 -0.058774374 0.011718895
-0.054730196 1.6121248 -0.0033502341 0.027570888 -0.021541238 -0.015634673 1.719227 -0.015162836
-0.058916304 -0.005205119 -0.0068656183 -0.03321789 0.012080266 -0.04691377 0.23759493 -0.05391556
-0.049498472 -0.021500643 -0.06313054 -0.11088009 -0.045389336 -0.2562131 -0.9571144 -0.8959309
-0.01751658 1.2602651 0.09179254 0.18651767 0.70735013 -0.043788496 0.0030193592 -0.09707976

l3.weight f4 [1, 300]
00000000: 19fd 223c 32cd 923c 4652 623c 1e2d 6c3e
00000010: 743e 88bd 9f8e 18bf dc99 513c 5e00 3dbf
00000020: ad67 3ebe b1dc b3ba 3368 58bc 628b 873e
00000030: b9c9 cdba b11d 73c0 5a93 d7bc 326e 26be
00000040: 14dd 5b3f 25c0 48be 190d 32be 574c 1abf
00000050: c7bc 62bc 6a4a f0be 449c 8e3c 42e1 36c0
00000060: 560a 5e3c 2c3a d1be 0c95 943d 3451 5c3d
00000070: d933 8a3d 5f13 9ebc 1a8c 1cbf 6207 e63e
00000080: aa27 13be 9a89 f0bd ee8d 43be 2439 953e
00000090: 2643 c3be db42 fbbc 340b 00bf 9e39 123b
000000a0: a97b 923e b0ea 38be 20a7 4a3e 1b45 a63d
000000b0: b069 aebe 0ca8 1d3d b491 18bf fa2c 793d
000000c0: 4aa5 4abe d4a4 6dbf ad86 3dbe 14f3 8cbc
000000d0: 41c5 b7be 848c 2dbe 5a7e 823b 3064 50bf
000000e0: 06ba 1c3c 6a89 cbbe 48ba 153d 8549 823f
000000f0: 502b f33b 57fc 08be d75c eb3c 436e 3cbe
00000100: 49e4 24bf e36e 7d3c 1277 40bf 9207 b63e
00000110: 98cf 083f 5ec1 44be 0248 ddbd e9f2 ae3c
00000120: ab15 0fbc 363f 9ebe 76c8 843c e5aa 76be
00000130: ca68 fa3c 6a99 b23b a2e6 0cbf 6137 12bb
00000140: eb0f 203d a63a 873b 0a5a 693e 1fe2 13be
00000150: c978 02bd e561 fc3b 5a85 a03d 5eeb 0ebe
00000160: 26bc cd3d 596f 3a3c f258 29be 930d db3c
00000170: c23f 093c eceb a1bc aba3 8ebd 4bb8 6bbb
00000180: e626 ff3c efe7 dc3c 6e77 f0bc bca3 d8bd
00000190: bc70 8b3f 55a8 1abe 916a 77bc 7201 c93e
000001a0: 4b8e 2dc0 334e 64be 639e 35bf f502 0ebf
000001b0: b68a cdbc 959e e1be 48ee 51bf a00b 3f3c
000001c0: 07d1 483f 7956 5bbf ca5a fdbc ac8a f6bb
000001d0: bdef dc3d ae86 a3be b110 f2bc 3121 fa3d
000001e0: 7fc5 36be 42fb c3bd c88f b6bd d18c 83bc
000001f0: 2e54 063f 8bd0 b6be 78e5 443d 5ded 54bd
00000200: dea2 04bc 9a79 debe bd1e 7f3f d931 f7bb
00000210: 5dd4 66bc 5dc3 7fbc 5fcb 753d 0f9f 26ba
00000220: 4c12 e73c 5a09 1fbc 2da0 553e e4ca b83d
00000230: 2691 9b3c 1efd 02be 6157 943c 59cd 5ebc
00000240: e9d0 eaba 247c beba decc aabe 58a3 043e
00000250: 41a8 15be 9173 50bc 09f5 08bc 79c4 1dbe
00000260: 3584 a1be 78b7 ab3b 148f 1abf 59ea 413f
00000270: 1943 2bbe 9f10 6e3e 5723 52be 143e 28bd
00000280: 1cbe 49ba 1616 dfba 0883 903f 9c4f ac3b
00000290: 733b 0dbe be0a 1d3f 02df 62bf a2f6 d4bc
000002a0: 413f e13c a413 403e 3533 40ba e249 9bbf
000002b0: be09 6a3b c03b cbbe ed99 203d c60c 75bc
000002c0: 2d7f 523d b6ea 023b dcf1 373c e2cd 88bc
000002d0: d734 843a f3c6 febe 391d 753d 30b5 f1bc
000002e0: a882 3f3b 865a e83a 121a 803c 1ad7 ee3c
000002f0: 182d da3e bb8e 083d f4b8 6b3c 8aae 323d
00000300: d1d4 853c a199 a33d ff9a c03d 3ab5 863b
00000310: b2de 743e 6675 afbd c8be fabc c351 0a3b
00000320: 8a1d e2bc 48df 943d fe87 043f 5584 8b3c
00000330: 700c 93bf f26b 06bf fad2 31bf 3be9 6c3c
00000340: 0fca dcbe 59bb 80bc edb7 21bf bb6e ba3d
00000350: db95 ee3c 99af 22bd ac25 9a3d aefc cebb
00000360: 3118 003d b130 5f3f 09e5 163e ffa4 353d
00000370: fb5b 1abd 64c4 6dbe d0d3 b13c 85f3 cfbd
00000380: 4312 b8ba 17e4 1cbf f57b 8e3c e9e4 37be
00000390: f772 dcbc a9ee 73be 7e9e f8be 2a4c c23c
000003a0: 67d2 0a3b be35 b43c 6047 e7bd 1302 f53c
000003b0: ab4b ed3c 0b90 163c f755 f83b a6ef a53c
000003c0: 298d 0c3d 3c92 0abf 47c1 a43d b300 053e
000003d0: 411d edbc 79ac bebe 8ddc 12bf 90f0 f73b
000003e0: 171c 4bbe 91be 22bf dc49 e6be f1f9 18bf
000003f0: 5173 973d e888 8d3c a11c 993c 8b50 fb3c
0.0099480385 0.01792011 0.013813561 0.23064086 -0.06652537 -0.5959262 0.012793031 -0.73828685
-0.18594237 -0.0013722387 -0.013208437 0.26473528 -0.0015700377 -3.7986872 -0.02631538 -0.16252974
0.85884213 -0.19604547 -0.17387809 -0.60272735 -0.013838953 -0.46931773 0.017408498 -2.8574986
0.013552269 -0.40864694 0.07254991 0.05378838 0.067481704 -0.019296346 -0.6115128 0.44927508
-0.143706 -0.117449954 -0.1909711 0.29145157 -0.38137168 -0.030671528 -0.50017095 0.0022312175
0.2860997 -0.18058276 0.19790316 0.081186496 -0.34065008 0.03849034 -0.59597325 0.06083391
-0.19789615 -0.9282963 -0.18508406 -0.017205752 -0.3589268 -0.16948134 0.0039823474 -0.81402874
0.009565836 -0.39753276 0.036554605 1.0178686 0.0074209347 -0.1337751 0.028730793 -0.18401437
-0.64410836 0.015468332 -0.75181687 0.3555265 0.5344176 -0.19214389 -0.1080475 0.021356063
-0.008733193 -0.309076 0.016208868 -0.24088629 0.030567545 0.0054504173 -0.5503942 -0.002231084
0.03907768 0.0041268645 0.22788253 -0.14441727 -0.03185347 0.0077020996 0.07837935 -0.13956973
0.10045652 0.011379086 -0.16537836 0.026739871 0.008377017 -0.019765817 -0.06964811 -0.0035968001
0.031146478 0.026966063 -0.029353824 -0.10578105 1.0893779 -0.15103276 -0.015101091 0.39258915
-2.7118099 -0.22295456 -0.70944804 -0.5547326 -0.025090557 -0.440663 -0.82004213 0.011660486
0.7844395 -0.8567882 -0.03092708 -0.007523855 0.10787914 -0.3193869 -0.029548975 0.12213362
-0.17848776 -0.09569408 -0.08914143 -0.016058357 0.524722 -0.3570598 0.0480704 -0.05198418
-0.008095471 -0.4345215 0.9965628 -0.007543784 -0.014088717 -0.015610543 0.060008403 -0.0006356099
0.028206967 -0.009706819 0.20861883 0.09023073 0.01899011 -0.12791869 0.018108072 -0.013598763
-0.0017915043 -0.0014532846 -0.33359426 0.12952936 -0.14614965 -0.012722866 -0.008359202 -0.1540698
-0.31546178 0.005240377 -0.6037457 0.7574821 -0.16724814 0.23248528 -0.20521294 -0.041074827
-0.000769587 -0.0017020132 1.1289988 0.0052585136 -0.1379221 0.61344516 -0.8862153 -0.02599651
0.027495982 0.18757492 -0.0007331849 -1.2131922 0.0035711373 -0.39694023 0.039209295 -0.014956659
0.051390816 0.0019976324 0.011227097 -0.016699735 0.0010086548 -0.4976116 0.059842322 -0.029505342
0.0029222164 0.0017727173 0.015637431 0.029155303 0.4261253 0.033339243 0.014387358 0.043623485
0.01633683 0.07988287 0.09404563 0.0041109594 0.23913077 -0.08567314 -0.03060855 0.0021105863
-0.027601976 0.0726915 0.5177001 0.017030874 -1.1488171 -0.5250846 -0.6946255 0.014459903
-0.43122908 -0.015714334 -0.63171273 0.091031514 0.029124191 -0.039718244 0.075267166 -0.006316743
0.03127307 0.8718367 0.14735807 0.044346806 -0.037685376 -0.23219448 0.021707445 -0.101538695
-0.0014043528 -0.6128554 0.017393092 -0.17958416 -0.026910288 -0.2382151 -0.4855842 0.023717958
0.0021182538 0.021998283 -0.112929106 0.029908216 0.028966745 0.009189616 0.007578607 0.020255875
0.03431431 -0.54129386 0.08044677 0.12988548 -0.028944613 -0.3724096 -0.57367784 0.007566519
-0.19834934 -0.6357203 -0.44978225 -0.5975638 0.07395042 0.017277196 0.01869041 0.030678054
