preTrained/BipedalWalker-v2/ONE/TD3_BipedalWalker-v2_0_solved_crtic_2.pth (torch_old, 529798 bytes, 5 tensors)

l1.weight f4 [400, 28]
000000 33 9b d0 bf b1 a3 0b c0 43 d2 c7 3f ad 36 f4 be
       -1.6297363 -2.181866 1.5611042 -0.47697964
000010 08 c4 d1 bf 08 5e a9 be a1 b3 ca be 6d 08 d1 be
       -1.6387949 -0.33079553 -0.3959017 -0.4082674
000020 a3 2f 88 3d 30 a2 f5 3d d5 90 5e 3e be 94 b5 3d
       0.06649711 0.119938254 0.21734937 0.08866261
000030 7a 01 02 bf a0 ac c5 bc 60 02 56 3e 93 53 41 3e
       -0.50783503 -0.024130166 0.20899343 0.18879537
000040 f1 2c ab 3d 42 f1 d0 bd 47 e3 7d be 85 c0 42 3d
       0.08358181 -0.10202266 -0.2479373 0.047546882
000050 46 bd 3b be 95 c7 ae 3d 56 8f b5 bd 9e 7a 6e 3e
       -0.18333921 0.08534161 -0.0886523 0.23288962
000060 80 67 48 be 27 96 8b be 14 de e4 3d 5b 18 96 be
       -0.19570732 -0.27262995 0.111751705 -0.29315457
000070 c6 26 b2 be cb ef dc 3f 93 61 19 bf 44 9d 3e bf
       -0.34795207 1.7260679 -0.5991451 -0.7445872
000080 60 b0 0f 3f 98 37 0c 3f 26 4c cc 3d 89 9b fb 3e
       0.561285 0.5477233 0.09975462 0.491421
000090 c3 1a 75 be 7c c0 12 3f 53 12 3d 3c 38 96 d2 bf
       -0.2393599 0.5732496 0.011540013 -1.6452093
0000a0 8f 26 2a 3f b5 9d 1a bf 5d 7b d9 be 20 09 c6 be
       0.66465086 -0.6039689 -0.4247693 -0.38678837
0000b0 78 ab 0f be 10 c2 86 be a5 ba 96 be 1c 0b 68 bd
       -0.14030254 -0.26319933 -0.29439273 -0.05665122
0000c0 35 9b 8b be 23 36 bd be 6c e5 c8 be 1f eb 0c bf
       -0.2726685 -0.36955366 -0.39237535 -0.55046266
0000d0 7f 7d 3a 3f c9 fb 7a be 97 6a 93 3f 7f 8b 35 be
       0.7284774 -0.24510111 1.1516904 -0.17728995
0000e0 9e 75 ba 3f 94 ca 08 40 45 2a e4 3f d4 7c 17 3e
       1.4567144 2.1373644 1.78254 0.14793712
0000f0 a6 4b 44 3f df f8 97 bd 4f e3 04 be de a6 2d 3f
       0.7667793 -0.07420515 -0.12977336 0.67832744
000100 99 38 42 bd 91 dd 60 bf e5 09 50 3e 85 81 39 bf
       -0.047417257 -0.87838084 0.20316274 -0.72463256
000110 15 14 0c bf 13 2e e4 bf c9 11 fd 3c 9e 25 62 bd
       -0.5471814 -1.7826561 0.03089227 -0.055211656
000120 4a 56 7f ba b5 20 3c be 42 e4 7b be d8 5b 0a 3e
       -0.0009740336 -0.18371852 -0.24598792 0.13511598
000130 36 c0 1c be 17 f1 b1 3d 4d c6 c2 be 74 6d cd be
       -0.15307698 0.08688562 -0.38041916 -0.4012257
000140 d2 a1 dc bd 49 7f 06 bf 2d c6 0c 3f cf 59 08 be
       -0.10773052 -0.5253797 0.5498989 -0.1331551
000150 a3 7f 49 be d3 ed 96 bf 0f 7a b3 3a 97 3c 5b 3d
       -0.19677596 -1.1791328 0.0013692993 0.05352458
000160 58 a8 9b be 5c 2f b4 bb e0 ee 83 be 4f 76 29 3e
       -0.30401874 -0.0054988097 -0.25768185 0.16549037
000170 32 69 8f 3e e4 24 7f be 41 2e cf 3e 54 65 69 be
       0.28009945 -0.24916416 0.40464976 -0.2279256
000180 76 67 74 be ca b2 29 be 1c 6c 0c bf ed 7b b7 be
       -0.23867592 -0.16572109 -0.5485246 -0.35836735
000190 ec d8 03 bf 16 ca 18 bf 5e 6f db be 7a 83 ea be
       -0.5150287 -0.5968336 -0.42858404 -0.45803434
0001a0 e7 e3 c5 be 30 fc a8 be 84 d6 7b be 09 89 3a be
       -0.38650438 -0.33004904 -0.2459355 -0.18216337
0001b0 f7 db 3d bc e9 df f4 bd 61 96 df 3d 0d 57 68 3e
       -0.011588088 -0.1195677 0.109173544 0.22689457
0001c0 e8 93 e5 3f 0d 3a 90 3f a2 5f 4d 3f c6 c9 87 3f
       1.7935762 1.1267716 0.8022405 1.0608451
0001d0 69 f1 d9 3d bf b7 01 3e ce a1 1f be a1 3a e4 3e
       0.106417485 0.1266775 -0.15589067 0.4457598
0001e0 29 f5 a7 3e e1 c2 7b 3d 28 80 36 3e 9d dd f8 3e
       0.3280423 0.061465148 0.17822325 0.48606578
0001f0 6c ed 0d c0 8d ad e1 be f0 90 f0 be c6 78 13 bf
       -2.217616 -0.4407772 -0.4698558 -0.5760616
000200 5c f0 fc be 60 10 12 bf 67 bf f7 be 49 54 51 be
       -0.4940213 -0.57056236 -0.48388216 -0.20442308
000210 86 34 01 be 15 64 73 3d 62 d5 c0 be 82 d1 41 bf
       -0.12617692 0.059421618 -0.37662798 -0.7571031
000220 fd b7 af be dd b6 c6 3e f8 f6 d9 3e 71 7e 6c 3f
       -0.3432006 0.3881139 0.42571235 0.92380434
000230 80 0f da 3f 32 b2 a0 3e 17 b2 45 3d 6b 5a bd 3e
       1.703598 0.31385952 0.048265543 0.36983046
000240 ea d1 a0 be f5 a0 2b 3e 19 e4 c9 3e f3 18 e5 3e
       -0.31410152 0.16760619 0.39431837 0.44745597
000250 f5 77 ba 3e a9 95 62 3f 61 bb 81 bf 0b b1 d7 bd
       0.36419645 0.88509613 -1.0135309 -0.10531815
000260 21 ef e1 bf bd 29 37 bf af 7d 8c be 78 d0 86 be
       -1.7651101 -0.7154806 -0.2743964 -0.26330924
000270 e1 f7 a5 be 8b a3 ec bc bc 0d bf be 18 99 a2 bd
       -0.3241568 -0.028886577 -0.37315166 -0.079393566
000280 68 85 f5 bd 46 59 e2 be 00 c0 4c be 99 44 18 bd
       -0.11988336 -0.44208735 -0.19995117 -0.037174795
000290 59 c8 2d bf ca b3 36 bf ac 16 fc 3d 30 63 d4 3d
       -0.6788383 -0.71368086 0.12309012 0.10370481
0002a0 ab 66 f0 3d ac fa 8a c0 e9 18 0f 40 a9 1b 9b 3f
       0.11738332 -4.3430996 2.2358954 1.2117816
0002b0 97 2d de 3e 71 d3 b7 3e c4 c0 d0 bf 27 ab 59 3e
       0.43394157 0.35903504 -1.6308827 0.21256696
0002c0 95 b9 41 3e e9 a1 1a 3e d0 07 55 bd cc 8f cd bf
       0.1891845 0.15100826 -0.052009404 -1.6059508
0002d0 9e 85 64 3e 5d 7e f2 bd 9c c1 58 bf 04 98 27 bf
       0.22316596 -0.11840508 -0.84670424 -0.6546633
0002e0 ff ed 71 bf 4f d4 30 bf 59 e5 3e bf ca a4 45 bf
       -0.9450378 -0.6907396 -0.74568707 -0.77204573
0002f0 fc 32 2a bf 99 03 84 bf 4d 65 82 be 61 48 b8 3d
       -0.66484046 -1.0313598 -0.2546791 0.0899818
000300 4b 21 2a bd 3b e7 c0 be 4a 1a 4c 3e cb ae a9 3e
       -0.041535657 -0.37676415 0.19931903 0.3314117
000310 70 64 1b 3f 75 56 90 be 80 3c eb 3b 70 54 e2 3f
       0.6070013 -0.2819096 0.007178843 1.7682018
000320 79 b0 2e c0 57 6f 99 bd 62 4f 26 3f 41 7a 45 bb
       -2.729521 -0.074919395 0.6496488 -0.0030132683
000330 52 23 47 3f 1e bb d8 3f 97 66 88 3f 77 23 55 3f
       0.7778827 1.6932104 1.0656308 0.8325724
000340 b4 86 ff 3e d6 af 30 be ee 07 50 be b2 83 70 be
       0.49907458 -0.17254576 -0.20315525 -0.23487738
000350 62 80 9f bc b8 99 3d 3d 22 f4 3d be ef f9 53 bd
       -0.019470397 0.046289176 -0.1855016 -0.051752027
000360 50 b7 f9 3d 6e dd a0 bd 9c b0 e6 bc 9f be a8 be
       0.12193167 -0.07854734 -0.028160386 -0.32957932
000370 f0 bc b9 bd d8 ac 03 3f 3d bd 24 be 5c 4b 06 be
       -0.0906924 0.51435614 -0.16087814 -0.13114685
000380 ba 8d 9f 3d b0 0e 42 3e 7f 6a ab 3e 18 84 da bd
       0.07790704 0.18950915 0.33479688 -0.10669726
000390 dc e4 ee 3e 97 ee 95 3f 13 06 a9 bf d7 fa ae 3f
       0.4665898 1.1713437 -1.3204979 1.36703
0003a0 85 12 ab be 3a c8 58 3e c7 35 cf be c3 6f 49 bf
       -0.33412567 0.2117013 -0.40470716 -0.7868616
0003b0 e3 e2 2f bf 12 98 8d be 1b cf 09 bf 37 57 57 bf
       -0.68705577 -0.27655083 -0.5383164 -0.84117454
0003c0 8b ab 1b bf 34 ea 49 bf f6 13 10 bf 23 38 06 bf
       -0.6080863 -0.7887299 -0.5628046 -0.5242941
0003d0 5b 4f 47 bf be 55 08 bf 9b f7 2b bf 54 f3 40 bf
       -0.7785546 -0.5325583 -0.6717469 -0.7537129
0003e0 c2 fa 88 be 99 7c 23 3f ca af 1b bf a0 fe 99 3f
       -0.26753813 0.63861996 -0.6081511 1.203083
0003f0 0b 6e 02 40 85 72 25 40 50 96 e3 3e e0 c6 82 40
       2.0379665 2.5851147 0.44450617 4.0867767

l1.bias f4 [400]
000000 29 de 51 3e 2b cd a5 be 2a 2d ee be 75 1c ef be
       0.20494904 -0.32383093 -0.46518832 -0.46701398
000010 ac a8 30 bf 9b 59 37 be 5a d7 d1 bd fc 91 e3 be
       -0.6900737 -0.17905276 -0.10246153 -0.44447315
000020 9f e3 b7 be ac a9 8e bf 28 83 82 bd 71 05 e4 be
       -0.3591585 -1.114553 -0.06372672 -0.445354
000030 68 6e 0f be 30 11 ec 3d 24 31 9f 3e 97 28 38 3e
       -0.1400696 0.11526716 0.3109218 0.17984234
000040 99 30 c9 be e0 a4 88 bf 3c 62 52 bf 22 af d0 3e
       -0.3929489 -1.0675316 -0.82181144 0.40758616
000050 a6 76 71 bf e1 c7 fa 3d 2b c0 1f bf a9 13 5f be
       -0.9432167 0.12245155 -0.624026 -0.21784844
000060 39 00 11 bf 7a 8d 47 be ed 93 5b bf 56 b8 ec be
       -0.56640965 -0.19487563 -0.8577259 -0.46234387
000070 12 33 67 bf 7a d2 3d bf 20 d6 05 be d9 f5 eb bd
       -0.903123 -0.74149287 -0.13069963 -0.11521501
000080 49 a5 d6 be 5c 60 3c bf 5c e8 2f 3f 5d c1 32 be
       -0.41922978 -0.7358453 0.6871393 -0.17456575
000090 b5 79 44 bf 2f b8 08 bf 4d 95 10 bf 23 af 10 be
       -0.7674821 -0.5340604 -0.56477815 -0.1412931
0000a0 f7 f4 78 be b8 4b ac bf 14 fc 96 bf 63 bd 4d be
       -0.24312197 -1.3460608 -1.1795678 -0.20091777
0000b0 19 21 cb 3c 28 3e 42 bf 96 9a dc be 26 ab 36 bf
       0.024796056 -0.7587609 -0.4308669 -0.713549
0000c0 4a 9b 33 be 5b 8a e8 be 7c 73 66 bf e5 25 3c bf
       -0.17539707 -0.45418057 -0.90019965 -0.7349532
0000d0 62 98 ff be d6 a2 6a be d9 9f 10 bf 9f 0c fc be
       -0.49920946 -0.2291368 -0.5649391 -0.4922838
0000e0 1d 58 9f be b0 58 36 bf 9d 80 d4 3e ab ac 5c bf
       -0.31121913 -0.71229076 0.41504374 -0.8620097
0000f0 72 ac 20 bf f1 c8 8f bf 79 5e ba bc 00 81 07 be
       -0.6276313 -1.1233197 -0.022750126 -0.13232803
000100 52 0d 53 3e 8a 0b 95 3e 81 ee 03 3f 27 d4 77 bf
       0.2061055 0.29110366 0.51535803 -0.96808094
000110 e1 27 86 be e5 ae 52 bf a6 98 0f bf 88 b4 95 bf
       -0.262023 -0.8229812 -0.560923 -1.1695719
000120 90 6e a7 be 6c ef 0d bf ad ac 77 bd eb b2 84 bf
       -0.3270154 -0.55443454 -0.06046741 -1.0367101
000130 d6 86 6f bf c8 b7 e0 bd 05 93 46 3f 8b b5 b8 be
       -0.9356512 -0.109725535 0.77568084 -0.36076006
000140 4b 51 65 3f 05 ed 35 bf 28 64 e4 be 72 65 00 bf
       0.8957717 -0.7106479 -0.44607663 -0.50154793
000150 2a 94 b6 3c 6f 1f 1d bf 76 b9 09 bf 2e d3 25 bf
       0.022287447 -0.6137609 -0.53798616 -0.6477536
000160 be 74 11 be 34 68 c3 be 0d cd 0c be cc d3 1b bf
       -0.1420469 -0.38165438 -0.13750096 -0.6087005
000170 58 1b 84 bf 8f a3 42 bf 54 4d 6f bf c5 e2 dd be
       -1.0320845 -0.7603082 -0.9347737 -0.43337074
000180 ef 06 e3 be 65 a2 8c be a0 3d 64 3d 9b 17 92 3e
       -0.44341227 -0.27467647 0.055722833 0.28533635
000190 5c ca e2 be 9a cd f5 be 0e 51 8a be 43 f7 06 3d
       -0.44295013 -0.48008424 -0.27014965 0.03295065
0001a0 e8 38 fe bd 1a 4f c4 bb fc 74 1b bf bc ce 5d be
       -0.12413198 -0.005990875 -0.6072538 -0.21660894
0001b0 24 68 09 bf c0 4a 39 be 9a 28 49 be 11 09 cf bb
       -0.5367453 -0.18094921 -0.19644395 -0.0063182195
0001c0 f9 3d 94 bf 65 b3 7f be 92 26 02 bf e7 00 53 bf
       -1.1581413 -0.24970777 -0.50840104 -0.8242325
0001d0 dd 6e 86 bf 92 7d 0d bf 52 40 fd bd 2e 4b 11 be
       -1.0502583 -0.5526973 -0.12365784 -0.14188835
0001e0 91 58 99 be 8e ad ba be 1c fb 76 bf 5d 17 04 bf
       -0.29950383 -0.36460537 -0.9647691 -0.5159815
0001f0 50 f1 58 bc 10 ec a1 bf 19 1a 55 be 4a 50 ae bd
       -0.013241127 -1.2650166 -0.20810737 -0.08511408
000200 12 8a 45 bf f4 c3 d1 be 94 2c c4 be 24 c8 1a bd
       -0.77163804 -0.40969813 -0.3831526 -0.037788525
000210 3c ee 84 bf 42 bb e5 3e ad 19 ea be 32 00 6e bf
       -1.0385203 0.4486943 -0.45722714 -0.9296905
000220 2d 17 3e bf 3f 1d 5e bf 46 c1 da bd aa 9e aa be
       -0.74254113 -0.86763376 -0.10681395 -0.33324176
000230 ab 8b 20 bf ec d7 27 bf 8a 36 de bd 2d 20 3c bf
       -0.62713116 -0.65563846 -0.10850246 -0.73486596
000240 21 79 23 bf 57 70 62 bf 92 6f f2 be 1a b0 10 bf
       -0.63856703 -0.88452667 -0.47350746 -0.5651871
000250 f4 b5 2e bf 1e 29 fa be ad e3 23 bf 30 fa 36 bf
       -0.6824639 -0.48859495 -0.6401928 -0.71475506
000260 f9 a3 8d bd b1 78 2e bf 05 83 8c be 5f 77 03 3f
       -0.06916041 -0.6815291 -0.2744371 0.5135402
000270 32 7f 00 3e 58 2d da be 6a ab 2e bf 0d 31 83 bc
       0.12548521 -0.4261272 -0.6823031 -0.0160146
000280 ec 27 79 bf 80 ba 0f bf 80 4d 28 be 68 ad d9 bd
       -0.9732654 -0.5614395 -0.16435814 -0.10628778
000290 12 ad 50 bf 46 ae 96 3e e3 dc 4b bd b2 49 1c bf
       -0.81514084 0.29429835 -0.0497712 -0.6104995
0002a0 47 54 81 3e 8b 1d ef 3e aa b8 e8 3d 13 58 8d be
       0.2525961 0.46702227 0.11363347 -0.27606258
0002b0 8c 1e fc be d6 6f 52 3f 2b 2f 88 bd af e0 02 bf
       -0.49242055 0.822019 -0.066496216 -0.5112409
0002c0 0f ec 1a be 9a 4e f9 bd f8 08 95 3f 7c 4b 02 bf
       -0.15129112 -0.12173195 1.1643362 -0.5089643
0002d0 b4 78 85 be 47 35 fd bc 5b fd 4b bf 33 1e bf bd
       -0.26068652 -0.030909194 -0.79683465 -0.09331932
0002e0 11 6d 89 be d0 98 54 bf 32 12 24 bf ab bc 76 3d
       -0.26841024 -0.83045673 -0.64090264 0.06023852
0002f0 8f 20 15 bf 41 c8 10 bf 1f 22 26 bf 50 48 92 be
       -0.58252805 -0.56555563 -0.64895815 -0.28570795
000300 38 42 19 3f fa 2d 55 3b 0e ed ce 3d ba ad 51 3f
       0.59866667 0.0032528625 0.10103808 0.8190571
000310 ec 5d 8c bf 70 29 31 3f 42 31 b7 be 54 33 13 bf
       -1.0966163 0.69203854 -0.35779768 -0.57500196
000320 77 d2 9a 3e bd c2 53 bf 0d 7c 5a be bc b5 3d bf
       0.30238697 -0.8271902 -0.21336384 -0.7410543
000330 d3 1c 1d be 38 c2 1f 3f de 66 e1 be 42 2d 02 bf
       -0.15343027 0.6240573 -0.44023794 -0.5085031
000340 cb 22 4a bf 75 4d 58 bf 3e 40 2e bf 0a 8e 33 3f
       -0.7895934 -0.8449319 -0.68066776 0.7013861
000350 cd a5 df be ed e1 7e 3e d2 c9 89 bd 94 35 f4 be
       -0.43681183 0.24890871 -0.06727947 -0.47697127
000360 b2 37 29 bf 28 29 fd be 00 ab 5b be d0 d3 b8 bf
       -0.6610061 -0.49445462 -0.2145195 -1.443964
000370 2b ba 29 3f 11 ee 57 bf b1 0c ef be da 7c 59 3f
       0.66299695 -0.84347636 -0.4668937 0.84956133
000380 e2 2c 87 be a1 2f 40 3f 35 30 ce bd 15 b5 eb bd
       -0.2640143 0.75072676 -0.100677885 -0.11509148
000390 db cb 6a bf 0d 49 d2 be b8 60 99 be 50 4a 7e bf
       -0.9171731 -0.41071358 -0.29956603 -0.9933214
0003a0 03 3b 19 bf 24 39 26 bf af ee 19 bf 6a 56 59 bf
       -0.5985567 -0.6493094 -0.6012983 -0.8489748
0003b0 80 48 f8 be 71 64 99 be f2 62 44 bf 84 76 36 be
       -0.48492813 -0.29959443 -0.7671348 -0.17818648
0003c0 dd cf 47 be af 5b 43 bf d8 10 9f bf df ad 02 3f
       -0.19512887 -0.76311773 -1.2427015 0.51046556
0003d0 2d 56 31 be 4a b1 42 bf b2 01 d7 3e 2a 68 46 be
       -0.1731803 -0.7605177 0.4199348 -0.19375673
0003e0 33 f9 62 bf 9b 04 98 be 1c 0d a7 be 3d a6 db be
       -0.886615 -0.29691014 -0.3262719 -0.42900267
0003f0 74 57 15 bf d1 97 25 bf c7 74 3c bf 8c 87 e2 be
       -0.5833657 -0.6468478 -0.7361569 -0.4424404

l2.weight f4 [300, 400]
000000 b4 32 a2 bc 4c 14 7f bc a1 f4 1c 3d a8 2d 0f 3d
       -0.019799568 -0.015568804 0.038319234 0.03495565
000010 91 59 39 3d d0 ca f3 bb 8f 2b 79 bd 78 d3 11 bd
       0.045251433 -0.0074399486 -0.060832556 -0.035602063
000020 5b 52 37 bd 6f 1b f1 3c a8 3b cf bb d9 00 65 bd
       -0.044756275 0.029432027 -0.0063242503 -0.05590901
000030 f8 30 04 3c 16 fd 00 3d 18 d9 ef bc 6f b8 3b 3d
       0.008068316 0.03149136 -0.029278323 0.045830186
000040 ee 5c 9a 3b 66 40 8f bc 1b 00 dd bc 6a 54 6a bd
       0.004710785 -0.017486762 -0.02697759 -0.05720941
000050 c8 2a dd bc b6 92 c7 3b 49 b1 47 bd b9 20 00 3d
       -0.026997939 0.0060904874 -0.048753057 0.031281207
000060 72 4b 21 bd d3 19 b6 bc cc 80 14 3c 08 68 29 bd
       -0.03937859 -0.02222911 0.009063911 -0.041358978
000070 fb af d2 bb 7a dd f1 3c 9f 68 41 bc e2 43 cd 3c
       -0.00642967 0.029524554 -0.011804729 0.025056783
000080 9e c5 6d bd ad f4 3b 3c 90 c0 8a bd e0 f8 83 bc
       -0.05804979 0.0114719095 -0.0677501 -0.016109884
000090 90 4e 09 3d db 08 51 bd cc 94 f1 3c 23 de b5 bc
       0.03352219 -0.051033836 0.029489897 -0.02220065
0000a0 4f 25 50 bd c2 d5 70 bd d5 ff ad b9 4a c7 9c bc
       -0.05081683 -0.058797605 -0.0003318774 -0.019137997
0000b0 8f 24 c4 3b 54 60 77 bc 04 b5 af bd de a3 04 3d
       0.0059858034 -0.01509865 -0.08579448 0.03238284
0000c0 b3 f6 41 bd 8e f8 03 bd 77 61 b2 bc 94 a8 43 bd
       -0.04735441 -0.032219462 -0.02177499 -0.04776819
0000d0 37 8d 3a 3d eb 89 4c 3d 82 27 fb 3c 40 f3 14 3c
       0.04554483 0.049936216 0.030658487 0.009091198
0000e0 59 da ff bc 28 a8 2c 3c 38 00 05 bd f3 19 d9 bc
       -0.031232046 0.010538138 -0.03247091 -0.026501631
0000f0 33 0d 9a 3c af 22 39 bd b8 73 c9 bc 9c 46 00 bd
       0.018805122 -0.045199092 -0.024591312 -0.03131734
000100 52 ed af bc dd ec 23 bd b3 f7 bf 3b 6d d2 d7 bc
       -0.021475468 -0.040020812 0.0058583855 -0.026345456
000110 e9 17 e9 bc 0e 3d 4e bd 12 d4 35 bd 99 17 19 bb
       -0.028453784 -0.050351195 -0.0443917 -0.0023360013
000120 a3 89 0b bc 25 57 b7 3c 94 47 04 bd 6b ad 86 3c
       -0.008516702 0.022380421 -0.032294825 0.016440114
000130 46 60 85 3c dc b4 8f b9 26 05 64 bd 5b 6e 34 3d
       0.016281258 -0.00027409836 -0.055668972 0.044050556
000140 8b 1c e3 bc e2 a3 36 bd 72 70 05 bd 58 c3 ff 3b
       -0.027723571 -0.044589885 -0.03257794 0.007805269
000150 3f 67 1a 3d 0a 40 d4 bc 4d 12 8f 3c 2f 04 39 3d
       0.03769612 -0.025909442 0.017464781 0.045170005
000160 40 b6 2e bd 60 5b a3 bc 19 f7 39 3d 34 1a cb bc
       -0.042654276 -0.019941032 0.045401666 -0.024792768
000170 bf 24 4a bd 66 87 45 3c 56 09 31 bd 94 80 58 bc
       -0.04935145 0.012056207 -0.043221794 -0.013214249
000180 34 91 25 bd 4e 24 89 bd 6d bd 35 bd 52 e9 99 bd
       -0.04042168 -0.06696378 -0.044370104 -0.075152054
000190 86 19 20 bd 97 90 59 3c 8c 03 08 bd 27 75 21 bb
       -0.03908684 0.013279102 -0.033206508 -0.0024636479
0001a0 3a b1 bc bc fb 74 23 bd 80 0b 35 3a 69 36 5f bd
       -0.023033727 -0.039906483 0.00069063157 -0.05449525
0001b0 93 e5 3c bd da fd 9e 3c 4d 13 c5 bc a0 8e b6 3a
       -0.046117377 0.019408155 -0.024057055 0.0013928004
0001c0 cb 57 86 bd 5c d5 83 bc cf 13 ad bc c7 25 e6 39
       -0.06559714 -0.016092949 -0.02112761 0.00043897165
0001d0 72 91 bb bd 6c 1e 48 bc 88 f5 d3 3c 02 2b 0f bd
       -0.09158601 -0.012214284 0.025873914 -0.034953125
0001e0 82 01 98 3c 86 f6 15 3d 5b 9c 0d 3d 9d 60 11 3d
       0.018555406 0.036612056 0.03457294 0.03549253
0001f0 77 e7 82 3c 52 fd 3e bd ec 86 ad bd f2 2d 08 3d
       0.015979512 -0.046628304 -0.08473 0.033246942
000200 da bd 85 bc 86 d0 b5 bd d3 b2 7b bc e3 f7 f5 3c
       -0.01632588 -0.08877663 -0.015362459 0.030025428
000210 fd 6d 77 bd a2 e3 64 bc 95 a4 05 3b 20 70 28 bd
       -0.060407627 -0.0139702875 0.0020392288 -0.041122556
000220 6e 15 15 bd f1 ad 1d 3d 93 2e 48 bd 4b 90 08 bd
       -0.03639739 0.03849596 -0.04887254 -0.033340733
000230 b0 2a 94 bb 62 ca c0 3c 3d 61 53 bc 98 3f 70 bc
       -0.0045216903 0.023534004 -0.012901601 -0.014663599
000240 32 74 a0 3c 9d e6 f0 bc 99 83 36 3d dc 8f 2d bc
       0.019586656 -0.02940684 0.044559095 -0.010593381
000250 d9 b1 49 bd b8 7b f5 bb 34 a6 38 3c c0 e8 37 ba
       -0.049241874 -0.007491555 0.011270095 -0.00070155784
000260 f0 1a bd bb da 4a df 3c e7 24 9c bc 95 31 6f bd
       -0.0057710335 0.027257372 -0.019060565 -0.058396894
000270 e2 19 e7 3c c5 55 14 3d 44 3e 23 bd 10 b7 15 bd
       0.028210584 0.03621461 -0.039854303 -0.036551535
000280 48 d0 34 bd a3 e5 19 3d a8 23 d3 bb 03 30 07 3d
       -0.044143945 0.037572514 -0.0064434595 0.033004772
000290 da 10 06 bd ba 97 1b bd 17 55 7a bd b7 ce ef bc
       -0.032730915 -0.037986495 -0.061116304 -0.029273374
0002a0 2d db e1 bc 5f a4 b9 bb f2 b9 33 bd 95 7a 1d 3d
       -0.027570331 -0.0056653465 -0.043878503 0.03844698
0002b0 7b aa 01 3d c1 e5 2c bd a0 b8 b0 ba e7 09 55 bc
       0.031656723 -0.042211298 -0.0013482757 -0.013002849
0002c0 68 45 2d 3c 73 7c 01 3d 88 bc 0c bd a0 f5 81 bc
       0.01057563 0.031612825 -0.034359485 -0.015864193
0002d0 30 19 64 3b ce 1d 66 bc 91 7e 9d 3c 0a a9 32 bd
       0.0034805052 -0.014045192 0.01922539 -0.04361824
0002e0 89 42 a8 bc 5d a1 f3 3c 23 45 29 3d d8 1b 46 bd
       -0.020539539 0.02974003 0.0413257 -0.048366398
0002f0 88 ab 74 bc 8a 18 b3 3c 39 59 ad 3c 87 89 33 3d
       -0.014933474 0.021862287 0.021160709 0.04383233
000300 cc 0b 76 bd 40 04 f3 3c 86 45 b4 3c 67 b6 15 bd
       -0.060069844 0.029665112 0.022005808 -0.036550906
000310 d7 87 3e bd 05 af c4 bb f5 76 ba bd 40 19 d5 bc
       -0.046516266 -0.0060023093 -0.091047205 -0.026013017
000320 0b 76 11 bc 57 bf 1c 3d 31 9b 02 3d 02 31 c3 3c
       -0.008878241 0.038268413 0.031886283 0.02382708
000330 62 cc 42 bd af f7 9a bd 1a 0f e0 3c 99 ca 24 3d
       -0.047558196 -0.07566773 0.027350951 0.040232275
000340 34 03 cd bc 40 e0 8b bb 24 7c 01 bd 4a e0 17 ba
       -0.025025941 -0.004268676 -0.03161253 -0.00057936145
000350 bd 16 27 3d 0a 89 ab bc b9 e0 c5 3b 63 97 84 3a
       0.04079317 -0.020939369 0.006038752 0.0010115918
000360 47 03 d7 bc b5 49 1f bc 6a a7 c0 3c 29 3d 4c bd
       -0.02624668 -0.009722163 0.02351733 -0.049863014
000370 ba a9 2a bd d2 56 3b bd bd e6 f9 bc 4f 59 f2 bc
       -0.04166577 -0.045737095 -0.030505532 -0.029583601
000380 c3 5e c7 bc e6 45 bb 3b 69 10 07 3d 68 3b 97 3b
       -0.024337178 0.0057151197 0.032974634 0.004615236
000390 68 41 35 3c e0 8d a9 bc 22 64 04 3d 3c ff 17 bd
       0.011062957 -0.020697534 0.032322057 -0.037108645
0003a0 9e f1 25 bd 7f a5 39 bd fb d0 9a bc 98 19 69 bc
       -0.040513627 -0.045323845 -0.018898478 -0.014227293
0003b0 5c 78 63 3c e1 85 1b bd f0 59 13 bd dd 98 18 bd
       0.013883676 -0.037969474 -0.035974443 -0.037255157
0003c0 ec 36 85 bc 6a cd 8d 3c 03 23 9f bd 3e 0b b0 bc
       -0.01626154 0.017309863 -0.0777035 -0.021489736
0003d0 6f c7 b4 bc b9 71 89 3c 06 9f b0 bd 09 34 42 bc
       -0.022067754 0.01677786 -0.08624081 -0.011853226
0003e0 c0 89 e3 bb 43 ad b8 3c e2 8f d8 3c 14 cd 28 bd
       -0.0069439113 0.022543555 0.026435796 -0.041211203
0003f0 0d d6 9a bc a1 29 40 3d 30 bd 27 bb f7 3c f2 bc
       -0.018900895 0.0469147 -0.0025594942 -0.029570086

l2.bias f4 [300]
000000 61 ce 8b bd fc a4 76 3f 6d 1b 90 3f ed 61 1a 3f
       -0.06826473 0.96345496 1.125837 0.6030567
000010 86 3d f0 bd 2e af 5a bd 03 25 5c bd b1 8f 05 bf
       -0.11730485 -0.05338972 -0.053746235 -0.5217238
000020 89 25 0f be a3 12 a0 bf de 1d 8a bd 1c d8 a3 bd
       -0.13979162 -1.2505687 -0.06743978 -0.08000204
000030 57 2d f6 bc 8e 5e ca bd 08 09 f3 3c 9b dd 50 bd
       -0.030050917 -0.09881316 0.029667392 -0.05099259
000040 60 e7 29 be a9 56 65 bc c6 2f 1c 3e 95 4a f6 bd
       -0.16592169 -0.013997712 0.15252599 -0.12025944
000050 45 5e 23 bd f7 34 ae 3f 28 38 f4 3b 9b 1a 0a 3f
       -0.039884824 1.3609914 0.0074529834 0.53946847
000060 5e 23 a8 bf 2b 59 8a bd 06 0f cd bd ca 9d 97 3c
       -1.3135793 -0.06755289 -0.10012631 0.018507857
000070 cd ea 63 bb cf 03 b8 bd 91 ae 90 bc 9c b3 2a be
       -0.0034777403 -0.089851014 -0.017661365 -0.16670078
000080 39 f3 00 3f 0b 55 7e 3c 6b c6 7c be 10 6d 9f bd
       0.5037113 0.0155232055 -0.24685065 -0.07784474
000090 22 98 dc be 3f 9a 4f bd 7e e3 c8 bc 4c 33 f9 bd
       -0.43084818 -0.05068421 -0.02452254 -0.12167987
0000a0 92 b5 fc bc 0a bf 1a 3f 18 0d a8 3c ed 60 d1 bc
       -0.030848298 0.6044775 0.020514056 -0.025558913
0000b0 b6 9d 9f bd 6b 49 ba bc a6 19 5c bd dd 0d 08 be
       -0.07793753 -0.022740087 -0.053735398 -0.13286538
0000c0 67 ea ee bd 5d fd 81 bd 2e df 8c bd db 59 f4 bd
       -0.116658024 -0.06347153 -0.06878506 -0.11931201
0000d0 6e 61 5e bd f0 01 a2 3f ea d2 1b 3e 6d 1e 11 be
       -0.054292135 1.2656841 0.15217176 -0.14171763
0000e0 ff ad 7f 3f b7 4c 15 bd d6 e4 94 bf 49 7e a8 bd
       0.9987487 -0.036450114 -1.1632335 -0.08227212
0000f0 8e 98 c4 bd 5e d9 9a 3d 2b 43 40 bd 00 a7 ec bd
       -0.0959941 0.07560991 -0.046939056 -0.1155529
000100 6a 79 1f 3f 74 dc b2 3f 1d e2 b4 bd a5 00 d1 3d
       0.6229464 1.3973527 -0.0883219 0.10205201
000110 06 6b 8a bd e2 9d 1b bd f8 35 8e bd 26 e4 f0 3c
       -0.06758694 -0.037992366 -0.069438875 0.029405665
000120 55 eb 52 bd ba 14 35 bf 75 cb d4 3f 9f c0 1f bc
       -0.05149396 -0.7073475 1.662459 -0.009750514
000130 7a b0 d4 bc 18 be ce bd b4 e2 87 bd 85 8e a3 bd
       -0.025963057 -0.10094851 -0.06635037 -0.07986168
000140 61 b1 e4 bb 8f 70 ae bf e0 e7 8e bd 8e fc 47 bd
       -0.006979153 -1.36281 -0.069778204 -0.04882484
000150 e3 af 2c be 5b 43 38 bc 3f da 5b bf e0 be b2 3f
       -0.1686397 -0.011246528 -0.8587989 1.39645
000160 6e f1 97 bd ef 6e 53 bd c0 c2 bd 3f 77 4b 45 3c
       -0.07419096 -0.051619466 1.4825058 0.012041918
000170 77 27 76 bf 73 8c 7a bd 0b b6 c8 be 2f 92 9a bd
       -0.9615397 -0.0611691 -0.39201388 -0.075474136
000180 3d e9 49 bc 61 92 ff be 3b 13 4f bd 69 08 04 3e
       -0.012323675 -0.49916366 -0.05055545 0.12893833
000190 c3 32 b3 bd 98 29 2f bd 64 fa b1 3f ba aa 1f be
       -0.087499164 -0.042764276 1.3904538 -0.15592471
0001a0 3d c7 50 bd 56 b1 95 bd 91 96 9c bd 51 65 29 3f
       -0.05097126 -0.07309215 -0.07645906 0.6617022
0001b0 5b 63 a4 bd dd 94 83 bd 74 7f 9f be d9 da 97 3d
       -0.08026763 -0.06424878 -0.31151927 0.07414789
0001c0 ba e5 29 bd d4 61 73 bd 6b 15 f0 bb 1b df 83 bd
       -0.04147885 -0.059419468 -0.007326772 -0.06439038
0001d0 41 e8 13 3d 05 09 2d bd 6e 7c f8 3e 7a 4d 8b 3f
       0.036110166 -0.04224493 0.48532432 1.0883019
0001e0 80 e5 f3 bd 24 c9 a8 bd 21 4e df 3e 2c 38 4e b9
       -0.11909008 -0.082414895 0.43614295 -0.00019666617
0001f0 98 8d 40 bd c2 5c 9b 3f ed a2 d2 be 0d dd 2a 3c
       -0.047010034 1.2137682 -0.41139928 0.010428679
000200 32 cf 03 bd e5 2d 4d 3c 86 73 17 3f 65 2b 9e bd
       -0.03218002 0.012523149 0.5916065 -0.077231206
000210 d1 68 99 bc ad ab 89 bd 24 80 08 3f 4a 4c 4a bd
       -0.018726738 -0.06722198 0.5332053 -0.04938916
000220 11 a3 d0 bd 5f 18 1f bd b0 0c 6c bd b4 c1 b5 3e
       -0.101873524 -0.0388416 -0.057629287 0.35499346
000230 36 1b 51 bf e4 04 c4 bc 4c 16 5c bd 45 97 7a bd
       -0.81682146 -0.023928113 -0.0537322 -0.061179418
000240 51 61 e4 bd 18 43 7d bf 4c dc 98 bd 10 cb 7e bd
       -0.11151374 -0.989305 -0.07463893 -0.062205374
000250 5c 88 41 bf 02 e4 22 be 3a 2f a5 bd d2 5e 17 bd
       -0.7559869 -0.1590729 -0.080656484 -0.036955662
000260 a9 c3 9d 3e d9 1c bf 3e 82 51 b6 bd a5 e5 ba 3e
       0.3081334 0.37326697 -0.08902265 0.3650333
000270 f6 7a 43 3b 84 90 a0 bf 41 cb 19 bd 04 24 38 be
       0.002982793 -1.2544103 -0.037547354 -0.17982489
000280 d3 ac 9f bf c2 d9 b8 bc 9a 9c 90 bd 17 5f bd 3e
       -1.2474617 -0.022564773 -0.070611194 0.3698661
000290 4b c3 70 bd 9a de aa 3f f4 b2 5e bb cb df 67 3e
       -0.058779996 1.3349183 -0.0033981176 0.22643964
0002a0 c8 dc 95 bd 0f 75 9c 3c 76 98 7e bd 12 a7 c8 bd
       -0.07317501 0.019098787 -0.062157117 -0.09797491
0002b0 8f 8a 28 bf 42 e7 89 bc b3 22 58 bd 33 86 3f bd
       -0.65836424 -0.016833905 -0.052767467 -0.04675884
0002c0 0a b2 b3 bd f8 80 28 3d 60 f6 2c 3f 0d a9 a3 bd
       -0.08774193 0.04113862 0.6756344 -0.07991228
0002d0 fd 67 d8 bd 7c cc fc bd a0 c0 54 bd 44 2c ba bd
       -0.10566709 -0.1234369 -0.051941514 -0.09090474
0002e0 14 b3 85 bd 81 e8 79 3f 9c 8b 31 3f 13 0a 99 bd
       -0.06528297 0.976204 0.6935365 -0.07472625
0002f0 b6 9d 50 3e 47 7a 48 bd 75 15 05 be a8 15 3f 3f
       0.20372662 -0.048944738 -0.12996466 0.7464242
000300 c6 71 ae 3c 59 3b 29 3b db 94 4a bd d5 59 c2 3e
       0.021294486 0.0025822727 -0.049458366 0.3795916
000310 35 04 8e bd 37 b5 98 bc 5c 22 0b bd 35 af 57 bd
       -0.06934396 -0.018641097 -0.033968315 -0.052657325
000320 0e 96 9f bd fe 91 dd be 93 fe a2 3f d4 03 a2 bd
       -0.077922925 -0.43275446 1.273394 -0.079108864
000330 17 77 c5 bd 9e 9d 63 bb bd b5 17 3e 80 9b 40 3b
       -0.09641855 -0.0034731398 0.14815421 0.002938956
000340 93 50 cb 3e f0 c2 43 3e bc fc f4 bc c0 77 2b 3e
       0.3970991 0.19117332 -0.02990567 0.167449
000350 e0 16 98 3d 2e 30 ca 3f 85 e3 9b bc e1 57 0a be
       0.07426238 1.5795953 -0.019029388 -0.13510086
000360 9f 56 59 bd 43 a0 9b bd 7f cf a4 3f 89 c1 df bd
       -0.053061124 -0.07598927 1.2875823 -0.10925586
000370 41 4f 34 be f3 50 46 bd b0 11 0c bd ab 13 9f bc
       -0.17608358 -0.048417043 -0.034196556 -0.019418558
000380 ee f9 d6 3c 44 af cb bc de c6 c8 bd 39 27 a5 bd
       0.026242223 -0.024863847 -0.09803556 -0.08064122
000390 4e 05 7a bd 3a 28 14 be 24 c0 13 3e f7 d1 ad bd
       -0.061040215 -0.1446847 0.14428765 -0.08487313
0003a0 68 bf 17 bc 23 8f 13 bc 82 e6 81 bd 1f 8a 93 bd
       -0.009261943 -0.009006294 -0.06342794 -0.07204079
0003b0 ab ba 2b bc a2 88 a0 bd 28 3d c6 bd e0 58 66 bd
       -0.010481517 -0.07838561 -0.096796334 -0.0562371
0003c0 12 ab 9e bf 13 d7 18 be ee 1e f4 bd 9b b3 b6 be
       -1.2395957 -0.14925794 -0.11919962 -0.35683903
0003d0 9d a5 b6 3f 37 ea 32 bd b2 a5 ea 3c c7 24 12 bc
       1.4269291 -0.043680396 0.028643463 -0.008919901
0003e0 db 24 b0 3d 26 49 83 bd fe b0 ae bd 16 30 11 3e
       0.086007796 -0.06410436 -0.08529852 0.141785
0003f0 f6 3d bb bd 24 81 df bd fb 0f 9f bc 25 b9 a6 bd
       -0.091426775 -0.109133035 -0.0194168 -0.08140782

l3.weight f4 [1, 300]
000000 61 f0 db b9 ac 21 42 be 75 6c 11 bf 59 d4 04 3f
       -0.0004195003 -0.18958157 -0.5680612 0.51886517
000010 19 8e a5 3d a9 24 a4 bc 4d 10 2b 3a fa 44 ac 3d
       0.080837436 -0.020037012 0.00065255613 0.08411594
000020 3d e8 ec bc 99 86 db 3c 75 f5 15 3d 7a 66 b7 3b
       -0.028919334 0.02679758 0.03661104 0.005596933
000030 68 b7 27 be 84 3d 43 3d e1 b9 2e bf 8b 56 b3 3c
       -0.16378558 0.047666088 -0.6825238 0.021891853
000040 96 61 d9 3e 86 06 cc 3c 16 e6 d1 be 6c 5d a0 3c
       0.42457265 0.024905454 -0.40995854 0.019575797
000050 70 40 8f bb df 95 a8 3e d1 c6 5e bf 52 97 d4 be
       -0.004371695 0.32926843 -0.8702212 -0.41521698
000060 e2 20 de 3e 75 7f d0 ba 72 af ed 3d b3 8f 2f 3c
       0.43384463 -0.0015907126 0.11605729 0.010715413
000070 52 15 ca be 81 d9 fe 3c 94 93 2c be af 66 75 3c
       -0.3946939 0.031109573 -0.16853172 0.014978095
000080 2a ff 87 3d 3b 95 dc be d6 a9 f5 bb 87 02 c1 bb
       0.066404656 -0.43082604 -0.0074970527 -0.005890194
000090 56 80 76 bd 88 f7 ac 3c d6 7c 17 3b c1 0d 51 3d
       -0.060180984 0.021114126 0.002311518 0.051038507
0000a0 d6 07 d2 3c b7 6e a8 3e 23 59 fc 3c 43 60 bb 3b
       0.025638502 0.3289697 0.030804222 0.0057182624
0000b0 94 34 fc bc 37 c3 ed 3c 1c 17 84 bb ca ef ec bc
       -0.03078679 0.02902375 -0.004031075 -0.028922934
0000c0 50 76 b3 3d f0 bd 33 bd 28 ab ba be e1 e9 a6 3c
       0.08762801 -0.04388231 -0.36458707 0.020375194
0000d0 7c cd ba 3c 8b c1 72 be 7c b4 b3 3c 5d 3e a6 be
       0.02280306 -0.23706643 0.021936648 -0.32469454
0000e0 79 c1 d2 3d 04 8e d3 be 41 16 a3 3b 6f bc 0e bc
       0.10290808 -0.41319287 0.004977018 -0.008711918
0000f0 d2 2a 37 3d 5e 39 f0 be 4e b2 08 3c 67 b2 d5 3d
       0.04471857 -0.46918768 0.008343292 0.10434418
000100 bc 1e 13 bf 6b 99 ee be e2 6d d5 bc 55 d2 09 be
       -0.5746877 -0.46601424 -0.026053373 -0.13459142
000110 a4 d7 2f 3c 15 12 bd 3c c6 10 00 3d ed d3 24 be
       0.010732565 0.023079911 0.031265996 -0.16096468
000120 08 05 17 bf ae de 01 3e 2b fc 93 be bb 46 8b bc
       -0.5899205 0.12682602 -0.28903326 -0.0170015
000130 d1 f0 3a ba 33 db 58 3b 78 e6 2d bd ba 1d d5 bc
       -0.00071312214 0.0033089637 -0.04245612 -0.026015151
000140 b3 d8 ab bc 8c c0 26 3f 2f b0 2e 3c ac 70 61 bb
       -0.020977354 0.65137553 0.010662123 -0.0034399433
000150 ee b8 d8 3e 3c 25 c2 bc 0f ae 7b bc 65 7e 0f bf
       0.4232859 -0.023699395 -0.015361323 -0.5605224
000160 58 7e 72 3d 76 1a 9b bb 1a 9b 35 bf 4b e9 97 bd
       0.059202522 -0.004733379 -0.7093979 -0.07417544
000170 c3 02 ad 3e a9 9f fc bc 5a a7 15 c0 e9 c2 d6 3c
       0.3379117 -0.03083785 -2.3383393 0.026215987
000180 aa 89 5a 3c d4 d0 b1 3d 07 55 2c 3b 27 ac f7 be
       0.013338486 0.08682409 0.0026295797 -0.4837353
000190 cf f8 fb bc 0a 89 27 ba 8e 17 ae be d3 19 ae 3c
       -0.03075829 -0.0006390965 -0.34002346 0.021252548
0001a0 3c e2 03 bc d4 08 af bc 03 a6 b5 3c fc 7e 51 bc
       -0.008049544 -0.021366514 0.022173887 -0.012786623
0001b0 01 58 df 3c 70 25 91 3e d3 2a 05 3f c7 6b d1 be
       0.027263643 0.28348875 0.5201847 -0.4090254
0001c0 5b 6d a7 3c 57 2d 9c bc b4 e5 6a bc 4a c6 c8 b9
       0.020437887 -0.019064588 -0.014336992 -0.0003829471
0001d0 a8 97 70 bc d6 93 23 3c 8d 44 0b bf 77 a7 d7 be
       -0.014684595 0.009983977 -0.54401475 -0.42119953
0001e0 39 39 86 3d f3 7c 08 3c c0 3d 86 3c 3d 2c bf 3b
       0.06553883 0.008330571 0.016386867 0.005834131
0001f0 5f db 09 3c 70 80 8c be 8b 9d b5 3e a2 93 e7 bc
       0.008414119 -0.2744174 0.35471758 -0.028268639
000200 46 29 5e be 42 a9 04 bd 1d 7a 31 bf 29 20 77 3b
       -0.21695432 -0.03238798 -0.69326955 0.0037708378
000210 2a 64 bb 3c d4 95 ab bc f4 f4 4e 3d 8b 91 99 bc
       0.02287491 -0.020945467 0.050526574 -0.018746158
000220 2c e1 5e 3a c4 24 b8 3d 3e db 88 bc 49 3d 6a be
       0.0008502181 0.089913875 -0.016706105 -0.22874941
000230 ac 0f d2 3e 83 ca 09 be 52 71 8e bc 6f 76 25 bd
       0.41027582 -0.13456158 -0.01738802 -0.04039615
000240 a0 4a 06 bf 4f ac 0d 3f c8 4b c5 3d cf b2 0b 3f
       -0.5245762 0.5534105 0.09633595 0.54569715
000250 5d 7f 36 3e 0f 25 33 bd dc ab 1c 3d 5d d6 89 3d
       0.17822023 -0.043736514 0.038249835 0.0673034
000260 3d 06 5b bf 3b 3f 84 3c a1 31 e1 3d 04 31 d5 be
       -0.85556394 0.016143432 0.10995794 -0.41638958
000270 d1 9c 94 be a8 b7 54 3c 6b 7d 2e bd 7d 8f 2b 3f
       -0.2902589 0.01298324 -0.042600077 0.6701582
000280 84 82 96 3f 20 c1 93 bb 1a 38 b7 3b 38 7a 53 bf
       1.175858 -0.0045091063 0.0055914046 -0.82608366
000290 79 d0 be 3c 07 9a 2d bf d1 94 bd bc c0 69 0b bf
       0.023292767 -0.6781315 -0.02314225 -0.54458237
0002a0 da c7 8b bc 02 80 53 be eb 6d 95 3c 16 14 94 3d
       -0.01706307 -0.206543 0.01824089 0.072303936
0002b0 f8 e7 07 3e 21 26 17 be f4 69 7c bc 44 19 24 3d
       0.13272083 -0.14760639 -0.015406121 0.040063158
0002c0 2d c9 83 3c da c6 9b bc 84 de 7f bf 4c 91 92 3a
       0.016087139 -0.019015718 -0.99948907 0.0011182218
0002d0 6b 1a bd 3d e4 5e fd be ed 9a 15 bd 10 c0 08 bc
       0.092335545 -0.49486458 -0.036524702 -0.0083465725
0002e0 c3 5d 87 bb 2a 39 13 bf 55 11 e4 3e a0 15 93 bc
       -0.0041310503 -0.575091 0.44544473 -0.017954648
0002f0 be 5f d5 3c 2e a5 20 bd 0c ee 1d 3e 68 8a 4d bb
       0.02604663 -0.039220028 0.15422839 -0.0031363014
000300 cb be 2b bc 9f 6a f2 3c 14 61 87 bc 75 1c fe 3c
       -0.0104825 0.029591857 -0.016525783 0.031019429
000310 a1 99 4c 3d 78 d0 0f bf fb f1 f3 bc 02 e2 81 3b
       0.0499512 -0.56177473 -0.029778471 0.00396371
000320 6b 18 01 bd e4 d0 d3 3d 20 42 f9 be 6f c1 36 3d
       -0.031517427 0.10342577 -0.48683262 0.044618066
000330 38 df 1b bc c8 2b d6 3c 68 8d 07 bf 0e e9 d5 b9
       -0.009513669 0.026143923 -0.52950144 -0.00040800165
000340 3c f4 0f bf 3c cc cb bc b4 03 f3 bc 5c 8a 85 be
       -0.5623205 -0.02487766 -0.029664852 -0.26082122
000350 01 86 00 bf 91 87 be be fc f9 eb 3c 69 3b a7 3d
       -0.50204474 -0.37212804 0.028805725 0.081656285
000360 c0 68 88 bc c5 e0 51 3d 6c 56 14 bf 4c 07 23 be
       -0.016651511 0.051239748 -0.5794437 -0.15920752
000370 3d 1a 5b 3e a1 3c e0 3b 4f 6c 84 be 48 09 24 bb
       0.21396728 0.006843165 -0.25863883 -0.0025029946
000380 c1 ab 05 bd 60 11 6e 3c 58 6a c6 3c 78 6c c0 bc
       -0.0326345 0.01453051 0.02422063 -0.023489222
000390 e8 12 dd 3c 34 07 0d 3d 90 d3 39 be bd ee ef 3c
       0.026986554 0.034430698 -0.18147111 0.029288644
0003a0 78 c7 9f 3c 56 44 e1 3b 30 9c b8 bb 77 9b b6 3c
       0.019504294 0.0068746014 -0.0056338534 0.022290928
0003b0 62 ec 71 3d d2 c2 51 3d 75 55 11 3d d9 29 8d bb
       0.059063323 0.051211186 0.03548189 -0.004307967
0003c0 dc c0 b5 3e db a6 7e 3e 7d 70 b1 3a 7f 1d 16 3f
       0.35498703 0.24868338 0.0013537552 0.5863876
0003d0 e5 2b 21 3f 88 6a dc 3c fd 4b 22 3c 6b db 2c 3c
       0.629576 0.026906267 0.009905812 0.01055036
0003e0 79 a8 83 be cd e4 87 3c f6 2e bc 3b 1c 6c 00 3c
       -0.25714472 0.016588593 0.005742903 0.007838275
0003f0 b9 c5 70 3c 25 52 fd 3d 43 69 33 bc e9 1d c9 3b
       0.014695578 0.123691835 -0.010950389 0.006137599
