preTrained/BipedalWalker-v2/ONE/TD3_BipedalWalker-v2_0_solved_actor.pth (torch_old, 527002 bytes, 6 tensors)

l1.weight f4 [400, 24]
-0.03699562 -0.060899597 -0.1210581 0.18576635 -0.15357424 0.102344505 0.079652354 -0.0220999
-0.0017533614 -0.016687345 -0.1986338 0.02604335 -0.09127355 0.10209319 -0.2938553 -0.05360885
-0.09994036 0.04163604 -0.15400045 0.04539346 -0.017353613 -0.23684916 -0.12360169 -0.1961959
-1.0346965 -1.5359275 0.8241761 1.0388622 -0.3665827 -0.118972756 0.93563294 0.071944945
0.008254743 -0.7295295 -0.36384293 -0.3244501 -0.5742781 -0.20435445 -0.042433284 0.3073356
0.3342326 0.11095686 0.056408715 0.31641686 0.21010596 0.13991825 0.22129048 -0.040760547
-0.054790713 -0.2539196 0.8138058 -0.33776233 -0.214056 0.43848288 1.6597415 0.023254704
-2.0530221 -0.30991146 0.40507212 -0.5343456 -1.1134405 -1.3837311 -0.04927075 0.07850095
0.23317847 -0.015350993 0.20586939 0.10661888 -0.0008990497 0.21094085 -0.2299516 -0.5056256
0.044161823 -0.03231637 -0.17439292 0.04491782 0.078751415 -0.036478017 -0.0036505377 0.06293005
-0.19992465 -0.006379161 0.123646215 0.019864827 0.11847382 -0.023480128 -0.17598979 -0.08554325
-0.15585996 0.10224284 -0.16972817 0.10728116 -0.06405535 -0.15847884 0.08968243 -0.09766045
0.61921954 0.49669293 -0.28179464 -1.231929 -0.5081563 0.21836932 0.6509776 -0.54253435
-1.5556767 0.218713 0.15173107 -0.39054364 0.14491273 0.4537101 -0.48750558 -0.79538983
-0.49704477 -0.40303698 -0.56694657 -0.77692336 -0.5907183 -0.53338045 -0.49407032 -0.4131239
1.8107094 2.239055 -0.52999884 -2.4895658 -0.73201203 -0.4606998 -0.9899048 -0.024180591
0.55848664 0.08281005 0.7997815 -0.10535387 0.265265 0.2752152 -0.5075003 -0.4095451
-0.37495542 -0.46300673 -0.27830192 -0.56645745 -0.25728238 -0.2241895 -0.17052172 -0.26014107
0.9274108 0.21746472 0.033139616 0.9249221 -0.11953678 0.107571684 0.2429789 -0.69962114
-0.4002963 -1.0781446 0.20777228 -0.5078668 -0.15603144 -0.43228748 -0.23094949 -0.13303734
-0.24226664 -0.05844089 -0.32745275 -0.36093915 -0.38789377 0.020126924 -0.29078406 -0.27377674
0.67783517 0.7956389 0.0027611945 0.62436926 0.2057684 -0.035470158 -0.2621263 -0.19760627
-0.12677483 0.09549947 -0.10859674 -0.21434519 -0.2871587 0.3102707 -0.46682858 -0.55488855
-0.2072345 -0.5821053 -0.24902296 -0.3351888 -0.2390351 -0.5398511 -0.3499753 -0.6372764
0.35070592 1.9924405 -0.4861351 -1.7343768 -1.9453768 -0.8631139 -1.029357 -0.25397018
0.95769554 0.5748695 0.5766596 0.7123012 -0.34637544 0.71755743 -0.38933325 -0.21361165
-0.41677958 -0.21270588 -0.34247723 -0.45050535 -0.45110166 -0.3577827 -0.31797335 0.25052655
0.62262136 -0.0001483122 -1.5609355 1.6370462 -0.7870444 -0.50288075 0.050024845 0.8577586
-1.1943076 -0.31158823 0.44361928 -0.30796605 0.79985064 -0.6741246 -0.11017461 -0.08010543
0.008404929 0.02421807 0.10246898 -0.24031709 0.058642644 -0.011340074 -0.036068473 -0.16621491
0.20518215 -0.52532905 -0.1843162 -0.9800043 -2.2024324 -0.4314693 0.114907146 0.072882354
-0.6056697 0.04285756 -0.68478066 1.2027128 1.1361107 0.5524089 -0.042442597 -0.039047137
00000000: b888 17bd db71 79bd 4fed f7bd 8939 3e3e
00000010: 9142 1dbe ff99 d13d c620 a33d d90a b5bc
00000020: 0cd1 e5ba e6b3 88bc a966 4bbe dd58 d53c
00000030: a1ed babd 3c16 d13d 3474 96be f494 5bbd
00000040: 88ad ccbd 8d8a 2a3d 4bb2 1dbe 7eee 393d
00000050: 2a29 8ebc 9688 72be e222 fdbd 94e7 48be
00000060: ef70 84bf 4699 c4bf 34fd 523f 70f9 843f
00000070: bab0 bbbe fda7 f3bd a485 6f3f df57 933d
00000080: e73e 073c 72c2 3abf 9f49 babe 531e a6be
00000090: e403 13bf 4b42 51be 86ce 2dbd 175b 9d3e
000000a0: 8920 ab3e 5a3d e33d d30c 673d 6401 a23e
000000b0: 0426 573e bb46 0f3e f999 623e 88f4 26bd
000000c0: 3a6c 60bd c001 82be 9455 503f 2fef acbe
000000d0: 7f31 5bbe d480 e03e 6972 d43f a680 be3c
000000e0: b764 03c0 b7ac 9ebe 9d65 cf3e e0ca 08bf
000000f0: 3885 8ebf 1a1e b1bf 20d0 49bd 1bc5 a03d
00000100: 56c6 6e3e bb82 7bbc 6dcf 523e 005b da3d
00000110: 34ae 6bba e100 583e 6f78 6bbe ae70 01bf
00000120: 07e3 343d 2c5e 04bd 0f94 32be bffb 373d
00000130: 6c48 a13d f969 15bd dc3d 6fbb 78e1 803d
00000140: 0cb9 4cbe 4808 d1bb 3a3a fd3d 90bb a23c
00000150: 67a2 f23d 6659 c0bc ab36 34be 4d31 afbd
00000160: c199 1fbe b264 d13d 39cd 2dbe 3ab6 db3d
00000170: 742f 83bd 4748 22be 6cab b73d 3402 c8bd
00000180: 2c85 1e3f 894e fe3e 6347 90be d9af 9dbf
00000190: 8816 02bf 359c 5f3e 78a6 263f 88e3 0abf
000001a0: 6a20 c7bf 4df6 5f3e 645f 1b3e 56f5 c7be
000001b0: 0164 143e b14c e83e 559a f9be ab9e 4bbf
000001c0: a77c febe dd5a cebe 6923 11bf 73e4 46bf
000001d0: 5139 17bf 9f8b 08bf c9f6 fcbe fa84 d3be
000001e0: 53c5 e73f ad4c 0f40 01ae 07bf 0c55 1fc0
000001f0: 2465 3bbf d8e0 ebbe 676a 7dbf 6016 c6bc
00000200: fbf8 0e3f 5198 a93d 7bbe 4c3f c5c3 d7bd
00000210: d0d0 873e 02e9 8c3e 8aeb 01bf e5af d1be
00000220: 28fa bfbe 380f edbe 977d 8ebe 5b03 11bf
00000230: 84ba 83be ef91 65be 3f9d 2ebe 3631 85be
00000240: cb6a 6d3f 12af 5e3e 68bd 073d b2c7 6c3f
00000250: b3cf f4bd 8b4e dc3d 76cf 783e 5f1a 33bf
00000260: a3f3 ccbe a400 8abf 42c2 543e 8f03 02bf
00000270: b5c6 1fbe c954 ddbe 067e 6cbe f13a 08be
00000280: bf14 78be b75f 6fbd e3a7 a7be 04cd b8be
00000290: 039a c6be 38e1 a43c a6e1 94be 772c 8cbe
000002a0: 9b86 2d3f feae 4b3f 28f5 343b aad6 1f3f
000002b0: f4b4 523e 2849 11bd 6b35 86be 4c59 4abe
000002c0: 43d1 01be 3a95 c33d f867 debd 4e7d 5bbe
000002d0: 7706 93be cddb 9e3e 2804 efbe 2d0d 0ebf
000002e0: 4835 54be da04 15bf e0ff 7ebe de9d abbe
000002f0: 9ec5 74be af33 0abf f62f b3be 8c24 23bf
00000300: ba8f b33e 4a08 ff3f b3e6 f8be 0f00 debf
00000310: 1b02 f9bf 08f5 5cbf f8c1 83bf 6108 82be
00000320: 892b 753f a62a 133f f79f 133f 5f59 363f
00000330: 1f58 b1be d8b1 373f b056 c7be 03bd 5abe
00000340: 2264 d5be 92cf 59be 2d59 afbe a3a8 e6be
00000350: ccf6 e6be 4b2f b7be 67cd a2be 0445 803e
00000360: 1d64 1f3f 4184 1bb9 bccc c7bf bb8a d13f
00000370: be7b 49bf cbbc 00bf dae6 4c3d 1196 5b3f
00000380: 12df 98bf 7e88 9fbe 1122 e33e baad 9dbe
00000390: 03c3 4c3f 6e93 2cbf 3aa3 e1bd 510e a4bd
000003a0: d4b4 093c f964 c63c 42db d13d af15 76be
000003b0: 4533 703d b8cb 39bc 89bc 13bd 3e34 2abe
000003c0: 451b 523e f77b 06bf 63bd 3cbe 90e1 7abf
000003d0: a7f4 0cc0 8be9 dcbe 7054 eb3d 5843 953d
000003e0: 2b0d 1bbf 698b 2f3d c94d 2fbf 7ef2 993f
000003f0: 136c 913f ab6a 0d3f 4ad8 2dbd e4ef 1fbd

l1.bias f4 [400]
-0.11924165 -0.21162063 -0.19205785 -0.23320433 -0.13109611 -0.1247947 -0.48413646 -0.5776928
0.20052852 -0.37904412 -0.21033107 -0.021439591 -0.35041264 -0.7617001 -0.61937684 -0.29417148
0.09391246 -0.22281197 -0.4730825 -0.15860033 -0.47839874 0.3524272 -0.09142091 -0.3968767
-0.15861551 -0.3833312 -0.43508527 -0.060712464 -0.004928605 -0.05160488 0.28772375 -0.2581751
-0.6164265 0.13411272 0.44126204 -0.33788565 -0.493092 -0.13873151 -0.25739172 -0.092112
-0.05347093 -0.34359956 -0.16658482 -0.29027966 -0.23843442 -0.394251 -0.53063357 -0.115703
0.33100164 0.2347519 -0.45816097 -0.33933562 -0.5120541 -0.27744517 -0.22600858 -0.55300456
-0.32185695 -0.04781928 -0.42704582 0.10273632 -0.37663174 0.044233333 -0.044764668 -0.19288027
-0.29466897 -0.07092369 0.18470137 -0.24661203 0.001815634 -0.15148582 -0.020162912 0.2019489
-0.058318365 -0.3394025 -0.18803418 -0.14946364 -0.4591208 -0.24927483 0.058289073 -0.14524761
-0.050402023 -0.094070934 -0.39855325 -0.25564986 -0.41589934 0.057932433 0.12513734 -0.5098876
0.37105426 0.16521318 0.23528902 -0.39552954 0.18740076 -0.7089723 -0.24411158 -0.13921902
-0.15135868 -0.3018767 0.14991808 -0.35883895 -0.23662657 -0.29169622 0.7153548 -0.3430309
0.19750962 0.06858509 0.2076008 -0.3639146 -0.07529363 -0.72141725 -0.47939008 -0.23633134
-0.13517852 -0.3973749 -0.09404807 -0.12306482 -0.1463824 0.05065314 -0.3031425 -0.26120996
-0.2700382 -0.37958187 -0.56219697 -0.42144367 -0.03700134 -0.3932645 -0.15900508 -0.27377805
0.15043658 -0.21870105 0.009915222 0.3192702 -0.16782548 -0.1467736 -0.09558081 -0.44939584
-0.4591136 -0.3860645 0.12339047 -0.38235965 -0.2065451 -0.2921997 0.2036739 -0.2959708
-0.47374922 0.03300259 0.0932674 -0.13241103 0.01795068 -0.21540008 -0.692472 -0.3702588
-0.033283032 0.049712937 -0.66776896 0.3895032 -0.017779345 -0.4563801 -0.16684853 -0.09872588
0.15632299 0.17692493 -0.099500924 -0.12729375 -0.24361302 0.026977891 -0.28045115 0.40793285
-0.42618325 -0.12787205 -0.32535782 -0.40857828 -0.2448667 -0.0846977 -0.33692086 -0.5102167
0.01938004 -0.38037714 0.049760967 -0.67577547 -0.06677733 -0.49453366 -0.52372694 -0.6807368
-0.16265327 0.097258985 -0.3434735 -0.24996428 -0.23881736 -0.26247844 0.021080341 -0.41321418
-0.45138958 -0.17023534 -0.21101606 0.006991147 -0.1773691 -0.2930855 -0.083577305 -0.31681195
-0.58475614 -0.62890995 -0.33795288 0.09722792 -0.5011265 0.08314696 -0.34101242 0.27863163
-0.19470131 -0.36629415 -0.17857988 -0.41089883 0.026463406 0.20620698 0.051489092 -0.025166348
-0.0088372445 0.08510911 -0.078852154 0.29407302 -0.46253696 -0.2507262 -0.1766933 -0.08701705
-0.75606835 -0.03183203 -0.20335756 0.042235263 -0.37772685 -0.53411907 -0.36343294 -0.10230703
-0.44744137 -0.2286884 -0.14358684 -0.23322293 -0.3538 -0.05387603 -0.047478423 -0.49405086
-0.46497214 -0.43441528 -0.060006924 0.3772432 -0.25994056 -0.22739974 0.18465015 -0.100210704
0.14620166 -0.2047857 -0.35610572 -0.4361358 -0.5105744 -0.4512684 -0.15789653 -0.18390976
00000000: f734 f4bd 14b3 58be d0aa 44be 1ecd 6ebe
00000010: 0f3e 06be 5d94 ffbd bce0 f7be ade3 13bf
00000020: 5957 4d3e 1212 c2be 0761 57be 15a2 afbc
00000030: 4969 b3be c7fe 42bf 7b8f 1ebf a59d 96be
00000040: 2d55 c03d d228 64be df37 f2be 2068 22be
00000050: aef0 f4be 5771 b43e e33a bbbd 6c33 cbbe
00000060: 1b6c 22be fd43 c4be 7fc3 debe a2ad 78bd
00000070: 2380 a1bb a35f 53bd 8750 933e 872f 84be
00000080: 21ce 1dbf d854 093e 19ed e13e 59ff acbe
00000090: 8e76 fcbe a20f 0ebe d9c8 83be 37a5 bcbd
000000a0: 5504 5bbd 48ec afbe 3695 2abe 899f 94be
000000b0: 2728 74be 44db c9be 9ad7 07bf b2f5 ecbd
000000c0: 0c79 a93e cd62 703e 1394 eabe 66bd adbe
000000d0: fa15 03bf 4b0d 8ebe cb6e 67be b591 0dbf
000000e0: 6fca a4be 26de 43bd c0a5 dabe 6b67 d23d
000000f0: e0d5 c0be 032e 353d 285b 37bd 6882 45be
00000100: dade 96be 7140 91bd 5b22 3d3e dd87 7cbe
00000110: 91fa ed3a 191f 1bbe b12c a5bc b1cb 4e3e
00000120: 3ddf 6ebd 2ac6 adbe 088c 40be ff0c 19be
00000130: e211 ebbe e741 7fbe 86c0 6e3d cabb 14be
00000140: 5a72 4ebd 43a8 c0bd 2c0f ccbe 8ae4 82be
00000150: c2f0 d4be 8f4a 6d3d 0124 003e fe87 02bf
00000160: d3fa bd3e a52d 293e 9bef 703e d982 cabe
00000170: fce5 3f3e 357f 35bf 63f8 79be 6e8f 0ebe
00000180: c5fd 1abe 958f 9abe 2084 193e bdb9 b7be
00000190: 3c4e 72be 3559 95be 7e21 373f bfa1 afbe
000001a0: f63f 4a3e 5776 8c3d 4e95 543e 0453 babe
000001b0: 8c33 9abd cdae 38bf 9e72 f5be d800 72be
000001c0: 3d6c 0abe b974 cbbe 469c c0bd 6909 fcbd
000001d0: 45e5 15be ab79 4f3d 7e35 9bbe 50bd 85be
000001e0: 7242 8abe 8e58 c2be 24ec 0fbf 77c7 d7be
000001f0: b88e 17bd f759 c9be 3ad2 22be a32c 8cbe
00000200: 0c0c 1a3e 2bf3 5fbe 7573 223c 6277 a33e
00000210: 71da 2bbe d24b 16be dfbf c3bd 3617 e6be
00000220: f010 ebbe 3faa c5be 25b4 fc3d a5c4 c3be
00000230: 8f80 53be 339b 95be e48f 503e 7c89 97be
00000240: 428f f2be b92d 073d fb02 bf3d c296 07be
00000250: 4e0d 933c d791 5cbe d845 31bf 9092 bdbe
00000260: ca53 08bd cb9f 4b3d e8f2 2abf f76c c73e
00000270: fda5 91bc a7aa e9be 57da 2abe cb30 cabd
00000280: 2213 203e cf2b 353e 24c7 cbbd 4b59 02be
00000290: b175 79be bd00 dd3c 4b97 8fbe 93dc d03e
000002a0: b134 dabe e4f0 02be 4d95 a6be 2c31 d1be
000002b0: 56be 7abe fd75 adbd e480 acbe 909d 02bf
000002c0: e4c2 9e3c cbc0 c2be 28d2 4b3d 9fff 2cbf
000002d0: 8ec2 88bd 8433 fdbe f812 06bf c444 2ebf
000002e0: 948e 26be b82f c73d c2db afbe a3f6 7fbe
000002f0: 8a8c 74be 9363 86be aeb0 ac3c cf90 d3be
00000300: 891c e7be 2c52 2ebe 9814 58be fe15 e53b
00000310: 3fa0 35be 4d0f 96be 942a abbd 2d35 a2be
00000320: 94b2 15bf 3e00 21bf 2908 adbe 6f1f c73d
00000330: d449 00bf f448 aa3d 2e99 aebe cea8 8e3e
00000340: c85f 47be e88a bbbe a5dd 36be 5561 d2be
00000350: c9c9 d83c ec27 533e 3ae6 523d a829 cebc
00000360: 17ca 10bc af4d ae3d 3d7d a1bd bd90 963e
00000370: a5d1 ecbe 2f5f 80be 17ef 34be ff35 b2bd
00000380: b28d 41bf 4d62 02bd f73c 50be e2fe 2c3d
00000390: 6a65 c1be 07bc 08bf e213 babe 5986 d1bd
000003a0: 0917 e5be 4b2d 6abe 6e08 13be fed1 6ebe
000003b0: 4625 b5be 1dad 5cbd bc78 42bd 3cf4 fcbe
000003c0: d410 eebe ae6b debe d2c9 75bd 0526 c13e
000003d0: ee16 85be 7adb 68be ee14 3d3e 453b cdbd
000003e0: e3b5 153e 58b3 51be 7d53 b6be 314d dfbe
000003f0: 01b5 02bf a70c e7be a1af 21be d752 3cbe

l2.weight f4 [300, 400]
-0.046218056 -0.05048594 -0.034441784 -0.04011614 -0.025609113 -0.0017213762 -0.022031777 0.020100703
0.022119392 -0.024205629 -0.0579922 -0.0013674997 0.03591347 -0.09058796 0.009504323 -0.005742607
-0.009262408 -0.05239623 -0.018937621 0.029207153 0.025049053 -0.043579586 0.01310336 -0.034609407
-0.020931648 -0.011498247 0.00029160114 -0.027867062 0.021264995 0.026719641 -0.043570936 -0.014974405
0.012558241 -0.022953622 -0.07669475 -0.013901688 -0.039687656 -0.046845995 -0.010839251 -0.022052845
0.009448154 -0.033240736 -0.054716766 -0.03368153 0.006530024 0.006343133 -0.021585988 -0.06887601
-0.0016915584 -0.022055652 -0.06396661 0.010525915 -0.095282994 0.042633854 -0.04002124 0.045135133
0.03217362 0.0011364105 0.025359849 0.017529998 -0.047464326 0.009678642 -0.021256771 -0.035303194
-0.0447448 -0.020122347 -0.073522896 -0.06677717 0.00436089 0.013966222 -0.050724957 -0.032584626
-0.06642302 0.03466846 -0.0036417502 -0.048171837 0.04468421 0.017665097 -0.040324647 -0.0261801
0.011531197 0.018234901 -0.054300513 -0.0029043679 0.0014768261 -0.04773482 -0.019708483 0.036323257
0.0034080516 -0.0033197934 0.022618895 -0.06704562 -0.01721252 -0.053333465 -0.043961614 -0.038190085
-0.01810962 0.0061383634 -0.0046132724 -0.025969964 -0.07736994 0.01914771 -0.10548196 -0.006340135
-0.014373069 -0.0016689803 0.010900454 -0.09361787 -0.048870757 -0.08801923 0.014911838 -0.023795327
-0.012561272 -0.032287642 -0.12876928 -0.02805703 -0.119903736 -0.015077339 -0.022652926 -0.033245314
-0.07986499 0.019303836 -0.030722566 0.0121444315 -0.027410218 -0.070217766 -0.064046286 0.04794969
-0.028446116 0.039359782 -0.021914514 -0.041730143 0.017043967 0.023276497 0.0005780682 0.002392784
-0.040339366 0.00047538555 -0.03006484 -0.017561823 0.0075694807 0.018115235 0.008677348 -0.075397685
0.0047889748 -0.004765874 0.015156535 -0.07483041 -0.045298576 -0.038674906 0.006934066 -0.04692929
-0.06806087 0.0028801572 -0.026929425 -0.11127613 0.045045678 0.027711509 -0.009470604 0.018098896
0.0015364768 -0.043655712 0.03423363 -0.03899365 0.0020067692 0.020965222 -0.016676774 0.021686941
0.010202028 0.0039891135 -0.012623398 0.018793914 -0.04781317 -0.027366798 0.0038737676 0.009124058
-0.0402485 -0.030553097 -0.007383645 0.018989904 -0.03338401 -0.021141365 -0.025376959 0.01871129
-0.06932667 -0.008667775 -0.021020811 -0.0525663 -0.08916015 -0.001699597 0.00044555098 0.036011443
-0.006881126 0.009685078 0.007087056 -0.008609828 0.048289344 0.013231405 0.042854737 -0.054026738
-0.0033958857 -0.019547258 -0.05934519 0.0065548196 -0.051667277 0.006858524 0.030261308 0.027055036
-0.034852535 0.009615043 0.007224096 0.029147219 -0.029985936 -0.008539674 -0.07051987 0.0122055905
-0.021937687 -0.05628806 -0.02281037 -0.13987954 0.019180808 -0.0024430123 -0.08018617 0.0090783015
0.047415152 -0.00596052 0.0018920979 -0.025704984 -0.047881816 -0.114046276 -0.07896 -0.0357166
-0.026851341 -0.044437286 0.02243431 -0.11282353 -0.03199756 -0.051316194 -0.022393107 0.0075291004
0.0013546454 -0.13133407 0.020500412 -0.04552324 -0.07855226 -0.008959179 -0.030087218 -0.036440846
0.010896744 -0.042548575 0.0029022598 -0.0052058245 -0.049236853 -0.045073513 0.022750707 0.0006924191
00000000: 254f 3dbd 58ca 4ebd d412 0dbd d250 24bd
00000010: 34ca d1bc cd9f e1ba fc7b b4bc 3baa a43c
00000020: ba33 b53c e24a c6bc 3b89 6dbd ad3d b3ba
00000030: 011a 133d 2e86 b9bd 05b8 1b3c 7b2c bcbb
00000040: 5bc1 17bc 6e9d 56bd 1223 9bbc d743 ef3c
00000050: ac33 cd3c 8280 32bd 7aaf 563c 98c2 0dbd
00000060: d978 abbc 2563 3cbc 0be2 9839 7749 e4bc
00000070: ed33 ae3c 26e3 da3c 7077 32bd 3557 75bc
00000080: 15c1 4d3c 3c09 bcbc 2312 9dbd e8c3 63bc
00000090: 868f 22bd 96e1 3fbd 1d97 31bc 2ba8 b4bc
000000a0: 6ecc 1a3c 7027 08bd b01e 60bd a5f5 09bd
000000b0: d0f9 d53b 0eda cf3b 19d5 b0bc de0e 8dbd
000000c0: 48b7 ddba 0eae b4bc ed00 83bd e374 2c3c
000000d0: bb23 c3bd d6a0 2e3d 50ed 23bd 9edf 383d
000000e0: 7cc8 033d 9cf3 943a 75bf cf3c 129b 8f3c
000000f0: f469 42bd 2b93 1e3c ae22 aebc 159a 10bd
00000100: 5346 37bd 9fd7 a4bc 2c93 96bd 78c2 88bd
00000110: cce5 8e3b 95d2 643c f9c4 4fbd 7577 05bd
00000120: cb08 88bd 8400 0e3d 6eaa 6ebb d54f 45bd
00000130: ca06 373d 65b6 903c 752b 25bd a677 d6bc
00000140: 58ed 3c3c 5c61 953c 376a 5ebd 3557 3ebb
00000150: 1092 c13a 9685 43bd af73 a1bc b2c7 143d
00000160: 9e59 5f3b e490 59bb 434b b93c 374f 89bd
00000170: 4501 8dbc 3174 5abd 1811 34bd 356d 1cbd
00000180: a05a 94bc 5324 c93b ef2a 97bb f6be d4bc
00000190: 2274 9ebd a9db 9c3c ed06 d8bd e8c0 cfbb
000001a0: 057d 6bbc b0c1 daba d197 323c baba bfbd
000001b0: b42c 48bd 6d43 b4bd c850 743c 6bee c2bc
000001c0: cbcd 4dbc 0c40 04bd 18dc 03be dbd7 e5bc
000001d0: 1790 f5bd f106 77bc a192 b9bc 3d2c 08bd
000001e0: 4290 a3bd 1423 9e3c e4ad fbbc 70f9 463c
000001f0: 658b e0bc 55ce 8fbd b32a 83bd e566 443d
00000200: d407 e9bc b937 213d 1186 b3bc 3aed 2abd
00000210: ca9f 8b3c 5aae be3c 8089 173a 41d0 1c3b
00000220: e43a 25bd 2b3d f939 8a4a f6bc d0dd 8fbc
00000230: 6809 f83b 6766 943c 6f2b 0e3c 1a6a 9abd
00000240: d5ec 9c3b 0c2b 9cbb 1e53 783c b040 99bd
00000250: 008b 39bd 9469 1ebd 2937 e33b ed38 40bd
00000260: 7f63 8bbd 05c1 3c3b 199b dcbc bde4 e3bd
00000270: d181 383d 3f03 e33c 982a 1bbc 2344 943c
00000280: 9b63 c93a 55d0 32bd 9038 0c3d ceb7 1fbd
00000290: 0084 033b 42bf ab3c bb9d 88bc d0a8 b13c
000002a0: 6826 273c 1cb7 823b 5ed2 4ebc b2f5 993c
000002b0: bed7 43bd 5630 e0bc 09df 7d3b 137d 153c
000002c0: 9cdb 24bd 7d4a fabc 81f2 f1bb b790 9b3c
000002d0: acbd 08bd a830 adbc 57e3 cfbc 6b48 993c
000002e0: 24fb 8dbd 4903 0ebc d633 acbc c34f 57bd
000002f0: 9999 b6bd 03c5 deba d798 e939 bc80 133d
00000300: 127b e1bb 29ae 1e3c 893a e83b 3c10 0dbc
00000310: 0ccb 453d 89c8 583c 7388 2f3d 244b 5dbd
00000320: 828d 5ebb 9221 a0bc f113 73bd d0c9 d63b
00000330: 11a1 53bd 78bd e03b 90e6 f73c 86a2 dd3c
00000340: 88c1 0ebd 6a88 1d3c 1cb8 ec3b 26c6 ee3c
00000350: 11a5 f5bc fde9 0bbc b96c 90bd f5f9 473c
00000360: aab6 b3bc 4f8e 66bd d0dc babc 953c 0fbe
00000370: 1221 9d3c f21a 20bb a638 a4bd 28bd 143c
00000380: 6436 423d 7750 c3bb 4500 f83a 4293 d2bc
00000390: b91f 44bd 1891 e9bd c8b5 a1bd 924b 12bd
000003a0: 58f7 dbbc df03 36bd 28c8 b73c 0610 e7bd
000003b0: e00f 03bd ee30 52bd c071 b7bc acb6 f63b
000003c0: 5b8e b13a 707c 06be 7bf0 a73c 9476 3abd
000003d0: 02e0 a0bd 85c9 12bc 7879 f6bc ff42 15bd
000003e0: 4288 323c 6a47 2ebd d733 3e3b 9f95 aabb
000003f0: 95ac 49bd 019f 38bd b15f ba3c 7683 353a

l2.bias f4 [300]
-0.043163463 -0.008214753 0.25708163 -0.30825254 -0.11685623 -0.08440678 -0.93684757 -0.041161537
-0.04097234 -0.56451845 -0.16270019 -0.10459164 -0.5741018 -0.062313404 -0.090394266 -0.20968063
-0.07609545 -0.1307315 -0.070691064 0.7042989 -0.17017695 -0.2516766 -0.09868235 -0.087115884
-0.078884825 -0.035144944 -0.0039483276 -0.4392279 0.4251477 0.102708966 -0.00074313884 -0.09439463
-0.75767374 0.5331656 0.015730485 -0.019074168 -0.03376608 -0.48528653 -0.0070525054 -0.19799016
-0.041146178 -0.73370594 -0.049968086 -0.08781534 -0.08371893 0.68199104 -0.09209193 -0.49887618
-0.05324968 -0.07906848 -0.11923856 0.045918472 0.14307673 -0.39797035 -0.03365525 -0.054402873
-0.017404905 -0.13818458 0.576897 -0.030451236 -0.105179876 -0.08134973 -0.09957235 -0.075646505
-0.3562208 -0.30258885 0.017781163 -0.041235756 -0.44981575 -0.70000196 0.58877325 -0.60463375
-0.047128625 -0.080897 -0.5901496 -0.00974568 0.011259013 -0.23840451 -0.640905 0.5263495
-0.45418754 -0.08815933 -0.1943452 -0.030592345 -0.39998144 -0.08318109 -0.06260452 0.18399374
-0.011913346 -0.15069146 -0.5545449 -0.62318724 -0.16059838 0.49356034 -0.053611334 -0.123790905
-0.09215882 -0.033738878 -0.059321374 -0.0895437 -0.3833101 -0.061768167 -0.24266094 -0.029933646
-0.7698242 -0.57876635 -0.038200967 -0.9408704 -0.049354702 -0.050272044 -0.16409546 0.11186273
-0.05111916 0.08453984 0.067670606 -0.03893953 -0.22768411 -0.046964478 -0.07904795 -0.22696741
-0.07273466 -0.04491745 -0.0627453 -0.14412732 0.50036675 0.5131603 -0.032804333 -0.0977133
-0.03691336 -0.05944729 -0.124110706 -0.04535145 -0.13007177 -0.050948266 -0.5191946 -0.34919682
-0.16518494 -0.08558027 -0.019535577 -0.06538829 -0.062210593 -0.041153647 -0.06256311 0.55563587
0.518486 -0.6443998 -0.11480453 -0.11717483 -0.360078 -0.38221863 -0.21552354 -0.090052396
-0.024984458 -0.056949653 -0.17398034 -0.13555966 0.3582595 -0.6532436 -0.054148156 -0.0057351086
-0.10070292 -0.11628867 -0.013256237 -0.07223841 -0.24444616 0.071077116 -0.57378906 -0.023106337
-0.04441484 -0.10632155 -0.040304072 0.5981495 -0.22084829 -0.19039585 -0.07287268 -0.6783592
-0.028508283 -0.076095514 -0.05671971 -0.83929664 -0.42772403 -0.058555637 0.20037602 0.4275425
-0.057778127 -0.07421389 -0.06435261 -0.41943553 -0.0635614 -0.006964878 -0.094116345 0.4840415
-0.071816005 -0.5927509 -0.44788906 -0.011170629 -0.113618225 -0.028382843 -0.0526504 -0.06580814
-0.47104996 -0.046727832 -0.0978808 -0.36823228 0.074352644 -0.13842353 0.4636594 -0.098882794
-0.5362083 -0.07246181 -0.1717576 -0.038608506 -0.4881079 -0.4038737 -0.068436995 -0.08392345
-0.2526762 -0.44987506 -0.08604541 -0.3403883 -0.22649121 0.78286666 -0.31783673 -0.10830894
-0.11986907 -0.035054754 0.007827245 0.27599087 -0.059797578 -0.028974503 -0.020491263 -0.011328221
-0.015195426 0.14633399 -0.055056304 -0.009515016 -0.18488424 -0.023778066 -0.023661343 -0.17414421
-0.03920045 0.31154022 -0.2755183 -0.42876878 -0.59822893 -0.06561374 -0.09222282 -0.3108429
-0.02719704 -0.032245822 0.18813595 -0.24153149 0.10154144 -0.07224779 0.015312403 -0.106824316
00000000: 2ccc 30bd 2c97 06bc 34a0 833e 47d3 9dbe
00000010: 5252 efbd 76dd acbd 3ed5 6fbf 0099 28bd
00000020: 9dd2 27bd 4884 10bf e19a 26be 2434 d6bd
00000030: 56f8 12bf 573c 7fbd a120 b9bd 85b6 56be
00000040: eed7 9bbd 7ade 05be 7ac6 90bd ef4c 343f
00000050: de42 2ebe c1db 80be f919 cabd d069 b2bd
00000060: 5e8e a1bd 25f4 0fbd f960 81bb 7be2 e0be
00000070: f6ac d93e 1459 d23d 34cf 42ba f951 c1bd
00000080: e8f6 41bf 8a7d 083f 38dd 803c 6e41 9cbc
00000090: 4d4e 0abd 7a77 f8be b418 e7bb efbd 4abe
000000a0: e588 28bd 27d4 3bbf 56ab 4cbd 87d8 b3bd
000000b0: d574 abbd f796 2e3f b29a bcbd b36c ffbe
000000c0: 561c 5abd a8ee a1bd 5933 f4bd 0215 3c3d
000000d0: b582 123e c5c2 cbbe 16da 09bd 8cd5 5ebd
000000e0: bb94 8ebc 4280 0dbe 86af 133f df74 f9bc
000000f0: 8c68 d7bd b09a a6bd 97ec cbbd 8eec 9abd
00000100: 9362 b6be edec 9abe cda9 913c d3e6 28bd
00000110: 404e e6be 5433 33bf d8b9 163f 47c9 1abf
00000120: f209 41bd 54ad a5bd 0b14 17bf 58ac 1fbc
00000130: b977 383c 5020 74be 5a12 24bf d7be 063f
00000140: 458b e8be e18c b4bd 6e02 47be cc9c fabc
00000150: 5eca ccbe d95a aabd cc36 80bd db68 3c3e
00000160: 3230 43bc dd4e 1abe a8f6 0dbf 3389 1fbf
00000170: e773 24be f1b3 fc3e 8f97 5bbd 1686 fdbd
00000180: c3bd bcbd c731 0abd f8fa 72bd b062 b7bd
00000190: 3941 c4be 9e00 7dbd 1c7c 78be 6837 f5bc
000001a0: 3313 45bf 082a 14bf 9e78 1cbd e2dc 70bf
000001b0: 2828 4abd 0fea 4dbd a408 28be 4918 e53d
000001c0: 5362 51bd 3923 ad3d e396 8a3d 0e7f 1fbd
000001d0: 0626 69be d35d 40bd e4e3 a1bd 256a 68be
000001e0: e9f5 94bd 5cfb 37bd 9c80 80bd 1d96 13be
000001f0: 0918 003f 795e 033f d65d 06bd e91d c8bd
00000200: 7732 17bd 007f 73bd c12d febd 71c2 39bd
00000210: 8931 05be 21af 50bd f0e9 04bf edc9 b2be
00000220: 3e26 29be b544 afbd 1309 a0bc 4cea 85bd
00000230: 89d0 7ebd ba90 28bd 1621 80bd 273e 0e3f
00000240: 80bb 043f 63f7 24bf a31e ebbd 5bf9 efbd
00000250: 255c b8be 29b2 c3be 34b2 5cbe 646d b8bd
00000260: 35ac ccbc 0a44 69bd e727 32be 27d0 0abe
00000270: ca6d b73e f93a 27bf 75ca 5dbd 94ed bbbb
00000280: 553d cebd c128 eebd b030 59bc bbf1 93bd
00000290: 1850 7abe e190 913d d7e3 12bf 8049 bdbc
000002a0: 56ec 35bd 1dbf d9bd e215 25bd 5320 193f
000002b0: 0e26 62be 21f7 42be 463e 95bd f3a8 2dbf
000002c0: 348a e9bc f7d7 9bbd ed52 68bd 25dc 56bf
000002d0: a5fe dabe 09d8 6fbd 5f2f 4d3e dae6 da3e
000002e0: c2a8 6cbd 74fd 97bd 4dcb 83bd 41c0 d6be
000002f0: 7b2c 82bd a239 e4bb 12c0 c0bd 4ad4 f73e
00000300: 4514 93bd 86be 17bf b751 e5be 0405 37bc
00000310: acb0 e8bd 2383 e8bc f2a7 57bd 6bc6 86bd
00000320: 762d f1be af65 3fbd bb75 c8bd f188 bcbe
00000330: 3346 983d e6be 0dbe c464 ed3e 1083 cabd
00000340: f244 09bf dc66 94bd 39e1 2fbe f423 1ebd
00000350: 47e9 f9be 89c8 cebe b228 8cbd 0fe0 abbd
00000360: c65e 81be 0656 e6be 9338 b0bd 6047 aebe
00000370: 50ed 67be f369 483f 7fbb a2be 14d1 ddbd
00000380: ea7d f5bd 9395 0fbd d83d 003c ad4e 8d3e
00000390: 4eee 74bd f05b edbc 4bdd a7bc 019a 39bc
000003a0: 3cf6 78bc 94d8 153e b882 61bd dfe4 1bbc
000003b0: 4b52 3dbe 38ca c2bc 6fd5 c1bc dc52 32be
000003c0: a790 20bd 3382 9f3e bc10 8dbe 9587 dbbe
000003d0: 8825 19bf 7f60 86bd 51df bcbd cd26 9fbe
000003e0: 54cc debc 3214 04bd b6a6 403e 0854 77be
000003f0: f5f4 cf3d a6f6 93bd e0e0 7a3c b5c6 dabd

l3.weight f4 [4, 300]
-0.0069798566 0.024684418 -0.003459721 0.14549366 0.86239606 0.0054547237 0.14821449 0.025285982
-0.025714714 0.0741802 0.051384866 0.022158803 -0.21671973 0.005016735 0.01838873 -0.08761207
0.00011124232 0.07288997 -0.0916547 -0.07861283 0.96448237 -0.30739576 0.059210066 0.011444479
-0.1718935 0.030211173 -0.0104825385 -0.1983095 -0.10126985 -0.5230436 0.03484912 -0.05165499
0.6192481 -0.93253404 0.060150757 0.46337444 -0.014074998 0.22533125 -0.004852062 0.8049011
0.017299516 0.12953618 -0.02591291 0.0011713019 -0.035227776 -0.65573704 0.0032505393 0.14681043
0.0001491837 0.026551459 0.027968103 -0.15122247 -0.805643 -0.58979553 0.019628292 0.016976308
-0.019103501 1.0350345 0.19732076 0.07342036 -0.04422667 0.01746279 -0.03220724 0.6720147
-0.69428253 0.20795064 0.10068644 -0.025932737 -0.42413422 0.20535176 0.5166673 -0.55460995
0.016236521 0.019557504 0.218859 -0.011300696 0.006908019 0.087213226 -0.10261834 0.41984767
0.7947749 -0.015746547 0.30103296 -0.015393764 -0.047285594 -0.0071001574 -0.06414558 0.28927326
-0.03608045 -0.055586528 -0.14044121 0.04309561 0.06984487 -1.2669687 -0.016755411 -0.045549393
0.009530007 0.06255784 0.72117543 0.018189706 0.010068777 0.0439194 0.3889259 0.01068546
0.2559585 -0.23589566 0.08049284 0.1660741 0.041196812 -0.01551834 0.065596744 1.2965546
0.030132443 -0.73686296 -0.7350295 -0.047954552 0.35089493 0.048499808 -0.015079259 -0.17288314
-0.057476446 0.05038307 0.051484868 -0.36091042 -0.33398393 -0.2233476 -0.053268027 -0.00018538923
0.08251994 0.04308757 0.06117064 0.019861942 0.301811 -0.0011807221 -0.7142704 1.7790474
0.104346335 0.009759878 0.005300785 -0.98789847 0.003474742 0.045431692 0.046817098 -0.114288785
-0.08091411 -0.29847398 0.008528893 -0.019955304 -0.09607557 -0.37165877 -0.22440708 0.17121594
0.00017998206 0.0021355583 -0.18354124 -0.122767195 -0.0029260484 0.20384626 0.015794596 0.05912548
0.08735914 0.22227246 -0.033948705 0.01893539 0.14083649 -1.0022897 -1.2060697 -0.014238715
-0.043199394 0.0037757054 0.0026699828 -0.13571624 0.05355739 -0.8154416 0.05384075 0.45082036
0.049684126 -0.016067209 0.026285961 0.63291323 0.4966239 -1.278844 0.12473919 -0.4180908
0.08232333 -0.0066987686 -0.020424122 0.18962966 0.04711626 0.7741872 -0.0001791951 -0.14439252
0.032802638 -0.23019204 -0.31270102 -0.89216954 0.0010779155 -0.01424282 0.028790997 -0.027576745
0.020346778 -0.041623488 -0.01073524 0.57363224 -0.23145519 0.027215784 -0.1162359 -0.004742568
-0.27750683 -0.0009868495 0.03017297 -0.026826918 2.9405172 0.05207706 0.020791328 -0.033534992
-0.31056735 -0.036417753 0.06140975 -0.48714727 0.21630368 1.9104842 -0.041813917 -0.026593322
-0.04569243 0.02067107 0.018176148 0.08042374 -0.040085074 0.010502573 0.021830259 -0.019792132
0.01901457 0.40760678 -0.03347818 -0.7269675 -0.04893477 -0.026437053 -0.022232382 -0.27616546
-0.040524367 0.16913837 0.07472133 -0.88702583 -1.1629525 -0.00023008259 -0.036218777 -0.011149511
0.020729877 -0.02324326 -1.2361301 0.10990383 0.56334925 -0.20334831 -0.07825392 0.05066902
00000000: 48b7 e4bb fa36 ca3c 7dbc 62bb 4afc 143e
00000010: fdc5 5c3f 8abd b23b 8ac5 173e 8c24 cf3c
00000020: aaa7 d2bc caeb 973d f078 523d 6186 b53c
00000030: c7eb 5dbe 6c63 a43b f6a3 963c f56d b3bd
00000040: c44a e938 5647 953d 76b5 bbbd c3ff a0bd
00000050: 51e8 763f fa62 9dbe 4186 723d a081 3b3c
00000060: da04 30be 6c7d f73c f4be 2bbc a511 4bbe
00000070: 9166 cfbd 2fe6 05bf f3bd 0e3d 2f94 53bd
00000080: 0b87 1e3f 8dba 6ebf a460 763d 6a3f ed3e
00000090: d29a 66bc 3cbd 663e 0cfe 9ebb 000e 4e3f
000000a0: b7b7 8d3c 22a5 043e 5047 d4bc 5f86 993a
000000b0: 004b 10bd 62de 27bf 0007 553b 7955 163e
000000c0: 326e 1c39 7282 d93c 5d1d e53c 10da 1abe
000000d0: 9f3e 4ebf d7fc 16bf 83cb a03c e611 8b3c
000000e0: f27e 9cbc 037c 843f 740e 4a3e 6a5d 963d
000000f0: 0627 35bd 200e 8f3c bdeb 03bd 2809 2c3f
00000100: 80bc 31bf 03f1 543e b134 ce3d e470 d4bc
00000110: 1f28 d9be bb47 523e 4f44 043f ebfa 0dbf
00000120: 7402 853c 0f37 a03c 931c 603e 8e26 39bc
00000130: aa5c e23b d99c b23d 9029 d2bd 46f6 d63e
00000140: 5e76 4b3f e7fe 80bc fe20 9a3e 2036 7cbc
00000150: 8aae 41bd 70a8 e8bb c25e 83bd a01b 943e
00000160: 18c9 13bd b3ae 63bd d2cf 0fbe 0685 303d
00000170: d40a 8f3d 082c a2bf a542 89bc 0092 3abd
00000180: bf23 1c3c 531e 803d f49e 383f 9402 953c
00000190: 83f7 243c d4e4 333d 4c21 c73e 1112 2f3c
000001a0: fe0c 833e a28e 71be 6ed9 a43d 540f 2a3e
000001b0: fdbd 283d a340 7ebc 9657 863d 80f5 a53f
000001c0: 50d8 f63c 0da3 3cbf e52a 3cbf fe6b 44bd
000001d0: 80a8 b33e bca7 463d ff0e 77bc 4708 31be
000001e0: 6c6c 6bbd 7a5e 4e3d cce1 523d 40c9 b8be
000001f0: f1ff aabe 3cb5 64be 932f 5abd 0b65 42b9
00000200: 3700 a93d 987c 303d 118e 7a3d 83b5 a23c
00000210: f986 9a3e 76c2 9aba 6dda 36bf d3b7 e33f
00000220: 88b3 d53d e5e7 1f3c 35b2 ad3b eae6 7cbf
00000230: 7fb8 633b 9516 3a3d 49c3 3f3d 3d10 eabd
00000240: 4cb6 a5bd 95d1 98be c5bc 0b3c 4e79 a3bc
00000250: 45c3 c4bd 0f4a bebe f8ca 65be 3b53 2f3e
00000260: 91b9 3c39 b9f4 0b3b 3cf2 3bbe 5e6d fbbd
00000270: f2c2 3fbb 13bd 503e ab63 813c 8f2d 723d
00000280: 59e9 b23d 649b 633e cc0d 0bbd 641e 9b3c
00000290: 7137 103e 074b 80bf 7e60 9abf 8049 69bc
000002a0: d9f1 30bd d371 773b e1fa 2e3b 33f9 0abe
000002b0: fe5e 5b3d c8c0 50bf 1e88 5c3d edd1 e63e
000002c0: 9581 4b3d 619f 83bc a855 d73c 9a06 223f
000002d0: 7d45 fe3e 29b1 a3bf 4377 ff3d ff0f d6be
000002e0: 2299 a83d 5881 dbbb 7d50 a7bc 472e 423e
000002f0: fbfc 403d 2231 463f 52e6 3bb9 a2db 13be
00000300: 0f5c 063d 76b7 6bbe 591a a0be 3965 64bf
00000310: d848 8d3a b85a 69bc 19db eb3c a0e8 e1bc
00000320: 49ae a63c 647d 2abd dce2 2fbc 90d9 123f
00000330: 9702 6dbe a3f3 de3c 160d eebd 8b67 9bbb
00000340: 6015 8ebe 2d59 81ba 4e2d f73c 20c4 dbbc
00000350: 6f31 3c40 c14e 553d 9352 aa3c fd5b 09bd
00000360: af02 9fbe c82a 15bd ca88 7b3d 5e6b f9be
00000370: b67e 5d3e bf8a f43f 1245 2bbd 3dda d9bc
00000380: fc27 3bbd 6056 a93c 25e6 943c 34b5 a43d
00000390: 3f30 24bd fc12 2c3c 5fd5 b23c 1c23 a2bc
000003a0: 72c4 9b3c d6b1 d03e 6b20 09bd 8b1a 3abf
000003b0: d36f 48bd 8592 d8bc af20 b6bc 8f65 8dbe
000003c0: e1fc 25bd 9c32 2d3e 7f07 993d 2014 63bf
000003d0: a1db 94bf 5342 71b9 245a 14bd 70ac 36bc
000003e0: b4d1 a93c a668 bebc 8339 9ebf 4215 e13d
000003f0: a837 103f 8a3a 50be 9743 a0bd 518a 4f3d

l3.bias f4 [4]
-0.14825915 0.15548694 0.06867604 0.011791962
00000000: 3fd1 17be f837 1f3e 06a6 8c3d 1333 413c
