preTrained/BipedalWalker-v2/ONE/TD3_BipedalWalker-v2_0_solved_critic_1_target.pth (torch_old, 529794 bytes, 5 tensors)

l1.weight f4 [400, 28]
000000 2c f7 09 be cd 62 03 3f de d6 24 3f 14 77 86 bd
       -0.13473195 0.51322633 0.6439036 -0.06565681
000010 88 84 42 bf ae b0 9b 3e 3c cd 8a bf c0 74 b8 3e
       -0.75983477 0.30408233 -1.0843883 0.36026573
000020 db 77 ed bd 41 d2 50 bf e9 7a da be b1 b3 d9 3e
       -0.11595126 -0.8157082 -0.42671898 0.42519906
000030 11 d7 44 bf 40 b0 c5 bf 59 66 40 bf d0 64 3d bf
       -0.76890665 -1.5444412 -0.7515617 -0.7398195
000040 6b b7 6b bf d1 6c 44 bf ea f8 5e bf b0 8c 3a bf
       -0.9207675 -0.7672854 -0.8709856 -0.7287092
000050 5a 91 56 bf 90 19 3c bf 1d b5 81 bf e7 54 26 bf
       -0.8381554 -0.73476505 -1.0133396 -0.649733
000060 47 25 3c be e0 d8 c5 be cf 07 27 3e 32 10 d5 be
       -0.18373595 -0.38642025 0.16311572 -0.4161392
000070 d5 6d 13 be 09 f3 53 be 22 48 da be 38 59 ca bc
       -0.14397366 -0.2069818 -0.42633158 -0.024700746
000080 35 c4 1b be 27 e4 3d 3e 16 bf 93 be b1 c6 5a 3e
       -0.15211566 0.18544064 -0.28856725 0.21364857
000090 86 36 9d bd 40 b2 34 be 92 06 6d be 28 f2 c3 3d
       -0.07676415 -0.17646122 -0.23147038 0.09567672
0000a0 ca d6 5f 3e 5f c9 a0 be 34 91 fe be 09 aa c2 be
       0.2185928 -0.31403634 -0.49720156 -0.38020352
0000b0 b1 d5 cb be da 19 d3 be a8 03 bf be 5e f9 98 be
       -0.3981147 -0.4123066 -0.37307477 -0.29877752
0000c0 68 9d b5 be 08 e0 b9 be 26 75 11 bf 77 ba 26 bf
       -0.35471654 -0.36303735 -0.5681938 -0.6512827
0000d0 fb 26 fb bd 73 1d 71 3e cc 85 79 be 68 af 4b 3d
       -0.12263294 0.2354639 -0.24367446 0.049727827
0000e0 09 93 14 3f af d9 34 bf c2 0c fb bc 99 cd b8 bf
       0.5803686 -0.7064466 -0.030645732 -1.4437743
0000f0 dd 28 df 3d d2 88 51 3f 76 79 f9 bc 96 ee cd 3e
       0.10896466 0.81849396 -0.030453425 0.4022109
000100 cd db 5b 3f 66 ca e9 3d 9c dc ae bf a3 85 04 3f
       0.85882264 0.114155576 -1.3661075 0.51766413
000110 92 d0 28 bf 08 2b 79 3f fc bd 1e bf 08 4a 20 bf
       -0.65943253 0.97331285 -0.62008643 -0.6261296
000120 a6 1f 56 bf 25 cc 49 bf 5a 30 11 bf 50 7c 61 bf
       -0.8364204 -0.78827125 -0.56714404 -0.8808031
000130 f1 e3 4f bf da f6 17 bf db 5d 33 bf e2 36 dc be
       -0.81207186 -0.5936104 -0.7006509 -0.43010622
000140 56 30 87 be 0e bd a3 3f 63 d9 8c 3e 39 b8 2f 3f
       -0.26404065 1.279207 0.27509603 0.68640476
000150 ec fe 8d 3f 0f f4 c7 3e b9 f6 cf bf fa b4 3c 40
       1.1093421 0.3905339 -1.6247169 2.948546
000160 a4 af 22 3f 87 73 6c bd af e6 e4 bf d5 d9 18 bb
       0.63549256 -0.057727363 -1.7882899 -0.0023323197
000170 48 fc 80 bf 87 74 93 3f b9 60 fe 3e af 74 91 bd
       -1.007699 1.1519936 0.4968317 -0.07102334
000180 10 4e 82 3e dc 9d 12 3f de d4 f5 3d 9c e4 ec 3d
       0.25450182 0.57272124 0.12003492 0.11567041
000190 e4 cf bf 3b d6 b8 48 be 32 02 fc 3d c7 a4 1e 3e
       0.00585364 -0.1960176 0.12305106 0.15492545
0001a0 3a fb e3 3d 0c ab 82 3d aa b2 93 be ef 51 9e be
       0.11131902 0.06380281 -0.28847247 -0.30921885
0001b0 2e 3c ec 3e be b1 18 bf b3 e0 3c 3e f1 0d 42 bd
       0.46139663 -0.59646213 0.18445091 -0.047376577
0001c0 d7 80 1c c0 90 56 f9 c0 d9 73 f9 3f 29 ac d0 3f
       -2.4453638 -7.7918167 1.9488479 1.6302539
0001d0 16 fc 0d 3d 6a 7f a2 3d 5e 9a 95 3e 2c 2b 72 be
       0.034664236 0.079344586 0.29219335 -0.23649281
0001e0 66 18 ae be cc e8 c1 bf 26 54 87 3d 04 b7 30 bf
       -0.3400299 -1.5149169 0.06607847 -0.6902926
0001f0 2a 4c 3b 3c f3 73 aa be 98 6a 06 3e 74 1e 8b 3d
       0.011431733 -0.33291587 0.131266 0.06792918
000200 fe 8a 23 bd ea 4c 93 be 99 f0 28 be 28 3e f6 bd
       -0.039927475 -0.28769618 -0.1649803 -0.12023574
000210 8f 29 c2 be 1c 65 2a bf 30 67 97 3d 3e 98 20 3e
       -0.37922332 -0.6656053 0.07392728 0.15683076
000220 be 38 a6 3e ca e7 4a bd 51 2b 9e 3e 9c 0b c1 3d
       0.32465166 -0.049537458 0.30892423 0.094260424
000230 3f a2 9e 3f b6 ce 97 c0 91 2b ab 3e 54 9f 05 41
       1.2393264 -4.7439833 0.33431676 8.351398
000240 9b d5 10 3e 33 ef 49 be 8d 57 ea bd 9d f1 d7 be
       0.14143984 -0.19720154 -0.1144248 -0.42176524
000250 a6 5a 94 3e a9 8e db 3e 56 5c d9 3d ef 80 55 bf
       0.2897541 0.4288228 0.10613315 -0.8339986
000260 85 ff 3a 3e d7 5c c3 be 57 b0 81 3d c7 48 14 be
       0.18261535 -0.3815677 0.06332462 -0.14480887
000270 db c9 2c be d4 2d 78 bd 62 b2 d5 ba 8f bf ea bc
       -0.16873877 -0.06059058 -0.0016303773 -0.028655795
000280 cf 04 27 3e e5 eb d0 3e 52 8a d1 bd 18 d0 d9 be
       0.16310428 0.40804973 -0.10231461 -0.42541575
000290 be 07 1a 3c 8a 81 20 3f 41 8f 25 be ac 8a 91 3e
       0.00940126 0.6269766 -0.16167928 0.2842611
0002a0 f9 cb 4f 3f ef ff c7 40 ef 3f 41 bf 9c a3 7a 40
       0.8117061 6.249992 -0.7548818 3.916236
0002b0 8c 61 04 3f 6d 09 80 3e be 1e a2 3e d6 9f 57 3f
       0.51711345 0.2500719 0.3166408 0.84228265
0002c0 67 23 24 bf 0f d7 24 bf b6 57 ca 3e 9e 70 6e be
       -0.6411652 -0.64390653 0.39520043 -0.23285148
0002d0 0d db 9b 3e 24 29 ee bf 36 93 9f 3e 96 ee cf 3e
       0.3044056 -1.8606305 0.31167 0.40611714
0002e0 31 9e 00 3f f7 ee 0c 3f 07 31 c2 3e 9e 97 fa 3e
       0.5024138 0.5505213 0.3792803 0.489438
0002f0 ac 4c 1e 3f 91 b6 de 3e ae 96 21 be 25 e5 ab be
       0.6183574 0.43498662 -0.15780136 -0.3357326
000300 b3 32 53 be 2c 5b 53 be e5 01 4e 3e 85 eb 02 3e
       -0.20624809 -0.20640248 0.2011791 0.12785156
000310 6f 3d 85 3f 3e bc fd bd 75 7c e0 3e 73 43 50 3f
       1.0409373 -0.1238942 0.43844953 0.8135292
000320 fd 60 4d 3f b2 cf 1c 3f 7d e8 00 bf 07 73 73 3f
       0.8022612 0.6125442 -0.5035475 0.9509739
000330 a0 2c 3e bf b9 6f 18 bf cb 14 55 3f d2 c0 5e bf
       -0.7428684 -0.59545475 0.8323485 -0.8701297
000340 d9 72 5d bf bc b3 a1 3e ff d2 05 bf 8b 9d ab be
       -0.8650337 0.3158244 -0.5227508 -0.33518633
000350 fb 72 fb be ab f0 81 be ac f9 80 be 51 15 65 be
       -0.4911116 -0.25378928 -0.25190485 -0.22371413
000360 62 51 70 be d4 61 e6 be f2 11 9a be 0c 20 37 bf
       -0.23468545 -0.44996512 -0.30091816 -0.71533275
000370 a1 c8 f5 be fa c6 ec bd ec 40 8f 3e 14 02 9f 3f
       -0.4800463 -0.11561389 0.2797922 1.2422509
000380 7e f0 0b 40 22 0b 34 40 4f 81 02 c0 45 5f 92 bf
       2.1865535 2.8131795 -2.0391424 -1.1435324
000390 ef f1 0e be 88 f8 d9 be b0 da 55 be 7c 5f 2e be
       -0.13959478 -0.42572427 -0.20884204 -0.17028612
0003a0 8f 41 d5 3e 44 46 fc 3f 25 c7 bd 3e 93 de a4 3f
       0.4165158 1.9708943 0.37065998 1.2880424
0003b0 92 99 3b 3e 27 70 4c 3e 34 ac 9d bd e3 a5 5b 3e
       0.18320301 0.19964658 -0.07698861 0.2145
0003c0 06 a2 92 3d 72 2e 98 3e c0 9e b3 3d 36 d9 4d 3e
       0.0715981 0.29722935 0.087705135 0.2010239
0003d0 5e 66 9b 3e f4 98 28 3e ef e0 55 bd f7 57 10 bf
       0.30351537 0.16464597 -0.052216467 -0.56384224
0003e0 ab 5c 1c be 2a df 58 be 04 62 7c 3e 96 0b e6 3e
       -0.15269725 -0.2117888 0.24646765 0.44930714
0003f0 dd 0a 09 bf c7 6e ba bf de 7d 9f 3f 53 95 43 40
       -0.535322 -1.4565057 1.2460287 3.055989

l1.bias f4 [400]
000000 e8 5d b1 be cf ca 2c be b6 2b 21 be 4d 6b ff be
       -0.34641957 -0.1687424 -0.1573933 -0.49886551
000010 5c d3 95 3e 58 be 57 bf 7b c4 09 bf 8d fa 00 bf
       0.29262817 -0.84274817 -0.5381543 -0.5038231
000020 8d 2f 88 be d3 36 38 be 7c 48 84 3d ba 41 50 be
       -0.26598778 -0.17989664 0.06459138 -0.20337573
000030 85 ae 09 bf 7e 90 3d 3f 80 25 1f bf 37 7a f6 be
       -0.5378192 0.740486 -0.62166595 -0.48140118
000040 e4 a3 04 3e 16 d2 14 bf 1d 51 81 bf a5 8a 03 bf
       0.12953144 -0.58133066 -1.0102879 -0.5138343
000050 79 9e cc bd 60 70 2c be d3 c5 e3 bd d0 56 84 be
       -0.09991164 -0.16839743 -0.11121716 -0.25847483
000060 ce bc a1 3c 81 5f af 3d e2 47 d9 be c5 72 12 bf
       0.01974335 0.08563138 -0.42437655 -0.57206374
000070 8e 93 97 be 7d 5e a5 be 56 7d 1f bf 73 ff 75 be
       -0.29604763 -0.3229865 -0.6230062 -0.24023227
000080 d5 c3 8d be 97 c2 21 bf b6 16 0a 3f 59 bf e1 be
       -0.2768847 -0.63187546 0.53940904 -0.440913
000090 fc 3c 94 be ae 25 95 bf 54 0d 02 3f 90 16 30 be
       -0.28952777 -1.1652124 0.5080159 -0.17196107
0000a0 1b 59 19 bf e7 2b 0a bf d2 27 f5 3c de 20 71 bf
       -0.5990159 -0.5397324 0.029926214 -0.94190776
0000b0 bf 55 80 be aa a9 91 bd 98 93 00 bf d0 f8 12 be
       -0.2506542 -0.07112439 -0.5022521 -0.14352727
0000c0 a0 52 fd be 08 d5 bf 3e 37 fc 3e be f6 83 32 bf
       -0.494771 0.37467217 -0.186509 -0.69732606
0000d0 c2 24 37 bd 26 79 9f be d0 3f 2a 3f dc 8c ad be
       -0.04471279 -0.31147116 0.6650362 -0.3389653
0000e0 93 2f 62 bd 7a f0 5c bf c1 ab 83 bf 37 6e 21 be
       -0.05522115 -0.8630444 -1.028679 -0.157647
0000f0 9c fd 02 bf e3 96 41 3f d4 a3 66 bf a6 49 12 bd
       -0.5116823 0.7562086 -0.9009373 -0.035714768
000100 ee e8 2a bf bd 43 0a be 58 bd 0a bf 01 66 c8 bd
       -0.6676167 -0.13502403 -0.54195166 -0.09785081
000110 15 4a f9 be ab f3 a0 be 2a f4 63 be 47 b7 97 be
       -0.48689333 -0.31435904 -0.2226111 -0.29632017
000120 46 b9 dc be 61 39 30 bf 49 1f f1 be 5f 7a a9 be
       -0.43110102 -0.68837553 -0.4709418 -0.33101174
000130 98 96 b9 be 40 d3 3b be 06 91 10 bf 03 cf ef be
       -0.36247706 -0.18342304 -0.5647129 -0.46837625
000140 2b 46 9f be 0b 51 08 3e af db 31 bf 94 09 9a be
       -0.3110822 0.13312165 -0.69475836 -0.30085433
000150 34 d7 c9 be 74 97 7e be c5 4c 8e be e7 b9 2a bf
       -0.39422 -0.24862462 -0.27792946 -0.66689914
000160 c0 80 b6 bd d1 22 8d 3d 92 7e d9 bd 5f 9e 76 3c
       -0.08911276 0.06891406 -0.106198445 0.015052407
000170 94 c5 fb be 4e 13 3f bf 91 b9 28 3f cd 5a 3f bf
       -0.49174178 -0.7463883 0.6590815 -0.74747926
000180 7f 5a 62 3e 82 56 55 be 02 6b dc be 65 6e 8f be
       0.22104834 -0.20833781 -0.4305039 -0.28013912
000190 8a 64 9d be 34 17 73 3f 2f 4e 4f 3f 95 b9 b6 be
       -0.30740768 0.9495728 0.80978674 -0.35688463
0001a0 76 09 09 3f 35 3b ac bd 1e 38 71 bf 1d 81 70 be
       0.5353006 -0.0840973 -0.94226253 -0.23486753
0001b0 6c 4d d6 be 6c c7 0a bf f6 e8 68 bf cf 13 1f be
       -0.41855943 -0.54210544 -0.9098047 -0.155349
0001c0 71 1e e5 3c e5 4d d5 be 1e 0a 2e be 5d 1f 02 bf
       0.027968617 -0.4166099 -0.16996047 -0.50829107
0001d0 99 97 67 be 9d 80 14 3f 66 93 15 3f 5d c8 83 be
       -0.22616424 0.5800875 0.5842804 -0.25738803
0001e0 3e bf e5 3d cc 14 f7 be 7d 4c 1e be d1 bd 13 bf
       0.11218117 -0.48258054 -0.15458865 -0.5771151
0001f0 30 42 4e be 71 63 44 bf 23 fb 24 bf b8 c2 07 bf
       -0.20142436 -0.76714236 -0.64445704 -0.5303149
000200 46 69 a2 be a5 63 e0 be ed d3 4a bd e6 ba ca be
       -0.31720942 -0.43826023 -0.049518514 -0.39595717
000210 6a ee 37 bf 05 1e 86 be 7e 18 8c be f4 9f 4a 3f
       -0.71848166 -0.26194778 -0.27362436 0.7915032
000220 66 86 a4 be 6a 21 d2 be a5 9f 2e be 93 b5 8d 3f
       -0.32133788 -0.41041118 -0.17053087 1.1071037
000230 4b 57 0d 3f 4a ab 60 3e 5a a6 df be 45 31 b0 be
       0.55211323 0.21940342 -0.43681604 -0.3441259
000240 ad a6 a6 be 4a 1a 9a 3e ab 48 0b bd c6 ae 64 bf
       -0.3254904 0.30098182 -0.03400485 -0.89329183
000250 30 e8 09 3f c4 e2 75 bf 37 e9 c5 be 4d 5d 0c bf
       0.53869915 -0.9604914 -0.3865449 -0.54829866
000260 58 e4 1f bf 6a 63 6a 3d fd b0 a9 be 44 19 7e bd
       -0.624578 0.057223715 -0.33142844 -0.062035814
000270 78 dc ac be 6f df 5c bf 2e c2 96 be 0e 5d 8f bf
       -0.33761954 -0.8627843 -0.29445022 -1.1200273
000280 dd 51 ab 3d 20 1c 95 bf 69 84 bb be fd d8 50 bf
       0.083652236 -1.1649208 -0.36624458 -0.815811
000290 ae 9c 83 3e 61 00 4e bf f0 ab fe be d2 a3 30 bf
       0.25705475 -0.8046933 -0.49740553 -0.6899997
0002a0 93 9b 75 bf 12 70 51 bf 77 e1 2c bf 3e 37 f8 3c
       -0.9594051 -0.8181163 -0.6753153 0.030299779
0002b0 06 a3 a6 3e a5 e4 d3 be ad fb 82 be c6 ae 60 bf
       0.32546252 -0.4138538 -0.25582638 -0.87766683
0002c0 ef 57 80 bf 2d c2 08 bf 85 68 04 bf 16 72 24 3d
       -1.0026835 -0.5342129 -0.51721984 0.040147863
0002d0 68 ea bd be 06 a4 aa be 1f 5b 54 bf 6d e3 97 be
       -0.370929 -0.33328265 -0.8295154 -0.296657
0002e0 0c d5 6e bf 65 67 58 bf 20 70 c8 be 64 43 79 bf
       -0.93293834 -0.8453277 -0.39148045 -0.97368455
0002f0 a7 a8 65 bf 90 ee 31 bf ac 02 60 bf 65 a3 69 bf
       -0.8971047 -0.6950464 -0.87504077 -0.91264945
000300 b4 cd 83 bf 46 c8 59 3e d9 dc 25 bf 35 6f 0c bf
       -1.0297151 0.21267805 -0.6479011 -0.5485719
000310 5f ae 60 bf f5 5c d9 be cb 2c bc bd 05 be 08 bf
       -0.8776607 -0.42453733 -0.09188231 -0.53414947
000320 93 26 30 bf 42 59 76 be 1d e7 10 bf e9 b9 6c bf
       -0.6880886 -0.24057487 -0.5660265 -0.92471176
000330 f8 02 4f bf a7 73 a4 be 0f b0 92 be 8d 58 c2 be
       -0.80863905 -0.32119486 -0.28649947 -0.37958184
000340 7e f5 95 be 44 36 4b be de f3 59 bf 52 ba 1d bf
       -0.29288858 -0.1984492 -0.85137737 -0.6161243
000350 ad d6 c0 be 99 86 0d bf d4 4d 67 3e 69 6b e8 3e
       -0.37663785 -0.55283505 0.22588283 0.45394447
000360 c9 19 c0 bd f2 31 5f be 27 c3 97 be 11 f5 08 be
       -0.09379918 -0.21796396 -0.29641077 -0.13374735
000370 85 78 09 bf 04 5c 8f bd aa 65 c8 bd 38 c6 b8 bd
       -0.53699523 -0.069999725 -0.09785016 -0.09022182
000380 ba 80 76 bf 26 24 04 bf 84 f9 23 bf 3b d1 68 be
       -0.9629017 -0.5161766 -0.64052606 -0.22736065
000390 0a 29 fa 3e c0 5e 78 be 43 bd ea be 15 f8 4a be
       0.48859435 -0.24254894 -0.4584752 -0.19821198
0003a0 20 d5 24 bf e4 ab 72 bf 8d bc 0c be 8d 61 f0 be
       -0.643877 -0.94793534 -0.13743801 -0.46949425
0003b0 5a ce 54 be 2e 85 9c be 82 50 38 bf cb 81 f8 be
       -0.20781842 -0.30570358 -0.71997845 -0.48536524
0003c0 74 71 43 be ed 68 8f be 3e 3f 73 be 2d a1 88 bc
       -0.19086248 -0.2800974 -0.23754594 -0.016678417
0003d0 d6 dc c3 3e 76 10 09 bf ac 0d 08 bf 4e 2b 55 3f
       0.38254422 -0.5354074 -0.5314586 0.832692
0003e0 d4 43 3c be 72 17 3a bf 0a 7d d6 be b4 2a 78 bf
       -0.1838525 -0.72692025 -0.41892272 -0.9694016
0003f0 0f 7d 3a 3f 6f 24 a9 bd 24 22 4b bf 37 5b 80 be
       0.72847074 -0.08258902 -0.7934897 -0.2506959

l2.weight f4 [300, 400]
000000 37 c6 3c 3c 28 41 3b bc b9 cf c9 bd 1b 6b 6c bc
       0.0115218675 -0.011429109 -0.09854073 -0.014429833
000010 ae c1 94 bc be 65 15 3d b6 b6 17 ba ee f4 19 bd
       -0.01815876 0.036473982 -0.0005787419 -0.0375871
000020 7e d5 2b 3c 60 c8 35 bc 62 9d 51 3d 68 66 ba bc
       0.010487912 -0.011095136 0.051175483 -0.02275391
000030 e5 bc 84 bd 95 04 97 3b 43 6e e9 bb 5c 08 71 bc
       -0.06481341 0.0046087005 -0.00712374 -0.014711466
000040 d5 95 04 bd e2 a9 d1 bc 8b 10 66 3d 20 f4 35 bd
       -0.032369453 -0.025593702 0.05616812 -0.04442227
000050 85 ba 87 bd 79 ae 41 bd 6c 02 05 3c 25 58 1a 3c
       -0.06627373 -0.04728553 0.008118253 0.009420429
000060 e6 89 19 bd 2b 09 6e bd ad b7 1e bd 89 55 ce bc
       -0.037485026 -0.058114212 -0.038749386 -0.02518727
000070 57 97 3c 3b ef 49 29 bd f6 e1 95 bc d0 1a 28 bd
       0.002877673 -0.041330274 -0.018296223 -0.041041195
000080 36 83 91 bd d5 40 0e bb 7b e8 61 bd dc 24 7f bd
       -0.071051046 -0.0021706123 -0.05515335 -0.06229101
000090 1d 53 89 bd a1 68 c6 bc 94 2c 88 bc 35 d6 18 bd
       -0.06705306 -0.024219813 -0.016622819 -0.03731366
0000a0 d2 52 59 bb 44 99 7f bc db a3 6e bd 0e ab 91 bc
       -0.0033160937 -0.015600506 -0.058261734 -0.01778176
0000b0 78 e0 0d 3c fb cb 6c bd e4 ff 7d 3d 97 eb af bd
       0.008659475 -0.05781172 0.062011614 -0.08589857
0000c0 89 20 42 bd a1 f1 c4 bd 2f 19 ae bc f6 93 22 bc
       -0.04739431 -0.096163996 -0.021252243 -0.009922972
0000d0 2f 99 a1 bd 6e 3d 29 3c 9f a4 3c 3b 96 09 92 bd
       -0.078905456 0.010329587 0.0028784645 -0.071307346
0000e0 51 1c 47 3d 0f 70 38 3c 90 ec b6 bd a5 f8 92 bc
       0.04861099 0.011257186 -0.089318395 -0.017940829
0000f0 14 e2 09 3d da ea de bd 1f c4 bd 3c ee 0b 1e bd
       0.03366287 -0.10884638 0.023164807 -0.038585596
000100 73 a8 77 3c 95 9f 12 3d 0d 31 04 3c 01 b6 dc bb
       0.015115845 0.03579672 0.008068335 -0.0067355637
000110 d1 95 52 3d a8 8d c1 3c 69 23 c1 bc d0 9c bc bc
       0.051412407 0.023627117 -0.023576455 -0.023023993
000120 6e e6 2a 3c 11 91 58 3d c7 3b b2 3b c5 f5 13 3c
       0.010430915 0.05287272 0.005439255 0.009030764
000130 de e5 95 bc a1 f8 47 bd ce 2e 94 bd 16 e4 91 ba
       -0.018298086 -0.048821095 -0.0723549 -0.0011130597
000140 88 87 b5 bd 00 b9 cf bc 43 cd 6e bc aa a8 e2 3b
       -0.08863741 -0.02535677 -0.014575305 0.006917079
000150 2e 13 16 bd 6f 29 24 bd 81 dc c7 bd 76 ca 1b bc
       -0.036639385 -0.040078577 -0.09758855 -0.00950872
000160 b8 61 ba bd e4 40 08 bc 96 3a 27 3b 2e 20 98 bb
       -0.091006696 -0.008316252 0.0025517098 -0.004642508
000170 9f 8e 2f bd 8c 29 ff bc e2 de 5d bc 62 27 54 bd
       -0.042860623 -0.03114774 -0.013541909 -0.05179537
000180 64 9a 77 bd d0 29 b0 bc 54 46 f2 bb b0 31 45 3c
       -0.060449973 -0.021504313 -0.0073936377 0.012035772
000190 32 5a 51 bd 4c 0e 76 bd c0 08 31 bd 1d 08 89 bc
       -0.051111408 -0.06007223 -0.043221235 -0.016727502
0001a0 3f cd 23 bd c5 d9 87 bd f5 75 0e bd 13 36 63 bd
       -0.03999066 -0.06633333 -0.03478046 -0.05547149
0001b0 69 9c 4a bd 43 14 f8 3c 0f bd 27 bd 97 de ad bb
       -0.04946557 0.030283099 -0.040951785 -0.005306076
0001c0 cc 77 73 bd 80 54 b4 bd 46 6d 17 bd 96 f2 99 3c
       -0.05944042 -0.088051796 -0.036969446 0.018792432
0001d0 29 63 05 3d a8 b6 b6 bd 95 6a 1f 3c 9b fc f3 3c
       0.03256527 -0.08921558 0.009730001 0.029783538
0001e0 41 ac 4e bd 85 0d 0f 3d 1b 6f 7c bd 45 5b 81 bc
       -0.050457243 0.034925003 -0.061629396 -0.015790591
0001f0 e2 f2 62 3c 8d 3b 29 bd 95 a9 88 bc ad 48 8b bd
       0.013851853 -0.041316558 -0.016682426 -0.06800971
000200 3d fa 0f bc 0a 4d de 3c f9 c2 c8 bc b1 69 c4 bc
       -0.008787689 0.027136344 -0.024507033 -0.023976179
000210 e9 65 d1 3b ce b9 1a 3d a6 75 0a bd 38 97 c8 3c
       0.0063903225 0.037774853 -0.033803605 0.02448617
000220 86 8e 9f bc bc 19 f8 bb ce 88 9e bc 58 76 35 bd
       -0.01947714 -0.007571427 -0.019352343 -0.044302315
000230 1c 1e 7d bd ce e2 28 3d 81 01 c6 bc 39 38 43 bc
       -0.061796293 0.041231923 -0.024170639 -0.01191526
000240 2e 4c 19 bd af a1 aa bc 93 a6 7c 3c d3 ce ee bd
       -0.037426166 -0.02082905 0.015420574 -0.11660542
000250 e6 95 97 bd 24 28 f0 3b 9d f6 8d bd a7 ba ad bd
       -0.07401638 0.007329004 -0.069318034 -0.08482867
000260 7f 68 20 bd 37 c7 27 bd 6e 7f 9e bd a2 cd 63 bd
       -0.039162155 -0.04096147 -0.07739149 -0.05561603
000270 ef 66 a0 bc fa 84 e3 bc 67 c0 2b 3c 2b 60 ec bc
       -0.019580333 -0.02777337 0.010482884 -0.02885445
000280 ed 09 8a bd 7c 1f f6 bd d2 57 6d 3c f2 13 64 3c
       -0.067401744 -0.12017724 0.01448627 0.013920771
000290 c5 90 0f bd 7d 35 83 bd 78 cb b8 bd 5e 61 90 bc
       -0.035050172 -0.064066865 -0.090231836 -0.017624553
0002a0 6e c7 92 bc b7 2b 2a bd 2c fe f3 ba fb 3f 62 3d
       -0.017917361 -0.041545596 -0.0018615178 0.055236798
0002b0 98 ab 42 3c ad 43 90 3b a2 0f 59 bd b0 0d 32 3d
       0.011881731 0.004402599 -0.052993424 0.043470085
0002c0 8f ba b6 bc 6c c7 79 bd a8 6b 36 bd 36 cc a2 bb
       -0.022305755 -0.0609812 -0.044536263 -0.0049681915
0002d0 3e 4d 17 bd dc a9 06 bd 32 dc e5 3b bf d5 2c bd
       -0.0369389 -0.032876834 0.0070147747 -0.04219603
0002e0 35 da 33 bd 55 c4 8f bd 14 e0 01 3c a7 10 28 bd
       -0.04390927 -0.07019869 0.00792696 -0.041031506
0002f0 5c d0 71 bd b4 71 7d bd 91 42 4a bc 7e ee 12 bd
       -0.059036598 -0.061876014 -0.012344972 -0.035871975
000300 c7 43 80 bd c2 58 5e bc e0 70 b5 bd 58 89 36 bd
       -0.062629275 -0.013570966 -0.0885942 -0.044564575
000310 05 c6 03 bd 25 c9 83 bc 10 dc bf bd 7f 84 2c 3d
       -0.032171268 -0.016087124 -0.093681455 0.042118546
000320 68 fb 4f bb f8 c1 c4 3b 46 fc 94 bc 58 e7 b7 bd
       -0.0031735543 0.006004568 -0.0181867 -0.08979672
000330 28 39 34 3d 89 d5 41 bd 2a 29 58 bc e0 00 b7 bc
       0.04399982 -0.047322784 -0.013193408 -0.022339284
000340 66 26 1b bd 48 23 b4 bd 6e 89 94 3c 0d c3 8d bd
       -0.037878416 -0.08795792 0.018131938 -0.069219686
000350 80 b9 38 3c ac 03 71 bd 52 28 5e bd 57 c2 a0 bd
       0.011274695 -0.058841392 -0.05423767 -0.078495674
000360 52 14 d9 bb 07 c1 3a bc 80 84 73 ba de d3 98 bc
       -0.006624737 -0.01139856 -0.00092894584 -0.018655714
000370 fb 65 64 bd 77 17 24 bd 14 ba 7f bd 8a 84 5b bd
       -0.05576132 -0.04006144 -0.062433317 -0.053593196
000380 73 12 f7 3c 7f 32 29 bd 11 63 4f bd 63 3f 69 3d
       0.030160164 -0.041307922 -0.050631586 0.056945216
000390 d0 a2 bb bd 51 0c d2 3b dc dd 75 bd 37 5c bd 3b
       -0.091619134 0.0064101596 -0.060026035 0.005778815
0003a0 d8 02 a9 3c 5d 6a 02 bd 05 1b 13 3c 7b e4 6a bd
       0.020631239 -0.031839717 0.00897861 -0.057346802
0003b0 b6 0f 1e bd a3 3a 00 3d c8 5a 4a 3c af b2 a3 bd
       -0.038589202 0.03130592 0.0123507455 -0.079930656
0003c0 ae ca 9f bd c3 9f e7 bc 8f c2 24 bd 2f c4 37 3c
       -0.0780233 -0.028274423 -0.040224608 0.011216207
0003d0 20 64 34 bc 94 30 7f bc c8 ec 3a bd 3d e0 0b bd
       -0.0110102 -0.015575547 -0.04563597 -0.034149397
0003e0 4e 54 94 bc 6c 7b 0e 3b 57 c5 2c bd 58 f8 b0 bd
       -0.018106606 0.0021741046 -0.042180385 -0.08641118
0003f0 58 07 3b bd 9e b4 98 bd 26 bd 9e bd 21 d8 db 3c
       -0.0456613 -0.07456325 -0.07750921 0.026836457

l2.bias f4 [300]
000000 95 e6 82 bd f5 df 8d bd 30 6d 39 bd e4 b1 f1 bc
       -0.06391636 -0.06927482 -0.045270145 -0.02950377
000010 ae 92 a0 3c 55 9c 9e 3c 83 d0 e2 bd 1a 3b 33 3e
       0.019601192 0.019361654 -0.11074927 0.17503014
000020 0d e6 9c 3c c6 f6 97 bd d0 05 b8 bd 10 7c cf 3b
       0.019152666 -0.07420115 -0.08985484 0.006331928
000030 5f 0b 2f bd 35 1d 11 bf 8a ef 5e bd c1 57 5a 3d
       -0.042735454 -0.5668519 -0.05442766 0.053306345
000040 58 a0 ba bf bd 81 08 bd f2 e3 52 bc 5d 69 17 3d
       -1.4580183 -0.033326853 -0.012871729 0.036965717
000050 6e 79 1f bd 18 00 a1 3f 8d 90 8b bd 79 54 99 bc
       -0.038934164 1.2578154 -0.0681468 -0.018717038
000060 e5 6b 85 bd ad 04 d2 3f a6 12 97 bd f1 b0 ce bd
       -0.0651472 1.6407677 -0.07376604 -0.10092343
000070 5b 25 e8 bd 56 c0 98 bd 1f 22 bb 3f db 1b 76 3e
       -0.1133525 -0.0745856 1.4619788 0.24034064
000080 01 6f e0 3d d1 de 4a bb 87 31 bb 38 05 e0 41 be
       0.10958672 -0.0030955563 8.92608e-05 -0.18933113
000090 61 4f 80 bd af ed ae bd 0d 6a 43 3d 9d d4 82 bd
       -0.0626514 -0.08541428 0.04770856 -0.06388209
0000a0 93 1b a0 3f c0 98 cb 3c e3 f8 da bf 22 1b d5 bd
       1.2508415 0.02485311 -1.7107204 -0.10405566
0000b0 bf ba 8b bf de 16 92 bd af 8c 21 be 64 26 82 3f
       -1.0916365 -0.07133268 -0.15776323 1.0167966
0000c0 2a 35 6f 3c 1e 35 f2 3e 32 fc e8 3b 32 35 d3 bb
       0.014600078 0.4730615 0.007110142 -0.0064455504
0000d0 c8 19 c0 3e bf 42 38 3d 55 45 87 bc de b1 8f 3d
       0.3751967 0.04498553 -0.016512552 0.07016347
0000e0 9f 89 b4 3c 7a a0 d4 be 0d 01 0c bd 25 81 0f be
       0.02203828 -0.41528684 -0.03418069 -0.14014108
0000f0 8f 78 28 bd 6a f2 5d ba 0f 65 a5 bd 5e 84 9f bc
       -0.0411306 -0.00084666035 -0.08075916 -0.019472297
000100 bc 35 8e 3f 37 a8 a8 bd 53 cb e0 bd 90 6e 19 bb
       1.1110148 -0.082352094 -0.10976281 -0.0023411848
000110 4d 68 83 3f b4 64 fb bc ad 90 98 3c 9d 52 87 bd
       1.0266205 -0.030687667 0.018623674 -0.06607554
000120 ca 45 5a bc b7 e5 3d 3d 9f 9b b1 3c e9 1c c0 be
       -0.013322303 0.04636165 0.021680651 -0.37522057
000130 d9 8b 40 bd 3d 74 04 bc cd f2 04 be 80 a6 b7 bd
       -0.04700837 -0.008084354 -0.12983246 -0.08967304
000140 23 4a 62 bd 61 89 cc bc c5 d1 4f 3e 7e a6 1e bd
       -0.055246484 -0.024967851 0.20294864 -0.038732998
000150 fc c7 75 bc 3e 01 13 bd df 14 76 3f e6 a2 19 bd
       -0.015001293 -0.035889857 0.96125597 -0.037508868
000160 c8 c0 39 bd 15 7d 85 bd b9 4f b2 3f b3 7b f3 3d
       -0.045349866 -0.06517998 1.393058 0.11888828
000170 2f 74 a3 bd 67 67 25 bd 5b b6 6d bc 37 c2 ac bd
       -0.07981145 -0.040381815 -0.014508809 -0.08435481
000180 05 b4 06 bc 2a ef 69 3c 3d bc 91 3e 69 d4 84 bf
       -0.008221631 0.014278213 0.28463927 -1.0377322
000190 71 03 d3 bd 2b 32 fc 3b 5d 58 05 bd a6 8e a3 3f
       -0.10303391 0.00769641 -0.032554973 1.2777908
0001a0 f8 9d 88 bf 06 e8 a7 3c 65 80 8c be bc dc fd bd
       -1.0673208 0.02049638 -0.27441707 -0.12395617
0001b0 da a6 e1 3c 5b 1d e1 bd 0a ec 69 3e 55 5d 03 bd
       0.027545381 -0.10991927 0.22843948 -0.03207143
0001c0 66 90 1a bd af f1 2d be 56 36 96 bd 8b 0a 67 bd
       -0.037735365 -0.16986726 -0.073345825 -0.05640654
0001d0 d2 3d d0 bd fa 43 b1 3f 36 cb 1e bd 70 75 c1 3a
       -0.10168041 1.384887 -0.038768016 0.001475973
0001e0 69 32 4b bd 5b ec e4 bc 66 09 a4 3c f2 ec dd bc
       -0.04960862 -0.027944734 0.020024013 -0.027090523
0001f0 c8 de b4 be 63 c4 26 3f 66 53 20 3c 51 e9 5b 3c
       -0.3532622 0.6514341 0.009785509 0.013422326
000200 74 c2 7b bc 3c e3 56 be a9 0d 85 3e 88 29 b4 bc
       -0.015366185 -0.2098512 0.25986984 -0.02199246
000210 a5 47 0a bd b2 11 5b bd ce 36 1b bd 82 fd e7 3c
       -0.03375973 -0.053483672 -0.037894063 0.028319124
000220 85 c0 86 bd ff 29 80 bd 5c 07 47 be 5c da 00 3c
       -0.06579689 -0.0625801 -0.19436401 0.007864561
000230 af 4f a7 bd e9 c2 ce bc 40 e2 c5 3c 81 92 4b bd
       -0.08169495 -0.025239425 0.024155736 -0.049700264
000240 25 d7 09 bd 38 b0 c8 3b 66 ab a2 3e b6 3b 9f bd
       -0.033652443 0.0061245225 0.31771392 -0.07775061
000250 4a 9d 5a bd 57 41 a9 bd a3 b7 6f bd 7d f9 e0 be
       -0.05337266 -0.08264416 -0.05852474 -0.43940344
000260 61 9b c9 be c8 08 47 3c ad 86 03 be 3e 07 ae bf
       -0.39376357 0.01214809 -0.12844343 -1.359596
000270 5e 3a 23 3b 42 55 73 be 85 f5 12 3e 25 a3 01 bd
       0.0024906616 -0.23762992 0.14351471 -0.031649727
000280 af 8f 2d bd 06 80 17 bc 62 96 ac bf fa 00 60 3e
       -0.042373355 -0.009246832 -1.3483393 0.21875373
000290 5d 36 13 3d 9d 7e 88 bf 63 d8 a5 3f 9b b9 61 bd
       0.035940517 -1.0663639 1.2956661 -0.055108648
0002a0 39 4d cc bd 93 c6 e6 bd d6 1b 90 bd f6 20 79 3d
       -0.099756666 -0.11268344 -0.07036559 0.06082245
0002b0 de 96 9e bb eb fb fb be 9e c0 02 3f 00 9f b2 bd
       -0.004839762 -0.49215636 0.5107516 -0.08721733
0002c0 92 b6 d8 bd 9f 5b ab bd d2 ce d5 bc 5d 98 8b bd
       -0.105816975 -0.08367085 -0.026099596 -0.0681617
0002d0 b9 e1 46 bd 96 d7 2a 3e 8b 4a ed bd ff 50 a6 bb
       -0.04855511 0.16683802 -0.115864836 -0.0050755735
0002e0 cb cb e5 bd 22 17 de bc 0b af 6f bd 2e 41 1f bd
       -0.11220511 -0.02711064 -0.058516543 -0.03888052
0002f0 3f 73 32 3e bd 76 8e bb 68 de 3f bd 93 b9 64 bd
       0.17426775 -0.004347651 -0.046842963 -0.05584104
000300 83 e1 f4 3b 3d 3d 29 3f b9 3a 4d bd 01 23 cf bc
       0.007473172 0.6610907 -0.05010483 -0.025285246
000310 46 67 98 be e9 cb d9 3c 13 ae 68 bd 46 d1 97 bd
       -0.2976629 0.02658649 -0.056806635 -0.074129626
000320 aa b9 5b bc 86 91 12 3f c7 8c ad 3f 62 84 d1 bc
       -0.013410965 0.572533 1.3558587 -0.02557582
000330 52 90 ee 3c 8f c2 b7 3f a7 72 80 3e 64 87 f6 bc
       0.029121552 1.435625 0.25087473 -0.030093856
000340 25 d8 c1 3f 09 d6 dc 3c 20 88 39 bf 81 25 7b 3f
       1.5144087 0.026957529 -0.72473335 0.981041
000350 0e 42 96 bd 7e 77 91 bd 0a 6f d0 bd 9a 8e e4 3d
       -0.07336818 -0.071028695 -0.10177429 0.111600116
000360 e7 ff af bd c0 42 c5 bf 52 01 58 bd b8 3c bc bc
       -0.085937314 -1.5410995 -0.052735634 -0.022978172
000370 f6 c3 9a bc f2 cd de bd 5c bd 70 bd c8 00 40 3c
       -0.01889227 -0.10879125 -0.058774337 0.011718936
000380 bb 2c 60 bd bd 7e cd 3f 7a 8f 5b bb c2 dc e1 3c
       -0.05473016 1.6054302 -0.0033502267 0.027571086
000390 a8 76 b0 bc 1f 14 80 bc 06 a4 db 3f 54 6d 78 bc
       -0.021540955 -0.015634594 1.7159431 -0.015162785
0003a0 cc 51 71 bd b7 8f aa bb a3 f8 e0 bb e5 0e 08 bd
       -0.0589159 -0.0052051204 -0.0068655773 -0.03321733
0003b0 68 ec 45 3c a1 28 40 bd d3 4c 73 3e 0a d6 5c bd
       0.012080289 -0.046913747 0.23759775 -0.05391506
0003c0 c9 be 4a bd 0d 38 28 bc 15 4a 81 bd 7b 14 e3 bd
       -0.049498353 -0.01026727 -0.06312958 -0.11087891
0003d0 30 ea 39 bd ad 2d 83 be 1b a6 73 bf 4b 5b 65 bf
       -0.045389354 -0.25620785 -0.9517533 -0.89592427
0003e0 cd 7e 8f bc 7f 2a a1 3f 37 fe bb 3d 75 6b 44 3e
       -0.017516518 1.2591094 0.09179347 0.19181617
0003f0 4d 8a 32 3f 48 5b 33 bd b0 e0 45 3b 51 d1 c6 bd
       0.6974228 -0.043788224 0.0030193739 -0.09707893

l3.weight f4 [1, 300]
000000 a7 fc 22 3c e6 cc 92 3c f3 51 62 3c 62 2d 6c 3e
       0.009947932 0.017919969 0.0138134835 0.23064187
000010 8c 3e 88 bd 1d 8f 18 bf 41 9a 51 3c 26 7c 3a bf
       -0.06652555 -0.59593374 0.012793125 -0.72845685
000020 2f 68 3e be f7 dc b3 ba 71 68 58 bc a4 8b 87 3e
       -0.1859443 -0.0013722469 -0.0132084945 0.26473725
000030 b1 c9 cd ba 30 c3 72 c0 2a 93 d7 bc ae 6e 26 be
       -0.0015700368 -3.7931633 -0.02631529 -0.16253158
000040 f8 dd 5b 3f a0 c0 48 be af 0d 32 be 6d 4c 1a bf
       0.8588557 -0.1960473 -0.17388032 -0.60272866
000050 fa bc 62 bc 62 11 f1 be 04 9d 8e 3c 09 65 36 c0
       -0.013839001 -0.47083575 0.017408855 -2.8499167
000060 a1 0a 5e 3c fe 2b d0 be 25 95 94 3d 01 52 5c 3d
       0.013552339 -0.40658563 0.072550096 0.053789143
000070 1c 34 8a 3d d6 12 9e bc 89 8c 1b bf fc 3d e1 3e
       0.0674822 -0.019296091 -0.60761315 0.43992603
000080 ad 95 0b be cb 89 f0 bd 28 8e 43 be ce 56 96 3e
       -0.13631316 -0.11745032 -0.19097197 0.29363102
000090 31 43 c3 be 54 42 fb bc 0e e1 fd be 3e 39 12 3b
       -0.381372 -0.030671276 -0.49585766 0.002231195
0000a0 3b fb 91 3e 7f eb 38 be bf c8 48 3e 46 45 a6 3d
       0.28511986 -0.18058585 0.19607829 0.081186816
0000b0 0c 64 b0 be 95 a8 1d 3d 3d 92 18 bf 83 2d 79 3d
       -0.3445133 0.03849085 -0.5959814 0.06083442
0000c0 c8 a5 4a be be 0e 6b bf 2f 87 3d be 3c f3 8c bc
       -0.19789803 -0.9181937 -0.185086 -0.017205827
0000d0 bf c5 b7 be 56 8d 2d be e5 7d 82 3b 3f 62 50 bf
       -0.35893056 -0.16948447 0.003982293 -0.8139991
0000e0 86 b9 1c 3c e8 89 cb be e5 ba 15 3d 54 4a 82 3f
       0.009565717 -0.39753652 0.03655519 1.0178933
0000f0 3c 2b f3 3b 64 fc 08 be cb 5c eb 3c b7 6e 3c be
       0.0074209254 -0.1337753 0.02873077 -0.1840161
000100 5d 68 24 bf 94 6e 7d 3c 88 77 40 bf 6d 09 ba 3e
       -0.64221746 0.015468258 -0.7518239 0.36335316
000110 8f 62 0b 3f f8 c1 44 be 19 48 dd bd 5f f2 ae 3c
       0.54447263 -0.19214618 -0.10804767 0.021355806
000120 55 15 0f bc 5d 3f 9e be 9c c8 84 3c 53 ab 76 be
       -0.008733113 -0.30907717 0.01620894 -0.24088793
000130 5c 68 fa 3c c0 98 b2 3b bc e6 0c bf ad 37 12 bb
       0.03056734 0.005450338 -0.5503957 -0.0022311017
000140 36 10 20 3d 2c 3b 87 3b 22 42 66 3e 3d e2 13 be
       0.03907796 0.004126927 0.22486165 -0.14441772
000150 6d 78 02 bd d4 61 fc 3b bd c0 a0 3d ec eb 0e be
       -0.03185313 0.0077020917 0.07849262 -0.13957185
000160 68 bc cd 3d c7 6f 3a 3c 29 76 24 be 02 0d db 3c
       0.10045701 0.011379189 -0.160607 0.026739601
000170 5c 40 09 3c 37 eb a1 bc 0c a4 8e bd 33 b8 6b bb
       0.008377161 -0.01976548 -0.06964883 -0.0035967946
000180 33 27 ff 3c 3a e7 dc 3c 0c 77 f0 bc 17 49 d1 bd
       0.031146621 0.026965726 -0.029353641 -0.10219019
000190 83 c1 89 3f 9d a8 1a be f4 69 77 bc 7f a2 c8 3e
       1.076218 -0.15103383 -0.015100945 0.39186475
0001a0 5e e0 2d c0 8a 4e 64 be f7 9e 35 bf 1c 03 0e bf
       -2.7168193 -0.22295585 -0.70945686 -0.55473495
0001b0 69 8a cd bc 0a 9f e1 be a1 ee 51 bf 78 0b 3f 3c
       -0.025090413 -0.4406665 -0.82004744 0.011660449
0001c0 09 d1 48 3f 9e 9d 5f bf 44 5a fd bc 84 8a f6 bb
       0.7844396 -0.8734988 -0.030926831 -0.0075238366
0001d0 d1 ef dc 3d bc e4 a3 be 6c 10 f2 bc 43 21 fa 3d
       0.10787929 -0.32010448 -0.029548846 0.122133754
0001e0 47 c6 36 be 88 fb c3 bd 5f 90 b6 bd fc 8c 83 bc
       -0.17849074 -0.0956946 -0.08914255 -0.016058438
0001f0 b4 54 06 3f 94 1a b7 be e8 e5 44 3d d1 ed 54 bd
       0.52472997 -0.35762465 0.04807082 -0.051984612
000200 1c a3 04 bc 6c 4a d9 be 1a d5 7f 3f b4 31 f7 bb
       -0.008095529 -0.42439592 0.9993454 -0.007543767
000210 a2 d4 66 bc ac c2 7f bc e3 cb 75 3d 57 9e 26 ba
       -0.014088782 -0.015610378 0.060008895 -0.0006355992
000220 94 11 e7 3c b5 09 1f bc 3e a8 58 3e 77 cb b8 3d
       0.028206624 -0.009706904 0.2115793 0.09023183
000230 a6 90 9b 3c 3c fd 02 be 6d 57 94 3c f1 cd 5e bc
       0.018989872 -0.12791914 0.018108094 -0.013598905
000240 f3 d0 ea ba 7f 7c be ba 6e cd aa be e4 a3 04 3e
       -0.0017915055 -0.0014532952 -0.33359855 0.12953144
000250 ed a8 15 be f2 72 50 bc 5c f5 08 bc 80 d6 1f be
       -0.14615221 -0.012722718 -0.0083592795 -0.15609169
000260 de 84 a1 be 07 b7 ab 3b 67 e5 1a bf 85 f9 41 3f
       -0.31546682 0.0052403244 -0.6050629 0.7577136
000270 66 43 2b be 04 8a 66 3e c1 23 52 be be 3e 28 bd
       -0.16724929 0.22513586 -0.20521452 -0.04107546
000280 88 be 49 ba 99 16 df ba 04 5b 90 3f 5f 4f ac 3b
       -0.0007695933 -0.0017020284 1.1277776 0.005258485
000290 e4 3b 0d be 8d 0b 1d 3f f2 2e 62 bf 6a f6 d4 bc
       -0.13792378 0.6134575 -0.8835288 -0.025996406
0002a0 f3 3e e1 3c 50 14 40 3e 90 33 40 ba 4b 3a 9b bf
       0.027495837 0.18757749 -0.0007331902 -1.2127165
0002b0 bb 09 6a 3b 3c 41 cb be 8f 97 13 3d 7c 0c 75 bc
       0.0035711366 -0.39698207 0.03603321 -0.01495659
0002c0 f1 7f 52 3d 7d ea 02 3b 80 f1 37 3c 4c ce 88 bc
       0.051391546 0.0019976192 0.011227012 -0.016699933
0002d0 2d 34 84 3a 1b c7 fe be ab 1d 75 3d 04 b5 f1 bc
       0.001008635 -0.4976128 0.059842747 -0.02950526
0002e0 38 82 3f 3b 7b 5a e8 3a 97 19 80 3c a3 d6 ee 3c
       0.0029221904 0.0017727161 0.015637202 0.029155081
0002f0 91 2d da 3e 04 8f 08 3d c2 b9 6b 3c 9f ae 32 3d
       0.4261289 0.033339515 0.01438755 0.043623563
000300 95 d4 85 3c c9 fb ae 3d 78 9b c0 3d cd b4 86 3b
       0.016336719 0.08544118 0.09404653 0.0041109086
000310 2b df 74 3e 9e 75 af bd 13 bf fa bc cc 51 0a 3b
       0.23913257 -0.085673556 -0.03060869 0.0021105884
000320 d3 1c e2 bc 11 d5 92 3d 6c 4b 04 3f d4 84 8b 3c
       -0.027601635 0.071695454 0.51677585 0.01703111
000330 f5 0c 93 bf 7b 45 06 bf 50 d2 31 bf aa e9 6c 3c
       -1.1488329 -0.5244977 -0.69461536 0.014460007
000340 eb 04 dc be 1d bb 80 bc 9e b1 1e bf 0b 23 b6 3d
       -0.42972502 -0.015714223 -0.6198977 0.08893403
000350 cb 95 ee 3c 16 b0 22 bd 25 26 9a 3d b9 fc ce bb
       0.029124161 -0.03971871 0.07526807 -0.006316748
000360 07 18 00 3d ad c9 5f 3f 55 e5 16 3e 37 a5 35 3d
       0.031272914 0.8741711 0.1473592 0.044347014
000370 0d 5c 1a bd 32 c5 6d be 18 d3 b1 3c 98 f3 cf bd
       -0.037685443 -0.23219755 0.021707103 -0.10153884
000380 4f 12 b8 ba 26 f1 1b bf 6d 7b 8e 3c ff e4 37 be
       -0.0014043542 -0.6091484 0.017392838 -0.17958449
000390 d2 72 dc bc 8c ee 73 be 3e 3d f7 be 81 4b c2 3c
       -0.02691022 -0.23821467 -0.48288912 0.023717644
0003a0 ed d1 0a 3b 07 36 b4 3c 7a 47 e7 bd 8c 01 f5 3c
       0.0021182254 0.021998418 -0.1129293 0.029907964
0003b0 53 4b ed 3c 2d 90 16 3c e4 55 f8 3b 1e f0 a5 3c
       0.028966581 0.009189648 0.0075785983 0.020256098
0003c0 ac 8d 0c 3d 9d e1 0c bf c6 c1 a4 3d dc 00 05 3e
       0.034314796 -0.5503176 0.08044772 0.12988609
0003d0 3b 1d ed bc ef ac be be b8 28 14 bf 1b f1 f7 3b
       -0.028944602 -0.37241313 -0.5787463 0.007566584
0003e0 88 1c 4b be 21 21 22 bf 5a 4a e6 be ea 12 18 bf
       -0.19835103 -0.633318 -0.449786 -0.5940386
0003f0 98 70 8e 3d 3c 89 8d 3c 86 1c 99 3c 64 50 fb 3c
       0.06955069 0.017277353 0.018690359 0.030677982
