preTrained/BipedalWalker-v2/ONE/TD3_BipedalWalker-v2_0_solved_actor_target.pth (torch_old, 527002 bytes, 6 tensors)

l1.weight f4 [400, 24]
00000000: 6589 17bd 4372 79bd 34ed f7bd 5039 3e3e
00000010: 3e42 1dbe 7a99 d13d 5e21 a33d 4f0b b5bc
00000020: 7bd0 e5ba bdb3 88bc c066 4bbe da58 d53c
00000030: 57ee babd 0117 d13d 0e74 96be f294 5bbd
00000040: 51ad ccbd 068b 2a3d f6b1 1dbe dfee 393d
00000050: 9d28 8ebc f487 72be cc22 fdbd e9e6 48be
00000060: 19c9 84bf f765 c4bf 5827 513f 73b3 853f
00000070: 514b bcbe 1fb6 fabd dc79 703f 5662 9e3d
00000080: d423 1c3c d630 3dbf e4df bbbe 8405 a4be
00000090: 5223 11bf c9ff 49be c114 3abd 54c8 9b3e
000000a0: 227e a93e 9885 dc3d 9861 593d 5f4b a03e
000000b0: dda7 533e fbc8 0b3e b2b1 5e3e 6cf6 36bd
000000c0: f10c 4dbd e57f 80be f95b 4e3f e638 a7be
000000d0: 79a6 66be 2fca e53e d153 d53f 9228 403c
000000e0: ff59 03c0 df6a a2be 3838 c93e c279 05bf
000000f0: 342e 8dbf c839 b2bf c739 74bd 12a3 8b3d
00000100: e748 643e 16f7 d0bc b48a 483e db2a c63d
00000110: 019d 2cbc 2961 4e3e 1252 76be 003c 04bf
00000120: 77e3 343d 5c5e 04bd 1094 32be 6ffc 373d
00000130: b648 a13d 6d6a 15bd 8a3e 6fbb 78e1 803d
00000140: 0cb9 4cbe f108 d1bb 3c3a fd3d cebb a23c
00000150: 83a2 f23d 1159 c0bc 0836 34be df30 afbd
00000160: 7699 1fbe 2165 d13d 9fcc 2dbe 89b6 db3d
00000170: 3d2f 83bd 2f48 22be f7ab b73d 0102 c8bd
00000180: ad85 1e3f 044e fe3e ce46 90be 65b0 9dbf
00000190: c416 02bf f99c 5f3e eea6 263f e4e3 0abf
000001a0: 0021 c7bf d1f6 5f3e 3460 1b3e 80f5 c7be
000001b0: b564 143e 324d e83e 1c9a f9be 399e 4bbf
000001c0: 1c7c febe 395a cebe 1e23 11bf 11e4 46bf
000001d0: ee38 17bf 1d8b 08bf 44f6 fcbe e284 d3be
000001e0: 32d9 e53f f022 0f40 cfaf 12bf 39fb 1dc0
000001f0: 6135 39bf ecd2 d8be 16f2 79bf c19e 85bd
00000200: f0c5 093f 6526 773d 86f3 493f 7b83 d5bd
00000210: 9de2 753e d3e8 8d3e 1e34 07bf 474f dcbe
00000220: a7a7 cabe 6ac0 f7be dc29 99be e956 16bf
00000230: 2467 8ebe 5de3 7abe 94e2 44be b26d 90be
00000240: 936a 6d3f b2ae 5e3e a4bd 073d 12c8 6c3f
00000250: 8ccf f4bd e14e dc3d fcce 783e a819 33bf
00000260: a1f3 ccbe 8d00 8abf d9c2 543e 3d03 02bf
00000270: c5c6 1fbe 6155 ddbe a27e 6cbe 6c3b 08be
00000280: 0b15 78be 2260 6fbd f6a7 a7be cfcd b8be
00000290: a09a c6be 07e1 a43c b5e1 94be cc2c 8cbe
000002a0: 1687 2d3f 68af 4b3f 6ff5 343b 66d6 1f3f
000002b0: 4ab4 523e 6549 11bd 7435 86be 005a 4abe
000002c0: 3dd1 01be f895 c33d 9a67 debd 817d 5bbe
000002d0: b506 93be 65dc 9e3e f303 efbe 7d0c 0ebf
000002e0: aa34 54be de04 15bf 5cff 7ebe 3f9d abbe
000002f0: 64c5 74be 5533 0abf 882f b3be 7f24 23bf
00000300: d94e b73e ee33 0040 19a2 ffbe f8d9 debf
00000310: 7050 fabf ed5c 5bbf ebc9 82bf 06b6 83be
00000320: c9d5 723f dd6a 103f 3547 133f 7b18 3a3f
00000330: c17b aabe c337 343f a5f0 cbbe 55fc 63be
00000340: 3707 dabe 2015 63be fbf6 b3be c23f ebbe
00000350: c57d ebbe 9e95 bbbe 7653 a7be 2b1e 773e
00000360: 01af 1d3f 16b4 f0bb b7c7 c7bf 8a9e d13f
00000370: 3572 48bf cead 00bf 28f2 493d 09c2 5b3f
00000380: a5da 97bf 2692 9fbe 678e e53e dd82 9dbe
00000390: 141c 4d3f bb04 2dbf 41e4 debd c355 a1bd
000003a0: f088 1f3c 054f d13c 6682 d43d dcc0 74be
000003b0: dd62 753d f130 29bc 2fef 0fbd 9769 29be
000003c0: fba3 3f3e d303 0abf e2bc 34be bb33 80bf
000003d0: 0e38 0ec0 7266 d8be 48c7 063e 65fc 593d
000003e0: f3f1 1abf 61d8 2a3d c927 33bf 1ae6 993f
000003f0: 1a4b 933f fafa 0c3f a84c 01bd e284 e6bc
-0.036996264 -0.060899984 -0.1210579 0.1857655 -0.153573 0.102343515 0.07965349 -0.022100119
-0.0017533445 -0.016687268 -0.19863415 0.026043344 -0.09127491 0.10209466 -0.29385418 -0.053608842
-0.09993995 0.04163649 -0.15399918 0.04539382 -0.01735335 -0.23684675 -0.123601526 -0.19619335
-1.037387 -1.5343617 0.8170066 1.0445389 -0.36776212 -0.12241768 0.9393594 0.077336
0.009530026 -0.7390264 -0.36694252 -0.32035458 -0.5669452 -0.1972648 -0.04542995 0.30426276
0.33104044 0.107676685 0.05307159 0.31307504 0.20669504 0.13650887 0.21747473 -0.0446686
-0.05006117 -0.25097576 0.8060909 -0.32660598 -0.22524442 0.44880816 1.6666204 0.011728423
-2.052368 -0.3172216 0.39300704 -0.5213891 -1.1029725 -1.3923883 -0.059625413 0.068182126
0.22293435 -0.025508445 0.19584161 0.09676143 -0.0105354795 0.20154251 -0.24054745 -0.5165405
0.04416224 -0.03231655 -0.17439294 0.044918474 0.07875197 -0.03647845 -0.0036505782 0.06293005
-0.19992465 -0.0063792397 0.12364623 0.019864943 0.11847403 -0.02347997 -0.17598736 -0.08554243
-0.15585884 0.10224367 -0.16972588 0.10728175 -0.06405494 -0.15847848 0.089683466 -0.09766007
0.61922723 0.49668896 -0.2817902 -1.2319456 -0.5081599 0.21837224 0.65098464 -0.54253983
-1.5556946 0.21871497 0.15173417 -0.3905449 0.14491542 0.45371395 -0.4875039 -0.79538304
-0.49704063 -0.4030321 -0.5669421 -0.7769175 -0.5907124 -0.5333727 -0.49406636 -0.4131232
1.7956908 2.2365074 -0.5729951 -2.4684584 -0.72347075 -0.4234842 -0.9763502 -0.065244205
0.53817654 0.06033935 0.7888721 -0.104254685 0.24012227 0.27716693 -0.528139 -0.43029234
-0.39581034 -0.48388988 -0.2991475 -0.58726364 -0.27813065 -0.24500795 -0.19227058 -0.2820869
0.92740744 0.21746328 0.03313984 0.92492783 -0.11953649 0.107572325 0.24297708 -0.69961023
-0.40029624 -1.0781418 0.20777453 -0.5078619 -0.15603168 -0.432292 -0.23095182 -0.13303918
-0.24226777 -0.05844129 -0.32745332 -0.3609452 -0.38789845 0.020126833 -0.2907845 -0.27377927
0.6778425 0.79564524 0.002761211 0.6243652 0.20576587 -0.035470385 -0.26212656 -0.19760895
-0.12677474 0.09550089 -0.10859604 -0.21434595 -0.28716055 0.31027523 -0.466827 -0.55487806
-0.20723215 -0.5821055 -0.249021 -0.33518407 -0.23903424 -0.53984576 -0.349972 -0.63727564
0.35802343 2.0031695 -0.49928358 -1.7410269 -1.9555798 -0.8568867 -1.021787 -0.2572481
0.9485746 0.5641306 0.5753053 0.72693604 -0.33297542 0.70397586 -0.39832035 -0.22264226
-0.4258363 -0.22176027 -0.3514937 -0.4594708 -0.45994392 -0.36637586 -0.32680863 0.24132602
0.6159516 -0.0073456867 -1.5607823 1.6376507 -0.78299266 -0.50265205 0.049303204 0.8584295
-1.18636 -0.3116619 0.44835207 -0.30763903 0.8012097 -0.67585343 -0.1088338 -0.07877686
0.009737238 0.025550375 0.10376434 -0.23901695 0.059908736 -0.01032661 -0.035140213 -0.16544186
0.18714897 -0.53912085 -0.17650178 -1.0015787 -2.2221713 -0.4226566 0.13161957 0.053219218
-0.60525435 0.04171026 -0.6998258 1.2023346 1.1507294 0.5507046 -0.031567246 -0.028139535

l1.bias f4 [400]
00000000: dc34 f4bd 978c 5cbe f0d8 4fbe 7bcc 6ebe
00000010: 0d3e 06be 722f 16be 7be1 f7be 06e3 13bf
00000020: 3add 433e 1ea9 c1be faa9 49be 6d52 9cbc
00000030: 8242 aebe 69fe 42bf 1842 1fbf 6eb0 90be
00000040: e045 b63d ca3a 5fbe cd89 f0be a611 25be
00000050: e921 f8be e6cd b63e 56d5 b9bd 3133 cbbe
00000060: 83e4 2ebe 6943 c4be 7585 dcbe 64ad 78bd
00000070: 1e1f 80bc 625f 53bd 2124 933e 7d2f 84be
00000080: fb53 1cbf 4e6b fd3d bc44 dc3e 72a4 aebe
00000090: 155e fabe 9d0f 0ebe 5dc8 83be 3883 c8bd
000000a0: ee06 88bd f19b abbe 68ee 1fbe be26 97be
000000b0: 9427 74be a9da c9be 6dd7 07bf 68fa f8bd
000000c0: c483 ac3e 49d7 763e 318a e7be 50ac abbe
000000d0: 7515 03bf 4128 86be 5424 71be 2bd9 0abf
000000e0: a734 a2be d9dd 43bd 1aa5 dabe c367 aa3d
000000f0: 3a8a babe 7fb0 2b3d 39c6 0bbd 8ba3 43be
00000100: bb06 97be 0640 91bd a85b 423e 5487 7cbe
00000110: ebf0 8cbb e801 2abe 7fa0 acbc a9d7 4b3e
00000120: 3bdf 6ebd 4453 a7be 5777 4bbe e2d2 18be
00000130: cb11 ebbe c441 7fbe 3a94 653d 7959 15be
00000140: 62bb 57bd a945 b0bd b90e ccbe 3de4 82be
00000150: 2af0 d4be 60a1 733d 97d4 033e 4587 02bf
00000160: 035e ba3e 4d2c 303e f5db 7d3e 6558 cabe
00000170: 5318 453e f07e 35bf dcf7 79be f58e 0ebe
00000180: c6fd 1abe 9e8f 9abe 7ca4 193e 0abf c0be
00000190: 2ba9 70be a7a0 91be bc4f 353f 5fa1 afbe
000001a0: 2d9a 543e 151d 933d 8d95 573e 4928 b9be
000001b0: 19e1 a3bd 2e29 3abf cb87 f0be 1c71 6dbe
000001c0: 405b 14be 251e cdbe 8c25 babd 0b79 00be
000001d0: 214d 11be 0737 553d c076 98be 25bd 85be
000001e0: 00a5 8cbe 0158 c2be 66eb 0fbf 126b d7be
000001f0: 7be9 1fbd c159 c9be 5488 11be 052c 8cbe
00000200: 0184 273e eaf2 5fbe cd7d 583c decb a13e
00000210: 2fda 2bbe 1449 1bbe 61bf c3bd d286 e8be
00000220: 1419 f1be 6151 c5be 9c24 f93d d8c1 c6be
00000230: a386 5cbe 4680 95be 176b 433e 1898 98be
00000240: fc8e f2be aa57 063d 6641 be3d 4014 01be
00000250: 4b5e 5d3c 8980 52be 1b33 32bf 3575 b9be
00000260: a553 08bd 5181 6e3d 09f4 26bf b265 ca3e
00000270: d379 90bc a4fe f1be 6d69 2cbe 3420 c4bd
00000280: 836a 1d3e 57c0 393e d9c6 cbbd 6d93 00be
00000290: 6475 79be 3a00 dd3c 0597 8fbe e69a d43e
000002a0: 9a34 dabe b373 11be 68e6 9fbe 7bc9 d5be
000002b0: 13bf 7abe 0f8b a5bd 9780 acbe e518 01bf
000002c0: ab01 093d b1c0 c2be b3ab 723d 4647 2ebf
000002d0: 95c2 88bd 3433 fdbe 87d4 07bf b0c4 2ebf
000002e0: e426 2cbe 7661 c93d 2fdb afbe cbc2 80be
000002f0: 1937 77be 8d63 86be bbe5 973c 7d8a d5be
00000300: 07fb ebbe 7051 2ebe 1214 58be f0c8 893b
00000310: c09f 35be 460f 96be 6656 85bd 3e2b 9dbe
00000320: 2396 16bf 016c 21bf bf07 adbe 055b aa3d
00000330: 2767 00bf 0e7f 8d3d 8798 aebe 2523 8d3e
00000340: ad77 3dbe 988a bbbe f0dc 36be 1889 d1be
00000350: 0bfb d23c 6c6f 483e b86c 253d 0129 cebc
00000360: 033e 5eb9 bab8 b33d 0f7d a1bd df3c 943e
00000370: 692c f1be 6e1e 7abe 1ff4 30be 499e 9cbd
00000380: 672d 40bf 9f92 dbbc 90e2 4ebe f7b8 373d
00000390: e3e5 bdbe 8dbb 08bf 0809 babe f804 ccbd
000003a0: 8b16 e5be e32c 6abe 6eeb 0cbe 2db8 6abe
000003b0: 1825 b5be 54be 96bd 637c 27bd 8789 fdbe
000003c0: 3310 eebe 826b debe 02cb 6fbd ab98 c03e
000003d0: 8417 85be 63db 68be e3ef 383e b93a cdbd
000003e0: 73f9 193e 42b3 51be 9376 bcbe 824c dfbe
000003f0: 95b4 02bf 1b0c e7be 8cae 2abe 9852 3cbe
-0.119241446 -0.21538006 -0.20297599 -0.2332019 -0.13109608 -0.14666536 -0.48414215 -0.57768285
0.1912736 -0.3782434 -0.19693747 -0.019082272 -0.34035116 -0.7616945 -0.62210226 -0.28259605
0.08900046 -0.2179977 -0.46980134 -0.16120014 -0.4846337 0.35703963 -0.09073894 -0.39687493
-0.17079358 -0.3833268 -0.4307057 -0.060712233 -0.015639838 -0.051604636 0.28738502 -0.2581748
-0.61065644 0.12373982 0.4302119 -0.34109837 -0.48899904 -0.13873143 -0.25738803 -0.09790653
-0.06641947 -0.3351741 -0.15618289 -0.29521745 -0.23843223 -0.39424637 -0.5306309 -0.12157136
0.3369428 0.24105562 -0.4522262 -0.33529902 -0.51204616 -0.26202586 -0.23549014 -0.5423762
-0.31680796 -0.047818992 -0.42704087 0.08320572 -0.36433583 0.041916367 -0.034124587 -0.19105355
-0.29497322 -0.070922896 0.18980277 -0.24660999 -0.0043011806 -0.1660229 -0.021072624 0.19906487
-0.058318358 -0.32680714 -0.19869743 -0.14924195 -0.45912012 -0.24927431 0.056049563 -0.14584912
-0.052668937 -0.086070366 -0.39854982 -0.25564757 -0.4158948 0.05948007 0.12874065 -0.50987655
0.3639985 0.172044 0.24790938 -0.39520565 0.1924756 -0.70896816 -0.24410957 -0.13921721
-0.1513587 -0.30187696 0.15004152 -0.3764575 -0.23502032 -0.2844288 0.7082479 -0.34302804
0.20761938 0.07183281 0.21053143 -0.36163548 -0.08001918 -0.72719085 -0.46978602 -0.23187679
-0.14487934 -0.4006206 -0.09089193 -0.12546174 -0.14189579 0.05205443 -0.297781 -0.26120868
-0.27469635 -0.37957767 -0.56218565 -0.42073876 -0.039041024 -0.3932629 -0.14212161 -0.27377334
0.16358949 -0.21870008 0.013213587 0.3160085 -0.16782449 -0.15164596 -0.09557987 -0.4541536
-0.47089446 -0.3853865 0.12165186 -0.38819766 -0.21535735 -0.29199427 0.1908382 -0.29803538
-0.47374713 0.032798447 0.092898175 -0.12605381 0.013511251 -0.20556845 -0.6960923 -0.36222234
-0.033282895 0.058228794 -0.6521612 0.39530712 -0.017636215 -0.47264588 -0.16837092 -0.09576455
0.15372662 0.18139778 -0.099500366 -0.12556238 -0.24361187 0.026977647 -0.28044906 0.41524428
-0.42618257 -0.14204292 -0.31230474 -0.4175528 -0.24486952 -0.08083164 -0.33691856 -0.5042861
0.033448856 -0.38037637 0.059245776 -0.68077505 -0.066777386 -0.49453127 -0.53058666 -0.6826887
-0.1681171 0.09833042 -0.3434691 -0.25148615 -0.24142112 -0.26247826 0.018542161 -0.4170722
-0.46089956 -0.17023253 -0.21101406 0.004204862 -0.17736721 -0.29308528 -0.0651062 -0.30697054
-0.5882284 -0.63055426 -0.33794972 0.08318142 -0.501574 0.069089994 -0.34100744 0.27565876
-0.18502684 -0.36629176 -0.17857718 -0.40924907 0.025754472 0.19573754 0.040386885 -0.025166037
-0.00021194671 0.08775468 -0.07885181 0.2895269 -0.47104195 -0.2442567 -0.17280625 -0.07647378
-0.7506928 -0.026803313 -0.20203614 0.04485413 -0.37089452 -0.5341118 -0.36335015 -0.09961885
-0.4474376 -0.22868685 -0.13761684 -0.2292182 -0.35379863 -0.07360521 -0.04089011 -0.49518988
-0.46496734 -0.43441397 -0.058543213 0.37616476 -0.25994503 -0.2273994 0.1806026 -0.10020966
0.15036564 -0.20478538 -0.36809215 -0.43613058 -0.51056796 -0.45126423 -0.16668147 -0.18390882

l2.weight f4 [300, 400]
00000000: f04e 3dbd f1c9 4ebd 7d12 0dbd d250 24bd
00000010: eac9 d1bc d39f e1ba 907b b4bc 8fa9 a43c
00000020: ef33 b53c 294a c6bc 0b89 6dbd 983d b3ba
00000030: 3d1a 133d 3086 b9bd 7db8 1b3c 502c bcbb
00000040: dec0 17bc 129d 56bd 7e22 9bbc 0244 ef3c
00000050: 7834 cd3c 8880 32bd d1af 563c 45c2 0dbd
00000060: 8778 abbc 0063 3cbc b5e2 9839 1349 e4bc
00000070: 8634 ae3c 99e3 da3c 2877 32bd b456 75bc
00000080: e0c1 4d3c 2809 bcbc ce11 9dbd 7bc3 63bc
00000090: 478f 22bd 88e1 3fbd f096 31bc 18a8 b4bc
000000a0: 8dcc 1a3c 1d27 08bd ab1e 60bd 9df5 09bd
000000b0: d0f9 d53b 98da cf3b 68d4 b0bc 950e 8dbd
000000c0: 0ab7 ddba 90ad b4bc 5d00 83bd a675 2c3c
000000d0: 2123 c3bd 1ea1 2e3d 47ed 23bd c7df 383d
000000e0: 24c9 033d adf3 943a 08c0 cf3c b49b 8f3c
000000f0: f969 42bd bd93 1e3c 8f22 aebc 9e99 10bd
00000100: a045 37bd a7d7 a4bc 8692 96bd cdc1 88bd
00000110: 74e6 8e3b 5ad3 643c b9c4 4fbd d576 05bd
00000120: a508 88bd c400 0e3d 1baa 6ebb d54f 45bd
00000130: 1f07 373d 85b6 903c 3f2b 25bd 9277 d6bc
00000140: 58ed 3c3c d561 953c f269 5ebd 0057 3ebb
00000150: 5892 c13a 9185 43bd af73 a1bc edc7 143d
00000160: c959 5f3b 8a90 59bb 974b b93c 354f 89bd
00000170: 4d01 8dbc e273 5abd 8810 34bd f66c 1cbd
00000180: 8e5a 94bc a024 c93b de2a 97bb f2be d4bc
00000190: b673 9ebd e5db 9c3c ca06 d8bd e8c0 cfbb
000001a0: d37c 6bbc 3ac1 daba f797 323c 78ba bfbd
000001b0: 312c 48bd 5043 b4bd fb50 743c 01ee c2bc
000001c0: 99cd 4dbc e53f 04bd e5db 03be 83d7 e5bc
000001d0: bc8f f5bd bc06 77bc e891 b9bc cd2b 08bd
000001e0: 878f a3bd 3d23 9e3c 5cad fbbc f0f9 463c
000001f0: 438b e0bc b5cd 8fbd 8d2a 83bd e566 443d
00000200: 2307 e9bc 4e38 213d 7885 b3bc afec 2abd
00000210: ca9f 8b3c 7fae be3c 8089 173a f5d0 1c3b
00000220: df3a 25bd eb3d f939 744a f6bc 55dd 8fbc
00000230: 6809 f83b 0d67 943c bc2b 0e3c 1e6a 9abd
00000240: 15ed 9c3b 8e2a 9cbb 8b53 783c 7640 99bd
00000250: e08a 39bd 8e69 1ebd a237 e33b 4138 40bd
00000260: 3d63 8bbd 87c1 3c3b aa9a dcbc 4be4 e3bd
00000270: 0782 383d 1204 e33c 4e2a 1bbc ad44 943c
00000280: e863 c93a 38d0 32bd 4c39 0c3d 26b7 1fbd
00000290: 0084 033b 9ebf ab3c 159d 88bc e7a8 b13c
000002a0: 0e27 273c b4b7 823b c1d1 4ebc 7df6 993c
000002b0: 99d7 43bd db2f e0bc dbdf 7d3b 2d7d 153c
000002c0: 8fdb 24bd e449 fabc f4f1 f1bb 6d91 9b3c
000002d0: 1dbd 08bd 5f30 adbc 31e3 cfbc 0d49 993c
000002e0: 85fa 8dbd 1d03 0ebc 3f33 acbc 324f 57bd
000002f0: f898 b6bd 92c4 deba 3a99 e939 5d81 133d
00000300: 1b7b e1bb 4dae 1e3c 3a3b e83b 2510 0dbc
00000310: 98cb 453d 51c9 583c 2689 2f3d 724a 5dbd
00000320: 1a8d 5ebb 6721 a0bc cc13 73bd 61ca d63b
00000330: 02a1 53bd 0abe e03b f3e6 f73c b9a2 dd3c
00000340: bcc1 0ebd 8d88 1d3c abb7 ec3b 3ac6 ee3c
00000350: d4a4 f5bc 9de9 0bbc 4e6c 90bd 30fa 473c
00000360: b0b6 b3bc 538e 66bd d0dc babc 653c 0fbe
00000370: 6d21 9d3c 5f1a 20bb 4738 a4bd febc 143c
00000380: 3037 423d 7150 c3bb bb00 f83a b292 d2bc
00000390: 791f 44bd a390 e9bd 4fb5 a1bd 364b 12bd
000003a0: 62f7 dbbc c003 36bd dfc8 b73c 0310 e7bd
000003b0: 350f 03bd 4230 52bd 6071 b7bc 0bb7 f63b
000003c0: 1f8f b13a c57b 06be 9ef0 a73c 0876 3abd
000003d0: 07e0 a0bd fec8 12bc 5479 f6bc 9642 15bd
000003e0: 5788 323c 4747 2ebd 9f34 3e3b 2f95 aabb
000003f0: 91ac 49bd f09e 38bd 2760 ba3c 9f83 353a
-0.04621786 -0.050485555 -0.03444146 -0.04011614 -0.025608975 -0.0017213769 -0.022031575 0.020100383
0.02211949 -0.024205284 -0.057992022 -0.0013674973 0.035913695 -0.09058797 0.009504435 -0.005742587
-0.009262292 -0.052395888 -0.018937346 0.029207233 0.025049433 -0.04357961 0.013103441 -0.034609098
-0.020931495 -0.011498213 0.0002916061 -0.027866876 0.02126528 0.026719855 -0.043570668 -0.014974285
0.01255843 -0.022953585 -0.076694116 -0.013901587 -0.03968742 -0.046845943 -0.010839209 -0.02205281
0.009448183 -0.033240426 -0.054716747 -0.0336815 0.006530024 0.006343197 -0.021585658 -0.06887547
-0.0016915512 -0.022055417 -0.06396554 0.010526096 -0.09528185 0.042634122 -0.040021207 0.045135286
0.032174245 0.0011364125 0.025360122 0.0175303 -0.047464345 0.009678778 -0.021256713 -0.03530275
-0.044744134 -0.020122362 -0.07352166 -0.066775896 0.0043609682 0.013966406 -0.05072472 -0.03258403
-0.06642274 0.0346687 -0.0036417309 -0.048171837 0.044684526 0.017665157 -0.040324446 -0.026180062
0.011531197 0.018235127 -0.054300256 -0.0029043555 0.0014768345 -0.0477348 -0.019708483 0.036323477
0.0034080616 -0.0033197724 0.022619052 -0.06704561 -0.017212534 -0.05333317 -0.043961078 -0.03818985
-0.018109586 0.0061383992 -0.0046132645 -0.025969956 -0.07736914 0.019147823 -0.1054817 -0.006340135
-0.014373022 -0.0016689666 0.010900489 -0.09361738 -0.04887027 -0.08801901 0.014911885 -0.02379513
-0.012561225 -0.032287497 -0.12876852 -0.028056866 -0.11990306 -0.015077289 -0.022652581 -0.033244897
-0.0798636 0.019303912 -0.030722313 0.012144551 -0.027410155 -0.070216574 -0.064046 0.04794969
-0.028445786 0.039360337 -0.021914229 -0.041729625 0.017043967 0.023276566 0.0005780682 0.002392826
-0.040339347 0.00047539113 -0.030064799 -0.017561594 0.0075694807 0.018115545 0.008677419 -0.075397715
0.0047890046 -0.004765815 0.015156637 -0.07482998 -0.045298457 -0.038674884 0.006934122 -0.046928648
-0.068060376 0.0028801875 -0.026929218 -0.11127528 0.04504588 0.027711902 -0.009470535 0.018099153
0.0015364857 -0.043655604 0.03423433 -0.038993023 0.0020067692 0.020965394 -0.016676465 0.021686984
0.010202182 0.0039891843 -0.012623251 0.018794293 -0.04781303 -0.02736657 0.0038738165 0.0091240825
-0.04024845 -0.030552812 -0.0073835794 0.018990243 -0.033383477 -0.02114123 -0.025376888 0.018711591
-0.069325484 -0.008667734 -0.02102053 -0.05256576 -0.08915895 -0.0016995838 0.00044555386 0.036012042
-0.0068811304 0.009685111 0.0070871385 -0.008609806 0.048289865 0.013231591 0.042855404 -0.054026075
-0.0033958615 -0.019547177 -0.05934505 0.006554887 -0.05166722 0.006858592 0.030261492 0.027055131
-0.03485273 0.009615076 0.0072240434 0.029147256 -0.029985823 -0.008539584 -0.070519075 0.012205645
-0.021937698 -0.056288075 -0.02281037 -0.13987882 0.019180978 -0.002442978 -0.080185466 0.009078262
0.047415912 -0.005960517 0.0018921116 -0.025704715 -0.047881577 -0.114045404 -0.0789591 -0.035716258
-0.02685136 -0.04443717 0.02243465 -0.11282351 -0.031996924 -0.051315553 -0.022392929 0.0075291446
0.0013546682 -0.13133152 0.020500477 -0.04552272 -0.0785523 -0.008959053 -0.03008715 -0.036440454
0.010896764 -0.042548444 0.0029023064 -0.0052057724 -0.049236838 -0.04507345 0.022750927 0.0006924215

l2.bias f4 [300]
00000000: d0cb 30bd 1d97 06bc 9fed 833e c6d2 9dbe
00000010: 57a5 eebd c7dc acbd 8bd4 6fbf cfd1 06bd
00000020: 27d2 27bd c54d 0ebf 6f9a 26be 9a33 d6bd
00000030: 132b 12bf 4c3c 7fbd a6a0 b7bd 12b6 56be
00000040: bed7 9bbd f5dd 05be 26c6 90bd 4f11 333f
00000050: 1fd1 2dbe 25db 80be f119 cabd 1869 b2bd
00000060: 4c7a bcbd fdf3 0fbd bd60 81bb fbe1 e0be
00000070: 0303 d63e bf4a c63d c1ce 42ba 8151 c1bd
00000080: 59f6 41bf 684b 0a3f 7cdd 803c 3641 9cbc
00000090: e54d 0abd c119 f6be 9b18 e7bb 39bd 4abe
000000a0: 2f88 28bd 08d4 3bbf f9aa 4cbd 48d8 b3bd
000000b0: 9f74 abbd 037d 2f3f 789a bcbd 9644 febe
000000c0: 621c 5abd 57ee a1bd 4c33 f4bd 5fbc 643d
000000d0: 0a69 083e 29c2 cbbe 7dd9 09bd fad4 5ebd
000000e0: 6d94 8ebc dd7f 0dbe d125 123f 9c74 f9bc
000000f0: 3268 d7bd 6f9a a6bd 48f6 cbbd 96ec 9abd
00000100: 7122 b5be 96ec 9abe 43bb b23c b7e6 28bd
00000110: 7c00 e6be d4c5 34bf 9339 173f a6c8 1abf
00000120: a109 41bd efac a5bd 6e13 17bf 36ac 1fbc
00000130: df77 383c 3b0b 69be ff11 24bf 4546 073f
00000140: eb8a e8be c08c b4bd c574 46be b49c fabc
00000150: 39ca ccbe 975a aabd 7f36 80bd a22d 3f3e
00000160: a12f 43bc 3c40 11be 9df6 0dbf b106 1fbf
00000170: a773 24be 0a80 fc3e 4a97 5bbd 0486 fdbd
00000180: f4bb c4bd c531 0abd ccfa 72bd 8862 b7bd
00000190: 0615 c2be 6c00 7dbd 1604 7dbe 7437 f5bc
000001a0: d683 45bf 5629 14bf 5120 07bd 9cdc 70bf
000001b0: 0128 4abd b9e9 4dbd 2e5b 25be e218 e53d
000001c0: 0262 51bd 5e4f a53d 5497 8a3d ab9f 2cbd
000001d0: a484 76be c15d 40bd 67e3 a1bd 1b6a 68be
000001e0: 3ef5 94bd e0fa 37bd 5380 80bd ae95 13be
000001f0: b872 fe3e e45e 033f 4d5d 06bd 591d c8bd
00000200: e631 17bd d47e 73bd 342d febd 58c2 39bd
00000210: a454 09be 1aaf 50bd 6de9 04bf f8c9 b2be
00000220: c626 29be 6744 afbd 6708 a0bc 7a6b a3bd
00000230: 7cd0 7ebd ff8f 28bd 9f20 80bd 409a 0e3f
00000240: 3bb4 073f e7f6 24bf 4b1e ebbd 43f9 efbd
00000250: c05b b8be 19b2 c3be 1ab2 5cbe 5cc2 a9bd
00000260: c1ab ccbc 1344 69bd f26e 3fbe 95cf 0abe
00000270: 5bf9 ba3e 973a 27bf cac9 5dbd 08ed bbbb
00000280: 513d cebd eaeb edbd 7230 59bc 16f1 93bd
00000290: 5233 70be 4591 913d 42a4 12bf 7849 bdbc
000002a0: 50ec 35bd a2be d9bd 5f15 25bd 2afd 183f
000002b0: 6b25 62be 99f6 42be e63d 95bd afa8 2dbf
000002c0: 3bea 07bd bed7 9bbd ab52 68bd 92db 56bf
000002d0: 7742 d9be 3400 98bd 8ad6 4f3e 6c4a db3e
000002e0: 0ba8 6cbd 06fd 97bd b5ca 83bd 31fa d1be
000002f0: dd2b 82bd 7339 e4bb 69bf c0bd b037 f93e
00000300: fe13 93bd 86be 17bf ea51 e5be 1bed 8738
00000310: 6bb0 e8bd 1b83 e8bc 7aa7 57bd fdc5 86bd
00000320: 142d f1be 5065 3fbd a175 c8bd dbea b8be
00000330: 34fc 713d 5dbe 0dbe 464f f53e a182 cabd
00000340: 2304 08bf 4666 94bd c7fa 22be 3e23 1ebd
00000350: 4ba9 fcbe 0a44 cdbe 1d28 8cbd a7df abbd
00000360: 079e 83be 4f3d e5be 2838 b0bd 7a25 c1be
00000370: e419 74be 496a 4a3f 07bb a2be d2d0 ddbd
00000380: c47d f5bd 7595 0fbd 4e3e 003c b035 813e
00000390: 04ee 74bd bb5b edbc 17dd a7bc b899 39bc
000003a0: 0cf6 78bc 1275 003e 2382 61bd ab74 01ba
000003b0: 1052 3dbe 11ca c2bc c1d4 c1bc 7052 32be
000003c0: 5790 20bd a9d9 a23e cf9d 91be 3d8f d4be
000003d0: 607a 1abf 6d60 86bd 38df bcbd 9e26 9fbe
000003e0: 9acb debc 2514 04bd 7fa5 403e 1454 77be
000003f0: 9e07 c23d bdf3 81bd 0527 ac3c 5bca c5bd
-0.04316312 -0.008214739 0.25767228 -0.3082487 -0.1165263 -0.084405474 -0.9368369 -0.032914933
-0.0409719 -0.55587417 -0.16269849 -0.10459061 -0.57096976 -0.062313363 -0.08966188 -0.20967892
-0.07609509 -0.13072951 -0.07069044 0.69948286 -0.16974305 -0.25167194 -0.09868229 -0.08711451
-0.09203014 -0.035144795 -0.0039482997 -0.4392241 0.41799173 0.096822254 -0.00074313214 -0.09439374
-0.7576652 0.5402131 0.015730612 -0.019074064 -0.033765692 -0.48066524 -0.0070524937 -0.19798745
-0.0411455 -0.7337041 -0.04996774 -0.08781487 -0.08371853 0.6855013 -0.0920915 -0.49661702
-0.053249724 -0.07906788 -0.119238466 0.055843707 0.13321319 -0.3979657 -0.03365468 -0.05440233
-0.01740476 -0.13818307 0.57088953 -0.030451111 -0.105179206 -0.081349246 -0.09959084 -0.075646564
-0.3537784 -0.30258626 0.021817809 -0.04123565 -0.44922245 -0.7061436 0.59072226 -0.60462415
-0.047128323 -0.08089625 -0.5901402 -0.009745648 0.011259048 -0.2275819 -0.6408996 0.528416
-0.45418486 -0.088159084 -0.19380482 -0.0305923 -0.39998034 -0.0831806 -0.06260394 0.18669751
-0.011913211 -0.1418466 -0.55454427 -0.62119585 -0.16059743 0.49316436 -0.053611077 -0.12379077
-0.09606162 -0.03373887 -0.05932121 -0.0895434 -0.37906665 -0.06176798 -0.2470859 -0.029933669
-0.7715429 -0.57875574 -0.032989804 -0.94086623 -0.049354557 -0.050271723 -0.16148064 0.11186387
-0.05111886 0.08071779 0.06767145 -0.04214446 -0.24074036 -0.04696441 -0.07904702 -0.22696726
-0.07273339 -0.044916987 -0.06274476 -0.14412567 0.49696898 0.51316667 -0.032803822 -0.097712226
-0.03691282 -0.059447125 -0.124109656 -0.045351356 -0.13411194 -0.05094824 -0.5191868 -0.34919715
-0.16518697 -0.085579686 -0.019535257 -0.07979484 -0.062210545 -0.04115295 -0.06256222 0.55704117
0.53009385 -0.64439243 -0.11480387 -0.11717465 -0.360075 -0.38221815 -0.21552315 -0.08289024
-0.024984242 -0.056949686 -0.18694666 -0.13555749 0.36518368 -0.65323776 -0.05414752 -0.0057350434
-0.10070289 -0.11617263 -0.013256179 -0.07223718 -0.23457077 0.07107786 -0.5728189 -0.023106322
-0.04441482 -0.106320634 -0.040303584 0.597613 -0.22084586 -0.19039382 -0.07287197 -0.67835516
-0.033182364 -0.07609509 -0.056719463 -0.8392879 -0.4243352 -0.07421914 0.20296684 0.42830217
-0.057777446 -0.07421307 -0.06435148 -0.41011193 -0.063560225 -0.0069648563 -0.094115086 0.486753
-0.071815476 -0.5927509 -0.44789058 6.481466e-05 -0.11361774 -0.028382828 -0.052649952 -0.06580732
-0.47104704 -0.04672748 -0.09788061 -0.3611668 0.05907841 -0.13842149 0.47912043 -0.09888197
-0.5313131 -0.072460696 -0.15915976 -0.03860783 -0.4934791 -0.40090972 -0.068435885 -0.08392268
-0.25706503 -0.44773337 -0.08604461 -0.37723905 -0.23838001 0.7906843 -0.31783316 -0.10830845
-0.119868785 -0.035054643 0.007827355 0.25236273 -0.059797302 -0.028974405 -0.020491166 -0.011328153
-0.015195381 0.12544659 -0.05505575 -0.00049383444 -0.18488336 -0.023777993 -0.02366102 -0.1741426
-0.039200153 0.31806687 -0.2844071 -0.41515532 -0.6034298 -0.065613605 -0.09222263 -0.3108415
-0.027196694 -0.032245774 0.18813132 -0.24153167 0.09474109 -0.063453175 0.0210147 -0.09657737

l3.weight f4 [4, 300]
00000000: 3bb7 e4bb a037 ca3c e0db 39bc 46fc 143e
00000010: 1bc8 5c3f 3fbe b23b 55c6 173e 61b0 043d
00000020: 02a7 d2bc 97ad 973d ea78 523d f885 b53c
00000030: 3044 5fbe 0664 a43b f4d7 cd3c 076e b3bd
00000040: 534a e938 4647 953d c8b4 bbbd 48f6 b4bd
00000050: 6da8 7a3f 0d63 9dbe 9c85 723d 3881 3b3c
00000060: 8e1f 1abe 427e f73c 9ebf 2bbc 6012 4bbe
00000070: c240 d5bd 5147 01bf 9cbe 0e3d 8194 53bd
00000080: 3d87 1e3f 4181 6ebf 1b61 763d 9a3f ed3e
00000090: d39a 66bc ae01 673e c5fe 9ebb a90d 4e3f
000000a0: 55b7 8d3c 74a5 043e a246 d4bc c586 993a
000000b0: 7d4b 10bd 85b0 27bf d206 553b be54 163e
000000c0: be6d 1c39 4183 d93c cb1c e53c 6ee6 1fbe
000000d0: fcff 4abf c6fc 16bf b6cb a03c 3511 8b3c
000000e0: b57f 9cbc 0c7c 843f 4c47 493e 665d 963d
000000f0: a826 35bd 850d 8f3c 4cec 03bd d609 2c3f
00000100: 932b 33bf b9f1 543e bd99 cd3d 9971 d4bc
00000110: 568e d8be 3374 503e 01d7 043f 4cfb 0dbf
00000120: 3403 853c 4637 a03c 1a1d 603e df26 39bc
00000130: e25c e23b 25a6 a63d 012a d2bd b7ca df3e
00000140: 6176 4b3f 14ff 80bc 53f9 993e 1436 7cbc
00000150: 40af 41bd d3a7 e8bb 1d5e 83bd 5665 923e
00000160: 76c8 13bd 8740 70bd 0cd0 0fbe 3c1f df3c
00000170: 2c0b 8f3d c2cd a2bf b442 89bc 6091 3abd
00000180: c9c1 38ba aa1e 803d b79f 383f 8602 953c
00000190: c6b2 663c c8e4 333d 3110 c73e 9f11 2f3c
000001a0: b428 803e bb8e 71be 4cfc a73d 960f 2a3e
000001b0: 4fbd 283d bb40 7ebc 4e64 663d 96f5 a53f
000001c0: dcd7 f63c 59eb 39bf 872b 3cbf e153 45bd
000001d0: debb b13e 21a7 463d 8c0e 77bc f807 31be
000001e0: 6b6c 6bbd 215e 4e3d 9ae1 523d e7c9 b8be
000001f0: 2ddd aabe e3b4 64be 222f 5abd 4865 42b9
00000200: 7e00 a93d e77c 303d dc8d 7a3d c7b4 a23c
00000210: 7332 a03e 66c2 9aba 97da 36bf c3b7 e33f
00000220: 41b4 d53d 5de8 1f3c d6b2 ad3b c1ed 80bf
00000230: 52b9 633b f015 3a3d 10c3 3f3d ecc5 f7bd
00000240: cd62 aabd 4dd2 98be 4dbc 0b3c a679 a3bc
00000250: 88c3 c4bd 7f4a bebe cacb 65be 5344 223e
00000260: b7b9 3c39 54f5 0b3b 51f2 37be 136e fbbd
00000270: ef18 babc 62bc 503e 1563 813c 542d 723d
00000280: ffe9 b23d 689a 633e 4d0d 0bbd ce1d 9b3c
00000290: e7b7 f33d cf4a 80bf bd60 9abf 8b49 69bc
000002a0: 50f1 30bd 8b72 773b 2ffa 2e3b 4169 0fbe
000002b0: d15f 5b3d 4ac0 50bf ea87 5c3d 4ad2 e63e
000002c0: 1cc3 3f3d bc9f 83bc 7255 d73c 5607 223f
000002d0: a356 fe3e 9fa7 a3bf 6619 fd3d 0d95 d3be
000002e0: 9798 a83d 6981 dbbb 3e51 a7bc 7190 4a3e
000002f0: 20fd 403d f031 463f 00e6 3bb9 e1eb 12be
00000300: bd5b 063d 32b8 6bbe 261b a0be c1dc 65bf
00000310: 2c49 8d3a 825b 69bc 93da eb3c 7be8 e1bc
00000320: f7ad a63c f77c 2abd 37e2 2fbc 3e17 133f
00000330: ede8 77be 39f4 de3c 2466 02be 3e67 9bbb
00000340: 882d 8ebe b459 81ba 1d20 f13c 99c4 dbbc
00000350: 7b65 3b40 86e9 383d ff51 aa3c 7c5c 09bd
00000360: 412a 9fbe f874 febc a488 7b3d 7295 edbe
00000370: c360 5f3e 8928 f53f be45 2bbd fad9 d9bc
00000380: 6027 3bbd 6e56 a93c 9ee5 943c 6a1f 4c3d
00000390: 7630 24bd 6f12 2c3c afd5 b23c 7623 a2bc
000003a0: 36c4 9b3c 3e73 cf3e 1c21 09bd 7c1b 3abf
000003b0: 2870 48bd a192 d8bc a820 b6bc 4d65 8dbe
000003c0: 66fd 25bd c0d1 243e f6cf 933d ae89 65bf
000003d0: 4ca5 91bf 2c42 71b9 c659 14bd b8ab 36bc
000003e0: ded1 a93c 3068 bebc ad35 9ebf 8a15 e13d
000003f0: 233c 0e3f ad91 3fbe 5a48 90bd 84a2 683d
-0.0069798506 0.024684727 -0.011343926 0.1454936 0.86242837 0.005454808 0.14821751 0.03239477
-0.025714401 0.074061565 0.051384844 0.022158608 -0.21803355 0.0050168065 0.025127389 -0.087612204
0.0001112415 0.07288985 -0.09165341 -0.08836037 0.9791325 -0.30739632 0.05920945 0.011444382
-0.150511 0.030211572 -0.010482697 -0.19831228 -0.10412742 -0.50499445 0.034849748 -0.051655296
0.6192511 -0.93165976 0.0601512 0.46337587 -0.014074999 0.22559234 -0.0048521482 0.80489594
0.017299334 0.1295374 -0.025912587 0.0011713138 -0.03522824 -0.6550372 0.0032505286 0.14680764
0.00014918201 0.026551845 0.027967831 -0.15615246 -0.7929685 -0.5897945 0.019628387 0.016975978
-0.019103864 1.0350356 0.19656104 0.07342033 -0.04422632 0.017462501 -0.032207772 0.6720251
-0.69988364 0.20795335 0.10039089 -0.025933074 -0.42296094 0.20356826 0.5189057 -0.55461574
0.016236879 0.019557606 0.21886101 -0.0113007715 0.006908045 0.08137158 -0.10261918 0.43709347
0.79477507 -0.01574663 0.30073032 -0.015393753 -0.047286272 -0.0071000843 -0.06414435 0.28592938
-0.036079846 -0.058655288 -0.14044207 0.027236573 0.06984553 -1.2719042 -0.01675544 -0.045548797
-0.0007047919 0.06255849 0.72118706 0.01818968 0.014080709 0.043919355 0.3887954 0.010685354
0.25031054 -0.23589604 0.08202419 0.16607508 0.041196164 -0.015518363 0.056248 1.2965572
0.030132227 -0.7262474 -0.7350392 -0.048175696 0.34713644 0.04849923 -0.015079152 -0.17288196
-0.057476442 0.050382737 0.05148468 -0.3609154 -0.3337187 -0.22334628 -0.053267606 -0.00018539012
0.08252047 0.043087866 0.061170444 0.019861592 0.3128849 -0.0011807203 -0.7142729 1.7790455
0.10434771 0.00975999 0.00530086 -1.0072557 0.003474791 0.045431077 0.046816885 -0.120982975
-0.08319626 -0.29847947 0.008528781 -0.019955467 -0.09607607 -0.3716621 -0.2244102 0.15846376
0.00017998261 0.0021355944 -0.1796353 -0.12276854 -0.022716967 0.20384362 0.015794316 0.05912526
0.087360375 0.2222687 -0.03394823 0.01893511 0.11900311 -1.002283 -1.2060772 -0.014238725
-0.043198884 0.0037757482 0.0026699414 -0.14004995 0.053558175 -0.8154341 0.053840555 0.45082313
0.04681693 -0.016067378 0.02628586 0.63292444 0.49675474 -1.2785529 0.1235836 -0.41324654
0.08232229 -0.0066987765 -0.020424481 0.19781663 0.0471164 0.7741995 -0.00017919391 -0.14347793
0.032802332 -0.23019484 -0.31270713 -0.8978997 0.0010779253 -0.014243009 0.028790748 -0.027576676
0.020346625 -0.041623082 -0.010735086 0.5745734 -0.24209948 0.027216064 -0.12734276 -0.004742532
-0.27769113 -0.0009868653 0.029434258 -0.026827144 2.9280689 0.04514458 0.020791052 -0.033535466
-0.31086925 -0.031061634 0.061409608 -0.4640308 0.21814255 1.9152995 -0.04181456 -0.026593197
-0.045691848 0.020671096 0.018175896 0.049834646 -0.04008528 0.010502442 0.021830408 -0.0197923
0.01901446 0.4051761 -0.03347884 -0.7269819 -0.048935086 -0.026437106 -0.022232369 -0.2761635
-0.040524863 0.16095638 0.072174 -0.8966321 -1.137857 -0.00023008202 -0.036218427 -0.011149339
0.020729955 -0.02324304 -1.236013 0.109904364 0.5556051 -0.18707915 -0.0704505 0.056795612

l3.bias f4 [4]
00000000: 582b 1cbe 5c2c 133e 31e7 8e3d 7e20 003b
-0.1525091 0.1437239 0.0697769 0.0019550617
