preTrained/BipedalWalker-v2/ONE/TD3_BipedalWalker-v2_0_solved_critic_2_target.pth (torch_old, 529798 bytes, 5 tensors)

l1.weight f4 [400, 28]
-1.6424893 -2.179104 1.5631626 -0.47519353 -1.6365889 -0.32980418 -0.39873958 -0.41114652
0.06446717 0.1219541 0.21072629 0.09394434 -0.49936843 -0.010743226 0.21159983 0.19146922
0.08632885 -0.0992845 -0.24516466 0.050437123 -0.18030444 0.088138826 -0.08633732 0.23456638
-0.19187808 -0.27449736 0.11043391 -0.28500038 -0.343743 1.7241437 -0.59144145 -0.7426996
0.5703621 0.55659 0.087927826 0.4944435 -0.2365687 0.5803851 0.017963368 -1.6553161
0.6689598 -0.59816295 -0.41721517 -0.3792771 -0.13283393 -0.25578934 -0.28702822 -0.049355574
-0.26540583 -0.362178 -0.38483486 -0.5428167 0.72591656 -0.2378495 1.1660582 -0.17392673
1.4716824 2.151981 1.7767783 0.1435996 0.7577835 -0.06045811 -0.12716113 0.67998654
-0.06798743 -0.8887157 0.21712646 -0.7161123 -0.56407773 -1.7768866 0.030461848 -0.055564076
-0.0013546668 -0.18417995 -0.24642977 0.13462812 -0.15345788 0.086900376 -0.3800783 -0.4030655
-0.104715295 -0.53319854 0.54622287 -0.1461666 -0.19677746 -1.1791359 0.0013693132 0.053523906
-0.3040227 -0.005498767 -0.2576801 0.16549096 0.28010333 -0.24916404 0.4046533 -0.22792391
-0.2386766 -0.16572045 -0.5485242 -0.35836434 -0.5150264 -0.59682786 -0.42857867 -0.45802936
-0.38650373 -0.33004615 -0.24593347 -0.1821624 -0.011588178 -0.11956778 0.1091742 0.22689572
1.7971032 1.1366131 0.7905844 1.0600913 0.09782217 0.12674516 -0.15009736 0.43465322
0.3211833 0.053856764 0.17025615 0.4958736 -2.2101839 -0.4366545 -0.47864196 -0.5847936
-0.50268024 -0.5791514 -0.49245757 -0.21290876 -0.13453522 0.051076107 -0.3852519 -0.76515806
-0.33370778 0.3781743 0.42205104 0.9278936 1.7133932 0.31092438 0.05915254 0.37550035
-0.30816728 0.1615572 0.38910118 0.44774964 0.37897465 0.8912476 -1.0185587 -0.113012455
-1.7661479 -0.71582514 -0.263491 -0.25243032 -0.3132521 -0.017805038 -0.36196914 -0.068217315
-0.10867623 -0.43079054 -0.18912157 -0.026417116 -0.6848655 -0.7052857 0.12833977 0.10560933
0.10855143 -4.337654 2.23377 1.2080134 0.43753192 0.36066446 -1.6329327 0.21378587
0.18799736 0.15248965 -0.05401723 -1.6039958 0.22170989 -0.105456606 -0.8452614 -0.65309715
-0.9433686 -0.68907046 -0.7439698 -0.77018845 -0.6628217 -1.0292773 -0.2535087 0.090813585
-0.035567526 -0.37848493 0.19173092 0.3262631 0.6075564 -0.2861561 0.005438838 1.7768437
-2.736232 -0.07298373 0.6494991 0.0022635213 0.77441776 1.6850362 1.0623845 0.8364785
0.49778095 -0.16646801 -0.20813991 -0.23985839 -0.024390973 0.04144803 -0.19034499 -0.05654287
0.11710242 -0.08333738 -0.032457814 -0.33426678 -0.09057601 0.51199 -0.16670586 -0.12815882
0.034118477 0.14698191 0.34601992 -0.095370136 0.47031254 1.1442326 -1.3253448 1.3379673
-0.34415957 0.1913482 -0.37962598 -0.7591467 -0.6591943 -0.27141854 -0.56071275 -0.86358273
-0.63055795 -0.8112972 -0.58546466 -0.54701185 -0.8013006 -0.5554109 -0.6953076 -0.7772193
-0.26685494 0.6086687 -0.58252877 1.2387679 2.0372472 2.5616684 0.46468303 4.0948806
00000000: 173d d2bf 7176 0bc0 b615 c83f 914c f3be
00000010: bf7b d1bf 18dc a8be 9827 ccbe cc81 d2be
00000020: 5d07 843d 12c3 f93d a2c8 573e e465 c03d
00000030: 38ad ffbe 5b04 30bc a0ad 583e 8210 443e
00000040: 2ecd b03d ac55 cbbd 720c 7bbe 2897 4e3d
00000050: baa1 38be 2182 b43d 9fd1 b0bd 2b32 703e
00000060: b07b 44be eb8a 8cbe 2c2b e23d 92eb 91be
00000070: 15ff afbe beb0 dc3f b568 17bf 9021 3ebf
00000080: 4003 123f af7c 0e3f 8113 b43d b327 fd3e
00000090: 113f 72be 1e94 143f ea27 933c 66e1 d3bf
000000a0: f340 2b3f 3521 19bf 3a9d d5be 9c30 c2be
000000b0: 9e05 08be d2f6 82be 5df5 92be 1229 4abd
000000c0: 46e3 87be 656f b9be 1309 c5be 09f6 0abf
000000d0: abd5 393f d28e 73be 6541 953f d919 32be
000000e0: 1760 bc3f 0fba 0940 796d e33f c60b 133e
000000f0: 19fe 413f eca2 77bd 8736 02be 9913 2e3f
00000100: fe3c 8bbd df82 63bf 6656 5e3e 2353 37bf
00000110: 6667 10bf 0571 e3bf 208b f93c 2897 63bd
00000120: 138f b1ba ab99 3cbe 1658 7cbe f4db 093e
00000130: 1024 1dbe d3f8 b13d 9f99 c2be 9a5e cebe
00000140: f974 d6bd b37f 08bf 43d5 0b3f b2ac 15be
00000150: 0880 49be eded 96bf 877a b33a e23b 5b3d
00000160: dda8 9bbe 002f b4bb a5ee 83be 7676 293e
00000170: b469 8f3e dc24 7fbe b82e cf3e e364 69be
00000180: a367 74be 9fb2 29be 156c 0cbf 887b b7be
00000190: c5d8 03bf b6c9 18bf aa6e dbbe d382 eabe
000001a0: d1e3 c5be cffb a8be fcd5 7bbe c888 3abe
000001b0: 57dc 3dbc f4df f4bd b996 df3d 5a57 683e
000001c0: 7a07 e63f 8a7c 913f bd63 4a3f 12b1 873f
000001d0: fd56 c83d 7cc9 013e 1fb3 19be de8a de3e
000001e0: 2372 a43e e998 5c3d a157 2e3e 25e3 fd3e
000001f0: a773 0dc0 2e91 dfbe 8f10 f5be 09b5 15bf
00000200: a7af 00bf 4443 14bf 6623 fcbe c104 5abe
00000210: 9ac3 09be 2e35 513d bd3f c5be 66e1 43bf
00000220: bfdb aabe 10a0 c13e 1317 d83e 6f8a 6d3f
00000230: 7850 db3f 7b31 9f3e ef49 723d 9541 c03e
00000240: 1ac8 9dbe 406f 253e 4538 c73e 713f e53e
00000250: f708 c23e cd28 643f 2260 82bf 1373 e7bd
00000260: 2211 e2bf 5140 37bf 4be8 86be 8c3e 81be
00000270: 9462 a0be dfdb 91bc 0554 b9be 85b5 8bbd
00000280: a591 debd 9490 dcbe 16a9 41be b568 d8bc
00000290: 5853 2fbf 9b8d 34bf 806b 033e b449 d83d
000002a0: 3650 de3d 10ce 8ac0 16f6 0e40 2fa0 9a3f
000002b0: 2f04 e03e 03a9 b83e f003 d1bf afea 5a3e
000002c0: 6182 403e 3f26 1c3e 2c41 5dbd bc4f cdbf
000002d0: eb07 633e a2f9 d7bd 0d63 58bf 6031 27bf
000002e0: 9b80 71bf ec66 30bf ce74 3ebf 122b 45bf
000002f0: afae 29bf 5cbf 83bf e4cb 81be 79fc b93d
00000300: 41af 11bd c7c8 c1be 1c55 443e f50b a73e
00000310: d188 1b3f 0d83 92be 4838 b23b 9d6f e33f
00000320: 6d1e 2fc0 7e78 95bd 9345 263f 9657 143b
00000330: 3e40 463f 44af d73f 37fc 873f 7423 563f
00000340: 25dd fe3e 9776 2abe a122 55be 709d 75be
00000350: 94cf c7bc 69c5 293d cce9 42be 7f99 67bd
00000360: 65d3 ef3d caac aabd 7cf2 04bd 0425 abbe
00000370: ea7f b9bd c711 033f f1b4 2abe 113c 03be
00000380: d1bf 0b3d 6d82 163e 8629 b13e 6b51 c3bd
00000390: cecc f03e 3776 923f e6a4 a9bf 8342 ab3f
000003a0: af35 b0be c8f0 433e 565e c2be 7057 42bf
000003b0: f5c0 28bf 5ff7 8abe df8a 0fbf c213 5dbf
000003c0: 3f6c 21bf 2cb1 4fbf 03e1 15bf f808 0cbf
000003d0: 0922 4dbf 692f 0ebf aeff 31bf d8f7 46bf
000003e0: 36a1 88be b6d1 1b3f 9b20 15bf f28f 9e3f
000003f0: 4262 0240 60f2 2340 efea ed3e 4309 8340

l1.bias f4 [400]
0.20665392 -0.3160113 -0.46707618 -0.46701178 -0.6981301 -0.16830777 -0.10173243 -0.44917223
-0.38048932 -1.0989193 -0.06372563 -0.45577565 -0.14006956 0.118871994 0.29810378 0.1844319
-0.39459166 -1.0668639 -0.82178646 0.40704727 -0.9347385 0.11879305 -0.6268199 -0.21784773
-0.56915313 -0.18629675 -0.85476905 -0.46233878 -0.9097872 -0.7522419 -0.13069971 -0.11407364
-0.40927136 -0.73910624 0.6852265 -0.18340762 -0.76747614 -0.53750324 -0.5647547 -0.14177491
-0.24051423 -1.346053 -1.1806872 -0.19242112 0.02066884 -0.7748021 -0.4295663 -0.7173953
-0.16187763 -0.45127603 -0.90019196 -0.73494387 -0.49920428 -0.22706014 -0.561452 -0.49228418
-0.311217 -0.7122822 0.41330993 -0.8699672 -0.61603636 -1.1303817 -0.027733602 -0.13805097
0.20522757 0.2899707 0.5144474 -0.98324925 -0.28104612 -0.8117148 -0.56017387 -1.1695516
-0.32276955 -0.5517683 -0.05846869 -1.0328768 -0.9374945 -0.11140142 0.7753184 -0.3607545
0.8970584 -0.7136602 -0.4589127 -0.5052695 0.022757268 -0.6137556 -0.53855234 -0.64775413
-0.14204547 -0.38153425 -0.1375006 -0.6073935 -1.0416759 -0.76029974 -0.93500054 -0.4372386
-0.44181022 -0.2783508 0.055723317 0.29330575 -0.42781788 -0.48010206 -0.28485015 0.033068158
-0.11416383 -0.006082648 -0.61256474 -0.21660796 -0.54046154 -0.17679206 -0.19644369 -0.005614009
-1.1615757 -0.24970645 -0.50752527 -0.8130512 -1.0514017 -0.5650683 -0.12365666 -0.14330263
-0.29949874 -0.36460495 -0.9644022 -0.5174876 -0.011631824 -1.2647829 -0.21133615 -0.07381356
-0.77163655 -0.40878278 -0.3883379 -0.03074697 -1.0374867 0.45169988 -0.4647981 -0.927122
-0.7459795 -0.8721379 -0.10681386 -0.33324096 -0.624453 -0.64112425 -0.11128577 -0.7348604
-0.6385631 -0.8793642 -0.46771938 -0.5582346 -0.67765117 -0.48428962 -0.64018434 -0.70065457
-0.06916008 -0.68274593 -0.27072024 0.5084144 0.10743739 -0.43194324 -0.6796643 -0.026450034
-0.9723385 -0.56143457 -0.1643555 -0.10628785 -0.80865246 0.28467172 -0.049771044 -0.6020175
0.25517327 0.4681801 0.11411473 -0.27606216 -0.4924153 0.82047737 -0.066495754 -0.50110096
-0.14340875 -0.12173143 1.1616355 -0.50895864 -0.25540107 -0.034127057 -0.79799867 -0.09331936
-0.27042112 -0.842699 -0.6408996 0.06446159 -0.58252275 -0.56587046 -0.64895815 -0.27669924
0.5954643 0.0068747606 0.10103965 0.8215314 -1.0873666 0.7013993 -0.3466283 -0.57500064
0.31558818 -0.82718813 -0.22919263 -0.74291074 -0.15550695 0.6191409 -0.44023737 -0.5084937
-0.78958946 -0.85021704 -0.68122786 0.7022171 -0.43681008 0.2456583 -0.067767255 -0.46553206
-0.66708654 -0.4783407 -0.2058119 -1.4358401 0.6626159 -0.83485186 -0.46689257 0.8491869
-0.25722355 0.7506973 -0.10067756 -0.111187585 -0.90839684 -0.4164062 -0.29651743 -0.9809224
-0.5985564 -0.6518579 -0.6051013 -0.8526501 -0.47879493 -0.29072818 -0.7526891 -0.18508019
-0.1904123 -0.7578645 -1.2406969 0.5116572 -0.17392717 -0.7538105 0.42431083 -0.19375552
-0.8809087 -0.3031074 -0.32534215 -0.43110603 -0.5797199 -0.65693545 -0.7493019 -0.44243678
00000000: 169d 533e 3ccc a1be 9c24 efbe 2b1c efbe
00000010: a7b8 32bf df58 2cbe 1859 d0bd e7f9 e5be
00000020: 7fcf c2be 63a9 8cbf 9582 82bd 6d5b e9be
00000030: 656e 0fbe 2973 f33d 0fa1 983e b7db 3c3e
00000040: eb07 cabe ff8e 88bf 9960 52bf 8068 d03e
00000050: 064b 6fbf c549 f33d 4577 20bf 7a13 5fbe
00000060: 05b4 11bf 93c4 3ebe 25d2 5abf abb7 ecbe
00000070: d0e7 68bf ed92 40bf 25d6 05be 719f e9bd
00000080: 048c d1be 1136 3dbf 016b 2f3f 35cf 3bbe
00000090: 5179 44bf d099 09bf c493 10bf 712d 11be
000000a0: 5d49 76be 774b acbf c220 97bf 0b0a 45be
000000b0: b351 a93c 6e59 46bf 1df0 dbbe 38a7 37bf
000000c0: 40c3 25be a70d e7be fb72 66bf 4825 3cbf
000000d0: b497 ffbe 7482 68be 51bb 0fbf ac0c fcbe
000000e0: d657 9fbe 2058 36bf 5c9d d33e 2cb6 5ebf
000000f0: 8fb4 1dbf 59b0 90bf 9431 e3bc 3c5d 0dbe
00000100: 2d27 523e 0a77 943e d3b2 033f 39b6 7bbf
00000110: 47e5 8fbe 8bcc 4fbf 8e67 0fbf deb3 95bf
00000120: 0d42 a5be b040 0dbf dd7c 6fbd 4f35 84bf
00000130: a4ff 6fbf 6d26 e4bd 447b 463f d0b4 b8be
00000140: 9fa5 653f 6fb2 36bf 9bf6 eabe 5859 01bf
00000150: 736d ba3c 161f 1dbf 91de 09bf 37d3 25bf
00000160: 5e74 11be 7558 c3be f5cc 0cbe 247e 1bbf
00000170: a355 85bf 01a3 42bf 325c 6fbf bddd dfbe
00000180: f334 e2be ff83 8ebe 223e 643d 2c2c 963e
00000190: f20a dbbe f0cf f5be e1d7 91be 7a72 073d
000001a0: bace e9bd f350 c7bb 0bd1 1cbf 7ace 5dbe
000001b0: b05b 0abf fa08 35be 8928 49be b9f5 b7bb
000001c0: 83ae 94bf 0cb3 7fbe 2ded 01bf 2024 50bf
000001d0: 5594 86bf 51a8 10bf b43f fdbd edbd 12be
000001e0: e657 99be 80ad babe 10e3 76bf 117a 04bf
000001f0: 6893 3ebc 68e4 a1bf 8168 58be 902b 97bd
00000200: f989 45bf fa4b d1be 3ad4 c6be 12e1 fbbc
00000210: 5dcc 84bf 3545 e73e 04fa edbe de57 6dbf
00000220: 83f8 3ebf 6e44 5fbf 3ac1 dabd 8f9e aabe
00000230: 27dc 1fbf b820 24bf cbe9 e3bd d01f 3cbf
00000240: df78 23bf 031e 61bf ea78 efbe 76e8 0ebf
00000250: 8c7a 2dbf cff4 f7be 1fe3 23bf 195e 33bf
00000260: cda3 8dbd 70c8 2ebf d89b 8abe 7227 023f
00000270: 2208 dc3d aa27 ddbe 7bfe 2dbf bead d8bc
00000280: 2deb 78bf 2dba 0fbf cf4c 28be 72ad d9bd
00000290: d903 4fbf 7ec0 913e b9dc 4bbd d21d 1abf
000002a0: 12a6 823e 4db5 ef3e fcb4 e93d 0558 8dbe
000002b0: dc1d fcbe ce0a 523f ed2e 88bd 2748 00bf
000002c0: bed9 12be 544e f9bd 79b0 943f 1d4b 02bf
000002d0: eec3 82be d0c8 0bbd a449 4cbf 381e bfbd
000002e0: a374 8abe 1fbb 57bf ff11 24bf 7004 843d
000002f0: 3620 15bf e3dc 10bf 1f22 26bf 86ab 8dbe
00000300: 5970 183f ac45 e13b e0ed ce3d e24f 523f
00000310: d42e 8bbf e88e 333f 4479 b1be 3e33 13bf
00000320: c694 a13e 9ac2 53bf 79b1 6abe 662f 3ebf
00000330: 373d 1fbe 0580 1e3f cb66 e1be a52c 02bf
00000340: 8922 4abf d3a7 59bf f364 2ebf 80c4 333f
00000350: 92a5 dfbe d98d 7b3e 8fc9 8abd 385a eebe
00000360: 2fc6 2abf 12e9 f4be 5bc0 52be 9cc9 b7bf
00000370: 32a1 293f dab8 55bf 8b0c efbe 5064 593f
00000380: ceb2 83be b32d 403f 0930 cebd 51b6 e3bd
00000390: b28c 68bf 3233 d5be 22d1 97be bb1d 7bbf
000003a0: fe3a 19bf 29e0 26bf ebe7 1abf 4747 5abf
000003b0: 9c24 f5be 53da 94be 3cb0 40bf a985 3dbe
000003c0: 71fb 42be 6803 42bf 28cf 9ebf f7fb 023f
000003d0: f719 32be baf9 40bf 453f d93e d967 46be
000003e0: 3c83 61bf e530 9bbe 3f93 a6be eeb9 dcbe
000003f0: 8668 14bf ec2c 28bf 40d2 3fbf 1387 e2be

l2.weight f4 [300, 400]
-0.01979938 -0.015568655 0.038319234 0.03495629 0.045251433 -0.0074399486 -0.060832188 -0.03560152
-0.044756275 0.029432243 -0.0063242503 -0.05590884 0.008068316 0.03149177 -0.029278016 0.045830186
0.0047108666 -0.017486762 -0.026977275 -0.057208966 -0.026997764 0.0060905293 -0.04875255 0.031281207
-0.03937859 -0.02222911 0.009063911 -0.041358978 -0.0064296247 0.029524554 -0.011804619 0.025056783
-0.058049392 0.011471949 -0.06774894 -0.016109848 0.0335228 -0.051033176 0.029489985 -0.02220065
-0.050816365 -0.058797434 -0.0003318742 -0.019137766 0.0059858486 -0.01509865 -0.08579426 0.032383606
-0.04735441 -0.03221895 -0.021774903 -0.047767583 0.04554483 0.049936216 0.030658487 0.009091198
-0.031231932 0.010538138 -0.03247078 -0.026501631 0.018805468 -0.045199092 -0.024591224 -0.031316873
-0.021475388 -0.040020462 0.005858443 -0.026345465 -0.028453609 -0.0503507 -0.04439172 -0.002335969
-0.008516674 0.022380633 -0.032294825 0.01644028 0.016281582 -0.00027409723 -0.05566893 0.044050556
-0.027723452 -0.044589907 -0.03257794 0.007805269 0.03769612 -0.025909442 0.017465107 0.045170005
-0.042654242 -0.01994094 0.045401666 -0.024792762 -0.04935145 0.012056261 -0.043221235 -0.013214249
-0.040421303 -0.06696365 -0.044370115 -0.075151846 -0.03908616 0.013279275 -0.033206508 -0.002463607
-0.023033727 -0.03990647 0.00069063157 -0.054494716 -0.046117377 0.01940822 -0.024057055 0.0013928004
-0.06559572 -0.016092949 -0.021127446 0.0004389764 -0.09158486 -0.012214284 0.025874214 -0.03495257
0.018555406 0.03661256 0.03457333 0.035492737 0.015979834 -0.04662764 -0.08472883 0.033247128
-0.01632588 -0.08877599 -0.01536246 0.030025681 -0.060407504 -0.013970132 0.002039249 -0.041122556
-0.03639724 0.03849596 -0.04887254 -0.033340264 -0.0045216903 0.023534004 -0.0129015315 -0.014663599
0.019586666 -0.02940654 0.044559095 -0.010593339 -0.049241308 -0.0074915197 0.011270224 -0.00070155784
-0.0057710335 0.027257372 -0.01906028 -0.05839659 0.028210584 0.03621461 -0.039854314 -0.036551535
-0.044143945 0.037572514 -0.0064434595 0.033004772 -0.032730915 -0.03798645 -0.061116055 -0.029273374
-0.027570343 -0.0056652874 -0.043878503 0.03844698 0.031657174 -0.042210933 -0.0013482757 -0.013002859
0.01057563 0.031612825 -0.034359504 -0.015864193 0.0034805052 -0.014045197 0.019225681 -0.043617606
-0.020539222 0.029740324 0.0413257 -0.048366398 -0.014933474 0.021862287 0.021160971 0.04383233
-0.060069248 0.029665446 0.022005808 -0.036550723 -0.046515882 -0.0060022403 -0.09104693 -0.026013017
-0.008878214 0.038268413 0.031886283 0.02382708 -0.047558222 -0.075667426 0.027350951 0.040232275
-0.025025595 -0.004268676 -0.031612474 -0.0005793589 0.04079317 -0.020939369 0.006038841 0.0010116152
-0.026246373 -0.009721993 0.02351733 -0.049862687 -0.04166577 -0.04573655 -0.030505532 -0.029583491
-0.024337178 0.005715206 0.032974634 0.004615236 0.011062957 -0.020697547 0.03232251 -0.037108026
-0.040513627 -0.045323845 -0.01889823 -0.014227293 0.013883676 -0.037969314 -0.035974443 -0.037254803
-0.01626154 0.017309863 -0.077702925 -0.021489546 -0.02206771 0.016778164 -0.086239815 -0.011853234
-0.0069439113 0.022543801 0.026435796 -0.041211065 -0.018900838 0.0469147 -0.0025594942 -0.02957008
00000000: 4f32 a2bc ac13 7fbc a1f4 1c3d 542e 0f3d
00000010: 9159 393d d0ca f3bb 2c2b 79bd e6d2 11bd
00000020: 5b52 37bd e31b f13c a83b cfbb ab00 65bd
00000030: f830 043c 84fd 003d 73d8 efbc 6fb8 3b3d
00000040: 9d5d 9a3b 6640 8fbc 72ff dcbc f353 6abd
00000050: 6a2a ddbc 1093 c73b c1b0 47bd b920 003d
00000060: 724b 21bd d319 b6bc cc80 143c 0868 29bd
00000070: 9aaf d2bb 7add f13c 2968 41bc e243 cd3c
00000080: 33c5 6dbd d7f4 3b3c f5bf 8abd cdf8 83bc
00000090: 344f 093d 2a08 51bd fb94 f13c 23de b5bc
000000a0: d224 50bd 94d5 70bd 67ff adb9 cec6 9cbc
000000b0: f024 c43b 5460 77bc e7b4 afbd aca4 043d
000000c0: b3f6 41bd 05f8 03bd 4861 b2bc f1a7 43bd
000000d0: 378d 3a3d eb89 4c3d 8227 fb3c 40f3 143c
000000e0: 1cda ffbc 28a8 2c3c 1500 05bd f319 d9bc
000000f0: ed0d 9a3c af22 39bd 8973 c9bc 1f46 00bd
00000100: 27ed afbc 7fec 23bd 2ff8 bf3b 72d2 d7bc
00000110: 8b17 e9bc 893c 4ebd 18d4 35bd 0e17 19bb
00000120: 8589 0bbc 9757 b73c 9447 04bd c4ad 863c
00000130: f460 853c b5b4 8fb9 1b05 64bd 5b6e 343d
00000140: 4b1c e3bc e8a3 36bd 7270 05bd 58c3 ff3b
00000150: 3f67 1a3d 0a40 d4bc fc12 8f3c 2f04 393d
00000160: 37b6 2ebd 2f5b a3bc 19f7 393d 311a cbbc
00000170: bf24 4abd a087 453c c008 31bd 9480 58bc
00000180: cf90 25bd 3d24 89bd 70bd 35bd 36e9 99bd
00000190: cf18 20bd 5191 593c 8c03 08bd 7774 21bb
000001a0: 3ab1 bcbc f774 23bd 800b 353a da35 5fbd
000001b0: 93e5 3cbd fdfd 9e3c 4d13 c5bc a08e b63a
000001c0: 0d57 86bd 5cd5 83bc 7713 adbc 6a26 e639
000001d0: d890 bbbd 6c1e 48bc 29f6 d33c 6d2a 0fbd
000001e0: 8201 983c 0df7 153d c49c 0d3d d560 113d
000001f0: 24e8 823c a0fc 3ebd 4f86 adbd 242e 083d
00000200: dabd 85bc 30d0 b5bd d4b2 7bbc 6bf8 f53c
00000210: dc6d 77bd fbe2 64bc eca4 053b 2070 28bd
00000220: 4615 15bd f1ad 1d3d 932e 48bd cd8f 08bd
00000230: b02a 94bb 62ca c03c f260 53bc 983f 70bc
00000240: 3774 a03c fce5 f0bc 9983 363d af8f 2dbc
00000250: 41b1 49bd 6c7b f5bb bfa6 383c c0e8 37ba
00000260: f01a bdbb da4a df3c 4e24 9cbc 4331 6fbd
00000270: e219 e73c c555 143d 473e 23bd 10b7 15bd
00000280: 48d0 34bd a3e5 193d a823 d3bb 0330 073d
00000290: da10 06bd ae97 1bbd d454 7abd b7ce efbc
000002a0: 33db e1bc e0a3 b9bb f2b9 33bd 957a 1d3d
000002b0: f4aa 013d 5fe5 2cbd a0b8 b0ba f209 55bc
000002c0: 6845 2d3c 737c 013d 8dbc 0cbd a0f5 81bc
000002d0: 3019 643b d31d 66bc 2d7f 9d3c 60a8 32bd
000002e0: df41 a8bc fba1 f33c 2345 293d d81b 46bd
000002f0: 88ab 74bc 8a18 b33c c659 ad3c 8789 333d
00000300: 2c0b 76bd f304 f33c 8645 b43c 36b6 15bd
00000310: 7087 3ebd 71ae c4bb d076 babd 4019 d5bc
00000320: ee75 11bc 57bf 1c3d 319b 023d 0231 c33c
00000330: 69cc 42bd 86f7 9abd 1a0f e03c 99ca 243d
00000340: 7a02 cdbc 40e0 8bbb 157c 01bd 1ee0 17ba
00000350: bd16 273d 0a89 abbc 78e1 c53b 2c98 843a
00000360: a202 d7bc fe48 1fbc 6aa7 c03c d13c 4cbd
00000370: baa9 2abd 4056 3bbd bde6 f9bc 1459 f2bc
00000380: c35e c7bc 9f46 bb3b 6910 073d 683b 973b
00000390: 6841 353c e78d a9bc 9c64 043d 96fe 17bd
000003a0: 9ef1 25bd 7fa5 39bd 76d0 9abc 9819 69bc
000003b0: 5c78 633c b685 1bbd f059 13bd 7e98 18bd
000003c0: ec36 85bc 6acd 8d3c b622 9fbd d80a b0bc
000003d0: 58c7 b4bc 5c72 893c 809e b0bd 1134 42bc
000003e0: c089 e3bb c7ad b83c e28f d83c efcc 28bd
000003f0: eed5 9abc a129 403d 30bd 27bb f43c f2bc

l2.bias f4 [300]
-0.06826452 0.96346587 1.1228071 0.6027626 -0.117304295 -0.05338905 -0.053745933 -0.5176582
-0.13978942 -1.2505664 -0.067439 -0.08000069 -0.030050643 -0.09881193 0.029667681 -0.0509922
-0.16592012 -0.013997699 0.15252693 -0.120259196 -0.03988486 1.3607438 0.0074530556 0.53947616
-1.3075964 -0.067552246 -0.100126214 0.01850819 0.018476628 -0.089850366 -0.017661061 -0.16669798
0.50371337 0.015523392 -0.2468484 -0.077844486 -0.43084365 -0.05068374 -0.024522306 -0.121679276
-0.030848227 0.60448104 0.020514261 -0.025558684 -0.07793687 -0.022739753 -0.053734757 -0.13286336
-0.11665758 -0.06347082 -0.06878457 -0.11931148 -0.05429206 1.2603248 0.15217228 -0.14172061
0.9982337 -0.03645014 -1.1632335 -0.08227163 -0.09599412 0.075610794 -0.04693908 -0.11555191
0.6229585 1.4021157 -0.08832151 0.102052934 -0.06758652 -0.037991665 -0.06943873 0.029405793
-0.051493622 -0.7073469 1.6655035 -0.009750491 -0.025962878 -0.10094727 -0.06634972 -0.07986062
-0.0069791055 -1.3649606 -0.06977699 -0.04882482 -0.16613068 -0.011246383 -0.8587905 1.3952951
-0.07419072 -0.051618792 1.4825959 0.012042105 -0.9615371 -0.061168954 -0.3842087 -0.07547371
-0.012323552 -0.49757028 -0.050554845 0.12894136 -0.08749896 -0.042763766 1.3885455 -0.15592441
-0.05097059 -0.073091015 -0.07645868 0.6617135 -0.08026742 -0.06424866 -0.31151503 0.07414899
-0.04147854 -0.059418812 -0.0073267687 -0.06439022 0.03611039 -0.04224446 0.48003042 1.0832165
-0.119089454 -0.08241468 0.43614843 -0.00019666496 -0.04700986 1.2063568 -0.40883577 0.010428866
-0.032179464 0.012523226 0.59161836 -0.07723056 -0.018726494 -0.06722144 0.53321767 -0.04938883
-0.10187264 -0.03884103 -0.05762918 0.35499665 -0.81504875 -0.023928123 -0.053731777 -0.061179385
-0.1115137 -0.98735374 -0.074637756 -0.05692595 -0.75598437 -0.15907155 -0.08065634 -0.03695529
0.2932312 0.37327144 -0.08902186 0.3712309 0.0029828195 -1.2544049 -0.037546866 -0.17982292
-1.238063 -0.022564664 -0.07060997 0.369868 -0.058779553 1.3355731 -0.0033980967 0.22644272
-0.07317446 0.019099021 -0.0621569 -0.09797449 -0.65836376 -0.016833672 -0.052766927 -0.04675877
-0.08774185 0.041263625 0.66992956 -0.079911284 -0.10566647 -0.12343612 -0.051941402 -0.09090388
-0.0652828 0.9842394 0.69232994 -0.07472567 0.20372738 -0.048944775 -0.12996359 0.7465375
0.02129471 0.0025823037 -0.04945812 0.37959552 -0.069343366 -0.018640812 -0.033967607 -0.052656658
-0.07792197 -0.4296367 1.2757893 -0.07910811 -0.096417315 -0.003473115 0.14815493 0.0029390007
0.3971014 0.19117463 -0.029905356 0.16745195 0.07426373 1.5803914 -0.01902936 -0.13509853
-0.05306048 -0.07598929 1.2844527 -0.1251098 -0.1710439 -0.04841653 -0.034196336 -0.01941828
0.026242273 -0.024863543 -0.09803558 -0.08063995 -0.06104006 -0.14468297 0.14428957 -0.08487188
-0.009261919 -0.009006178 -0.063427605 -0.07204048 -0.010481394 -0.078385405 -0.096795805 -0.056236666
-1.2395751 -0.14925763 -0.11919972 -0.35683846 1.426224 -0.04368019 0.028643597 -0.008919751
0.08600884 -0.06410412 -0.085298054 0.14178617 -0.09142542 -0.10913248 -0.014478087 -0.08140736
00000000: 45ce 8bbd b3a5 763f 25b8 8f3f a64e 1a3f
00000010: 3c3d f0bd 7aae 5abd b224 5cbd 3f85 04bf
00000020: f524 0fbe 8f12 a0bf 751d 8abd 67d7 a3bd
00000030: c42c f6bc e95d cabd a309 f33c 32dd 50bd
00000040: f7e6 29be 9b56 65bc 0530 1c3e 744a f6bd
00000050: 4f5e 23bd da2c ae3f c338 f43b 1c1b 0a3f
00000060: 525f a7bf d558 8abd f90e cdbd 7d9e 973c
00000070: 4c5c 973c 7803 b8bd eead 90bc e0b2 2abe
00000080: 5cf3 003f d355 7e3c d4c5 7cbe ee6c 9fbd
00000090: 8a97 dcbe c199 4fbd 01e3 c8bc fc32 f9bd
000000a0: 6cb5 fcbc 45bf 1a3f 860d a83c 7260 d1bc
000000b0: 5e9d 9fbd b848 babc fa18 5cbd 550d 08be
000000c0: 2bea eebd fdfc 81bd edde 8cbd 9459 f4bd
000000d0: 5a61 5ebd 5352 a13f 0dd3 1b3e 351f 11be
000000e0: 3e8c 7f3f be4c 15bd d6e4 94bf 077e a8bd
000000f0: 9198 c4bd d5d9 9a3d 3143 40bd 7ba6 ecbd
00000100: 357a 1f3f 8778 b33f e8e1 b4bd 2101 d13d
00000110: cd6a 8abd 269d 1bbd e535 8ebd 6be4 f03c
00000120: faea 52bd b014 35bf 382f d53f 86c0 1fbc
00000130: 1ab0 d4bc 71bd cebd 5de2 87bd f78d a3bd
00000140: fbb0 e4bb 07b7 aebf 3de7 8ebd 89fc 47bd
00000150: 291e 2abe c042 38bc b2d9 5bbf 0899 b23f
00000160: 4ef1 97bd 3a6e 53bd b4c5 bd3f 404c 453c
00000170: 4c27 76bf 4c8c 7abd 01b7 c4be f691 9abd
00000180: b9e8 49bc 88c1 febe 9912 4fbd 3409 043e
00000190: a832 b3bd 0f29 2fbd dcbb b13f a6aa 1fbe
000001a0: 8ac6 50bd beb0 95bd 5e96 9cbd 0e66 293f
000001b0: 3f63 a4bd cd94 83bd e67e 9fbe 6ddb 973d
000001c0: 67e5 29bd 2461 73bd 6415 f0bb 05df 83bd
000001d0: 7de8 133d 8708 2dbd 8cc6 f53e d7a6 8a3f
000001e0: 2ce5 f3bd 07c9 a8bd d94e df3e d937 4eb9
000001f0: 698d 40bd e669 9a3f ec52 d1be d6dd 2a3c
00000200: 9dce 03bd 382e 4d3c 4d74 173f 0e2b 9ebd
00000210: 4e68 99bc 65ab 89bd f480 083f f14b 4abd
00000220: 9aa2 d0bd c617 1fbd 930c 6cbd 1fc2 b53e
00000230: 09a7 50bf e904 c4bc da15 5cbd 3c97 7abd
00000240: 4b61 e4bd 37c3 7cbf aedb 98bd 2f2b 69bd
00000250: 3188 41bf a7e3 22be 272f a5bd 6e5e 17bd
00000260: 6622 963e 6f1d bf3e 1851 b6bd fa11 be3e
00000270: 687b 433b 5790 a0bf beca 19bd 8023 38be
00000280: d978 9ebf 88d9 b8bc f69b 90bd 575f bd3e
00000290: d4c2 70bd 0ff4 aa3f 9ab2 5ebb 9ae0 673e
000002a0: 7edc 95bd 8d75 9c3c 3c98 7ebd d9a6 c8bd
000002b0: 878a 28bf c5e6 89bc 2222 58bd 2086 3fbd
000002c0: 00b2 b3bd 0c04 293d 8180 2b3f 87a8 a3bd
000002d0: aa67 d8bd 14cc fcbd 82c0 54bd d02b babd
000002e0: fdb2 85bd 1df7 7b3f 893c 313f c609 99bd
000002f0: e99d 503e 517a 48bd 2d15 05be 151d 3f3f
00000300: 3e72 ae3c de3b 293b 9994 4abd 585a c23e
00000310: e503 8ebd 9eb4 98bc 9e21 0bbd 82ae 57bd
00000320: 8e95 9fbd 57f9 dbbe 104d a33f 6f03 a2bd
00000330: 7176 c5bd 339d 63bb edb5 173e 409c 403b
00000340: e050 cb3e 48c3 433e 14fc f4bc 8678 2b3e
00000350: 9517 983d 444a ca3f 76e3 9bbc 4557 0abe
00000360: f255 59bd 46a0 9bbd f268 a43f c91c 00be
00000370: 2226 2fbe 6950 46bd 7511 0cbd 1613 9fbc
00000380: 09fa d63c a1ae cbbc e1c6 c8bd 8f26 a5bd
00000390: 2405 7abd c627 14be a5c0 133e 4fd1 adbd
000003a0: 4ebf 17bc a68e 13bc 55e6 81bd f689 93bd
000003b0: 27ba 2bbc 8788 a0bd e13c c6bd 6b58 66bd
000003c0: 66aa 9ebf fed6 18be fc1e f4bd 88b3 b6be
000003d0: 828e b63f 00ea 32bd faa5 ea3c 2624 12bc
000003e0: 6725 b03d 0549 83bd bfb0 aebd 6530 113e
000003f0: 403d bbbd da80 dfbd 8035 6dbc e7b8 a6bd

l3.weight f4 [1, 300]
-0.0004195001 -0.18956593 -0.56729925 0.5185096 0.08083813 -0.02003668 0.00065254926 0.086577676
-0.02891927 0.026797343 0.036611814 0.0055969283 -0.16378626 0.04766625 -0.6825274 0.021891505
0.4245732 0.024905637 -0.4099641 0.01957586 -0.0043717716 0.32927737 -0.8702226 -0.41522124
0.43449172 -0.0015907354 0.11605854 0.010715527 -0.41640818 0.031109741 -0.16853377 0.014978196
0.06640485 -0.4308317 -0.007497107 -0.005890109 -0.060181007 0.021114405 0.0023115214 0.051039133
0.025638405 0.32897323 0.030804267 0.0057181865 -0.03078676 0.029023949 -0.004031001 -0.028922623
0.087628596 -0.0438821 -0.364593 0.020375308 0.02280271 -0.2354751 0.02193658 -0.32469958
0.10558674 -0.4131947 0.004977039 -0.0087120645 0.0447188 -0.4691933 0.008343262 0.10434473
-0.57469064 -0.46014202 -0.02605303 -0.13459188 0.010732478 0.023079872 0.031265836 -0.16096696
-0.5899256 0.12682837 -0.28605476 -0.017001681 -0.0007131202 0.0033089225 -0.0424568 -0.026015032
-0.020977687 0.6519542 0.0106620705 -0.0034399596 0.41270664 -0.02369939 -0.015361156 -0.5618135
0.05920274 -0.0047334046 -0.7082855 -0.07417581 0.33791393 -0.030837797 -2.3421798 0.026215825
0.013338322 0.09424853 0.0026295686 -0.48373684 -0.030758075 -0.00063910324 -0.33178645 0.021252243
-0.0080495225 -0.021366607 0.022173882 -0.012786792 0.027263377 0.28349486 0.5201881 -0.40902832
0.020437894 -0.019064378 -0.014336887 -0.00038295146 -0.014684457 0.009984067 -0.55346394 -0.4070593
0.06553909 0.008330595 0.016386637 0.005834136 0.008414042 -0.26085275 0.35743213 -0.028268462
-0.21695663 -0.032387335 -0.693299 0.0037708124 0.022874609 -0.02094565 0.050527275 -0.018746236
0.0008502226 0.08991443 -0.016705895 -0.2287524 0.41425064 -0.13456208 -0.017387995 -0.04039597
-0.5245869 0.553908 0.09633684 0.5483519 0.17822252 -0.04373681 0.038250197 0.06730488
-0.8419027 0.016143376 0.1099595 -0.4196861 -0.29026 0.012983115 -0.042600594 0.6701654
1.1758752 -0.004509142 0.005591433 -0.82609135 0.023292586 -0.6788884 -0.023142084 -0.54459023
-0.017062778 -0.2065437 0.018240716 0.07230423 0.13272327 -0.14760657 -0.015406046 0.04006367
0.016087124 -0.01914095 -0.9893172 0.0011182053 0.09233587 -0.49487096 -0.036525387 -0.0083466135
-0.004131025 -0.5801244 0.44810838 -0.017954614 0.026046325 -0.039220266 0.15422864 -0.0032431812
-0.010482511 0.029591687 -0.01652559 0.031019218 0.049951345 -0.5617802 -0.029778695 0.003963759
-0.031517107 0.1244419 -0.48064673 0.044618215 -0.009513563 0.026143927 -0.52951026 -0.00040800407
-0.5623286 -0.024877327 -0.029664703 -0.26082718 -0.5020534 -0.37144276 0.028805649 0.08165769
-0.016651506 0.0512403 -0.5730105 -0.14213048 0.21354473 0.0068431324 -0.2586397 -0.0025030016
-0.03263469 0.014530416 0.024220558 -0.02348891 0.026986215 0.034431025 -0.18147396 0.029288447
0.019504333 0.0068746107 -0.0056338087 0.022290856 0.059063416 0.05121124 0.035482306 -0.004307976
0.3549907 0.24868421 0.001353737 0.586397 0.62986434 0.026906122 0.009905836 0.010550497
-0.25714958 0.016588548 0.005742959 0.007838159 0.014695632 0.123692416 -0.0022545473 0.006137654
00000000: 5af0 dbb9 921d 42be 863a 11bf 0cbd 043f
00000010: 768e a53d f723 a4bc d70f 2b3a a34f b13d
00000020: 1be8 ecbc 1a86 db3c 45f6 153d 7066 b73b
00000030: 96b7 27be b03d 433d 1eba 2ebf d055 b33c
00000040: a961 d93e e806 cc3c d1e6 d1be 8e5d a03c
00000050: 1441 8fbb 0b97 a83e e9c6 5ebf e197 d4be
00000060: b375 de3e 3980 d0ba 1ab0 ed3d 2e90 2f3c
00000070: 7433 d5be dbd9 fe3c 1e94 2cbe 1b67 753c
00000080: 44ff 873d f995 dcbe 4baa f5bb d101 c1bb
00000090: 5c80 76bd 1ef8 ac3c e57c 173b 690e 513d
000000a0: a207 d23c 2e6f a83e 3b59 fc3c a05f bb3b
000000b0: 8434 fcbc a2c3 ed3c 7d16 84bb 23ef ecbc
000000c0: 9f76 b33d b8bd 33bd efab babe 1eea a63c
000000d0: c0cc ba3c 6220 71be 58b4 b33c 063f a6be
000000e0: dc3d d83d 418e d3be 6e16 a33b 0cbd 0ebc
000000f0: 0f2b 373d 1b3a f0be 2db2 083c b1b2 d53d
00000100: ed1e 13bf bc97 ebbe 2a6d d5bc 74d2 09be
00000110: 47d7 2f3c 0012 bd3c 9b10 003d 86d4 24be
00000120: 5d05 17bf 4cdf 013e c575 92be 1c47 8bbc
00000130: b0f0 3aba 82da 583b 2ee7 2dbd 7a1d d5bc
00000140: 66d9 abbc 78e6 263f f7af 2e3c f270 61bb
00000150: 494e d33e 3925 c2bc 5cad 7bbc 02d3 0fbf
00000160: 937e 723d ad1a 9bbb 3352 35bf 7de9 97bd
00000170: 0e03 ad3e 8c9f fcbc 46e6 15c0 92c2 d63c
00000180: fa88 5a3c 6005 c13d d754 2c3b 5bac f7be
00000190: 5cf8 fbbc 7e89 27ba eadf a9be 2f19 ae3c
000001a0: 25e2 03bc 0609 afbc 00a6 b53c b17f 51bc
000001b0: 7257 df3c 3d26 913e 0c2b 053f 296c d1be
000001c0: 5f6d a73c e62c 9cbc 43e5 6abc e0c6 c8b9
000001d0: 1497 70bc 3694 233c d0af 0dbf 146a d0be
000001e0: 5c39 863d 0c7d 083c 453d 863c 482c bf3b
000001f0: 0ddb 093c 7e8e 85be 5801 b73e 4393 e7bc
00000200: e129 5ebe 95a8 04bd 0b7c 31bf bc1f 773b
00000210: 8863 bb3c 3696 abbc b0f5 4e3d b591 99bc
00000220: 79e1 5e3a 0f25 b83d cdda 88bc 123e 6abe
00000230: a918 d43e a4ca 09be 4571 8ebc 3f76 25bd
00000240: 544b 06bf eacc 0d3f 404c c53d ca60 0c3f
00000250: f77f 363e 5f25 33bd 3dac 1c3d 24d7 893d
00000260: ef86 57bf 1d3f 843c 7232 e13d 19e1 d6be
00000270: f59c 94be 22b7 543c f67d 2ebd f68f 2b3f
00000280: 1483 963f 6dc1 93bb 5738 b73b b97a 53bf
00000290: 18d0 be3c a1cb 2dbf 7894 bdbc 446a 0bbf
000002a0: 3dc7 8bbc 3180 53be 8e6d 953c 3d14 943d
000002b0: 9ce8 073e 2d26 17be a469 7cbc ce19 243d
000002c0: 25c9 833c 7bcd 9cbc e443 7dbf be90 923a
000002d0: 971a bd3d ba5f fdbe a59b 15bd 3cc0 08bc
000002e0: 8d5d 87bb 0883 14bf 766e e53e 8e15 93bc
000002f0: 1a5f d53c 6ea5 20bd 1dee 1d3e 8d8b 54bb
00000300: d6be 2bbc 446a f23c ad60 87bc 041c fe3c
00000310: c899 4c3d d4d0 0fbf 73f2 f3bc 6ce2 813b
00000320: 1518 01bd 65db fe3d 5417 f6be 97c1 363d
00000330: c6de 1bbc ca2b d63c fc8d 07bf 61e9 d5b9
00000340: c4f4 0fbf 89cb cbbc 6403 f3bc 248b 85be
00000350: 9286 00bf bf2d bebe d3f9 eb3c 263c a73d
00000360: bd68 88bc 59e1 513d d1b0 12bf a78a 11be
00000370: 78ab 5a3e 5b3c e03b 6c6c 84be 6609 24bb
00000380: f4ab 05bd fb10 6e3c 316a c63c d16b c0bc
00000390: 3212 dd3c 8c07 0d3d 4fd4 39be 53ee ef3c
000003a0: 8dc7 9f3c 6a44 e13b d09b b8bb 509b b63c
000003b0: 7bec 713d e1c2 513d e555 113d ec29 8dbb
000003c0: 57c1 b53e 13a7 7e3e e06f b13a 1d1e 163f
000003d0: ca3e 213f 3a6a dc3c 164c 223c fedb 2c3c
000003e0: 1ca9 83be b5e4 873c 6f2f bc3b 9f6b 003c
000003f0: f3c5 703c 7352 fd3d 07c1 13bb 601e c93b
