preTrained/LunarLanderContinuous-v2/TD3_LunarLanderContinuous-v2_0_solved_critic_1_target.pth (torch_old, 501014 bytes, 5 tensors)

l1.weight f4 [400, 10]
0.004134474 0.6139989 0.4764634 0.3620364 -0.1132199 -0.17078584 -0.48817056 -0.0013418304
0.17683414 -0.8144152 0.96168035 -2.2699084 -0.051006693 -0.7232485 -2.2219896 0.72028196
0.28908607 0.1250914 0.12738028 0.70680207 -1.0218339 -0.17660324 -1.0484227 -0.64544755
-1.5882769 0.75874484 -0.47140452 0.05037001 -0.017261809 0.07411032 0.49886775 0.61182207
0.55186945 0.4616635 0.9359366 -0.908859 -0.24288082 -1.9067426 -0.061071437 0.2504658
0.2816251 -2.6592762 -0.31026137 -0.24370648 -0.039226457 -0.7175887 0.284488 -0.31775162
-0.8664482 0.22721852 0.17698763 0.039308883 0.6224093 -0.11067592 -0.27715006 -2.256759
-1.3458391 0.19056845 -0.31153554 0.09303799 -0.13676119 -0.23402494 -1.7689452 0.2297303
-1.9376034 0.38124955 -0.21607915 0.09814158 0.0003250921 -0.23345351 -0.59939826 -2.6160374
0.5049055 -1.3804818 -1.3741845 -0.06737327 -0.08668413 -0.13131396 -0.05641356 -0.24444333
0.14245607 -2.4357355 -1.5544312 -0.30387777 -1.2436849 0.61140543 0.33988097 -0.010966181
0.3421442 -0.06845473 -0.06979934 -1.1587305 0.85026145 1.0751449 -0.82886153 0.7444
0.42153767 -0.6996746 -0.7934311 0.7920226 0.83140534 0.5163072 -0.0009906803 -0.14873005
1.0643429 0.3230139 -0.9368965 0.82247084 0.101942465 0.17115968 0.50324357 -0.84316444
1.5913152 -0.16279764 -0.8093778 -0.01845191 -0.23905136 0.449334 -0.03926312 0.029858062
0.26249614 -0.4680071 0.07610471 0.042407162 -2.2739482 0.5578878 -0.54849803 0.21339624
-0.03351353 -0.043372847 2.6660948 -1.8516886 0.02381418 -1.3685286 0.64301956 0.698609
-1.4651818 -0.6904721 -0.09655578 -0.00502712 -1.7619172 -1.5096694 0.8569359 0.50874764
-1.1451186 0.2692099 -0.09572898 0.3495988 -0.051362652 0.550237 -0.7983629 -1.7348837
-1.0573183 1.4654752 1.8085287 -0.34779736 0.34232846 0.3369047 0.22405232 0.49576247
0.16069746 -1.0495831 0.018075904 0.2532768 -0.11917925 -0.5025026 0.6326293 0.5344409
-0.47324458 0.761517 0.4427784 -4.3994365 -0.06591291 0.3913439 1.9629122 -0.28639647
-1.3540949 0.83464277 -0.0797694 -0.11464491 0.5412348 -1.0525105 1.8340713 -0.17897698
0.5181608 -0.8161537 -0.079060026 0.75152814 0.1639373 0.24935213 0.97415036 0.12768565
0.7790399 0.049672175 -0.291428 -2.1667438 0.101590194 -0.98093146 0.15212625 -0.11641866
-0.9503945 -1.5663251 0.3163713 -0.81856185 -1.7439699 0.65885085 0.5047216 -1.033529
-0.13647182 -0.27165172 -0.76582414 0.6066017 0.2917224 -0.08286358 -0.4693958 -1.3163908
-0.59004086 -1.4969006 -0.08581492 0.08860128 0.69180447 -1.0619936 -1.6410127 -0.37293273
0.5869844 -0.35166633 0.12793298 -1.0561363 -0.12289895 -0.09481076 2.143111 -0.87124074
0.37751597 -0.27461407 0.2173985 -0.15259807 -0.8186408 -0.119504005 -0.041456703 -0.022647578
-0.07449623 -0.8918246 -0.350053 -0.72124547 0.55833495 0.19379646 0.3516171 0.079350196
-0.30630332 -0.026452517 0.63537353 0.43368992 1.6274517 0.19180802 0.2781221 -0.034165177
00000000: 7b7a 873b 082f 1d3f 03f3 f33e d65c b93e
00000010: d6df e7bd 7ce2 2ebe 7ef1 f9be 5be0 afba
00000020: 0214 353e 847d 50bf af30 763f 2e46 11c0
00000030: 65ec 50bd d026 39bf 1435 0ec0 6664 383f
00000040: 1703 943e f617 003e fa6f 023e fbf0 343f
00000050: 74cb 82bf 7bd7 34be b732 86bf 0d3c 25bf
00000060: a84c cbbf 1a3d 423f ef5b f1be c950 4e3d
00000070: a368 8dbc 27c7 973d 986b ff3e 5fa0 1c3f
00000080: 5147 0d3f 295f ec3e 8b99 6f3f fcaa 68bf
00000090: c0b5 78be 2410 f4bf 0b26 7abd 0e3d 803e
000000a0: 2a31 903e 9531 2ac0 94da 9ebe 318e 79be
000000b0: ecab 20bd e5b3 37bf 69a8 913e 57b0 a2be
000000c0: 8dcf 5dbf f9ab 683e 3f3c 353e 5a02 213d
000000d0: 3756 1f3f 0faa e2bd 9de6 8dbe bd6e 10c0
000000e0: 7544 acbf 6024 433e 9681 9fbe b48a be3d
000000f0: 200b 0cbe 3ca4 6fbe cc6c e2bf 6b3e 6b3e
00000100: 6303 f8bf 2433 c33e da43 5dbe 74fe c83d
00000110: 2071 aa39 700e 6fbe 2a72 19bf 286d 27c0
00000120: 7d41 013f a1b3 b0bf 47e5 afbf fffa 89bd
00000130: 7387 b1bd 2b77 06be e811 67bd 5a4f 7abe
00000140: 01e0 113e 17e3 1bc0 9af7 c6bf de95 9bbe
00000150: 1131 9fbf 1185 1c3f e104 ae3e 7fab 33bc
00000160: 862d af3e fe31 8cbd f5f2 8ebd 4851 94bf
00000170: bcaa 593f 599e 893f 4530 54bf 0091 3e3f
00000180: c9d3 d73e e01d 33bf 4d1e 4bbf fec1 4a3f
00000190: fbd6 543f b52c 043f b7d9 81ba b14c 18be
000001a0: 633c 883f 1462 a53e 73d8 6fbf 738d 523f
000001b0: 36c7 d03d 7c44 2f3e 92d4 003f a0d9 57bf
000001c0: 37b0 cb3f 6db4 26be 6233 4fbf 7628 97bc
000001d0: e1c9 74be 1b0f e63e 5ed2 20bd e598 f43c
000001e0: e565 863e a09e efbe c9dc 9b3d 22b3 2d3d
000001f0: 5e88 11c0 bcd1 0e3f 5e6a 0cbf 8b84 5a3e
00000200: 7c45 09bd baa7 31bd 4ca1 2a40 2204 edbf
00000210: f515 c33c f22b afbf ee9c 243f 0ad8 323f
00000220: 148b bbbf c8c2 30bf 09bf c5bd 8aba a4bb
00000230: 8186 e1bf d93c c1bf 2760 5b3f 493d 023f
00000240: 3f93 92bf e1d5 893e 8e0d c4bd 9dfe b23e
00000250: a561 52bd 55dc 0c3f 8361 4cbf ab10 debf
00000260: 3556 87bf b194 bb3f de7d e73f 7f12 b2be
00000270: ad45 af3e c67e ac3e f96d 653e 94d4 fd3e
00000280: e08d 243e bd58 86bf eb13 943c 7fad 813e
00000290: 4014 f4bd 03a4 00bf fef3 213f 1ed1 083f
000002a0: 1d4d f2be c7f2 423f dab3 e23e 2fc8 8cc0
000002b0: 59fd 86bd 3a5e c83e b540 fb3f 8fa2 92be
000002c0: fb52 adbf 26ab 553f 245e a3bd f3ca eabd
000002d0: 5d8e 0a3f aab8 86bf d9c2 ea3f be45 37be
000002e0: 30a6 043f 73ef 50bf 39ea a1bd 2664 403f
000002f0: 2edf 273e 2a56 7f3e eb61 793f 07c0 023e
00000300: 296f 473f 0d75 4b3d 0d36 95be eeab 0ac0
00000310: 850e d03d 531e 7bbf fcc6 1b3e e86c eebd
00000320: 0e4d 73bf 577d c8bf 6bfb a13e 458d 51bf
00000330: 683a dfbf 73aa 283f 6f35 013f ae4a 84bf
00000340: 45bf 0bbe ef15 8bbe 0d0d 44bf 404a 1b3f
00000350: a35c 953e 61b4 a9bd a554 f0be 7e7f a8bf
00000360: eb0c 17bf 709a bfbf bcbf afbd 9674 b53d
00000370: 191a 313f 68ef 87bf b40c d2bf 0af1 bebe
00000380: 9c44 163f 9c0d b4be dd00 033e 792f 87bf
00000390: 72b2 fbbd 252c c2bd bb28 0940 a209 5fbf
000003a0: c649 c13e 379a 8cbe b69d 5e3e ab42 1cbe
000003b0: 7292 51bf 84be f4bd 81ce 29bd 6a87 b9bc
000003c0: 7b91 98bd 9e4e 64bf 263a b3be 8ba3 38bf
000003d0: 0aef 0e3f 9472 463e 2807 b43e 5b82 a23d
000003e0: cad3 9cbe f3b2 d8bc d7a7 223f 9b0c de3e
000003f0: 5650 d03f 5269 443e 0566 8e3e c9f0 0bbd

l1.bias f4 [400]
0.398803 -0.8990461 0.03816498 0.632597 -0.7960092 -1.360056 0.01605529 -0.3912018
-0.32692957 -1.4183766 -1.1330379 -0.9025023 -0.24177858 -0.36717787 -0.47156873 -0.82238
-0.9788133 0.27364495 -0.5757742 -1.3981824 -0.38291025 -1.0753921 0.29654264 -0.100250766
0.23245764 0.17512785 0.61012095 -0.8157954 0.7098749 -1.0453116 -0.5702898 -0.013832901
0.16378543 0.7260864 -0.08854596 -1.5397445 -0.75616074 -0.85914487 -0.34771276 -0.92835146
0.13748592 -0.97081923 0.29578236 0.34014562 -0.7680974 -0.5268712 -0.13517956 -0.20975329
-0.411735 -1.0912641 -1.1676023 -0.41882086 -0.99847794 0.64462376 0.4928763 -0.67174095
-1.5696422 -0.59965885 -0.2159652 -0.591552 -0.8223132 0.4760571 -0.92536974 -0.61566323
0.83960176 0.6878722 -1.3927593 -0.35590369 -0.75980484 -0.731742 0.46285552 -1.5700563
-0.17984697 -0.06240541 -0.76457596 -0.39592358 -0.74352807 0.78614193 -0.07097367 0.24806431
0.80609167 -0.4269749 -0.6013595 -0.16468173 -1.5512071 -0.052894823 -1.9476707 -1.0402383
-1.2855362 0.5039193 -1.6997427 -0.6471751 -0.01867625 -1.3059036 -1.1518371 -0.56615627
-0.87137717 0.37551475 -0.48098528 0.09805356 -0.37099853 -1.0672774 0.49969438 -0.69975656
0.33173907 0.4298086 -0.7348693 -1.148979 -0.33650404 -0.35265377 -0.2646662 0.36183003
-0.52812433 0.6473371 -0.012585518 0.73589265 -0.75781935 0.82740885 -0.08892019 -0.7929809
0.48655012 0.63715535 -0.1719747 -0.21293363 -0.3696626 -1.2008733 -0.037634917 -1.1208663
-0.33496624 -0.85448986 0.53225005 -0.7320036 0.69044834 -0.45989606 -1.3318061 -0.21365242
-0.8837729 0.7228132 -0.43954 -0.7285423 0.63230646 0.016384387 -0.19704597 -0.41979247
-0.29944602 0.8074314 0.5960599 0.09141811 -0.6068114 -0.538065 -0.70000106 0.07847697
-0.16204076 -0.98122126 -0.28406385 -0.64142007 0.42112583 0.7587189 -0.7704863 0.11197796
0.23951802 0.2567016 0.090014644 -0.58042693 -1.1250467 0.08951974 0.48948705 -0.6064172
0.25294915 0.32270858 -0.50500095 0.5155765 -0.66963553 0.44517693 -0.8283727 -0.20180978
-1.4625182 -0.9289472 -1.3444552 -0.27403817 0.3020379 0.6659041 0.14589675 0.52335376
0.45789623 -0.6628246 -0.20143811 -1.012958 0.09932335 -0.49237826 -0.6740923 -0.4290699
-0.73718363 -1.1153823 -0.39433753 -0.5508983 0.83672726 0.27052447 -0.70076656 -0.15046161
-0.896857 -0.33632302 -1.333989 -0.36438802 -0.02233792 0.35219052 -0.9710076 -0.4464791
0.11901097 0.13835934 0.91147494 -0.40080044 -0.028840752 -0.45030582 -0.7827265 -0.07301062
0.054931924 -0.2565343 -0.17548238 -0.09436251 -1.1723547 0.10005203 -0.89232415 0.92912924
0.020368414 0.44210184 -0.13712732 -0.49505392 0.3497857 0.036317464 1.4430374 -0.9529505
0.23422028 0.69015485 -0.6235044 -0.86597306 -0.15583268 0.2170669 -0.7635693 -0.35908756
0.18238792 0.092648596 -0.10382127 -0.0069516446 -0.8823913 0.04330665 -0.9376633 0.073838316
-1.1938586 -0.15942495 0.359798 -1.0123156 -0.9019022 -0.44341955 -1.278056 -0.8846873
00000000: e82f cc3e e327 66bf e252 1c3d e1f1 213f
00000010: 42c7 4bbf 5116 aebf 6286 833c 9a4b c8be
00000020: 5063 a7be 5d8d b5bf 6307 91bf 640a 67bf
00000030: ce94 77be bdfe bbbe 7571 f1be 7f87 52bf
00000040: 8293 7abf 311b 8c3e f065 13bf a4f7 b2bf
00000050: d00c c4be 73a6 89bf 70d4 973e 4650 cdbd
00000060: 6009 6e3e b754 333e e330 1c3f f8d7 50bf
00000070: 5dba 353f c5cc 85bf 83fe 11bf 64a3 62bc
00000080: 5eb7 273e cce0 393f 9657 b5bd 5916 c5bf
00000090: c093 41bf ebf0 5bbf 6807 b2be 71a8 6dbf
000000a0: 1cc9 0c3e 9c87 78bf c970 973e 9127 ae3e
000000b0: 08a2 44bf 08e1 06bf 836c 0abe 91c9 56be
000000c0: eece d2be 8bae 8bbf fe73 95bf b06f d6be
000000d0: 409c 7fbf 1006 253f 485a fc3e 37f7 2bbf
000000e0: 09ea c8bf 3e83 19bf fb25 5dbe f46f 17bf
000000f0: 1e83 52bf c2bd f33e 08e5 6cbf 1b9c 1dbf
00000100: 24f0 563f 6418 303f f045 b2bf 0239 b6be
00000110: 9282 42bf 7253 3bbf 66fb ec3e 9bf7 c8bf
00000120: ce29 38be d19c 7fbd 40bb 43bf 7fb6 cabe
00000130: db57 3ebf 9940 493f a55a 91bd 9204 7e3e
00000140: 065c 4e3f 749c dabe b2f2 19bf 54a2 28be
00000150: f48d c6bf 3ea8 58bd 464d f9bf 8726 85bf
00000160: 738c a4bf db00 013f 2b91 d9bf 44ad 25bf
00000170: effe 98bc d927 a7bf 666f 93bf 9eef 10bf
00000180: 9312 5fbf 7843 c03e b443 f6be 4ed0 c83d
00000190: 85f3 bdbe 8c9c 88bf f1d7 ff3e 3f23 33bf
000001a0: b4d9 a93e df0f dc3e 6520 3cbf be11 93bf
000001b0: 424a acbe 098f b4be 5482 87be c941 b93e
000001c0: 2833 07bf e2b7 253f 7d33 4ebc 7663 3c3f
000001d0: 7300 42bf 11d1 533f ca1b b6bd cc00 4bbf
000001e0: 191d f93e 9d1c 233f 231a 30be 460b 5abe
000001f0: 6b44 bdbe 37b6 99bf 1227 1abd 8c78 8fbf
00000200: b280 abbe d9bf 5abf 8a41 083f 9764 3bbf
00000210: 39c1 303f 7f77 ebbe 9f78 aabf b3c7 5abe
00000220: f13e 62bf 490a 393f 630b e1be c081 3abf
00000230: d6de 213f 8d38 863c 6bc6 49be 0aef d6be
00000240: fd50 99be d3b3 4e3f 6297 183f 6b39 bb3d
00000250: fe57 1bbf a1be 09bf 4533 33bf 89b8 a03d
00000260: 03ee 25be 5131 7bbf d170 91be 1b34 24bf
00000270: ce9d d73e 673b 423f 973e 45bf b354 e53d
00000280: 3644 753e 646e 833e 9959 b83d dc96 14bf
00000290: 8801 90bf 2056 b73d 0c9e fa3e 283e 1bbf
000002a0: 8d82 813e 0f3a a53e be47 01bf d2fc 033f
000002b0: 3c6d 2bbf 3bee e33e 3c10 54bf 39a7 4ebe
000002c0: cc33 bbbf 7ccf 6dbf 1c17 acbf bb4e 8cbe
000002d0: b6a4 9a3e b178 2a3f f565 153e 83fa 053f
000002e0: 6071 ea3e dfae 29bf cb45 4ebe 9ca8 81bf
000002f0: 0a6a cb3d 0119 fcbe 5091 2cbf 0daf dbbe
00000300: 11b8 3cbf d9c4 8ebf 9ce6 c9be ac07 0dbf
00000310: c233 563f 2f82 8a3e 7065 33bf 9c12 1abe
00000320: 6c98 65bf 8832 acbe 27c0 aabf 1191 babe
00000330: 03fe b6bc 5152 b43e f493 78bf e998 e4be
00000340: 06bc f33d 12ae 0d3e 6c56 693f b735 cdbe
00000350: 7143 ecbc 7c8e e6be c460 48bf 9886 95bd
00000360: 4c00 613d 7758 83be a7b1 33be 2241 c1bd
00000370: b80f 96bf 14e8 cc3d 5b6f 64bf 6adb 6d3f
00000380: a9db a63c 2c5b e23e 1b6b 0cbe b577 fdbe
00000390: 1c17 b33e 9fc1 143d 73b5 b83f 90f4 73bf
000003a0: 71d7 6f3e fdad 303f fc9d 1fbf 69b0 5dbf
000003b0: 9a92 1fbe c946 5e3e 4779 43bf 53da b7be
000003c0: e6c3 3a3e 8cbe bd3d 3fa0 d4bd 9fca e3bb
000003d0: 65e4 61bf 5062 313d b40a 70bf 8b38 973d
000003e0: 5cd0 98bf 4b40 23be 7237 b83e 8f93 81bf
000003f0: 10e3 66bf e307 e3be 5797 a3bf de7a 62bf

l2.weight f4 [300, 400]
-0.08643949 -1.1365306 -0.040910058 -0.32340616 -0.23334792 -0.14477237 -0.34864876 -0.20379294
-0.11185791 0.20124483 0.22285452 0.46116453 -0.020529164 -1.8050092 0.013516577 -0.038131732
0.025006594 -0.31701657 0.11622693 0.0014069853 -0.7187433 0.03422241 -0.19988884 -0.11155841
-0.16554758 -0.08798176 0.10292018 -0.36546922 0.028199915 0.1589404 -0.09466643 -0.11982706
-0.06124271 0.30179945 0.066640295 0.08540385 0.16081797 0.20540227 -0.1329021 0.15853211
-0.17633903 -0.30216306 -0.2318608 -0.14072224 -0.16973482 -0.09940053 -0.29517144 -0.08278721
-0.04926664 -0.14245673 0.43625572 -0.15035138 -0.106943496 0.18358694 -0.04128259 -1.2225044
-0.23202173 0.042867325 -0.6237214 -0.2606186 -0.6740159 0.18090771 0.06138502 -0.3131065
-0.32187432 0.16068086 0.75003576 0.48653233 0.026506023 0.13829929 0.09125703 -0.5601113
0.015606839 -0.061531052 -0.12970728 0.16767249 -0.46185002 -0.78315216 -0.11062111 0.18026994
0.10959591 0.27107322 -1.2385023 -0.07247858 -0.23250453 -0.045504835 -0.5999154 -0.06543628
-0.13268155 0.035376508 -0.52936727 0.27042356 -0.06618581 -0.41291457 -0.3820155 -0.16107725
-0.27926293 -0.10295893 0.1325534 -1.2081993 -0.25064227 -0.63414043 -0.29116598 -0.25362697
-0.060678706 -0.16656981 -0.24082534 0.2264308 -0.16549692 0.0057980004 -0.32364458 -0.002658579
-0.21790732 -0.11050339 -0.19352306 -0.7816263 -0.7039733 0.48696744 -0.19010772 -0.053538807
-0.36959386 -0.26006424 0.30412403 -0.44620377 0.10387386 -1.2424837 -0.24963194 -0.10142112
-0.2960536 -0.14106199 0.193228 -0.3279898 0.5114501 0.10751123 -0.01841543 -0.112401806
-0.21328202 -0.34545395 -0.28950304 0.06286284 0.140302 0.09978348 -0.29623833 -0.28146237
-0.3667984 -0.69190925 0.2723905 0.0642412 -0.14341936 -0.36416388 0.09090089 -0.07401638
-0.22214524 0.13818902 -0.32360885 0.06430975 -0.027645594 -0.059763025 0.10174896 -0.0332218
-0.077722296 -0.1457201 -0.12275662 -0.54462606 -0.09843493 -0.18160808 0.06276561 -0.93566865
0.008211013 -0.05740566 -0.33937427 -0.43681604 0.23826832 -0.2945158 -0.39340594 -0.1434998
-0.19995739 0.0902512 -0.13001426 0.009007295 -0.16944574 -0.029588332 -0.10817583 0.041947182
-0.17744766 -0.2451616 -0.07081412 0.12067047 -0.046819866 -0.18226075 0.17947124 -0.15100703
-0.17779636 -0.6785101 -0.054710038 -1.416911 -0.25102076 -0.33832523 -0.054206375 -0.05298821
-0.011693418 -0.03182407 0.2013998 -0.04365188 -0.9447882 -0.27519786 -0.45221192 -0.32431218
-0.006243732 -0.1947688 -0.17363594 -0.37354562 -0.8435675 0.058757197 -0.22821896 -0.003787483
-0.27072755 -0.38743356 -0.113048516 -0.328407 -0.399575 -0.11014726 -0.20634106 0.5483453
-1.3145578 -0.26274648 0.0599478 -0.09671832 0.28227296 -0.03733899 -0.11068072 -0.48251498
-0.117277466 -0.21565129 0.07489256 0.18164681 -0.023206903 -0.23188463 0.20733048 0.15683934
0.05635587 -0.2203422 0.16931161 0.17070636 0.5890673 -0.10448034 -0.074526 -0.42832237
-0.23024848 0.2269583 -0.31588408 -0.34941173 -0.43717963 -0.07909172 -0.22815338 -0.38255194
00000000: 3007 b1bd d679 91bf 4e91 27bd 7e95 a5be
00000010: c2f2 6ebe 353f 14be 1782 b2be 19af 50be
00000020: c315 e5bd 2013 4e3e fa33 643e c21d ec3e
00000030: c72c a8bc 8b0a e7bf a274 5d3c 0530 1cbd
00000040: a1da cc3c ff4f a2be 6208 ee3d 986a b83a
00000050: 90ff 37bf cc2c 0c3d a9af 4cbe bc78 e4bd
00000060: 4e85 29be c82f b4bd d1c7 d23d c81e bbbe
00000070: 8203 e73c 46c1 223e 79e0 c1bd e467 f5bd
00000080: a3d9 7abd 7585 9a3e b57a 883d 37e8 ae3d
00000090: 77ad 243e f954 523e 7d17 08be 3e56 223e
000000a0: 3892 34be 1eb5 9abe eb6c 6dbe 7e19 10be
000000b0: f7ce 2dbe 8192 cbbd b620 97be 578c a9bd
000000c0: d1cb 49bd 2de0 11be e95c df3e b6f5 19be
000000d0: 3105 dbbd 37fe 3b3e ef17 29bd 067b 9cbf
000000e0: 1b97 6dbe a695 2f3d 35ac 1fbf cd6f 85be
000000f0: 4e8c 2cbf df3f 393e dc6e 7b3d 7f4f a0be
00000100: b6cc a4be 8689 243e 5802 403f c41a f93e
00000110: 2923 d93c 549e 0d3e f7e4 ba3d 7463 0fbf
00000120: d4b3 7f3c fc07 7cbd fcd1 04be 56b2 2b3e
00000130: 9b77 ecbe a97c 48bf 528d e2bd af98 383e
00000140: d273 e03d 1cca 8a3e 3e87 9ebf a66f 94bd
00000150: ab15 6ebe 4763 3abd 0e94 19bf 7503 86bd
00000160: acdd 07be f5e6 103d 9d84 07bf f574 8a3e
00000170: 6d8c 87bd 8a69 d3be 8997 c3be 6ff1 24be
00000180: 8dfb 8ebe 22dc d2bd 14bc 073e 46a6 9abf
00000190: 2f54 80be 0757 22bf b513 95be 65db 81be
000001a0: 3c8a 78bd 4791 2abe eb9a 76be 7add 673e
000001b0: 0678 29be 27fd bd3b beb4 a5be 8e3b 2ebb
000001c0: 1923 5fbe 9a4f e2bd e92a 46be a918 48bf
000001d0: 9837 34bf cc53 f93e 99ab 42be 824b 5bbd
000001e0: 683b bdbe 2427 85be 25b6 9b3e d274 e4be
000001f0: d1bb d43d b509 9fbf 849f 7fbe e0b5 cfbd
00000200: 5694 97be 8e72 10be 90dd 453e 47ee a7be
00000210: 65ee 023f d92e dc3d f5db 96bc eb32 e6bd
00000220: 9a66 5abe 57df b0be be39 94be 3cbe 803d
00000230: 54ab 0f3e 485b cc3d 8dac 97be d61b 90be
00000240: 00cd bbbe f720 31bf c576 8b3e e490 833d
00000250: 86dc 12be b073 babe 3f2a ba3d e695 97bd
00000260: 0b7a 63be 6c81 0d3e 0fb0 a5be d5b4 833d
00000270: 0379 e2bc 13ca 74bd c261 d03d 9513 08bd
00000280: de2c 9fbd a637 15be d367 fbbd 9d6c 0bbf
00000290: 4198 c9bd 78f7 39be 428b 803d fb87 6fbf
000002a0: 7c87 063c 3322 6bbd 77c2 adbe 5aa6 dfbe
000002b0: 9cfc 733e c6ca 96be 816c c9be 9df1 12be
000002c0: a1c1 4cbe 9fd5 b83d 7522 05be 5593 133c
000002d0: 2f83 2dbe 3b63 f2bc 4a8b ddbd cfd0 2b3d
000002e0: d7b4 35be a40b 7bbe fe06 91bd 1422 f73d
000002f0: 30c6 3fbd 90a2 3abe 4fc7 373e 96a1 1abe
00000300: 4010 36be d7b2 2dbf a217 60bd 575d b5bf
00000310: cb85 80be f738 adbe 8107 5ebd 2a0a 59bd
00000320: c095 3fbc f559 02bd c03b 4e3e 50cc 32bd
00000330: a4dd 71bf bce6 8cbe 5288 e7be 3f0c a6be
00000340: 3898 ccbb 7971 47be 9fcd 31be 5f41 bfbe
00000350: 0af4 57bf 63ab 703d 3bb2 69be 6c37 78bb
00000360: cd9c 8abe b15d c6be fb85 e7bd f624 a8be
00000370: 1895 ccbe e394 e1bd 124b 53be 5c60 0c3f
00000380: 6e43 a8bf b586 86be d38b 753d 4114 c6bd
00000390: 1586 903e c5f0 18bd 93ac e2bd 340c f7be
000003a0: 2b2f f0bd b1d3 5cbe 4561 993d 9f01 3a3e
000003b0: 671c bebc 2a73 6dbe 714e 543e 7e9a 203e
000003c0: 6ad5 663d 63a1 61be 0660 2d3e a6cd 2e3e
000003d0: 1dcd 163f caf9 d5bd 16a1 98bd 124d dbbe
000003e0: 42c6 6bbe c267 683e 8fbb a1be 18e6 b2be
000003f0: 02d6 dfbe d7fa a1bd 0aa1 69be d9dd c3be

l2.bias f4 [300]
0.24253301 -0.070906505 0.7216138 -0.04006442 0.6595677 -0.004153377 -0.10034675 0.007862698
0.4716709 0.18075643 0.20867063 -0.02536683 -0.036542527 -0.005351245 0.15354021 -0.19730796
-0.054815095 0.38599786 -0.09192759 1.2407054 0.12789679 -0.02010299 -0.021394549 -0.08562737
-0.2156066 0.14942087 0.40398425 1.2001883 -0.08400761 -0.01507077 0.11950974 -0.05086852
-0.02956412 0.006982551 -0.12519448 -0.056173336 -0.049647365 0.21061172 -0.018877368 1.0335574
-0.07198684 0.23891418 -0.09622211 0.5685586 0.59588104 -0.05185274 -0.17967391 0.014609577
0.13149244 -0.26338425 -0.00995203 -0.018495154 0.4568966 -0.1006105 0.50520676 0.90359324
0.03678039 1.1504874 0.0052273786 -0.012381108 -0.20547679 -0.08924389 -0.01857562 -0.18098614
0.3555048 0.5250579 1.5705858 0.53739005 -0.4103337 -0.05449993 0.33281192 0.22129288
0.26830757 0.83163965 -0.017796662 -0.09451146 -0.028441688 -0.019334834 0.27738535 -0.05996345
-0.22357278 -0.077324435 -0.05796818 0.8807608 -0.06435595 0.64764774 0.4802972 -0.23943973
-0.0704699 0.8196269 1.0928191 -0.03374632 0.015788058 -0.0895583 1.2132449 0.536031
-0.081320934 0.46407476 -0.067164816 -0.3007413 -0.07843458 -0.093413234 0.91487384 -0.034313977
0.636371 0.80749726 -0.05549906 0.098099746 -0.24661297 -0.1771884 0.7772989 0.23318675
-0.079033606 -0.056758206 -0.046586663 -0.009773216 -0.1647787 0.9585926 0.76313686 0.4373465
-0.028489744 -0.045992106 -0.019424986 -0.104267254 -0.008894792 -0.05901648 -0.049997542 1.198877
-0.046143353 0.31285295 1.2042303 0.8809122 0.0044326806 0.88854325 -0.23771697 -0.05992098
1.3163397 -0.016622076 -0.014545131 -0.6379229 -0.022678286 -0.11500856 0.34090608 -0.17483103
-0.69558096 0.6321854 -0.19047129 0.6011672 0.35316545 -0.016661564 -0.07659726 -0.43220264
-0.0070712133 0.76597095 -0.02092926 -0.06350658 -0.03475513 -1.1894357 -0.0857287 0.43678662
-0.066367604 -0.09131515 0.47740516 -0.4287277 0.43732947 0.066357166 -0.052011438 -0.063944675
-0.062210545 0.4098449 0.0008529933 0.15382035 -0.79225165 -0.06308041 -0.06653897 0.21617581
-0.20983091 0.021774156 -0.021823704 -0.033953447 -0.047218475 0.28512165 0.19998121 0.5430167
1.1983614 -0.029529847 -0.05611075 0.5511229 -0.6911583 0.21696557 -0.05443362 0.4510604
0.54827034 -0.33884975 -0.7437415 0.003818194 0.0065988456 -0.17226107 -0.25165406 0.18951464
0.47086132 -0.016393343 -0.07730357 -0.06612239 -0.09858978 -0.01633411 -0.005050614 -0.008454648
-0.076814815 -0.17132924 -0.108368054 -0.22911899 -0.74262744 -0.08464091 -0.069605626 -0.013337018
0.24183266 -0.00042086217 -1.1782722 0.36488506 -0.08048796 -0.07331155 -0.5593484 -0.046489805
-0.061694965 -0.39926508 -0.06295673 -0.0510749 0.5238981 0.48510805 0.87942725 0.30956998
-0.8218714 0.5529008 1.1929677 -0.06640188 0.71797353 0.011819333 1.1881354 1.0929608
-0.046825826 -0.026944492 -0.032880563 -0.07911556 -0.35714722 -0.07976674 -0.05489854 0.2735945
-0.10106648 -0.024760725 1.082398 -0.06989918 0.6284717 0.025952818 -0.023988845 -0.08773142
00000000: 935a 783e 6e37 91bd afbb 383f 971a 24bd
00000010: 6ed9 283f 0d19 88bb 9982 cdbd 8cd2 003c
00000020: d97e f13e 3718 393e c1ad 553e 19ce cfbc
00000030: 9ead 15bd 7f59 afbb a539 1d3e 190b 4abe
00000040: cb85 60bd 83a1 c53e 8844 bcbd 6fcf 9e3f
00000050: 60f7 023e 07af a4bc 9f43 afbc 675d afbd
00000060: fac7 5cbe c901 193e 06d7 ce3e c59f 993f
00000070: 2f0c acbd 64eb 76bc 86c1 f43d 825b 50bd
00000080: 7430 f2bc e2cd e43b fb32 00be 0316 66bd
00000090: 095b 4bbd 99aa 573e b6a4 9abc 9c4b 843f
000000a0: d66d 93bd eba5 743e 1910 c5bd 0e8d 113f
000000b0: a98b 183f 8a63 54bd 70fc 37be 025d 6f3c
000000c0: f4a5 063e 4dda 86be d70d 23bc 2683 97bc
000000d0: 5aee e93e e10c cebd 3b55 013f e351 673f
000000e0: 09a7 163d 2c43 933f 6e4a ab3b 21da 4abc
000000f0: 8268 52be 80c5 b6bd e62b 98bc 6e54 39be
00000100: ba04 b63e 326a 063f f508 c93f 6592 093f
00000110: 4217 d2be 523b 5fbd 5366 aa3e 9a9a 623e
00000120: 9c5f 893e 56e6 543f 4eca 91bc 398f c1bd
00000130: 8bfe e8bc 1664 9ebc 7405 8e3e 3c9c 75bd
00000140: 43f0 64be 465c 9ebd 0b70 6dbd 8a79 613f
00000150: 0dcd 83bd 3ecc 253f 84e9 f53e b02f 75be
00000160: 8652 90bd 12d3 513f 7fe1 8b3f 9539 0abd
00000170: f555 813c 586a b7bd 9c4b 9b3f 5439 093f
00000180: 978b a6bd 359b ed3e b58d 89bd c4fa 99be
00000190: 4fa2 a0bd 704f bfbd 2c35 6a3f d08c 0cbd
000001a0: 36e9 223f 24b8 4e3f fb52 63bd 85e8 c83d
000001b0: 1c88 7cbe e070 35be 10fd 463f 82c8 6e3e
000001c0: 5fdc a1bd 4b7b 68bd a8d1 3ebd d71f 20bc
000001d0: bfbb 28be 5366 753f f05c 433f e1eb df3e
000001e0: 5363 e9bc 3862 3cbd 2621 9fbc 128a d5bd
000001f0: 76bb 11bc 44bb 71bd 39ca 4cbd cd74 993f
00000200: d000 3dbd 432e a03e 3824 9a3f 7683 613f
00000210: 0540 913b 9277 633f 146c 73be b46f 75bd
00000220: d27d a83f 052b 88bc b34e 6ebc ea4e 23bf
00000230: d0c7 b9bc 9c89 ebbd 3e8b ae3e e806 33be
00000240: 9811 32bf e7d6 213f e80a 43be 18e6 193f
00000250: 1ad2 b43e d57d 88bc 06df 9cbd aa49 ddbe
00000260: a3b5 e7bb ac16 443f d773 abbc bd0f 82bd
00000270: 655b 0ebd 6e3f 98bf 8792 afbd 7fa2 df3e
00000280: bdeb 87bd 7003 bbbd 736e f43e 3282 dbbe
00000290: a6e9 df3e 44e6 873d f209 55bd 6df5 82bd
000002a0: 7cd0 7ebd 31d7 d13e 699b 5f3a 1583 1d3e
000002b0: 01d1 4abf 4d30 81bd 9545 88bd 315d 5d3e
000002c0: eadd 56be b75f b23c a0c7 b2bc c512 0bbd
000002d0: 2968 41bd 77fb 913e e0c7 4c3e 2403 0b3f
000002e0: e863 993f 94e8 f1bc 63d4 65bd 6416 0d3f
000002f0: c0ef 30bf 392c 5e3e caf5 5ebd 64f1 e63e
00000300: 725b 0c3f b77d adbe d865 3ebf aa3a 7a3b
00000310: 213b d83b 3565 30be cdd8 80be 2010 423e
00000320: bc14 f13e 554b 86bc 5651 9ebd 2d6b 87bd
00000330: 70e9 c9bd 1dcf 85bc 9f7f a5bb 5d85 0abc
00000340: 1651 9dbd ef70 2fbe 12f0 ddbd 2b9e 6abe
00000350: d51c 3ebf 3758 adbd 658d 8ebd 8283 5abc
00000360: fba2 773e 2aa7 dcb9 a0d1 96bf 37d2 ba3e
00000370: dfd6 a4bd 5e24 96bd 7531 0fbf 186c 3ebd
00000380: dcb3 7cbd 796c ccbe 75ef 80bd ea33 51bd
00000390: 301e 063f 1560 f83e 2522 613f f57f 9e3e
000003a0: 2a66 52bf e88a 0d3f 2ab3 983f b5fd 87bd
000003b0: 1dcd 373f e0a5 413c d214 983f 24e6 8b3f
000003c0: 70cc 3fbd b2ba dcbc c5ad 06bd 5707 a2bd
000003d0: 00dc b6be bf5c a3bd 4bdd 60bd 9414 8c3e
000003e0: f1fb cebd 01d7 cabc 058c 8a3f 4d27 8fbd
000003f0: 85e3 203f 019b d43c 4184 c4bc 88ac b3bd

l3.weight f4 [1, 300]
0.027514463 0.024257438 -0.13060415 0.18137263 -1.4814509 0.030377723 0.11468764 0.04098233
-0.558597 1.562464 -1.9904047 -0.030320724 -0.03188591 0.005806196 -0.72397655 0.030423542
-0.0017699918 -2.2170823 1.9285578 -0.66432226 1.1047773 0.00766102 -0.01822358 -0.028547114
1.1039863 0.8794418 0.9116535 -1.0335097 0.03406893 0.017059423 -1.2037475 -0.0031926935
0.011705525 0.028771749 -0.3500435 0.015594917 0.015156078 -0.69395965 -0.017066503 -0.5547111
-0.014729533 -0.75611573 0.05756361 -1.8530219 0.6743585 0.04059639 -0.14736219 -0.00055963814
-0.010492569 0.32847852 -0.011461332 0.0015687328 0.65566236 -0.33853382 -1.016192 -1.1609144
0.8329982 1.868868 0.0055579985 0.007943723 0.27147853 -0.004208232 0.0011279607 -0.73897386
-0.7270967 1.1301398 -1.2197132 -0.11063006 0.8828827 -0.021941796 -1.064987 -1.4780177
-0.80283356 -0.26851937 -0.008495067 -0.0022691463 -0.01680275 -0.0053642835 -0.0572261 0.005665939
-0.22624305 -0.008903174 -0.021741003 -2.2553227 0.0030690602 0.893208 -0.45803505 -1.3695258
0.007834898 -1.5450746 -0.6472296 -0.018007513 0.6658797 -0.012663671 -0.8308393 -0.64956605
-0.022401497 0.37357864 0.011605128 0.40056157 0.0072639966 -0.0010565749 -0.55452245 0.80088824
-0.89202714 -1.0353688 0.088524155 0.35308936 -0.24908654 0.008507919 -1.2737405 -1.7099066
-0.004264297 0.0250472 -0.0129972715 0.01603385 -1.2573373 -0.39497352 -0.13257724 -0.09835595
-0.010510824 -0.758893 -0.0009978317 -0.11554147 -0.0001150672 -0.04242178 -0.0053314078 -1.834573
-0.026905376 -1.2430059 -0.58172965 -0.43651187 0.01073937 -0.9574346 -0.42315462 0.0154267205
-0.6987935 -0.011476979 -0.005161162 1.1508645 -0.0110021895 2.2946708 -1.0136733 -0.30176964
-1.7223493 -0.4736875 -0.35441253 -0.7347559 -1.4723632 0.01597015 -1.0207067 -0.029682955
0.0016226332 -0.28771868 0.039927326 0.00089890754 0.016984917 0.66608846 0.015791336 1.1658627
0.019172037 0.1890229 1.8690301 -0.0447188 0.80169964 -0.72043604 0.00042777724 0.022107942
-0.009948491 0.026456479 -0.009111417 -0.64517915 2.2882793 -0.017777663 -0.005686149 -0.8206435
-0.40280557 -0.008418326 0.013201789 0.020757895 0.0041191974 -1.6386136 0.042193048 -0.0048656524
-0.8496892 0.008054552 0.028633911 -0.80071163 0.7151789 0.06887397 0.0061844066 0.70293087
0.7402446 -1.5309229 -1.7840044 0.7652069 -0.002791712 1.5630239 -0.38236117 -0.86439335
-1.2785553 0.014938895 0.16214117 0.42889267 -1.5861709 0.004369909 0.106803425 0.022937939
0.17693506 -0.13213319 0.002452012 -0.3778491 0.65518695 0.031138428 0.0049139885 0.024067074
-0.005353107 0.012999133 0.8453967 -0.019521844 0.010208144 -0.04145097 0.23016205 0.009412047
-0.01501191 0.6151026 0.006109342 0.009779549 -1.1450206 -1.9898752 -0.5075539 -1.5818659
1.7208472 -0.2856206 -1.4034407 -0.012176961 -0.76102334 0.009629977 -0.7376476 -0.8788143
-0.011237256 0.024481699 0.031368278 0.0123986155 0.6962336 -0.020365251 -0.0002563555 0.026428912
-0.008355928 0.029710151 -0.76123786 0.039226227 -1.393928 0.015832312 -0.0077304034 0.0072301896
00000000: 0366 e13c 89b7 c63c 18bd 05be bfb9 393e
00000010: 2fa0 bdbf b4da f83c 5ae1 ea3d 16dd 273d
00000020: 3700 0fbf d2fe c73f 95c5 febf 2b63 f8bc
00000030: cd9a 02bd e741 be3b 8756 39bf cb3a f93c
00000040: 12ff e7ba ade4 0dc0 fbda f63f 0611 2abf
00000050: 5869 8d3f 4b09 fb3b 9e49 95bc a3db e9bc
00000060: 6c4f 8d3f 1923 613f 2062 693f 0c4a 84bf
00000070: dd8b 0b3d 34c0 8b3c 6614 9abf 823c 51bb
00000080: 88c8 3f3c bbb2 eb3c e738 b3be d381 7f3c
00000090: 3351 783c 57a7 31bf 0dcf 8bbc 8c01 0ebf
000000a0: 2454 71bc cd90 41bf d2c7 6b3d d22f edbf
000000b0: c2a2 2c3f 6648 263d 1de6 16be aeb4 12ba
000000c0: 06e9 2bbc 562e a83e 50c8 3bbc f09d cd3a
000000d0: 7dd9 273f 4e54 adbe 9412 82bf d898 94bf
000000e0: 5f3f 553f 1137 ef3f df1f b63b 6426 023c
000000f0: 3cff 8a3e 35e5 89bb 15d8 933a 642d 3dbf
00000100: 0223 3abf 6ca8 903f 901f 9cbf 0392 e2bd
00000110: 9a04 623f 48bf b3bc 7e51 88bf af2f bdbf
00000120: 8086 4dbf 5f7b 89be e52e 0bbc f5b5 14bb
00000130: eca5 89bc dfc6 afbb ea65 6abd 57a9 b93b
00000140: 42ac 67be 9ede 11bc 301a b2bc 3557 10c0
00000150: 4922 493b 48a9 643f 9283 eabe 9f4c afbf
00000160: f25d 003c 01c5 c5bf d7b0 25bf 7e84 93bc
00000170: 1877 2a3f 497b 4fbc e2b1 54bf f649 26bf
00000180: 5883 b7bc b345 bf3e 6f23 3e3c 6816 cd3e
00000190: d206 ee3b c57c 8aba 2ff5 0dbf 0307 4d3f
000001a0: e45b 64bf f786 84bf 274c b53d 21c8 b43e
000001b0: 8b10 7fbe cc64 0b3c ee09 a3bf 38de dabf
000001c0: 84bb 8bbb c92f cd3c 82f2 54bc 6c59 833c
000001d0: 6ef0 a0bf f839 cabe 54c2 07be d86e c9bd
000001e0: 9735 2cbc d046 42bf adc9 82ba 02a1 ecbd
000001f0: 3c50 f1b8 76c2 2dbd 17b3 aebb 4ad3 eabf
00000200: aa68 dcbc d11a 9fbf 3cec 14bf 7c7e dfbe
00000210: 2ff4 2f3c 6f1a 75bf b9a7 d8be 5bc0 7c3c
00000220: 21e4 32bf f009 3cbc f71e a9bb 874f 933f
00000230: 8742 34bc e3db 1240 0cc0 81bf 8d81 9abe
00000240: f175 dcbf 2b87 f2be 8f75 b5be f618 3cbf
00000250: 6676 bcbf d5d3 823c 84a6 82bf ab29 f3bc
00000260: 89ae d43a dd4f 93be d68a 233d aaa4 6b3a
00000270: f423 8b3c c684 2a3f d55c 813c fd3a 953f
00000280: ad0e 9d3c 388f 413e 613c ef3f 0f2b 37bd
00000290: 303c 4d3f 7f6e 38bf 4a47 e039 b71b b53c
000002a0: fffe 22bc 42bb d83c 0e48 15bc 762a 25bf
000002b0: 2b73 1240 76a2 91bc e052 babb b115 52bf
000002c0: 883c cebe 05ed 09bc 514c 583c 760c aa3c
000002d0: 55fa 863b 17be d1bf 9ed2 2c3d 0d70 9fbb
000002e0: 3b85 59bf 3df7 033c aa91 ea3c 70fb 4cbf
000002f0: f715 373f cc0d 8d3d 90a6 ca3b 47f3 333f
00000300: ac80 3d3f 48f5 c3bf 425a e4bf 99e4 433f
00000310: 28f5 36bb 2b11 c83f d8c4 c3be e248 5dbf
00000320: b3a7 a3bf 44c2 743c 5608 263e d297 db3e
00000330: a607 cbbf 7431 8f3b c1bb da3d 58e8 bb3c
00000340: 772e 353e ec4d 07be efb1 203b 7075 c1be
00000350: 55ba 273f 0416 ff3c 8605 a13b 5028 c53c
00000360: 1e69 afbb 51fa 543c eb6b 583f 46ec 9fbc
00000370: 0f40 273c 7ec8 29bd 9aaf 6b3e fd34 1a3c
00000380: 84f4 75bc 5d77 1d3f e030 c83b 673a 203c
00000390: 0990 92bf 3bb4 febf 0def 01bf 957a cabf
000003a0: b944 dc3f dd3c 92be f2a3 b3bf e081 47bc
000003b0: 6dd2 42bf 0dc7 1d3c 79d6 3cbf f9f9 60bf
000003c0: 781c 38bc d88d c83c 067c 003d 9023 4b3c
000003d0: 5d3c 323f 07d5 a6bc 7467 86b9 7281 d83c
000003e0: 4de7 08bc b462 f33c 7ce0 42bf aeab 203d
000003f0: 3c6c b2bf c4b2 813c 534f fdbb 3aeb ec3b
