preTrained/LunarLanderContinuous-v2/TD3_LunarLanderContinuous-v2_0_solved_critic_2_target.pth (torch_old, 501014 bytes, 5 tensors)

l1.weight f4 [400, 10]
-0.2235033 -0.24151568 0.3752956 1.7096026 -0.23779993 0.24501702 0.26481396 -0.99543333
-1.1034291 -0.17294501 0.77375084 -0.55139506 -0.7380746 0.7659233 0.15718208 1.0815986
-1.6760724 -0.33894846 -0.13632402 0.0067511946 -0.02138012 -0.17788778 -0.7530149 0.9566901
-0.57800335 1.116862 0.09454991 -0.19744846 0.0134896 -0.31699958 0.8516139 0.26876938
0.91419834 1.5300926 -2.3525004 0.46771017 0.099861965 -0.5974957 0.16361587 -0.104428716
0.5558955 0.11425092 0.49311715 0.31846642 -2.6656337 -1.387918 -0.4233747 -0.5980826
0.020124933 0.029527985 -0.18204725 -0.6591622 -0.1768512 -0.35133535 -1.4330568 -0.49631387
-0.527558 -0.09674602 -0.13729315 0.038610853 -0.54841375 0.5219113 1.3868691 0.32889584
-1.4832228 1.3065223 0.4282659 -0.09811757 0.055994634 -0.1291995 0.12763661 -1.1857994
-1.8987408 0.637267 -0.3901921 0.38845786 0.25944847 0.6596103 0.53345007 0.034095716
-1.0134869 0.49904224 -0.7176736 -0.35099518 0.039153036 -2.365989 -0.8838306 0.24919383
-0.041270964 0.07000202 0.02627353 0.42950612 -0.46591982 -0.35591277 -0.35171202 0.0071621328
-0.1528713 -0.08698394 0.004978733 -0.46172366 -1.4585652 -0.6043725 -1.4859871 1.1292337
0.6627768 -0.65760165 0.42800444 -0.019538106 0.19741689 -0.07703803 0.28143832 1.0781611
0.33473513 0.12883823 0.2715821 -0.6159382 -0.13748996 -1.6047851 0.207215 0.24094556
-1.3729432 0.32559618 -0.7603447 -0.00522089 -0.22925727 0.2231787 -0.51849896 -0.15595841
0.006439081 -0.00614051 -1.411245 -0.26522177 -1.2404169 1.3079247 0.63534 -0.5718876
1.138356 -1.073115 0.13866402 0.013751053 -0.24596922 -1.6245975 0.010525538 0.25230375
-0.14310046 0.18571185 0.2670499 -0.52325183 0.14655454 0.15019341 1.3629091 -0.9348625
-0.5262021 0.8989224 -1.1742479 0.8792523 0.2048109 -0.31424785 -0.081656165 -0.13557078
-0.4620881 -2.3474529 -0.9497856 -1.2905724 0.6275783 -0.62452024 -0.10109176 -1.4713448
0.0045834696 0.017237494 1.9355806 -0.10777623 -0.55133384 0.08021155 -0.5564642 0.0003619101
-0.21524394 0.16863279 0.8194847 0.030719014 0.3500361 -3.6852472 1.0224874 -1.2152553
-1.3864475 -0.1390773 -0.33524495 0.15582186 0.10761587 -0.23581114 1.3103925 -5.428397
0.7715552 0.859273 0.7942618 0.568522 -0.8124284 -0.5058064 0.019566128 -0.16548887
1.2700061 0.58472365 -0.49137893 0.48274657 1.6003151 -0.2667726 0.5061937 -1.2653352
0.08997174 0.16098371 -0.37976497 0.4810965 -0.9714167 -0.1511625 -0.8704726 -0.100301966
-0.062771015 0.093128026 0.11873999 0.13489981 -0.5719073 -2.0393732 0.10242073 1.9454148
-1.8819753 0.33119932 0.8834853 -0.9800317 -1.036002 0.08482382 1.000125 -0.6182577
0.53514504 0.17007054 0.7425209 -0.9910365 -1.3083868 -0.1442031 -0.018007245 -0.3328605
-0.64889044 -0.16836257 -1.1387017 1.3190573 0.7665297 -0.38225073 0.14817338 -0.56674343
0.0068784924 -0.093510024 -1.0515459 -1.3517218 1.2863758 -1.96434 0.55924267 0.32168418
00000000: 0dde 64be e34f 77be bf26 c03e 42d4 da3f
00000010: d381 73be bee5 7a3e b295 873e b8d4 7ebf
00000020: 2a3d 8dbf 7f18 31be 8914 463f 3a28 0dbf
00000030: 75f2 3cbf 8d13 443f 57f4 203e d371 8a3f
00000040: 8a89 d6bf a78a adbe 8698 0bbe 2039 dd3b
00000050: 5d25 afbc 3728 36be 96c5 40bf a4e9 743f
00000060: 07f8 13bf 56f5 8e3f 62a3 c13d ee2f 4abe
00000070: 7c03 5d3c c54d a2be 5e03 5a3f 249c 893e
00000080: e708 6a3f 13da c33f 5e8f 16c0 b577 ef3e
00000090: 6e84 cc3d 7af5 18bf eb8a 273e b9de d5bd
000000a0: 2b4f 0e3f 63fc e93d da79 fc3e 080e a33e
000000b0: be99 2ac0 4ca7 b1bf 92c4 d8be f11b 19bf
000000c0: 0bdd a43c ace4 f13c 986a 3abe dbbe 28bf
000000d0: 7b18 35be 3ae2 b3be 686e b7bf da1c febe
000000e0: 0b0e 07bf c722 c6bd 9396 0cbe 6a26 1e3d
000000f0: d864 0cbf fb9b 053f ed84 b13f 0965 a83e
00000100: 3fda bdbf 1f3c a73f ab45 db3e ddf1 c8bd
00000110: a15a 653d e04c 04be 2cb3 023e 46c8 97bf
00000120: f009 f3bf ee23 233f 42c7 c7be f3e3 c63e
00000130: 6ed6 843e 38dc 283f 2f90 083f f3a7 0b3d
00000140: f0b9 81bf 7782 ff3e 75b9 37bf a4b5 b3be
00000150: ef5e 203d 5d6c 17c0 b942 62bf ab2c 7f3e
00000160: be0b 29bd 385d 8f3d 963b d73c 3ae8 db3e
00000170: 0b8d eebe 333a b6be 9913 b4be 53b0 ea3b
00000180: 4b8a 1cbe a324 b2bd a424 a33b 0b67 ecbe
00000190: 44b2 babf 28b8 1abf d334 bebf bb8a 903f
000001a0: beab 293f 9558 28bf 6623 db3e 610e a0bc
000001b0: a727 4a3e 1dc6 9dbd af18 903e 2f01 8a3f
000001c0: 6762 ab3e 2bee 033e cf0c 8b3e 20ae 1dbf
000001d0: 2bca 0cbe 9969 cdbf 2b30 543e 6fba 763e
000001e0: 9abc afbf 8bb4 a63e f3a5 42bf 0014 abbb
000001f0: 6bc2 6abe f588 643e 59bc 04bf 90b3 1fbe
00000200: edfe d23b 5536 c9bb ada3 b4bf 26cb 87be
00000210: fbc5 9ebf 146a a73f a4a5 223f 3a67 12bf
00000220: a6b5 913f d55b 89bf f1fd 0d3e 194c 613c
00000230: 5bdf 7bbe d0f2 cfbf 4e73 2c3c f52d 813e
00000240: ed88 12be 3f2b 3e3e c4ba 883e d5f3 05bf
00000250: 6512 163e 4dcc 193e ce73 ae3f 2653 6fbf
00000260: 2eb5 06bf c71f 663f c14d 96bf ae16 613f
00000270: f3b9 513e 18e5 a0be 593b a7bd 11d3 0abe
00000280: d096 ecbe ab3c 16c0 2625 73bf 7a31 a5bf
00000290: f9a8 203f 8fe0 1fbf 3209 cfbd 0755 bcbf
000002a0: ee30 963b a535 8d3c 1bc1 f73f c9b9 dcbd
000002b0: 3724 0dbf f445 a43d 7074 0ebf c0be bd39
000002c0: e868 5cbe 13ae 2c3e c0c9 513f 71a6 fb3c
000002d0: ef37 b33e 17db 6bc0 dee0 823f 7c8d 9bbf
000002e0: 1d77 b1bf 486a 0ebe 3aa5 abbe c48f 1f3e
000002f0: b665 dc3d 7a78 71be f1ba a73f 6eb5 adc0
00000300: a484 453f 51f9 5b3f be54 4b3f a88a 113f
00000310: 4ffb 4fbf 877c 01bf 2549 a03c ea75 29be
00000320: 8f8f a23f 73b0 153f 0596 fbbe 8f2a f73e
00000330: 20d7 cc3f 6b96 88be e995 013f 81f6 a1bf
00000340: 1b43 b83d ead8 243e 8e70 c2be 4852 f63e
00000350: c4ae 78bf 58ca 1abe 4bd7 5ebf 1e6b cdbd
00000360: 178e 80bd e8b9 be3d f42d f33d 2d23 0a3e
00000370: 8468 12bf 1785 02c0 f6c1 d13d 5a03 f93f
00000380: 91e4 f0bf f592 a93e 182c 623f 5ce3 7abf
00000390: b79b 84bf 1cb8 ad3d 1904 803f 2346 1ebf
000003a0: 44ff 083f f926 2e3e da15 3e3f 91b4 7dbf
000003b0: 3879 a7bf faa9 13be ee83 93bc b16c aabe
000003c0: af1d 26bf 3d67 2cbe fac0 91bf dfd6 a83f
000003d0: 4a3b 443f 5eb6 c3be c3ba 173e 1916 11bf
000003e0: fa64 e13b 2f82 bfbd 0e99 86bf 3805 adbf
000003f0: f6a7 a43f 7e6f fbbf 872a 0f3f cab3 a43e

l1.bias f4 [400]
-0.69612753 0.17530414 0.20076075 0.9431231 0.24978402 0.82206315 -1.1285843 -0.6349133
-0.54118013 0.39272138 -1.0608172 0.13733399 -0.87742734 -1.4257741 -0.89894027 0.57175046
0.92362154 -0.02616495 0.0014570734 0.25023964 0.7677005 0.5353088 -0.7816438 0.864566
-0.88543594 -0.68916607 0.09834828 0.07465863 -1.0163404 0.33315417 -0.4917464 -0.7709254
-0.12987462 0.9883563 -0.17660345 0.062435284 0.30558163 -1.1164778 -0.010849928 -0.010139281
0.44057363 0.02156506 0.19589102 -1.0012798 -0.4341584 -0.4795428 -1.1488653 0.52391744
0.51029503 0.30965403 -0.16940854 -1.1180531 -0.26619592 0.23583998 -0.43729353 -1.1586616
-1.7586356 -0.19693963 -0.51427764 0.20753334 0.12360528 -0.692376 -0.0011120617 -1.3354939
-0.81799036 -1.384774 1.0163109 -1.5000955 -1.1223446 -0.9354818 -0.6733651 -1.1197606
0.15167858 -0.4599915 0.36608383 -0.29896018 0.43113345 0.001613428 1.0933839 0.88093376
-1.4325212 0.48051116 -0.99719715 -0.0034817902 0.085819654 -0.02212552 -0.54658335 -2.0143867
0.49717644 0.016471611 0.08034258 -0.0586387 -2.043607 -0.14452027 -0.8748168 -1.3126332
-0.9850084 -0.18235081 -1.520969 -1.2103212 -0.34580013 0.977993 -1.5349103 -0.40146145
-1.2174737 0.42225042 -0.007275057 -0.08259483 -0.41195 -1.6634151 -0.45657253 0.2767887
0.15203255 -1.6504201 -0.60211885 -0.56689906 -0.09606174 0.26161686 -0.016313568 -1.0449519
0.09881226 0.01870117 -0.14770643 -0.7706456 -1.4426603 0.65088546 -2.0963452 -0.9185037
0.4501785 -0.32207564 -0.98702407 1.142492 0.21425079 -0.166645 1.365276 -0.27586558
0.21008185 -0.19397113 -0.0066638286 -0.15024666 0.14367825 0.45077395 -0.6589757 -0.21501619
0.21719216 -0.52234584 0.56918234 -1.2855994 0.39236724 -0.32909408 0.04912761 -1.2018096
-0.96607107 -0.807859 -0.8054179 -0.030393707 -0.35908827 0.17214033 0.48451096 -0.15390371
0.20352398 -1.0169156 0.6740553 -0.2535976 -0.8061189 -1.0132092 0.64220864 -0.34523588
-0.82028776 0.45227796 -0.6625549 -0.607653 0.59140813 0.75660485 -0.51696116 -0.016293531
-0.20931278 -0.48041427 0.8240489 -0.03641831 -1.4311686 -0.12607154 0.2910627 0.83250135
-0.556852 -0.9043394 0.4959504 -0.98836845 -0.5194506 0.6395153 0.30483136 0.41440505
-1.0605227 -0.41577458 0.34748447 -0.122554556 -0.4917726 -0.2704333 0.0832894 -0.97627735
-1.0287584 -0.4975624 0.29556084 -1.2970805 -0.26972592 1.1020945 -0.18038967 -1.2689216
-0.29606175 -0.0050267344 -0.66102123 -0.2156957 -0.067079686 0.22703505 -0.27825373 0.51978314
-0.54782796 -0.9742963 0.18615101 -0.40780982 -0.56017077 -0.1395165 0.12395398 0.4076826
0.39685425 -0.17586425 -0.029495707 -0.3828564 -1.0621647 -0.8465833 -0.12252878 -0.8295621
-0.372908 -1.0735642 -1.3450756 -0.49597967 0.003118407 -1.0013597 -0.45566794 -0.11389091
-0.24999377 0.7524016 -0.529498 -1.7785925 0.6135634 -0.29970038 0.48108053 0.09657875
-1.1456945 0.9605952 0.13779345 -0.079398125 0.097165704 -0.67276037 -0.44127023 -0.5768245
00000000: 6a35 32bf ee82 333e 3a94 4d3e 8470 713f
00000010: 62c7 7f3e bb72 523f 7375 90bf ae89 22bf
00000020: c88a 0abf c712 c93e dcc8 87bf 48a1 0c3e
00000030: 149f 60bf c47f b6bf f320 66bf 3d5e 123f
00000040: 7672 6c3f e157 d6bc 45fb be3a 691f 803e
00000050: 0588 443f ff09 093f cf19 48bf 3354 5d3f
00000060: eeab 62bf 306d 30bf d36a c93d a0e6 983d
00000070: 7117 82bf 2f93 aa3e 2fc6 fbbe 5e5b 45bf
00000080: dafd 04be eb04 7d3f 89d7 34be 24bc 7f3d
00000090: 3275 9c3e bfe8 8ebf e5c3 31bc 3a1f 26bc
000000a0: de92 e13e 35a9 b03c a897 483e f029 80bf
000000b0: 034a debe a286 f5be 050e 93bf 741f 063f
000000c0: b2a2 023f f98a 9e3e 6f79 2dbe 5d1c 8fbf
000000d0: d54a 88be 0980 713e f0e4 dfbe 064f 94bf
000000e0: f91a e1bf 8baa 49be b3a7 03bf 9f83 543e
000000f0: c424 fd3d 8e3f 31bf 99c2 91ba 77f1 aabf
00000100: d167 51bf 4640 b1bf 7a16 823f 2103 c0bf
00000110: fda8 8fbf bc7b 6fbf a861 2cbf 5154 8fbf
00000120: a151 1b3e 0284 ebbe 576f bb3e 4f11 99be
00000130: 86bd dc3e a979 d33a 01f4 8b3f e084 613f
00000140: db5c b7bf 8f05 f63e 5048 7fbf bf2e 64bb
00000150: 37c2 af3d 9440 b5bc e3ec 0bbf b6eb 00c0
00000160: e98d fe3e 79ef 863c a78a a43d 222f 70bd
00000170: 75ca 02c0 1ffd 13be fef3 5fbf 5d04 a8bf
00000180: 8329 7cbf 2cba 3abe 1daf c2bf ceeb 9abf
00000190: b70c b1be c05d 7a3f f177 c4bf 5b8c cdbe
000001a0: 2ed6 9bbf 3531 d83e 9a63 eebb 7a27 a9bd
000001b0: 1ceb d2be c9ea d4bf e0c3 e9be 40b7 8d3e
000001c0: 6cae 1b3e f740 d3bf 7624 1abf 4c20 11bf
000001d0: 04bc c4bd a5f2 853e 08a4 85bc fcc0 85bf
000001e0: 155e ca3d 3233 993c 5b40 17be 0849 45bf
000001f0: 18a9 b8bf 6ea0 263f 852a 06c0 0f23 6bbf
00000200: cc7d e63e 19e7 a4be 9cad 7cbf 2e3d 923f
00000210: 8f64 5b3e fda4 2abe 5dc1 ae3f 413e 8dbe
00000220: b21f 573e 5ea0 46be 3f5c dabb 43da 19be
00000230: 6420 133e d8cb e63e a2b2 28bf 342d 5cbe
00000240: 9f67 5e3e 75b8 05bf efb5 113f 858e a4bf
00000250: 5ce4 c83e 057f a8be 083a 493d e6d4 99bf
00000260: 6f50 77bf d9cf 4ebf de2f 4ebf 39fc f8bc
00000270: 6bda b7be 8e45 303e d211 f83e ef98 1dbe
00000280: 9768 503e 4a2a 82bf e38e 2c3f 8bd7 81be
00000290: cf5d 4ebf d7b0 81bf c967 243f c2c2 b0be
000002a0: 61fe 51bf fa90 e73e 339d 29bf 268f 1bbf
000002b0: 8666 173f dbb0 413f 9157 04bf 037a 85bc
000002c0: 1756 56be dcf8 f5be def4 523f 5e2b 15bd
000002d0: 8830 b7bf e618 01be 2c06 953e cf1e 553f
000002e0: da8d 0ebf c982 67bf 36ed fd3e b705 7dbf
000002f0: b7fa 04bf 46b7 233f db12 9c3e e62c d43e
00000300: 35bf 87bf 68e0 d4be 7ce9 b13e e2fd fabd
00000310: 9ec9 fbbe 3c76 8abe a293 aa3d 50ed 79bf
00000320: 5bae 83bf 80c0 febe c053 973e bc06 a6bf
00000330: 8419 8abe 6f11 8d3f 12b8 38be 066c a2bf
00000340: 6895 97be 4eb7 a4bb b038 29bf 55df 5cbe
00000350: 1361 89bd e07b 683e 4677 8ebe 8210 053f
00000360: 743e 0cbf 7b6b 79bf 5f9e 3e3e 73cc d0be
00000370: 5a67 0fbf 6add 0ebe 96db fd3d c6bb d03e
00000380: 7b30 cb3e c215 34be fba0 f1bc c105 c4be
00000390: 03f5 87bf afb9 58bf 5ef0 fabd 2f5e 54bf
000003a0: cced bebe 8d6a 89bf 702b acbf 0cf1 fdbe
000003b0: 305e 4c3b 8e2c 80bf 4f4d e9be a33f e9bd
000003c0: 5efe 7fbe 649d 403f 2e8d 07bf eba8 e3bf
000003d0: 7e12 1d3f 5472 99be 3050 f63e 14cb c53d
000003e0: 1ea6 92bf 91e9 753f ba19 0d3e 7c9b a2bd
000003f0: d0fe c63d 063a 2cbf 2cee e1be c5aa 13bf

l2.weight f4 [300, 400]
-0.15242264 -0.11855301 -0.26832548 0.2466368 -0.17563868 -0.06863556 0.026389051 -0.07290326
0.48849925 -0.11940387 -0.18710363 -0.2934727 -0.60444534 -0.012915129 -0.049291972 -0.22340588
-0.03224503 -0.1690136 -0.021128936 -0.25367466 0.16489491 -0.19292106 -0.14247164 -0.04533124
-0.12273428 -0.11971232 -0.18685627 -0.1275347 -0.08358591 -0.35091376 -0.0638955 0.26433197
0.078075446 0.0037580996 -0.10021413 -0.18885602 0.34422013 0.18253194 -0.36684608 -0.13533397
0.08110933 -0.11791822 0.00057370105 0.110814825 -0.18890072 -0.18124151 -0.061260596 -0.20169486
-0.028933426 -0.41314107 -0.143473 -0.0832253 -0.05936666 -0.15602574 -0.019640682 -0.2695116
-0.018142369 -0.21801761 -0.27529922 0.03885444 0.034334168 0.06709626 0.04285317 -0.31602713
-0.016583705 -0.25152293 -0.23985976 -0.1947092 0.18371509 -0.10081465 0.17205046 -0.22502415
0.12109812 -0.44435605 -0.14220938 -0.17890501 -0.09156251 -0.005526893 0.1846479 -0.32113525
-0.08317016 -0.2620491 -0.08458578 -0.054422446 0.20890106 -0.16921626 0.034012303 -0.38608053
0.024273083 0.055404432 -0.16515122 -0.21419099 0.254974 -0.07491194 -0.11268195 -0.2246844
-0.08020633 -0.25914636 -0.21562746 -0.15962885 -0.30244917 0.31902522 0.032282278 -0.19262601
-0.2718779 -0.12704296 -0.16398297 -0.1540111 -0.32837722 -0.03271069 0.060866456 -0.3859792
-0.07815742 0.12971026 0.062487703 -0.26300874 -0.5803293 -0.1746254 -0.2696785 -0.046838492
0.2282249 0.30065504 -0.19826461 0.2987298 0.07416687 -0.19652416 0.24282806 -0.34423804
0.15697643 0.049195856 0.02637005 -0.044411093 -0.1360522 -0.10449524 0.3831122 -0.1352088
-0.45353517 0.16693637 -0.25155866 -0.1197913 -0.15747117 -0.1004749 0.072533704 -0.07208817
0.2032565 0.27211034 0.0672721 0.25614822 -0.30438036 -0.18322635 0.21678676 -0.12670024
0.013179251 -0.06839416 -0.06499074 -0.45820817 0.15337332 -0.060774818 -0.14898345 -0.086244285
-0.12737377 -0.13833506 -0.016502867 -0.1558797 0.057780422 -0.25150505 0.35275552 -0.01340575
0.14978214 0.2764138 -0.2119439 0.17468499 -0.04579094 0.0129289115 -0.19304027 -0.15670823
-0.12345549 0.037655644 -0.23420624 -0.06357811 -0.090886 -0.09958828 -0.28690428 -0.0423212
-0.60115516 0.3643665 -0.2218681 -0.020689724 -0.066378035 -0.044399917 0.37118527 -0.48447597
-0.11954841 -0.1666622 -0.073736235 -0.12341675 0.20845701 -0.07127307 -0.11204269 -0.56833684
-0.2978775 -0.06850145 -0.14272198 -0.21936171 -0.33127993 -0.3821347 0.30854073 -0.14041825
-0.40355065 0.017595122 -0.083907776 -0.13319714 0.09541297 0.24648182 -0.095763154 0.04344475
0.014682035 -0.19302537 -0.025119841 0.26472533 -0.29501647 -0.2775642 -0.3034982 0.029407283
-0.06761036 -0.26524392 -0.14285013 0.015174891 -0.1726197 -1.0194669 -0.3732953 -0.06616793
-0.21781197 -0.4108761 -0.198658 -0.13681813 -0.090978384 -0.1640843 -0.21420291 0.0196906
0.346652 -0.24023229 0.06434849 -0.10369356 -0.26413527 -0.026842047 -0.09760792 0.06199596
0.03449659 -0.11131551 0.14825626 -0.006214768 -0.12476978 0.09166532 -0.07026575 -0.12648566
00000000: ae14 1cbe eccb f2bd f561 89be 5b8e 7c3e
00000010: a0da 33be cd90 8cbd da2d d83c 4e4e 95bd
00000020: 931c fa3e 048a f4bd 1898 3fbe 0e42 96be
00000030: eebc 1abf fa99 53bc 61e6 49bd 83c4 64be
00000040: 5d13 04bd e711 2dbe 9716 adbc a5e1 81be
00000050: 36da 283e 198d 45be 16e4 11be 40ad 39bd
00000060: 1c5c fbbd bc2b f5bd 4057 3fbe 7598 02be
00000070: 172f abbd f8aa b3be a5db 82bd 8556 873e
00000080: 05e6 9f3d 734a 763b 113d cdbd 7963 41be
00000090: 9f3d b03e a7e9 3a3e 40d3 bbbe fd94 0abe
000000a0: a61c a63d 1c7f f1bd 6d64 163a e2f2 e23d
000000b0: 316f 41be 6097 39be 64ec 7abd 1989 4ebe
000000c0: cb05 edbc 3a87 d3be 96ea 12be 0772 aabd
000000d0: 742a 73bd 36c5 1fbe 7fe5 a0bc 6dfd 89be
000000e0: 4e9f 94bc 0240 5fbe 05f4 8cbe d525 1f3d
000000f0: fca1 0c3d c469 893d ce86 2f3d 4fce a1be
00000100: 8dda 87bc 9dc7 80be cc9d 75be d961 47be
00000110: cf1f 3c3e e977 cebd ff2d 303e bb6c 66be
00000120: 4b02 f83d a382 e3be 569f 11be e032 37be
00000130: 2085 bbbd f01a b5bb 5714 3d3e d76b a4be
00000140: 1e55 aabd 4d2b 86be 4f3b adbd 12ea 5ebd
00000150: 29ea 553e 0747 2dbe 7c50 0b3d 59ac c5be
00000160: 58d8 c63c c2ef 623d 671d 29be e254 5bbe
00000170: f48b 823e 6e6b 99bd cbc5 e6bd ab13 66be
00000180: 3743 a4bd d5ae 84be 72cd 5cbe bf75 23be
00000190: 9eda 9abe 4657 a33e 6c3a 043d c13f 45be
000001a0: 9533 8bbe 8d17 02be 27eb 27be 16b5 1dbe
000001b0: 0f21 a8be a5fb 05bd 1b4f 793d 119f c5be
000001c0: ff10 a0bd c4d2 043e 1bf3 7f3d 15a9 86be
000001d0: 7690 14bf 00d1 32be 4d13 8abe b8d9 3fbd
000001e0: cab3 693e 75ef 993e e105 4bbe 1df3 983e
000001f0: cde4 973d a13d 49be eba7 783e f83f b0be
00000200: 6ebe 203e 9881 493d 0106 d83c 68e8 35bd
00000210: 4551 0bbe 9a01 d6bd 4827 c43e 2d74 0abe
00000220: c335 e8be 5ef1 2a3e 4ccc 80be 2455 f5bd
00000230: 1f40 21be c9c5 cdbd 8d8c 943d f6a2 93bd
00000240: 7922 503e 0c52 8b3e f4c5 893d dc25 833e
00000250: bed7 9bbe b09f 3bbe 59fd 5d3e b5bd 01be
00000260: c9ed 573c 3d12 8cbd dd19 85bd 439a eabe
00000270: e50d 1d3e 04ef 78bd 1e8f 18be d8a0 b0bd
00000280: 456e 02be b5a7 0dbe 0531 87bc ee9e 1fbe
00000290: 2aab 6c3d 45c5 80be 5f9c b43e caa3 5bbc
000002a0: 7d60 193e 1c86 8d3e d207 59be 9fe0 323e
000002b0: 488f 3bbd c9d3 533c 59ac 45be 1f78 20be
000002c0: 3bd6 fcbd ce3c 1a3d c3d3 6fbe 3d35 82bd
000002d0: 7022 babd f1f4 cbbd 1ee5 92be ff58 2dbd
000002e0: 4ee5 19bf 3f8e ba3e 6431 63be 7f7d a9bc
000002f0: 35f1 87bd b0dc 35bd ff0b be3e 3c0d f8be
00000300: ccd5 f4bd 7fa9 2abe 0603 97bd ecc1 fcbd
00000310: c175 553e 9ef7 91bd a376 e5bd 867e 11bf
00000320: 6683 98be 7d4a 8cbd b625 12be 5ba0 60be
00000330: 869d a9be 29a7 c3be 0df9 9d3e cdc9 0fbe
00000340: 319e cebe a523 903c d7d7 abbd d564 08be
00000350: e067 c33d bb65 7c3e 791f c4bd 1ff3 313d
00000360: eb8c 703c 71a8 45be 20c8 cdbc 148a 873e
00000370: 660c 97be e51c 8ebe 1e64 9bbe 8be7 f03c
00000380: 4d77 8abd 0dce 87be 4e47 12be 1ba0 783c
00000390: 38c3 30be e47d 82bf 9020 bfbe 0d83 87bd
000003a0: 1a0a 5fbe 5a5e d2be 016d 4bbe 0d1a 0cbe
000003b0: e052 babd b705 28be 0258 5bbe 2e4e a13c
000003c0: 5f7c b13e 74ff 75be 24c9 833d 4a5d d4bd
000003d0: bd3c 87be dae3 dbbc a9e6 c7bd 7aef 7d3d
000003e0: 4c4c 0d3d 63f9 e3bd 7dd0 173e 41a5 cbbb
000003f0: 4c87 ffbd 07bb bb3d 7de7 8fbd 7585 01be

l2.bias f4 [300]
-0.19230117 0.6047735 -0.013378741 0.79732096 -0.04371223 -0.36127305 -0.04327488 0.43627957
-0.1582811 0.004313471 -0.59277254 0.40094063 -0.067932226 0.008710761 0.5547505 0.010508401
-0.05255384 -0.11189666 -0.0033877124 -0.10417338 -0.063058056 -0.057503458 0.009282594 -0.06528727
0.010311892 -0.031923164 -0.18632579 -0.089319885 0.00019480812 0.29848543 -0.034487654 -0.10164912
-0.0022676564 0.31513762 0.33581522 -0.5630754 -0.03247674 0.15300377 0.12752835 -0.19562413
0.34326795 -0.031089999 -0.057062935 0.57722414 -0.20082761 0.27934635 0.5099004 0.00054661115
-0.36473012 -0.023390934 -0.054738354 -0.1679288 -0.18261838 -0.0010333617 -0.031092234 0.20669569
-0.05237577 0.4078433 -0.04135486 0.085018404 -0.029867731 -0.07151745 -0.06324432 0.8309846
-0.19846429 -0.00042130455 0.31506747 0.7018813 0.0012264482 0.016768478 -0.40194666 -0.23361914
-0.064192034 -0.080040924 0.52090484 0.021339413 -0.0956663 -0.11466082 0.34747386 0.3175201
0.17683373 1.2169491 0.04544894 0.8007507 -0.5370801 0.38050747 0.32560557 -0.038300864
-0.4654501 0.5856775 0.7713027 0.8919427 -0.047879342 1.2520683 -0.016075203 0.54699785
-0.090334654 0.11346276 0.9925976 -0.55750066 0.0027617698 -0.17036365 0.4128064 -0.050463203
1.2320364 0.7225489 -0.12636049 0.9081395 -0.09197676 0.663895 0.0017084779 -0.09519691
-0.18913318 -0.13781948 -0.058456194 0.046343025 -0.12060639 -0.20030607 -0.18545854 -0.18444526
1.1655741 -0.034214962 -0.043567687 0.0021447213 -0.12872382 0.33275217 -0.63164896 0.99183744
0.38424468 -0.058169346 -0.17999876 -0.025190996 0.0007063215 -0.081708364 -0.17722118 -0.010417878
0.010102717 -0.1594858 0.4306399 -0.01946373 -0.06340078 -1.0434281 -0.07800989 0.13233575
-0.07183783 -0.031028904 1.4296387 -0.25082126 -0.10328527 -0.08653101 0.88564837 -0.030442543
-0.19057414 -0.08046114 -0.08871788 -0.59933126 0.58679044 -0.18786956 0.06697258 -0.12571676
0.50363284 -0.025254698 0.66246116 0.0010635364 -0.1094171 0.85730034 0.39793587 -0.058971033
0.79818577 -0.22070281 -0.045641184 0.99465024 -0.30042857 0.1352731 -0.1451926 -0.1715319
-0.040959235 -0.035964362 -0.06005062 -0.07798754 -0.03213553 -0.13768537 -0.1391427 0.07819913
-0.05885406 0.03776591 -0.035199933 -0.39524773 -0.000334674 1.1356926 -0.06811849 -0.0626181
-0.006956847 -0.21899216 1.549533 -0.048688475 1.0938535 -0.089053154 0.6221786 -0.13613565
-0.14451012 -0.06605319 0.060298722 -0.009591794 -1.1252058 -0.004116217 0.41966122 0.05361229
-0.047892753 0.25745356 1.0083327 -0.07125966 -0.092782915 1.0139762 0.062773064 -0.02354926
-0.08363359 -0.03677871 0.0048797363 0.47534692 -0.06283603 -0.055747163 -0.23637587 -0.026177825
0.23597269 0.8013502 0.1430498 -0.031951476 -0.034410167 -0.055810492 -0.062304422 -0.039755967
0.8845672 -0.054852348 -0.06506673 -0.025090413 -0.05404172 -0.045238107 1.0620294 -0.2043443
0.00087531016 1.6781465 0.712604 -0.059426263 0.39272234 -0.058608934 0.79431546 -0.070110776
-0.0010439077 0.8760401 -0.023987727 1.0349164 0.020742249 -0.053354032 1.020334 -0.08130007
00000000: 99ea 44be 70d2 1a3f 8232 5bbc 3a1d 4c3f
00000010: 980b 33bd c8f8 b8be 0041 31bd 0960 df3e
00000020: 7114 22be 0458 8d3b f1bf 17bf 1748 cd3e
00000030: 0d20 8bbd 94b7 0e3c 2104 0e3f 6e2b 2c3c
00000040: b242 57bd 132a e5bd 6204 5ebb da58 d5bd
00000050: 9524 81bd bf88 6bbd 0516 183c 55b5 85bd
00000060: 36f3 283c ddc1 02bd 30cc 3ebe 58ed b6bd
00000070: 6845 4c39 15d3 983e ed42 0dbd 6a2d d0bd
00000080: f69c 14bb b859 a13e f9ef ab3e b625 10bf
00000090: 5506 05bd 05ad 1c3e cb96 023e b151 48be
000000a0: d1c0 af3e 74b0 febc d3ba 69bd f6c4 133f
000000b0: c1a5 4dbe 7c06 8f3e d588 023f 744a 0f3a
000000c0: e8bd babe 589e bfbc 5335 60bd 87f5 2bbe
000000d0: 5000 3bbe dd71 87ba 24b5 febc 09a8 533e
000000e0: fa87 56bd d6d0 d03e b763 29bd 211e ae3d
000000f0: 2cad f4bc be77 92bd 3d86 81bd 68bb 543f
00000100: 393a 4bbe 8ae2 dcb9 8650 a13e 7eae 333f
00000110: c6c0 a03a 0c5e 893c f4cb cdbe db39 6fbe
00000120: 1d77 83bd 7fec a3bd 055a 053f fecf ae3c
00000130: b1ec c3bd 4bd3 eabd 18e8 b13e ff91 a23e
00000140: e713 353e fdc4 9b3f ab28 3a3d fffd 4c3f
00000150: 157e 09bf e0d1 c23e c6b5 a63e 5ee1 1cbd
00000160: 7a4f eebe f6ee 153f 1874 453f 5b56 643f
00000170: 211d 44bd c643 a03f 25b0 83bc 0d08 0c3f
00000180: 6001 b9bd 2a5f e83d e01a 7e3f 5db8 0ebf
00000190: cffe 343b cf73 2ebe 5c5b d33e 81b2 4ebd
000001a0: 5eb3 9d3f f7f8 383f a564 01be d57b 683f
000001b0: 505e bcbd 06f5 293f 01ef df3a 99f6 c2bd
000001c0: 21ac 41be 8d20 0dbe c36f 6fbd 2fd2 3d3d
000001d0: 7c00 f7bd 091d 4dbe d8e8 3dbe 38df 3cbe
000001e0: 8831 953f fd24 0cbd 0874 32bd 748e 0c3b
000001f0: 2dd0 03be 7e5e aa3e bfb3 21bf 0fe9 7d3f
00000200: b8bb c43e fb42 6ebd 9851 38be 595d cebc
00000210: 6f28 393a b756 a7bd 7879 35be bfaf 2abc
00000220: de85 253c 3f50 23be d57c dc3e 6672 9fbc
00000230: 45d8 81bd 0d8f 85bf a6c3 9fbd 0683 073e
00000240: b61f 93bd 5430 febc 67fe b63f a56b 80be
00000250: 3a87 d3bd 2c37 b1bd dab9 623f a462 f9bc
00000260: de25 43be cfc8 a4bd b8b1 b5bd c66d 19bf
00000270: e637 163f e160 40be ec28 893d e5bb 00be
00000280: 15ee 003f f1e2 cebc 0e97 293f 5c66 8b3a
00000290: 1316 e0bd 0978 5b3f 40be cb3e 9c8b 71bd
000002a0: e755 4c3f ebff 61be 40f2 3abd 66a1 7e3f
000002b0: c6d1 99be 0885 0a3e 5ead 14be 0fa6 2fbe
000002c0: dfc4 27bd 5e4f 13bd a4f7 75bd eeb7 9fbd
000002d0: 8ca0 03bd 65fd 0cbe 6d7b 0ebe de26 a03d
000002e0: f410 71bd 6db0 1a3d ce2d 10bd e95d cabe
000002f0: 2f77 afb9 605e 913f b581 8bbd eb3d 80bd
00000300: 43f6 e3bb 7b3f 60be 1957 c63f 916d 47bd
00000310: 6403 8c3f 8061 b6bd 1947 1f3f 2567 0bbe
00000320: 76fa 13be e546 87bd cbfb 763d e626 1dbc
00000330: be06 90bf 55e1 86bb d6dd d63e 9098 5b3d
00000340: 312b 44bd f4d0 833e 0c11 813f 96f0 91bd
00000350: f804 bebd f9c9 813f 2a8f 803d 61ea c0bc
00000360: 1648 abbd 46a5 16bd 32e6 9f3b ac60 f33e
00000370: 2db0 80bd 2357 64bd 840c 72be e172 d6bc
00000380: d3a2 713e 4925 4d3f a67b 123e 8ddf 02bd
00000390: adf1 0cbd 8b99 64bd ec32 7fbd 27d7 22bd
000003a0: ff72 623f dbac 60bd b541 85bd 698a cdbc
000003b0: da5a 5dbd 984b 39bd 94f0 873f a23f 51be
000003c0: 1275 653a 81cd d63f 376d 363f f468 73bd
000003d0: e712 c93e ec0f 70bd 4258 4b3f 3d96 8fbd
000003e0: bbd3 88ba 2a44 603f e981 c4bc 2478 843f
000003f0: a6eb a93c c289 5abd 4e9a 823f a780 a6bd

l3.weight f4 [1, 300]
-0.15008016 -1.5538763 0.021657182 -0.49598256 0.011069431 -0.20952095 0.018556248 3.0794888
-0.9772367 0.012806908 1.4134111 -1.4791086 0.013371476 -0.018779766 -0.38618398 0.0057687573
0.015122737 0.59219056 0.03756549 0.02289547 0.014027129 0.5522106 0.008868341 -0.0016609572
0.0017259637 -0.012358011 -0.19632447 -0.0030212833 -0.01709146 -2.1604319 -0.017577613 -0.23644142
0.012252026 1.4180146 -0.43493557 0.8408634 0.016765125 0.017286295 0.7136236 -0.27501905
-0.91173816 0.0002882126 -0.023900183 -0.54795 -0.18738674 8.689757e-05 0.8744427 -0.005987246
1.2425314 0.12841386 0.03012254 -0.23139885 -0.03583323 0.014973166 0.025766553 -0.0057761143
-0.01540437 -1.0318617 0.014277281 0.64041966 -0.016589293 -0.003747995 0.03507252 -0.6161123
-0.25118464 -0.024118483 -1.1638533 -0.6473854 0.025880175 0.011931092 0.81257665 -0.033428177
0.06577156 0.016777048 -0.4134553 0.0017763947 -0.026950452 -1.1837374 -0.34311232 0.6832121
-0.3186974 -0.23245385 1.0473522 -0.42567757 -2.0117064 -0.42609313 -1.0713229 0.0019097602
1.5033997 -0.14171173 -1.0874162 -0.16357172 -0.014673095 -0.75578165 -0.02682491 0.8804785
0.004222108 -0.070986964 -0.33725014 1.5407696 0.007901442 -0.19546914 1.0198134 0.100218594
-0.7896512 -0.44192183 -0.015214006 -0.570483 0.6018942 -1.5082971 0.016628034 -0.06077109
-0.24047367 -0.24274759 0.01651814 -0.07850461 -0.04431423 -1.2811553 -0.25715554 -0.12827677
-0.69276506 0.004149372 0.039367788 -0.014937591 -0.014183405 -0.68981117 1.5043631 1.6251532
-1.5322342 0.0023601833 -0.16705558 0.028718475 -0.028612679 -0.016484613 -0.38526392 0.0045065344
0.032852992 -0.16323194 -0.51021516 0.018253008 0.014354209 0.49248084 -0.087613694 1.3822196
-1.107038 0.010591475 -0.3423771 1.8410151 0.0053235847 -0.6374548 -1.3293636 -0.015797297
-0.90801775 0.034287233 -0.0015561833 1.130737 -0.22121243 -0.22982231 -0.0023516614 -0.2339231
-0.26901886 -8.623746e-06 -0.6891313 -0.0029838441 0.12165096 -0.019981172 0.0041210596 0.008664753
-0.63845676 -0.23235252 0.02335219 -0.4081073 -1.1515986 0.90230435 0.015772337 -0.49118146
0.013817208 0.013438717 0.47408685 0.03107398 1.9451435 -0.029042205 -1.080359 -0.37862396
0.02421236 -0.0046448363 0.021972341 -0.122929476 -0.00498598 -1.2098536 -0.01539636 -0.026106674
-0.024147915 -0.2003895 -1.1408337 -0.017295606 -0.3192398 0.00011236199 0.7771097 -0.017174909
-0.18574165 -0.005173269 -0.33765766 0.0033565129 1.2093197 0.03217648 1.1188504 1.5298047
-0.0068110013 -1.0486732 -1.2915742 0.028325459 0.1921581 -1.1387482 -0.039877407 -0.0012774382
-0.8859226 0.024291709 -1.8110293 0.64002556 0.015438641 -0.011580355 -1.4823807 0.0194112
-0.9391929 1.287581 0.9177515 0.006678846 0.004885583 0.014282125 -0.015387233 0.5016243
-1.2864094 -0.0014405362 0.006266549 0.02826846 -0.004985887 -0.024230989 -1.4622723 -0.1919316
-0.018458644 -1.7141954 -0.8543678 -0.019818751 -1.3261439 0.037793476 -0.7398149 -0.0031709003
-0.692417 -0.11007573 0.008979355 -1.3792886 -0.008002956 0.008671459 0.80528593 -0.030383311
00000000: 9dae 19be 6be5 c6bf 676a b13c 6df1 fdbe
00000010: 8f5c 353c a98c 56be 4603 983c 5816 4540
00000020: 2f2c 7abf 11d4 513c a8ea b43f 6e53 bdbf
00000030: 0914 5b3c 06d8 99bc e8b9 c5be d807 bd3b
00000040: 5bc5 773c cd99 173f 45de 193d 488f bb3c
00000050: 0bd2 653c ad5d 0d3f 854c 113c 7ab4 d9ba
00000060: bb39 e23a 4179 4abc 4809 49be b900 46bb
00000070: 6403 8cbc 8444 0ac0 edfe 8fbc b31d 72be
00000080: b9bc 483c 8181 b53f e0af debe d342 573f
00000090: 0457 893c fd9b 8d3c 09b0 363f 4ccf 8cbe
000000a0: ac67 69bf 3e1b 9739 51ca c3bc 7446 0cbf
000000b0: 4fe2 3fbe c73c b638 7adb 5f3f a930 c4bb
000000c0: 450b 9f3f ec7e 033e 8cc3 f63c d2f3 6cbe
000000d0: ddc5 12bd 0352 753c 6114 d33c 8f45 bdbb
000000e0: 9c62 7cbc 0b14 84bf 42eb 693c 8bf2 233f
000000f0: 45e6 87bc eca0 75bb 34a8 0f3d 89b9 1dbf
00000100: 469b 80be 2094 c5bc 25f9 94bf 0dbb 25bf
00000110: a902 d43c a07a 433c 0605 503f fceb 08bd
00000120: 3db3 863d 0570 893c 6ab0 d3be ead5 e83a
00000130: 32c7 dcbc b584 97bf 6bac afbe fde6 2e3f
00000140: 4e2c a3be 6208 6ebe a30f 863f 69f2 d9be
00000150: ccbf 00c0 e128 dabe 1c21 89bf eb50 fa3a
00000160: 676f c03f e11c 11be 7430 8bbf 587f 27be
00000170: 6c67 70bc e87a 41bf eabf dbbc 0a67 613f
00000180: 9c59 8a3b 9d61 91bd 0dac acbe f037 c53f
00000190: 0d75 013c 1029 48be 3f89 823f 683f cd3d
000001a0: 9526 4abf 9443 e2be 2b44 79bc 2d0b 12bf
000001b0: bd15 1a3f e10f c1bf 8437 883c 1beb 78bd
000001c0: bb3e 76be d392 78be 0d51 873c 06c7 a0bd
000001d0: d782 35bd e6fc a3bf e4a9 83be fc5a 03be
000001e0: 0d59 31bf 75f7 873b 1e40 213d ccbc 74bc
000001f0: 8361 68bc 7797 30bf f88e c03f 0505 d03f
00000200: 4020 c4bf 4ead 1a3b 9e10 2bbe 0243 eb3c
00000210: 2365 eabc bd0a 87bc 5041 c5be 8dab 933b
00000220: dc90 063d 4626 27be 769d 02bf 5587 953c
00000230: eb2d 6b3c 7326 fc3e cf6e b3bd 92ec b03f
00000240: 6cb3 8dbf de87 2d3c 0d4c afbe 62a6 eb3f
00000250: 7771 ae3b 3d30 23bf 9628 aabf 5569 81bc
00000260: da73 68bf c570 0c3d d9f8 cbba fdbb 903f
00000270: 8385 62be 8a56 6bbe 551e 1abb 8a89 6fbe
00000280: d7bc 89be b5ae 10b7 e96a 30bf 998c 43bb
00000290: 2324 f93d 8eaf a3bc f409 873b 9cf6 0d3c
000002a0: e771 23bf d2ed 6dbe 184d bf3c 71f3 d0be
000002b0: 9567 93bf 6bfd 663f fd34 813c 237c fbbe
000002c0: 9261 623c 112e 5c3c 83bb f23e dc8e fe3c
000002d0: 76fa f83f ebe9 edbc 3449 8abf 00db c1be
000002e0: 0059 c63c b633 98bb 57ff b33c 73c2 fbbd
000002f0: 6f61 a3bb 7cdc 9abf 0441 7cbc aadd d5bc
00000300: d9d1 c5bc e832 4dbe d706 92bf 84af 8dbc
00000310: 6673 a3be e2a3 eb38 a9f0 463f 65b2 8cbc
00000320: 0f33 3ebe 8784 a9bb 77e1 acbe f1f8 5b3b
00000330: fdca 9a3f 7ccb 033d 7d36 8f3f a4d0 c33f
00000340: d22e dfbb ec3a 86bf 4e52 a5bf cb0a e83c
00000350: 18c5 443e 80c2 91bf 7e56 23bd b76f a7ba
00000360: d3cb 62bf 68ff c63c cfcf e7bf b7d8 233f
00000370: 5bf2 7c3c 88bb 3dbc a7be bdbf 3d04 9f3c
00000380: f26e 70bf 74cf a43f c3f1 6a3f 39da da3b
00000390: 3e17 a03b 93ff 693c bc1a 7cbc 736a 003f
000003a0: 10a9 a4bf 60d0 bcba a057 cd3b 4293 e73c
000003b0: a760 a3bb 1180 c6bc bd2b bbbf b889 44be
000003c0: 9536 97bc c16a dbbf d9b7 5abf ef5a a2bc
000003d0: 15bf a9bf 55cd 1a3d 8264 3dbf e1ce 4fbb
000003e0: 3e42 31bf 626f e1bd 251e 133c 878c b0bf
000003f0: d51e 03bc bc12 0e3c 3827 4e3f 6ce6 f8bc
