preTrained/LunarLanderContinuous-v2/TD3_LunarLanderContinuous-v2_0_solved_crtic_1.pth (torch_old, 501014 bytes, 5 tensors)

l1.weight f4 [400, 10]
0.01291059 0.61516213 0.4814008 0.36230555 -0.10285748 -0.17539446 -0.47768602 0.001779021
0.17901209 -0.81706774 0.95773137 -2.2874758 -0.06398954 -0.7245561 -2.2411556 0.7066806
0.2940311 0.1289153 0.10381493 0.71253586 -1.0247501 -0.1796418 -1.0560352 -0.65096325
-1.585785 0.7579432 -0.4647325 0.05917888 -0.019268395 0.08524244 0.49410126 0.6088955
0.5488707 0.46272603 0.9428128 -0.9054431 -0.23891753 -1.9067435 -0.062774114 0.25825801
0.29738393 -2.6441557 -0.3088706 -0.24192238 -0.0378956 -0.7134001 0.2850763 -0.3225558
-0.8694798 0.2176807 0.1627744 0.025698666 0.62141204 -0.09919502 -0.27772382 -2.2511175
-1.3513163 0.18188737 -0.31526953 0.098314576 -0.13492325 -0.2568166 -1.782027 0.2377047
-1.9390888 0.3712095 -0.21248549 0.10668164 -0.006887135 -0.23159441 -0.5990621 -2.6141307
0.5226404 -1.3671004 -1.368233 -0.06845245 -0.08481068 -0.13448517 -0.06251306 -0.23525397
0.13881527 -2.4405134 -1.5707209 -0.31038576 -1.2388014 0.61292636 0.35341612 0.00030895727
0.33666098 -0.055065077 -0.08244145 -1.1659921 0.8324771 1.0688559 -0.8315807 0.7457905
0.4156837 -0.70049226 -0.78792864 0.7847735 0.83968264 0.5267282 -0.00090902613 -0.13999127
1.0801586 0.32118103 -0.9369015 0.82013184 0.10814591 0.1615711 0.50727624 -0.85116225
1.5934998 -0.18167107 -0.8014298 -0.009380846 -0.26766446 0.44902173 -0.041845385 0.03869055
0.2646007 -0.46203473 0.07452323 0.05876415 -2.2717195 0.55979663 -0.5532807 0.21314552
-0.02782144 -0.040395804 2.678833 -1.828892 0.013847607 -1.3730776 0.648164 0.6873698
-1.4702524 -0.6889611 -0.0991639 0.0022558472 -1.7628353 -1.5173237 0.8500227 0.5055554
-1.1455402 0.26125622 -0.08979097 0.3559895 -0.057954393 0.565769 -0.8022898 -1.7328222
-1.0617548 1.4528261 1.8123733 -0.33476093 0.33738557 0.33035713 0.23369822 0.49785814
0.16937251 -1.050364 0.00352789 0.23869783 -0.121459536 -0.5084348 0.64399886 0.54294777
-0.4667647 0.77293164 0.44671077 -4.399775 -0.0623648 0.39245388 1.9677143 -0.28506792
-1.3527397 0.83328134 -0.078114554 -0.115412354 0.5400424 -1.0649745 1.8454154 -0.1919828
0.5192697 -0.8360963 -0.07302365 0.75763696 0.17598823 0.24249353 0.9831777 0.13621433
0.787013 0.050232124 -0.30530423 -2.175498 0.115540706 -0.98780257 0.1602799 -0.12788892
-0.946269 -1.5616597 0.3208875 -0.83045197 -1.7533171 0.6529826 0.4987128 -1.0443574
-0.13620165 -0.2708048 -0.74366117 0.60928535 0.31201676 -0.08395604 -0.47739395 -1.3058969
-0.60124934 -1.4969118 -0.093692675 0.0850301 0.70666933 -1.0635271 -1.6330428 -0.36198166
0.6068843 -0.35255453 0.12520598 -1.0618477 -0.122386895 -0.08066506 2.1494582 -0.8691619
0.37201703 -0.27560434 0.2245912 -0.16201073 -0.81864166 -0.11799716 -0.036685783 -0.02744875
-0.06716625 -0.8948661 -0.35142952 -0.72171086 0.5586473 0.19102234 0.35272512 0.07879708
-0.3022493 -0.028873248 0.6324747 0.4382107 1.635255 0.16763705 0.28329805 -0.022209851
00000000: f086 533c 447b 1d3f 2a7a f63e 1d80 b93e
00000010: f1a6 d2bd 9b9a 33be 4393 f4be 0a2e e93a
00000020: f24e 373e 5a2b 51bf e22d 753f 0166 12c0
00000030: f30c 83bd 827c 39bf 186f 0fc0 05e9 343f
00000040: 3f8b 963e 5f02 043e ec9c d43d c068 363f
00000050: 032b 83bf 05f4 37be 292c 87bf 87a5 26bf
00000060: 01fb cabf 9108 423f 6bf1 edbe 8e65 723d
00000070: c1d8 9dbc 9793 ae3d d7fa fc3e 93e0 1b3f
00000080: ca82 0c3f 6dea ec3e 2e5c 713f 1ecb 67bf
00000090: cca6 74be 2c10 f4bf b78f 80bd 653a 843e
000000a0: b542 983e d939 29c0 4a24 9ebe 80ba 77be
000000b0: 6b38 1bbd 64a1 36bf 85f5 913e 0926 a5be
000000c0: 3a96 5ebf b0e7 5e3e 55ae 263e 0286 d23c
000000d0: dc14 1f3f c226 cbbd d131 8ebe 4f12 10c0
000000e0: eff7 acbf af40 3a3e 026b a1be 2759 c93d
000000f0: 5229 0abe 777d 83be 7619 e4bf dc68 733e
00000100: 1034 f8bf 2c0f be3e cc95 59be e77b da3d
00000110: 7aad e1bb 1627 6dbe 225c 19bf eb4d 27c0
00000120: c3cb 053f 25fd aebf 4222 afbf cc30 8cbd
00000130: 39b1 adbd 7bb6 09be d906 80bd 6be6 70be
00000140: 9725 0e3e 5f31 1cc0 620d c9bf e2ea 9ebe
00000150: 0b91 9ebf bee8 1c3f f5f2 b43e 8bfb a139
00000160: d45e ac3e eb8b 61bd 10d7 a8bd 3b3f 95bf
00000170: 381d 553f 45d0 883f 79e2 54bf 20ec 3e3f
00000180: 7ed4 d43e 7653 33bf b1b5 49bf ebe6 483f
00000190: 71f5 563f a9d7 063f b64b 6eba df59 0fbe
000001a0: a342 8a3f d771 a43e c7d8 6fbf 29f4 513f
000001b0: 9a7b dd3d e572 253e dbdc 013f c5e5 59bf
000001c0: cdf7 cb3f fb07 3abe 812a 4dbf 1fb2 19bc
000001d0: 510b 89be 2de6 e53e 1166 2bbd fb79 1e3d
000001e0: be79 873e d18f ecbe a39f 983d adb2 703d
000001f0: da63 11c0 d54e 0f3f cea3 0dbf d242 5a3e
00000200: cae9 e3bc 1276 25bd 0072 2b40 2219 eabf
00000210: 13e1 623c 02c1 afbf 13ee 253f 78f7 2f3f
00000220: 3b31 bcbf c15f 30bf 7116 cbbd d6d6 133b
00000230: 96a4 e1bf aa37 c2bf 169b 593f 146c 013f
00000240: 10a1 92bf 60c3 853e 54e4 b7bd 4144 b63e
00000250: 9661 6dbd 3dd6 103f dd62 4dbf 1ecd ddbf
00000260: 95e7 87bf 35f6 b93f d9fb e73f c965 abbe
00000270: cdbd ac3e 9224 a93e 964e 6f3e 43e7 fe3e
00000280: fd6f 2d3e 5472 86bf 2c34 673b 346d 743e
00000290: c7bf f8bd c828 02bf 1cdd 243f a0fe 0a3f
000002a0: c8fb eebe d9de 453f 46b7 e43e f5ca 8cc0
000002b0: 3c72 7fbd b7ef c83e 10de fb3f 6cf4 91be
000002c0: 9326 adbf ed51 553f 86fa 9fbd 505d ecbd
000002d0: 3840 0a3f 1651 88bf 9236 ec3f 2497 44be
000002e0: dcee 043f 680a 56bf 6c8d 95bd 7ff4 413f
000002f0: 4236 343e 3950 783e 89b1 7b3f c57b 0b3e
00000300: af79 493f 33c0 4d3d d650 9cbe 5c3b 0bc0
00000310: 9ba0 ec3d a1e0 7cbf 6a20 243e 50f5 02be
00000320: af3e 72bf 77e4 c7bf 5e4b a43e 8098 54bf
00000330: b26c e0bf de29 273f 4957 ff3e 81ad 85bf
00000340: 7278 0bbe eda6 8abe 9460 3ebf 20fa 1b3f
00000350: a9c0 9f3e 25f1 abbd fb6c f4be a127 a7bf
00000360: 7aeb 19bf ce9a bfbf f2e1 bfbd 4324 ae3d
00000370: 48e8 343f a821 88bf 8c07 d1bf a955 b9be
00000380: c55c 1b3f 0782 b4be ff35 003e a0ea 87bf
00000390: fba5 fabd b933 a5bd b990 0940 6581 5ebf
000003a0: 0479 be3e 031c 8dbe 3cfb 653e 24e6 25be
000003b0: 8092 51bf 7fa8 f1bd d543 16bd 33dc e0bc
000003c0: 758e 89bd f215 65bf 92ee b3be 0bc2 38bf
000003d0: 8203 0f3f 5c9b 433e 6398 b43e 5d60 a13d
000003e0: 6cc0 9abe 9787 ecbc dde9 213f 275d e03e
000003f0: 0950 d13f 0ca9 2b3e 710c 913e 6ff1 b5bc

l1.bias f4 [400]
0.40074688 -0.8938995 0.043169495 0.6328631 -0.7999042 -1.3708421 0.018054387 -0.40415636
-0.31658828 -1.4258331 -1.1247355 -0.9028132 -0.2509717 -0.36635995 -0.46371707 -0.82893306
-0.96837246 0.2740829 -0.571005 -1.3895688 -0.38617486 -1.0824008 0.2901147 -0.10301789
0.23210774 0.17514272 0.6081574 -0.8153235 0.70930994 -1.0453148 -0.5777822 -0.009995525
0.16614908 0.7246961 -0.09110088 -1.5397521 -0.7469797 -0.86290044 -0.34620872 -0.9247151
0.1411025 -0.9791167 0.29881543 0.33591968 -0.77307844 -0.52686363 -0.13173237 -0.2105737
-0.41294643 -1.089039 -1.1629263 -0.42147452 -0.99687856 0.64772266 0.4948048 -0.67068374
-1.5696558 -0.5927423 -0.21442023 -0.61003923 -0.8218067 0.4786692 -0.92673016 -0.62332183
0.83603424 0.6849406 -1.3927597 -0.36531416 -0.74788547 -0.7370278 0.4633348 -1.5652031
-0.18736424 -0.06197693 -0.7590408 -0.39950034 -0.7385193 0.78367215 -0.071637355 0.24519521
0.80505794 -0.4211634 -0.6030929 -0.16341822 -1.5388055 -0.044996478 -1.9419929 -1.0483115
-1.2750472 0.50677645 -1.6966584 -0.6434219 -0.020938316 -1.3101331 -1.1518481 -0.57871765
-0.8707075 0.37194496 -0.4825587 0.09811569 -0.36986157 -1.0654459 0.49582547 -0.7011698
0.33496803 0.43638787 -0.74366367 -1.1424845 -0.3244526 -0.35102308 -0.2589348 0.36160123
-0.5271936 0.65033746 -0.011611253 0.7334642 -0.75844574 0.82952327 -0.09324667 -0.79956526
0.4838027 0.6300346 -0.17309345 -0.2126755 -0.38439763 -1.2091576 -0.030470595 -1.1208471
-0.33559698 -0.8483697 0.5309951 -0.71418804 0.69024 -0.4553741 -1.3335601 -0.20617267
-0.88056153 0.7259473 -0.4395413 -0.7285476 0.632645 0.011037213 -0.20008169 -0.41310963
-0.29798824 0.806251 0.59950036 0.0915821 -0.609112 -0.53885406 -0.7146903 0.08084771
-0.16232996 -0.9716758 -0.30058128 -0.64972657 0.42245713 0.7551718 -0.7728251 0.11777865
0.23864551 0.26251072 0.097883955 -0.5836311 -1.1290027 0.094290346 0.49404836 -0.6071043
0.2569644 0.3257177 -0.50751615 0.52042824 -0.66990435 0.44463563 -0.8512188 -0.19814564
-1.4694716 -0.93480414 -1.3434746 -0.2719165 0.29362494 0.6658468 0.14290498 0.5251206
0.45341572 -0.67181253 -0.19613314 -1.0129415 0.097872905 -0.4990072 -0.6817271 -0.42402923
-0.7369102 -1.112998 -0.38816163 -0.55053693 0.84060776 0.27501005 -0.700772 -0.16553745
-0.89563155 -0.3355996 -1.3339895 -0.36386198 -0.03613713 0.34825718 -0.96286786 -0.44808394
0.11616935 0.13399318 0.9090145 -0.40239558 -0.03130688 -0.44575992 -0.78003275 -0.0752287
0.043875583 -0.24137622 -0.17598446 -0.09657152 -1.1699315 0.10013219 -0.8923248 0.9219347
0.019130604 0.43730605 -0.13711481 -0.49300858 0.34406883 0.027989123 1.43943 -0.9562519
0.23463956 0.68966323 -0.61686236 -0.8660432 -0.15744354 0.21721633 -0.7690705 -0.36305377
0.18033636 0.09631956 -0.097810365 -0.0010932793 -0.8927441 0.046249818 -0.93893975 0.07495112
-1.1857665 -0.17474975 0.36748073 -1.0109354 -0.8925702 -0.4385354 -1.2780554 -0.8829277
00000000: b22e cd3e 99d6 64bf 7fd2 303d 5103 223f
00000010: 86c6 4cbf c177 afbf cbe6 933c 95ed cebe
00000020: dc17 a2be b381 b6bf 55f7 8fbf c41e 67bf
00000030: 5d7f 80be 8893 bbbe 536c edbe f534 54bf
00000040: 42e7 77bf 9854 8c3e 622d 12bf 64dd b1bf
00000050: b6b8 c5be 1c8c 8abf ea89 943e 0bfb d2bd
00000060: a7ad 6d3e 9d58 333e 34b0 1b3f 0ab9 50bf
00000070: 5695 353f e0cc 85bf 89e9 13bf 45c4 23bc
00000080: fc22 2a3e af85 393f 1993 babd 9916 c5bf
00000090: 103a 3fbf 0be7 5cbf 4542 b1be 21ba 6cbf
000000a0: 2c7d 103e 64a7 7abf 56fe 983e aafd ab3e
000000b0: 78e8 45bf 89e0 06bf dae4 06be a2a0 57be
000000c0: b76d d3be a165 8bbf c5da 94bf 82cb d7be
000000d0: 6f33 7fbf 27d1 253f 0e57 fd3e eeb1 2bbf
000000e0: 7bea c8bf f6bd 17bf fa90 5bbe 882b 1cbf
000000f0: ed61 52bf 2114 f53e 303e 6dbf 0592 1fbf
00000100: 5706 563f 4458 2f3f f345 b2bf 750a bbbe
00000110: 6c75 3fbf dbad 3cbf 383a ed3e 9358 c8bf
00000120: 69dc 3fbe 85db 7dbd 7f50 42bf 4f8b ccbe
00000130: 9a0f 3dbf bd9e 483f 9bb6 92bd 7414 7b3e
00000140: 4718 4e3f bba2 d7be 4c64 1abf 1b57 27be
00000150: 94f7 c4bf 3a4e 38bd 3993 f8bf 122f 86bf
00000160: bf34 a3bf 1abc 013f 1a2c d9bf 4cb7 24bf
00000170: d586 abbc 71b2 a7bf c26f 93bf d726 14bf
00000180: b0e6 5ebf 926f be3e ef11 f7be e1f0 c83d
00000190: 7f5e bdbe 8860 88bf d6dc fd3e dd7f 33bf
000001a0: ee80 ab3e 3b6e df3e be60 3ebf ef3c 92bf
000001b0: a71e a6be 4cb9 b3be 1a93 84be cc23 b93e
000001c0: 29f6 06bf 847c 263f 203d 3ebc 4fc4 3b3f
000001d0: 8029 42bf a35b 543f 1cf8 bebd 4fb0 4cbf
000001e0: fdb4 f73e f349 213f 693f 31be 9bc7 59be
000001f0: c4cf c4be adc5 9abf 789d f9bc eb77 8fbf
00000200: 5ed3 abbe c22e 59bf 4bef 073f 07d5 36bf
00000210: 92b3 303f cb26 e9be 19b2 aabf ee1e 53be
00000220: 7b6c 61bf afd7 393f 8f0b e1be 1882 3abf
00000230: 06f5 213f 6dd5 343c 37e2 4cbe 1b83 d3be
00000240: ea91 98be 7766 4e3f db78 193f 658f bb3d
00000250: c4ee 1bbf 57f2 09bf f2f5 36bf 7c93 a53d
00000260: d339 26be bfbf 78bf cae5 99be 7b54 26bf
00000270: 4d4c d83e f052 413f ded7 45bf ef35 f13d
00000280: 7d5f 743e ce67 863e 6277 c83d d968 15bf
00000290: 2983 90bf 4c1b c13d e8f3 fc3e 306b 1bbf
000002a0: d690 833e 78c4 a63e 94ec 01bf c93a 053f
000002b0: da7e 2bbf 48a7 e33e 7ae9 59bf b1e6 4abe
000002c0: a517 bcbf 534f 6fbf faf6 abbf a438 8bbe
000002d0: 0256 963e f074 2a3f af55 123e 4e6e 063f
000002e0: 1b26 e83e e8fb 2bbf 20d7 48be 11a8 81bf
000002f0: 9771 c83d df7d ffbe ab85 2ebf 5c1a d9be
00000300: 26a6 3cbf b876 8ebf 1fbd c6be fdef 0cbf
00000310: 1232 573f 1ece 8c3e cb65 33bf a682 29be
00000320: 1c48 65bf b6d3 abbe 2bc0 aabf 1e4c babe
00000330: 8704 14bd c44e b23e 827e 76bf 426b e5be
00000340: 32ea ed3d 8235 093e 2db5 683f cb06 cebe
00000350: a53b 00bd a53a e4be 3ab0 47bf 8111 9abd
00000360: e2b6 333d 542b 77be 4535 34be 4ac7 c5bd
00000370: 51c0 95bf 1b12 cd3d 666f 64bf ea03 6c3f
00000380: c9b7 9c3c 94e6 df3e d367 0cbe 9f6b fcbe
00000390: ca29 b03e 7249 e53c 3e3f b83f edcc 74bf
000003a0: 5a45 703e c58d 303f b1ea 1dbf 02b5 5dbf
000003b0: e138 21be f56d 5e3e cee1 44bf 2fe2 b9be
000003c0: 18aa 383e 3143 c53d cd50 c8bd 5e4c 8fba
000003d0: e18a 64bf 7370 3d3d 5b5e 70bf f97f 993d
000003e0: 32c7 97bf 99f1 32be 6f26 bc3e 5566 81bf
000003f0: 7b7f 64bf b687 e0be 5297 a3bf 8d07 62bf

l2.weight f4 [300, 400]
-0.08643981 -1.1365308 -0.04090933 -0.32340276 -0.2333474 -0.14477006 -0.3486473 -0.20379274
-0.11185892 0.20124368 0.22285423 0.46116048 -0.020529501 -1.8050128 0.013516617 -0.038131148
0.025006916 -0.31701756 0.11622643 0.0014070023 -0.71874756 0.034221794 -0.1998906 -0.111559786
-0.16554627 -0.08798314 0.1029189 -0.36546928 0.028199613 0.15893964 -0.0946672 -0.11982742
-0.061242495 0.30179903 0.066641696 0.08540472 0.16082056 0.20539944 -0.1329029 0.15852955
-0.17634057 -0.3021662 -0.23186281 -0.14072277 -0.16973652 -0.0994009 -0.29517594 -0.082788065
-0.049267117 -0.14245419 0.43625033 -0.15035266 -0.106943056 0.18358612 -0.041282896 -1.2225254
-0.2320241 0.04286686 -0.62371194 -0.2606201 -0.67400825 0.18090539 0.061385218 -0.313108
-0.3218717 0.16067854 0.75002337 0.4865367 0.026505947 0.13829817 0.09125593 -0.5601059
0.0156069 -0.061531264 -0.12970461 0.1676699 -0.46185035 -0.7831558 -0.110620834 0.1802684
0.10959525 0.2710724 -1.23852 -0.07247877 -0.23250575 -0.0455041 -0.5999181 -0.06543705
-0.13267957 0.035376254 -0.5293745 0.27042496 -0.06618655 -0.41291565 -0.38202065 -0.16107959
-0.27926615 -0.10295988 0.13255087 -1.2082136 -0.25064352 -0.6341472 -0.29116246 -0.2536272
-0.06067914 -0.16657111 -0.24082342 0.22643031 -0.16549422 0.005797945 -0.32364184 -0.0026585564
-0.2179048 -0.11050291 -0.1935245 -0.7816328 -0.7039729 0.48697013 -0.19010827 -0.053539217
-0.3695989 -0.26006037 0.3041226 -0.44620183 0.10387311 -1.2424663 -0.24963331 -0.10142089
-0.2960577 -0.14106257 0.19322638 -0.32799163 0.51145947 0.10751085 -0.018415326 -0.112401806
-0.21328382 -0.34545344 -0.2895076 0.06286152 0.14030096 0.099783115 -0.2962357 -0.28146666
-0.36680135 -0.6919026 0.272392 0.06424093 -0.14342156 -0.36416385 0.090900525 -0.07401693
-0.22214662 0.13818872 -0.3236096 0.06431003 -0.027645813 -0.05976249 0.10174995 -0.033222467
-0.07772237 -0.14572126 -0.122755304 -0.5446301 -0.098436035 -0.18160948 0.062764615 -0.93567437
0.0082109785 -0.057406276 -0.3393778 -0.43681812 0.23826872 -0.29451558 -0.39341125 -0.14349821
-0.19995846 0.090250656 -0.13001467 0.009007255 -0.16944742 -0.029587975 -0.1081768 0.04194727
-0.17744473 -0.24516153 -0.07081497 0.120671555 -0.046820126 -0.18226297 0.17947008 -0.15100698
-0.17779663 -0.67851824 -0.054709792 -1.4168885 -0.25102273 -0.33832932 -0.05420562 -0.052988872
-0.011693512 -0.031824656 0.20139705 -0.043652 -0.9447943 -0.27519423 -0.45220867 -0.32431686
-0.006243638 -0.19477059 -0.17363356 -0.37354308 -0.84356946 0.05875711 -0.22822149 -0.003787499
-0.27073315 -0.38743785 -0.11304904 -0.32840097 -0.39957353 -0.11014727 -0.20634362 0.5483392
-1.3145471 -0.26274902 0.05994707 -0.096718535 0.28226876 -0.037338436 -0.110681556 -0.48251557
-0.11727723 -0.21564996 0.07489197 0.18164547 -0.023206724 -0.23188318 0.20732747 0.15683754
0.056355614 -0.2203432 0.16931127 0.17070441 0.58906054 -0.104481384 -0.07452673 -0.42832485
-0.23024563 0.22695532 -0.3158893 -0.34941593 -0.43717995 -0.07909265 -0.22815038 -0.38255405
00000000: 5b07 b1bd d779 91bf 8b90 27bd 0c95 a5be
00000010: 9ff2 6ebe 9a3e 14be e681 b2be 0baf 50be
00000020: 4a16 e5bd d312 4e3e e633 643e 3a1d ec3e
00000030: 7c2d a8bc a90a e7bf cd74 5d3c 682f 1cbd
00000040: 4edb cc3c 2050 a2be 1f08 ee3d 2a6b b83a
00000050: d7ff 37bf 272c 0c3d 1fb0 4cbe 7579 e4bd
00000060: f684 29be 8130 b4bd 25c7 d23d ca1e bbbe
00000070: e002 e73c 13c1 223e e1e0 c1bd 1468 f5bd
00000080: 69d9 7abd 6785 9a3e 717b 883d abe8 ae3d
00000090: 25ae 243e 3b54 523e b317 08be 9255 223e
000000a0: 9f92 34be 87b5 9abe 726d 6dbe a119 10be
000000b0: 69cf 2dbe b392 cbbd 4d21 97be ca8c a9bd
000000c0: 51cc 49bd 83df 11be 345c df3e 0cf6 19be
000000d0: f604 dbbd 00fe 3b3e 4118 29bd b67b 9cbf
000000e0: ba97 6dbe 2995 2f3d 96ab 1fbf ff6f 85be
000000f0: ce8b 2cbf 433f 393e 116f 7b3d b14f a0be
00000100: 5ecc a4be ea88 243e 8801 403f 571b f93e
00000110: 0023 d93c 099e 0d3e 64e4 ba3d 1a63 0fbf
00000120: 15b4 7f3c 3508 7cbd 49d1 04be a9b1 2b3e
00000130: a677 ecbe e67c 48bf 2d8d e2bd 4898 383e
00000140: 7973 e03d 00ca 8a3e d387 9ebf c06f 94bd
00000150: fd15 6ebe 8262 3abd 3c94 19bf dc03 86bd
00000160: 27dd 07be b1e6 103d 1685 07bf 2475 8a3e
00000170: d08c 87bd ae69 d3be 3698 c3be 0cf2 24be
00000180: f9fb 8ebe a1dc d2bd 6abb 073e bea6 9abf
00000190: 5954 80be 7957 22bf 3f13 95be 6ddb 81be
000001a0: b18a 78bd 9e91 2abe 6a9a 76be 59dd 673e
000001b0: 5177 29be b0fc bd3b 62b4 a5be 2d3b 2ebb
000001c0: 7022 5fbe 5a4f e2bd 492b 46be 1619 48bf
000001d0: 9137 34bf 2654 f93e beab 42be f04b 5bbd
000001e0: 113c bdbe a226 85be f5b5 9b3e 9174 e4be
000001f0: 6dbb d43d 2309 9fbf e09f 7fbe c1b5 cfbd
00000200: e094 97be b572 10be 23dd 453e 85ee a7be
00000210: 02ef 023f a62e dc3d bddb 96bc eb32 e6bd
00000220: 1367 5abe 46df b0be 573a 94be 8abd 803d
00000230: 0eab 0f3e 175b cc3d 35ac 97be 661c 90be
00000240: 63cd bbbe 8720 31bf f776 8b3e c090 833d
00000250: 1add 12be af73 babe 0e2a ba3d 3096 97bd
00000260: 677a 63be 5881 0d3e 28b0 a5be fab4 833d
00000270: 7979 e2bc 83c9 74bd 4762 d03d 4814 08bd
00000280: e82c 9fbd f437 15be 2267 fbbd e16c 0bbf
00000290: d598 c9bd d6f7 39be bc8a 803d 5b88 6fbf
000002a0: 5787 063c d822 6bbd edc2 adbe a0a6 dfbe
000002b0: b7fc 733e bfca 96be 336d c9be 32f1 12be
000002c0: e9c1 4cbe 56d5 b83d 9122 05be 2a93 133c
000002d0: a083 2dbe 7b62 f2bc cc8b ddbd e7d0 2b3d
000002e0: 12b4 35be a00b 7bbe 7007 91bd a622 f73d
000002f0: 76c6 3fbd 25a3 3abe 01c7 373e 93a1 1abe
00000300: 5210 36be 5fb3 2dbf 6017 60bd 9a5c b5bf
00000310: 0d86 80be 8039 adbe b606 5ebd dc0a 59bd
00000320: 2596 3fbc 925a 02bd 073b 4e3e 71cc 32bd
00000330: 0ade 71bf 42e6 8cbe e587 e7be dc0c a6be
00000340: 6f97 ccbb f171 47be ffcc 31be 0a41 bfbe
00000350: 2bf4 57bf 4cab 703d e5b2 69be b037 78bb
00000360: 899d 8abe 415e c6be 4186 e7bd 2c24 a8be
00000370: e794 ccbe e494 e1bd be4b 53be f55f 0c3f
00000380: 1443 a8bf 0a87 86be 0f8b 753d 5e14 c6bd
00000390: 8885 903e 30f0 18bd 03ad e2bd 480c f7be
000003a0: 0b2f f0bd 58d3 5cbe f660 993d 4501 3a3e
000003b0: 071c bebc c972 6dbe a74d 543e 059a 203e
000003c0: 25d5 663d a6a1 61be ef5f 2d3e 23cd 2e3e
000003d0: accc 163f 56fa d5bd 78a1 98bd 654d dbbe
000003e0: 83c5 6bbe fa66 683e 3ebc a1be a5e6 b2be
000003f0: 0dd6 dfbe 54fb a1bd 41a0 69be 20de c3be

l2.bias f4 [300]
0.24253027 -0.0709075 0.72248447 -0.040065017 0.65955704 -0.004153436 -0.10034756 0.007862618
0.47745395 0.18558073 0.20276417 -0.025366955 -0.036542837 -0.0053512896 0.15353893 -0.19730835
-0.054815352 0.38286456 -0.09192774 1.2451152 0.12621112 -0.02010304 -0.021394562 -0.0856274
-0.21560815 0.1501355 0.40370896 1.2001755 -0.084007666 -0.01507085 0.12981382 -0.050868694
-0.029564152 0.0069825416 -0.12519582 -0.05617399 -0.049648013 0.21060908 -0.018877605 1.0335506
-0.07198779 0.2366106 -0.09622322 0.5786812 0.5966073 -0.05185333 -0.17967632 0.014609542
0.13148978 -0.26338452 -0.009952114 -0.01849549 0.46040675 -0.100611836 0.50755197 0.90767014
0.0339506 1.1523658 0.005227373 -0.012381191 -0.20547836 -0.089244425 -0.018575655 -0.1833079
0.35422537 0.52492344 1.5756117 0.5373979 -0.41033724 -0.054500397 0.33023345 0.22129132
0.26830155 0.83382624 -0.017796934 -0.09451172 -0.028441787 -0.0193349 0.27738336 -0.05996408
-0.2235741 -0.077324554 -0.057968784 0.8807555 -0.06435698 0.64954287 0.48019832 -0.23878826
-0.07047077 0.82549816 1.0903851 -0.033746988 0.015884992 -0.08955891 1.2149554 0.5360224
-0.08132149 0.46663734 -0.06716541 -0.3012047 -0.078434914 -0.09341322 0.9128841 -0.03217912
0.63778013 0.805173 -0.05549947 0.10028086 -0.24661317 -0.17718905 0.7772932 0.22385536
-0.079033606 -0.056758743 -0.046587184 -0.0097732395 -0.16478114 0.95858896 0.763125 0.43734312
-0.028489733 -0.045992494 -0.019425109 -0.10426758 -0.008894887 -0.05901708 -0.049998123 1.1988556
-0.04614394 0.315929 1.204397 0.87754285 0.0044326317 0.8897578 -0.23771831 -0.059921216
1.3123561 -0.016622335 -0.014545148 -0.6401671 -0.02267858 -0.10861579 0.34090272 -0.1748334
-0.6955832 0.63219565 -0.19046865 0.6010481 0.35894063 -0.016661644 -0.07659844 -0.43220475
-0.0070712394 0.7660202 -0.020929448 -0.06350703 -0.03475538 -1.1894412 -0.08572979 0.43688515
-0.06636861 -0.0913162 0.4761782 -0.42872858 0.4391004 0.06635612 -0.052011956 -0.06394595
-0.062211208 0.40984228 0.0008529865 0.15381882 -0.7923777 -0.06308121 -0.0665402 0.21617407
-0.20983228 0.021773964 -0.02182381 -0.0339535 -0.047218587 0.29089862 0.19998036 0.5430065
1.192377 -0.029530093 -0.056110907 0.5511164 -0.691168 0.21696536 -0.054433733 0.4521279
0.55084753 -0.3388525 -0.7437459 0.0035640916 0.006598832 -0.1772607 -0.2516542 0.18951239
0.4686819 -0.016393673 -0.0773043 -0.069972344 -0.09614432 -0.016334115 -0.0050506475 -0.008454677
-0.07681596 -0.17133175 -0.108368054 -0.22912113 -0.75182575 -0.08464192 -0.06960571 -0.013337167
0.24183045 -0.00042086674 -1.1834879 0.3648844 -0.080489315 -0.07331154 -0.5593562 -0.04648999
-0.061695628 -0.3992665 -0.062956914 -0.051074978 0.5202815 0.49324048 0.8791621 0.30388615
-0.82187253 0.55084944 1.1950963 -0.06640202 0.719366 0.011819285 1.1951728 1.093518
-0.046826527 -0.026944535 -0.03288083 -0.079116225 -0.36825943 -0.07976767 -0.054898772 0.27359012
-0.101067275 -0.024760738 1.0821686 -0.06989912 0.63873976 0.025952725 -0.023988891 -0.08773246
00000000: db59 783e f437 91bd bef4 383f 371b 24bd
00000010: bbd8 283f 8c19 88bb 0683 cdbd 36d2 003c
00000020: d874 f43e e008 3e3e 69a1 4f3e 5cce cfbc
00000030: f1ad 15bd df59 afbb 4f39 1d3e 330b 4abe
00000040: 1086 60bd d306 c43e 9c44 bcbd ef5f 9f3f
00000050: 7d3d 013e 21af a4bc a643 afbc 6b5d afbd
00000060: 62c8 5cbe 1fbd 193e f1b2 ce3e 5a9f 993f
00000070: 360c acbd baeb 76bc eaed 043e b15b 50bd
00000080: 8530 f2bc cecd e43b 5533 00be b316 66bd
00000090: b75b 4bbd e8a9 573e 35a5 9abc 634b 843f
000000a0: 566e 93bd 0d4a 723e ae10 c5bd 7324 143f
000000b0: 42bb 183f 2864 54bd 12fd 37be dc5c 6f3c
000000c0: 42a5 063e 56da 86be 310e 23bc db83 97bc
000000d0: 6fba eb3e 940d cebd edee 013f 125d 683f
000000e0: c90f 0b3d b980 933f 624a ab3b 7bda 4abc
000000f0: eb68 52be c8c5 b6bd f92b 98bc 11b5 3bbe
00000100: 075d b53e 6261 063f a5ad c93f e992 093f
00000110: b917 d2be cf3b 5fbd 5c14 a93e 319a 623e
00000120: d25e 893e a375 553f e0ca 91bc 5c8f c1bd
00000130: c0fe e8bc 3964 9ebc 3105 8e3e e59c 75bd
00000140: 9cf0 64be 565c 9ebd ad70 6dbd 3179 613f
00000150: 98cd 83bd 7148 263f 8edc f53e e984 74be
00000160: fb52 90bd d953 533f bd91 8b3f 483a 0abd
00000170: 3e21 823c a96a b7bd a983 9b3f c438 093f
00000180: e28b a6bd 17eb ee3e 058e 89bd 8137 9abe
00000190: 7ca2 a0bd 6e4f bfbd c6b2 693f 41ce 03bd
000001a0: 8f45 233f d11f 4e3f 6a53 63bd 0d60 cd3d
000001b0: 2a88 7cbe 0c71 35be b0fc 463f 573a 653e
000001c0: 5fdc a1bd db7b 68bd 34d2 3ebd f01f 20bc
000001d0: 63bc 28be 1666 753f 295c 433f 70eb df3e
000001e0: 4d63 e9bc a062 3cbd 6821 9fbc 3e8a d5bd
000001f0: dcbb 11bc e5bb 71bd d5ca 4cbd 1a74 993f
00000200: 6e01 3dbd 72c1 a13e ae29 9a3f a6a6 603f
00000210: 9c3f 913b 2bc7 633f 6e6c 73be f36f 75bd
00000220: 49fb a73f 902b 88bc c64e 6ebc fee1 23bf
00000230: 6ec8 b9bc f571 debd cd8a ae3e 8707 33be
00000240: be11 32bf 93d7 213f 370a 43be 4ade 193f
00000250: 11c7 b73e 007e 88bc a5df 9cbd f149 ddbe
00000260: dbb5 e7bb e619 443f 3c74 abbc f90f 82bd
00000270: a85b 0ebd 9c3f 98bf 1a93 afbd 69af df3e
00000280: 44ec 87bd fd03 bbbd a1cd f33e 5082 dbbe
00000290: c5d1 e03e b8e5 873d 7d0a 55bd 18f6 82bd
000002a0: 2ed1 7ebd d9d6 d13e f49a 5f3a ae82 1d3e
000002b0: 44d9 4abf b930 81bd 3a46 88bd bc5c 5d3e
000002c0: 46de 56be 505f b23c d9c7 b2bc d312 0bbd
000002d0: 4768 41bd aaf0 943e a7c7 4c3e 7902 0b3f
000002e0: cf9f 983f 18e9 f1bc 8dd4 65bd f715 0d3f
000002f0: 63f0 30bf 2b2c 5e3e e8f5 5ebd 4f7d e73e
00000300: 5804 0d3f 137e adbe 2266 3ebf 8993 693b
00000310: 043b d83b d483 35be d2d8 80be 890f 423e
00000320: 13f7 ef3e 064c 86bc b851 9ebd a94d 8fbd
00000330: 50e7 c4bd 1fcf 85bc e77f a5bb 7c85 0abc
00000340: b051 9dbd 9771 2fbe 12f0 ddbd bb9e 6abe
00000350: a777 40bf be58 adbd 708d 8ebd 2284 5abc
00000360: 67a2 773e c7a7 dcb9 887c 97bf 21d2 ba3e
00000370: 95d7 a4bd 5c24 96bd f831 0fbf 4a6c 3ebd
00000380: 8eb4 7cbd a96c ccbe 8eef 80bd ff33 51bd
00000390: 2b31 053f 048a fc3e c410 613f f796 9b3e
000003a0: 3d66 52bf 7804 0d3f eaf8 983f c8fd 87bd
000003b0: 5f28 383f ada5 413c 6cfb 983f 66f8 8b3f
000003c0: 2ccd 3fbd c9ba dcbc 0dae 06bd b007 a2bd
000003d0: 808c bcbe 3b5d a3bd 89dd 60bd 0114 8c3e
000003e0: 5cfc cebd 08d7 cabc 8084 8a3f 4527 8fbd
000003f0: 7384 233f cf9a d43c 5a84 c4bc 13ad b3bd

l3.weight f4 [1, 300]
0.027514782 0.024257539 -0.13199987 0.18136966 -1.4814477 0.030377733 0.11468739 0.04098187
-0.55341375 1.5590092 -1.9930656 -0.030320657 -0.031886205 0.0058061797 -0.7239685 0.03042323
-0.0017699787 -2.2284992 1.9285395 -0.66235775 1.1023842 0.0076610073 -0.018223708 -0.028547186
1.1039664 0.87252176 0.9143084 -1.0335027 0.034069527 0.01705905 -1.2195565 -0.0031927023
0.011705547 0.028772084 -0.3500428 0.015594847 0.015156012 -0.69394934 -0.017066525 -0.55469936
-0.014729674 -0.7597352 0.05756315 -1.8694034 0.6775774 0.04059584 -0.14736031 -0.000559648
-0.010492464 0.32847494 -0.011461433 0.0015687289 0.6567894 -0.3385295 -1.0162678 -1.1662356
0.8294228 1.8702408 0.005557988 0.007943627 0.27147487 -0.0042082956 0.0011279437 -0.72812074
-0.7205027 1.1309319 -1.2239825 -0.11063114 0.8828784 -0.021942072 -1.0626414 -1.4780141
-0.80282557 -0.26894328 -0.008495122 -0.002269108 -0.016802637 -0.005364288 -0.057225693 0.005665918
-0.22624281 -0.008903233 -0.021741161 -2.2552834 0.0030690734 0.89586383 -0.4602661 -1.3839929
0.007834787 -1.5484846 -0.63487077 -0.018007696 0.66610277 -0.012663767 -0.83254045 -0.64956176
-0.022401808 0.37487227 0.011605114 0.3963538 0.0072639147 -0.001056587 -0.55933875 0.8027323
-0.8959898 -1.0375676 0.08852281 0.35421583 -0.24908464 0.00850788 -1.2737254 -1.7105154
-0.0042642234 0.025047377 -0.01299743 0.01603352 -1.2573266 -0.39496756 -0.13257581 -0.09835568
-0.010510815 -0.75888693 -0.0009978518 -0.115540445 -0.00011506768 -0.042421155 -0.0053314576 -1.8345476
-0.026905593 -1.2442207 -0.5820011 -0.42686284 0.010739473 -0.95287687 -0.42314988 0.015426644
-0.69950545 -0.011477134 -0.0051612337 1.1423517 -0.011002169 2.304158 -1.0136632 -0.30176702
-1.7223337 -0.47368574 -0.35440972 -0.74295795 -1.4723662 0.01597026 -1.02069 -0.02968272
0.0016226198 -0.2892526 0.039926924 0.0008989046 0.016984744 0.66607726 0.01579145 1.164362
0.01917175 0.18902142 1.8716059 -0.044718273 0.80338734 -0.7204243 0.00042777104 0.022107769
-0.009948615 0.026456462 -0.009111473 -0.6451674 2.2995677 -0.017777748 -0.0056861583 -0.8206375
-0.40280426 -0.008418346 0.013201641 0.020757822 0.0041192505 -1.6520815 0.04219288 -0.004865569
-0.84814286 0.008054607 0.028633678 -0.8007048 0.7151707 0.06887288 0.0061843954 0.7065632
0.7442328 -1.5309054 -1.7839994 0.76337135 -0.0027917174 1.5609 -0.38235873 -0.86440426
-1.2837182 0.014939027 0.16214013 0.4344647 -1.6034247 0.0043698447 0.10680197 0.022938276
0.17693304 -0.13213226 0.0024520154 -0.3778431 0.65433747 0.031138495 0.0049139652 0.02406699
-0.0053530238 0.012998985 0.8416977 -0.019522125 0.010208304 -0.041450325 0.23015979 0.009412036
-0.015012021 0.61510134 0.0061093015 0.009779663 -1.1522033 -1.9942038 -0.50687385 -1.5715876
1.7208253 -0.28886312 -1.404517 -0.012176822 -0.7568925 0.009629914 -0.7439667 -0.88991064
-0.011237393 0.02448164 0.03136774 0.012398524 0.6973613 -0.020365397 -0.00025635044 0.026429163
-0.008355952 0.029710375 -0.7608636 0.03922564 -1.4010632 0.015832068 -0.007730344 0.007230135
00000000: ae66 e13c bfb7 c63c f92a 07be f8b8 393e
00000010: 14a0 bdbf b9da f83c 39e1 ea3d 9bdc 273d
00000020: 86ac 0dbf 9d8d c73f c61c ffbf 0763 f8bc
00000030: 1c9b 02bd c441 be3b 0056 39bf 233a f93c
00000040: a1fe e7ba bb9f 0ec0 62da f63f 4790 29bf
00000050: ed1a 8d3f 3009 fb3b e349 95bc cadb e9bc
00000060: c54e 8d3f 965d 5f3f 1e10 6a3f d149 84bf
00000070: 7d8c 0b3d 6cbf 8b3c 6d1a 9cbf a83c 51bb
00000080: 9fc8 3f3c 6fb3 eb3c cf38 b3be 8781 7f3c
00000090: ec50 783c aaa6 31bf 19cf 8bbc c700 0ebf
000000a0: bb54 71bc 027e 42bf 56c7 6b3d 9c48 efbf
000000b0: b675 2d3f d347 263d 9fe5 16be 57b5 12ba
000000c0: 95e8 2bbc de2d a83e bcc8 3bbc cf9d cd3a
000000d0: 5a23 283f bd53 adbe 1015 82bf 3547 95bf
000000e0: 0d55 543f 0d64 ef3f c81f b63b fd25 023c
000000f0: c1fe 8a3e bee5 89bb 83d7 933a 1f66 3abf
00000100: dd72 38bf 60c2 903f 75ab 9cbf 9492 e2bd
00000110: 5204 623f dcbf b3bc a204 88bf 912f bdbf
00000120: fa85 4dbf efb2 89be 202f 0bbc 51b5 14bb
00000130: afa5 89bc e9c6 afbb 7d65 6abd 2aa9 b93b
00000140: 32ac 67be dede 11bc 851a b2bc 9056 10c0
00000150: 8222 493b 5557 653f 00a8 ebbe ae26 b1bf
00000160: 7a5d 003c be34 c6bf e486 22bf e084 93bc
00000170: b685 2a3f b07b 4fbc 5f21 55bf ae49 26bf
00000180: ff83 b7bc 42ef bf3e 6023 3e3c e3ee ca3e
00000190: 2206 ee3b 2d7d 8aba d330 0fbf dd7f 4d3f
000001a0: 965f 65bf 04cf 84bf 724b b53d c75b b53e
000001b0: 0b10 7fbe a364 0b3c 6f09 a3bf 2bf2 dabf
000001c0: e6ba 8bbb 2830 cd3c 2cf3 54bc bb58 833c
000001d0: 14f0 a0bf 3039 cabe f4c1 07be b46e c9bd
000001e0: 8e35 2cbc 6a46 42bf 5aca 82ba 78a0 ecbd
000001f0: 7e50 f1b8 cec1 2dbd 82b3 aebb 75d2 eabf
00000200: 1e69 dcbc a042 9fbf 06fe 14bf c48d dabe
00000210: 9df4 2f3c bdef 73bf 1aa7 d8be 09c0 7c3c
00000220: ca12 33bf 970a 3cbc 911f a9bb 9538 923f
00000230: 7142 34bc 5377 1340 b7bf 81bf 3581 9abe
00000240: 6e75 dcbf f086 f2be 3175 b5be 7e32 3ebf
00000250: 7f76 bcbf 10d4 823c f8a5 82bf 2d29 f3bc
00000260: 16ae d43a eb18 94be 6a8a 233d 77a4 6b3a
00000270: 9723 8b3c 0a84 2a3f 125d 813c d009 953f
00000280: 130e 9d3c d58e 413e c890 ef3f 822a 37bd
00000290: cbaa 4d3f ba6d 38bf 7546 e039 5a1b b53c
000002a0: 84ff 22bc 39bb d83c 4a48 15bc b129 25bf
000002b0: 1e2c 1340 a4a2 91bc f452 babb 4d15 52bf
000002c0: 5c3c cebe 1aed 09bc b24b 583c 4f0c aa3c
000002d0: c7fa 863b 6877 d3bf 71d2 2c3d 5a6f 9fbb
000002e0: e41f 59bf 78f7 033c 2d91 ea3c fdfa 4cbf
000002f0: 6d15 373f 390d 8d3d 78a6 ca3b 53e1 343f
00000300: 0a86 3e3f b5f4 c3bf 185a e4bf 4e6c 433f
00000310: 3ff5 36bb 92cb c73f 86c4 c3be 9949 5dbf
00000320: e150 a4bf d2c2 743c 1008 263e 2872 de3e
00000330: 053d cdbf ea30 8f3b feba da3d 0de9 bb3c
00000340: ef2d 353e ae4d 07be feb1 203b a774 c1be
00000350: a982 273f 2816 ff3c 5405 a13b 2328 c53c
00000360: 6b68 afbb b2f9 543c 8079 573f ddec 9fbc
00000370: bb40 273c d1c7 29bd 02af 6b3e f134 1a3c
00000380: fbf4 75bc 4877 1d3f 8930 c83b e13a 203c
00000390: 667b 93bf 1242 ffbf 7cc2 01bf c829 c9bf
000003a0: 0144 dc3f dee5 93be 37c7 b3bf 4b81 47bc
000003b0: b5c3 41bf c9c6 1d3c 9a74 3ebf 2fd1 63bf
000003c0: 0b1d 38bc b88d c83c 767b 003d 2e23 4b3c
000003d0: 4586 323f 55d5 a6bc c666 86b9 f981 d83c
000003e0: 67e7 08bc 2c63 f33c f5c7 42bf 11ab 203d
000003f0: 0a56 b3bf 41b2 813c d34e fdbb c5ea ec3b
