preTrained/LunarLanderContinuous-v2/TD3_LunarLanderContinuous-v2_0_solved_actor.pth (torch_old, 499018 bytes, 6 tensors)

l1.weight f4 [400, 8]
0	0x3eedc74c	0.46441114
1	0xc0641540	-3.563797
2	0xbf4808b4	-0.7813828
3	0x3d704848	0.058662683
4	0x3facc447	1.3497399
5	0xbe43205e	-0.19055316
6	0xbe3194c7	-0.1734191
7	0x3e504b01	0.20341112
8	0x3fc262d9	1.5186416
9	0xbf31086a	-0.69153464
10	0x3e43f9d7	0.19138275
11	0x3e16f040	0.14740086
12	0xbf6a0226	-0.9140953
13	0xbfe84226	-1.8145187
14	0xbf096afa	-0.5367886
15	0x3dd2cdf5	0.102931894
16	0x3f9ee337	1.241309
17	0x3f6c3587	0.92269176
18	0xbeadd0a2	-0.33948237
19	0x3c205fd3	0.009788471
20	0x3f059909	0.5218664
21	0xbe01d8cc	-0.12680358
22	0xbf065868	-0.5247865
23	0x3f497d4e	0.78706825
24	0x3fca10f1	1.578642
25	0x3e653d53	0.22386675
26	0x3cc201ba	0.023682464
27	0x3e0ca549	0.13734926
28	0xbf7d88a7	-0.9903664
29	0xbf4717cf	-0.77770704
30	0x3f4105cf	0.7539949
31	0xbf7ad0a7	-0.9797463
32	0x3e9e7cfa	0.30954725
33	0xbe0348a4	-0.12820679
34	0xbed8f481	-0.42374042
35	0xbfa25011	-1.2680684
36	0xbe92a290	-0.2863965
37	0xbcbc242f	-0.022966472
38	0xbf94e02d	-1.1630913
39	0x3ef38b75	0.47567335
40	0xbf555bee	-0.833434
41	0xbed84279	-0.42238215
42	0x3f7e91db	0.9944131
43	0x3de6dcd2	0.11272587
44	0xbfef5028	-1.8696337
45	0xbfa05bb6	-1.2527988
46	0x3eb95aa2	0.3620196
47	0xbf1f24c3	-0.6216547
48	0x3fa08f7b	1.2543787
49	0xbf92a4bb	-1.1456522
50	0xbdedc85a	-0.1161048
51	0x3f1cd29a	0.6125885
52	0x3e728e8f	0.23687194
53	0xbf4c8432	-0.79889214
54	0xbea59995	-0.32343736
55	0xbe9d9d06	-0.30783862
56	0x3ed35425	0.41275135
57	0x3f74ed18	0.95674276
58	0xbea886f8	-0.32915473
59	0x3f36e41c	0.7144182
60	0xbebd2d24	-0.36948502
61	0x3eba8d05	0.36435714
62	0xbde2b1fd	-0.11069105
63	0xbe9c2168	-0.30494237
64	0x3f50bf7e	0.81542194
65	0xbe84791e	-0.25873655
66	0x3fdf36cd	1.7438599
67	0x3da4e38c	0.080512136
68	0xbfd122d7	-1.6338757
69	0x3daf9e22	0.08575083
70	0x3e714096	0.23559794
71	0x3e3ff5ec	0.18746156
72	0xbf2584de	-0.64655864
73	0x3dc016e2	0.093793646
74	0x3f57b0d0	0.8425417
75	0xbda4c6ba	-0.080457166
76	0xbf1dcaa6	-0.6163734
77	0xbdfdd482	-0.12394048
78	0xbd834371	-0.06409348
79	0x3e8ebf70	0.2788043
80	0xbe0dd117	-0.13849293
81	0xbe6f098f	-0.2334349
82	0x3f21f81d	0.63269216
83	0xbf2a0170	-0.66408443
84	0x3e73270a	0.23745361
85	0xbf74f32f	-0.9568357
86	0xbf88e17f	-1.0693816
87	0xbf16f304	-0.5896456
88	0x3f3415c3	0.70345706
89	0x3e3b0b47	0.1826602
90	0x3e851b30	0.25997305
91	0x3f32df43	0.6987192
92	0x3f20521c	0.6262529
93	0xbdd338e7	-0.10313588
94	0x3f08fb63	0.53508586
95	0xbf48df73	-0.78465956
96	0xbe07382c	-0.13205022
97	0xbe986edb	-0.29772076
98	0x3f80466f	1.0021495
99	0xbf1a0145	-0.6015819
100	0xbf8cd1c2	-1.1001513
101	0xbf40cbe5	-0.7531112
102	0x3eaa4d6a	0.33262187
103	0xbefa2c87	-0.48862097
104	0x3ec1dc19	0.37863234
105	0x3e42b6cc	0.19015044
106	0xc00f4160	-2.2383652
107	0x3f95dda9	1.170827
108	0xbf4bb5a7	-0.79574054
109	0xbed9b996	-0.42524403
110	0x3f01f500	0.50764465
111	0xbf42c328	-0.76079035
112	0x3efac434	0.48977816
113	0xbe3c6bf8	-0.18400562
114	0xbc4c6a81	-0.012476564
115	0xbe448a1e	-0.19193313
116	0xbde7b718	-0.11314219
117	0xbf8238e1	-1.0173608
118	0xbef784b7	-0.4834344
119	0x3e8fd0b9	0.2808893
120	0x3fd96ba5	1.6985976
121	0xbeb14645	-0.34623924
122	0xbd84171c	-0.0644972
123	0x3cf77702	0.030208115
124	0xbeaf6792	-0.34258705
125	0xbfa25f41	-1.2685319
126	0x3f1a8519	0.6035934
127	0xbecf3c61	-0.40475753
128	0x3ecd402c	0.40088022
129	0x3ee0c078	0.43896842
130	0xbf5e95b1	-0.8694716
131	0x3f587c8a	0.8456503
132	0xbf9fc348	-1.248147
133	0xbf9204f6	-1.1407764
134	0x3f0c2e09	0.54757744
135	0xbd79fb4c	-0.06103067
136	0x3f584692	0.8448268
137	0x3ebd753a	0.370035
138	0x3fd9bbf7	1.7010487
139	0x3ec45194	0.3834349
140	0xc00d61eb	-2.2091014
141	0xbef89c04	-0.4855653
142	0xbdcdafe8	-0.10043317
143	0xba8bb129	-0.0010657656
144	0x3feb5627	1.8385667
145	0xbe777a08	-0.24167645
146	0x3fe92c70	1.8216686
147	0xbed3338b	-0.41250262
148	0xbf4bb0f1	-0.79566866
149	0xba944515	-0.0011312092
150	0x3e689288	0.22712147
151	0xbe6425ce	-0.22280046
152	0x3f0ebfc1	0.55761343
153	0x3f037934	0.51356816
154	0x3f9193b8	1.1373205
155	0xbed0e792	-0.40801674
156	0x3ed26abe	0.41097063
157	0xbf215de6	-0.630339
158	0xbf2d33ee	-0.67657363
159	0xbf53e962	-0.8277799
160	0xbec3ddc5	-0.38255134
161	0x3f085d8f	0.5326776
162	0x3f9cc9b0	1.224905
163	0x3f439359	0.7639671
164	0x3f297dbf	0.662075
165	0x3f45f456	0.7732595
166	0xbf4308fe	-0.76185596
167	0xbf9e3e41	-1.2362748
168	0xbfa07467	-1.2535523
169	0x3f2c3205	0.67263824
170	0xbf8933e0	-1.0718956
171	0x3e85976a	0.26092082
172	0xbf05c398	-0.5225158
173	0x3f49141b	0.78546304
174	0xbeafe183	-0.3435174
175	0xbea2e8cc	-0.31818235
176	0x3eed36a5	0.46330753
177	0xc025d4cc	-2.591113
178	0xbe39136e	-0.18073818
179	0x3f87a830	1.0598202
180	0xbf164c91	-0.5871058
181	0x3f4aa680	0.7916031
182	0x3d9595a1	0.0730393
183	0x3e824137	0.2544038
184	0x3c07f43d	0.008297977
185	0xbebb7b89	-0.36617687
186	0xbf63aba7	-0.88933796
187	0x3e3442e0	0.17603636
188	0x3dadf6b2	0.08494319
189	0x3e208169	0.15674366
190	0xbe3be152	-0.18347672
191	0xbfa5b60c	-1.2946181
192	0x3ef3a0ba	0.47583562
193	0x3f256127	0.6460137
194	0x3fcf9d4c	1.6219878
195	0x3fe85e63	1.8153805
196	0x3e6e96d6	0.23299727
197	0x3daae17d	0.0834379
198	0x3f52b550	0.8230791
199	0xbdfd666d	-0.12373052
200	0x3fb41b61	1.4070855
201	0xbdaecefd	-0.08535574
202	0x3f7c5413	0.9856579
203	0x3dbe627b	0.092961274
204	0xbf2b5e23	-0.66940516
205	0x3f353d16	0.70796335
206	0xbf437c4c	-0.76361537
207	0xbf280203	-0.6562807
208	0xbe88104d	-0.26574937
209	0x3ec7a6a6	0.3899433
210	0x3fe3834f	1.7774447
211	0x3f62d6e8	0.8860917
212	0xbfd37931	-1.652136
213	0xbd938ca4	-0.072045594
214	0x3ef4c772	0.47808415
215	0xbf83c2d9	-1.0293838
216	0x3f4d81dc	0.80276275
217	0xbda61dd8	-0.08111161
218	0x3ed0e5dd	0.40800372
219	0xbf7630d6	-0.9616827
220	0x3f266624	0.64999604
221	0x3eee1294	0.4649855
222	0xbeaed009	-0.34143093
223	0xbefb27af	-0.49053714
224	0xbf80634c	-1.0030303
225	0x3dda1543	0.106485866
226	0x3efe533a	0.49672872
227	0xbf32c5cc	-0.69833064
228	0x3d7a715e	0.06114327
229	0xbfc51bbf	-1.5399092
230	0x3eb11959	0.3458965
231	0xbeb22499	-0.34793547
232	0xbc971a83	-0.018445259
233	0xc0197bb7	-2.398176
234	0x3ed29833	0.41131744
235	0xbf32f49a	-0.6990448
236	0xbb907f93	-0.0044097393
237	0xbf369beb	-0.7133166
238	0xbeab34d6	-0.33438748
239	0x3f4e6293	0.8061916
240	0xbf0b66f9	-0.54454
241	0xc04c63ce	-3.1935916
242	0x3f7d9ad0	0.9906435
243	0xbda1492e	-0.07875286
244	0xbfbd690d	-1.4797684
245	0xbf191285	-0.59793884
246	0xbd095ffc	-0.033538803
247	0x3ef74b23	0.48299512
248	0xbf46a420	-0.77594185
249	0x3edda8f2	0.43292958
250	0x3ddbbc5a	0.107292846
251	0x409b625e	4.8557577
252	0xbea187de	-0.3154897
253	0xbf859b40	-1.0438004
254	0x3f1a9f24	0.6039908
255	0xbcfbf70d	-0.030757451

l1.bias f4 [400]
0	0x3dff9002	0.12478639
1	0xbca54501	-0.020174505
2	0xbedcb76d	-0.43108693
3	0xbed20a19	-0.4102333
4	0xbebf2711	-0.37334493
5	0xbec1779e	-0.37786573
6	0x3e17f3e3	0.14839129
7	0x3eac69cb	0.33674464
8	0xbe5141dd	-0.20435281
9	0xbe27e51d	-0.16395994
10	0x3d39ed98	0.045392603
11	0xbf858f58	-1.043437
12	0xbf012b76	-0.5045694
13	0xbca98b2e	-0.020696249
14	0xbf47ce7c	-0.78049445
15	0xbefce836	-0.49395913
16	0x3d109e02	0.035306938
17	0xbd1cd8c4	-0.03829266
18	0xbee14de2	-0.44004732
19	0xbd646368	-0.055758864
20	0xbc83448e	-0.0160239
21	0xbf2dc759	-0.67882305
22	0xbe11dfc7	-0.1424552
23	0x3eada576	0.339153
24	0xbee51dab	-0.44749197
25	0xbe094c24	-0.13407952
26	0xbe19bf58	-0.15014398
27	0xbede7c2b	-0.43454108
28	0xbe061cfa	-0.13096991
29	0xbf03eb3e	-0.51530826
30	0xbec393ec	-0.38198793
31	0x3d769293	0.060198378
32	0xbeed77ab	-0.46380362
33	0x3eb5ff3c	0.3554629
34	0x3d99ca26	0.0750926
35	0xbf359365	-0.7092803
36	0xbec2c85c	-0.38043487
37	0x3e1cf6dc	0.15328544
38	0x3e8f29ff	0.27961728
39	0xbebad9fd	-0.36494437
40	0x3ebf8706	0.37407702
41	0x3d96f2c4	0.073705226
42	0xbd974fb8	-0.07388252
43	0xbef41d10	-0.47678423
44	0xbe64342b	-0.22285526
45	0x3d1aa0c0	0.03775096
46	0xbda28d1d	-0.079370715
47	0x3eb459b2	0.35224682
48	0xbda67b0e	-0.081289396
49	0xbeabf83d	-0.33587828
50	0xbf44e615	-0.7691358
51	0xbe30c3b3	-0.17262153
52	0xbf5bea5f	-0.85904497
53	0x3e54fd1b	0.20799677
54	0xbe17a818	-0.14810216
55	0xbece380b	-0.40277132
56	0xbf51bea3	-0.81931514
57	0xbe63cdbe	-0.22246453
58	0xbe614881	-0.22000314
59	0x3e92a280	0.28639603
60	0xbf3a7e25	-0.7284873
61	0x3d771127	0.060319092
62	0xbf0684c3	-0.5254633
63	0xbe9b0150	-0.3027444
64	0xbf0ff2f7	-0.5623011
65	0x3e216a5b	0.15763228
66	0x3e2507fa	0.16116324
67	0x3e71fc6c	0.23631448
68	0xbeb9ab6f	-0.36263606
69	0xbdf4c21d	-0.11951087
70	0xba0049c8	-0.0004893807
71	0x3e1db505	0.15401085
72	0xbb6b2fbc	-0.0035886606
73	0x3e86562e	0.26237625
74	0xbf2ecb51	-0.68278986
75	0xbe79306c	-0.24334878
76	0x3e8541b7	0.260267
77	0xbf6d2998	-0.9264159
78	0x3ded737a	0.11594291
79	0xbe4c4b5b	-0.19950621
80	0xbf2b29ad	-0.6686047
81	0xbeeca8fa	-0.4622267
82	0xbda3fc47	-0.080071025
83	0x3e50494f	0.20340465
84	0xbc7f18b8	-0.015569858
85	0x3bb2e7a7	0.005459744
86	0xbf5f1d56	-0.8715414
87	0xbf01d3c9	-0.50713784
88	0xbf5413b0	-0.8284254
89	0x3eb1891b	0.34674916
90	0x3e37ca24	0.17948204
91	0x3dda14b3	0.10648479
92	0x3e4e410a	0.20141998
93	0xbe6f6663	-0.23378901
94	0x3e48cdfc	0.19609827
95	0xbe4d1950	-0.20029187
96	0xbe8b61ed	-0.2722315
97	0xbf1d2da4	-0.6139777
98	0xbe303152	-0.17206314
99	0xbe08f044	-0.13372904
100	0x3e5bfc54	0.21482974
101	0xbebb70d9	-0.36609533
102	0x3eab4608	0.33451867
103	0xbee924dc	-0.45535934
104	0xbe66b216	-0.22528872
105	0xbf0835b4	-0.53206944
106	0xbe51cc62	-0.20488122
107	0xbe9742d2	-0.29543167
108	0xbea77e9e	-0.3271379
109	0xbefcd35e	-0.4938001
110	0xbe708017	-0.23486362
111	0xbe2a268f	-0.16616271
112	0xbed39462	-0.41324145
113	0x3de8c94c	0.11366519
114	0x3ef51574	0.4786793
115	0x3d944477	0.07239621
116	0xbf19cb41	-0.60075766
117	0xbe0d1a46	-0.13779554
118	0xbf0016d3	-0.50034827
119	0xbf82db49	-1.022317
120	0xbf094640	-0.5362282
121	0x3e60c6f1	0.2195089
122	0x3de63e54	0.11242357
123	0xbf040af1	-0.51579195
124	0xbe4ec52f	-0.20192407
125	0xbe84a016	-0.25903386
126	0xbf060b1e	-0.52360713
127	0xbe747013	-0.23870878
128	0xbe6551b5	-0.2239445
129	0x3cea7c5d	0.028623754
130	0x3c4ba8ef	0.012430414
131	0x3df11489	0.11771495
132	0x3d4108f8	0.047127694
133	0xbca247a6	-0.019809555
134	0xbe980dca	-0.2969802
135	0xbe9148cc	-0.28375852
136	0xbea6f934	-0.32612002
137	0xbf0290a8	-0.5100198
138	0xbeb5c561	-0.3550215
139	0xbf128db4	-0.5724747
140	0xbe98c917	-0.2984092
141	0xbf0b5d11	-0.54438883
142	0x3eb1b9df	0.3471212
143	0xbf9c64a7	-1.2218217
144	0xbeeb771f	-0.4598932
145	0xbf858b20	-1.0433083
146	0xbe821aae	-0.2541098
147	0x3ec40bb7	0.38290188
148	0x3ea7fa5c	0.32808197
149	0xbe91b87f	-0.28461072
150	0xbedaf4f3	-0.42765006
151	0xbdf24953	-0.11830392
152	0x3e00a930	0.1256454
153	0xbf874565	-1.0568053
154	0xbf071a9d	-0.52774984
155	0xbe83b526	-0.25724143
156	0xbe0e6e88	-0.13909352
157	0xbf199147	-0.599873
158	0xbf0e00c2	-0.55469906
159	0x3cbc1723	0.022960251
160	0xbeb2024c	-0.34767377
161	0x3e82453d	0.2544345
162	0xbf1bb8d9	-0.6082893
163	0x3deca19c	0.11554262
164	0x3d8c33fe	0.06845854
165	0xbf1c3196	-0.6101316
166	0x3c365a39	0.011129909
167	0xbe918f94	-0.28429854
168	0xbeea4344	-0.45754445
169	0x3e7576ac	0.23971051
170	0xbf3a052c	-0.7266414
171	0x3ea0ffc8	0.31445146
172	0xbd82d914	-0.063890606
173	0x3d0df1dd	0.034654487
174	0xbf0f6fca	-0.5602995
175	0xbebb0470	-0.36526823
176	0x3ea3653e	0.3191318
177	0xbee74bf7	-0.45175144
178	0xbee0192d	-0.43769208
179	0xbec45044	-0.38342488
180	0xbea26613	-0.317185
181	0x3da0b2c1	0.078465946
182	0xbf27e908	-0.6558995
183	0x3ce101e5	0.027466724
184	0x3df1dc65	0.11809615
185	0xbf8323a6	-1.0245254
186	0xbf1c2507	-0.60994
187	0xbeb8ccdf	-0.36093804
188	0xbe74d7af	-0.23910402
189	0xbe17d1b5	-0.1482609
190	0x3f36b76c	0.7137363
191	0xbe7a8d35	-0.24467929
192	0xbf726c86	-0.94696844
193	0xbdfd32e3	-0.123632215
194	0xbee446c2	-0.44585234
195	0x3e17d5ff	0.14827727
196	0xbd9817bb	-0.07426401
197	0x3e4d10bf	0.2002592
198	0x3e1e9303	0.15485768
199	0xbf66cf17	-0.90159744
200	0xbeaf51c9	-0.34242085
201	0xbe11752f	-0.14204858
202	0x3eb7f4e1	0.35929015
203	0x3dae2c3d	0.085045315
204	0xbeb76f47	-0.35827085
205	0x3e543aad	0.20725508
206	0xbeb6d54b	-0.35709605
207	0xbefc5dab	-0.49290213
208	0x3d55a2e0	0.052157283
209	0xbeb1ed6f	-0.3475146
210	0xbe539b5b	-0.20664732
211	0xbeec3d58	-0.46140552
212	0xbe2de2b0	-0.16981006
213	0xbf50735a	-0.8142601
214	0xbef2aa2c	-0.47395456
215	0xbea5ae64	-0.32359612
216	0xbd2c7838	-0.042106837
217	0xbeaca2eb	-0.33718047
218	0xbf6283e2	-0.8848249
219	0xbee462f0	-0.44606733
220	0xbf5f87b3	-0.87316436
221	0xbf1ff38f	-0.62481016
222	0xbf2f5546	-0.6848949
223	0x3c9dac33	0.01924715
224	0xbd4b7404	-0.049671188
225	0xbf37774b	-0.716664
226	0xbe2394a4	-0.1597467
227	0xbeb59c5f	-0.35470864
228	0xbf19afc5	-0.6003383
229	0xbdd4583d	-0.103683926
230	0xbf5881f5	-0.845733
231	0xbe902053	-0.2814966
232	0xbf0c7d0b	-0.548783
233	0xbf290c13	-0.6603405
234	0xbe5b595f	-0.21420811
235	0x3e4e453d	0.201436
236	0xbe3248b7	-0.17410551
237	0xbf1e00b9	-0.6171985
238	0xbd06aa55	-0.032877285
239	0x3ec0e7e5	0.3767692
240	0x3caca88a	0.02107646
241	0xbe3c3f07	-0.18383418
242	0x3eb29764	0.34881127
243	0xbed3a5f5	-0.41337553
244	0xbd55d740	-0.05220723
245	0x3ed3c013	0.41357478
246	0xbef1c8af	-0.47223422
247	0xbeb4e50e	-0.35331005
248	0xbece53fd	-0.40298453
249	0xbdd52c5a	-0.1040885
250	0xbe13b8c0	-0.14425945
251	0xbe8ea17d	-0.2785758
252	0x3e3c4785	0.18386658
253	0xbf4dd225	-0.8039878
254	0xbed0485d	-0.4068021
255	0x3ed44b7b	0.41463837

l2.weight f4 [300, 400]
0	0xbe97bee5	-0.29637828
1	0xbf6d89c1	-0.9278832
2	0xbe715772	-0.23568514
3	0x3f195baa	0.59905493
4	0xbed5c8b5	-0.4175469
5	0xbf75130f	-0.95732206
6	0x3f9cfaf5	1.2264086
7	0xbfa47b95	-1.2850214
8	0x3e456228	0.19275725
9	0xbeef048b	-0.46683154
10	0xbefc1f5c	-0.49242675
11	0x3f17943b	0.59210557
12	0x3eadda99	0.3395584
13	0xbdfed219	-0.12442417
14	0xbe09ac46	-0.13444623
15	0x3d6cc01c	0.057800397
16	0xbf3d01dc	-0.7383096
17	0xbf06e160	-0.52687645
18	0x3d1b41a9	0.037904415
19	0xbda15d41	-0.07879115
20	0xbf49a960	-0.7877407
21	0xbf8b78b6	-1.0896213
22	0xbe0782c7	-0.13233481
23	0xbde66de8	-0.11251432
24	0xbf60116f	-0.875266
25	0x3f24893c	0.64271903
26	0xbddab414	-0.106788784
27	0xbe978db1	-0.2960029
28	0xbe336d3a	-0.17522135
29	0xbabd60de	-0.0014448424
30	0x3ebd7353	0.37002048
31	0xbfd21b32	-1.6414549
32	0xbf4774fb	-0.77912873
33	0xbf6b6dc3	-0.9196436
34	0xbf7afa5b	-0.9803826
35	0xbe29ebd7	-0.16593872
36	0xbcf51084	-0.029915102
37	0xbebc0b40	-0.36727333
38	0xbe945340	-0.28969765
39	0x3e850349	0.2597907
40	0xbf5131bc	-0.81716514
41	0x3e808a01	0.2510529
42	0x3eaf24ab	0.34207663
43	0xbe3b24d7	-0.18275772
44	0x3e6abd39	0.22923745
45	0xbf9a2f0b	-1.2045606
46	0xbe6e0faf	-0.2324817
47	0xbe352fe9	-0.17694058
48	0xbef4fac2	-0.47847563
49	0x3e8d23a7	0.27566263
50	0xbf1f43c4	-0.6221278
51	0x3dc657fa	0.09684749
52	0xbeced391	-0.40395787
53	0x3f512693	0.81699485
54	0x3e22396c	0.15842217
55	0x3dc9fd1d	0.09862731
56	0xbeb3a120	-0.35083866
57	0xbfc97d39	-1.574134
58	0x3edad59b	0.42741093
59	0xbf1fb9c4	-0.6239283
60	0xbd905347	-0.07047134
61	0x3e92887a	0.28619748
62	0xbebcc5bf	-0.36869618
63	0xbbbabb6d	-0.0056986124
64	0xbf794e68	-0.97385263
65	0x3f05c25d	0.522497
66	0xbfa65a12	-1.2996237
67	0xbed1ff7d	-0.41015235
68	0x3f37b7b2	0.7176467
69	0x3f2d2991	0.6764155
70	0x3e7f55d8	0.2493509
71	0xbf76562d	-0.96225244
72	0xbf00c3a4	-0.50298524
73	0xbeb78cb4	-0.35849535
74	0xbe8f7515	-0.28019014
75	0xbf5f07f5	-0.87121516
76	0xbf2c1cdd	-0.6723154
77	0xbf195bed	-0.5990589
78	0x3e14373e	0.14474198
79	0x3e523b45	0.20530422
80	0xbde6ee28	-0.112758934
81	0xbe3fb60f	-0.18721794
82	0x3f6f3734	0.9344361
83	0xbeb3dd25	-0.35129657
84	0xbe9eb1e1	-0.30995086
85	0x3c8d20f4	0.017227627
86	0x3b5bd12c	0.0033541424
87	0x3eb7f471	0.35928681
88	0xbed2128a	-0.4102977
89	0x3f09d157	0.5383505
90	0x3da9e7cc	0.08296165
91	0xbc794325	-0.015213762
92	0xbf545048	-0.82935
93	0x3f65ff02	0.89842236
94	0xbe19410d	-0.14966221
95	0x3e88f6c5	0.2675077
96	0xbf3a07ef	-0.72668356
97	0xbf80b3bf	-1.0054854
98	0xbee7150a	-0.4513324
99	0xbe772a2a	-0.24137178
100	0xbe1c363b	-0.15255062
101	0xbf556786	-0.8336109
102	0xbf806f65	-1.0033995
103	0x3e492e7c	0.19646639
104	0x3f08ca91	0.5343409
105	0x3e37b576	0.17940316
106	0xbe5fb108	-0.21844876
107	0xbe7f2cb6	-0.249194
108	0xbd224d54	-0.039624527
109	0x3f2b2eed	0.6686848
110	0x3ecb7bc4	0.39742863
111	0x3cffba2e	0.031216707
112	0xbf520b98	-0.8204894
113	0xbecf38db	-0.40473065
114	0x3f3fdd22	0.74946797
115	0xbf3d32a5	-0.739054
116	0x3f058365	0.5215362
117	0xbe9c73a3	-0.30556974
118	0x3e10c552	0.14137772
119	0x3db3f19b	0.08786317
120	0xbdf4dfdd	-0.11956761
121	0x3f04af53	0.51830024
122	0xbfe4a88b	-1.7863935
123	0x3e825693	0.25456676
124	0x3f38c11e	0.72169673
125	0xbf186aa4	-0.5953772
126	0xbd8a8f31	-0.06765593
127	0xbf1adb23	-0.60490626
128	0x3ecc9301	0.39955905
129	0x3db65333	0.08902588
130	0xbf3c1ee6	-0.7348465
131	0xbf0ddd00	-0.55415344
132	0xbe5bdda9	-0.21471275
133	0x3f275514	0.65364194
134	0x3d14aa16	0.03629502
135	0x3f711eaf	0.94187444
136	0x3f370e29	0.7150598
137	0x3d69eaaa	0.05710856
138	0xbe53de0c	-0.20690173
139	0x3ea33b80	0.31881332
140	0xbf282fbf	-0.65697855
141	0x3e5709b3	0.20999794
142	0xbf2e598e	-0.681054
143	0xbeedd432	-0.46450955
144	0x3f32596c	0.69667697
145	0x3e1c8d16	0.15288195
146	0x3e9fb5b5	0.3119332
147	0xbea9c6b3	-0.33159408
148	0x3d5cc69a	0.05390034
149	0xbd6445d7	-0.055730667
150	0x3dbd6b5e	0.09248994
151	0xbe690cbf	-0.22758768
152	0x3f3ba626	0.733004
153	0x3d344093	0.044006895
154	0x3e1a9e5f	0.15099476
155	0xbefba2a3	-0.4914752
156	0x3f236fcf	0.6384248
157	0xbf366d73	-0.71260756
158	0x3e01ba4c	0.12668723
159	0xbf582565	-0.8443206
160	0x3dcac77c	0.0990133
161	0xbf7dfeba	-0.99216807
162	0x4001aa6e	2.0260272
163	0xbee3b0a3	-0.444707
164	0x3dcd291b	0.10017606
165	0x3e04552f	0.1292312
166	0x3f06201b	0.5239274
167	0x3f82002d	1.0156304
168	0xbf231285	-0.63700134
169	0x3ec1014c	0.37696302
170	0xc023d2a5	-2.5597317
171	0xbec4b981	-0.38422778
172	0xbdeabd51	-0.114618905
173	0x3f8ff213	1.124575
174	0x3fb43883	1.4079746
175	0xbe59cbe3	-0.21269183
176	0xbf006c75	-0.5016549
177	0x3e318eb5	0.17339595
178	0xbf664e38	-0.899631
179	0xbe2cd866	-0.16879424
180	0x3f2fd7d0	0.6868868
181	0xbed0eb3c	-0.4080447
182	0xbefc4743	-0.49273118
183	0x3e5e6929	0.21719803
184	0xbf367b16	-0.71281564
185	0xbf01f825	-0.50769264
186	0xbf0f0c97	-0.55878586
187	0xbe7f637f	-0.24940298
188	0x3ec0ce72	0.37657505
189	0x3f03c6bf	0.5147514
190	0xbd23f3be	-0.040027373
191	0xbf4eb2a6	-0.80741346
192	0x3ec83a27	0.39106867
193	0x3dd7e4af	0.10541665
194	0x3f1d981e	0.6156024
195	0xbf7a13b2	-0.976863
196	0x3fb71428	1.4303026
197	0xbfaf8ce3	-1.371487
198	0xbe1cb437	-0.15303122
199	0x3ea08de7	0.31358263
200	0x3b31543b	0.0027058262
201	0xbe8a77e1	-0.27044585
202	0xc01ad20f	-2.419071
203	0xbf490c3a	-0.7853428
204	0x3f60af58	0.87767553
205	0x3f95806d	1.1679817
206	0x3eaccc7a	0.33749753
207	0xbeff5c66	-0.49875182
208	0xbf860f06	-1.0473335
209	0x3d73dbaa	0.05953566
210	0xbcf2fc97	-0.02966146
211	0x3eea4112	0.4575277
212	0xbeb27805	-0.34857193
213	0xbd8ca3b9	-0.06867165
214	0x3f1a9943	0.6039011
215	0x3d4aafe7	0.04948416
216	0x3f362049	0.71143013
217	0xbd36bbae	-0.04461258
218	0x3f3b49a7	0.7315926
219	0x3dbd2f1a	0.092374995
220	0xbea7e12f	-0.3278899
221	0x3e57abd2	0.21061638
222	0x3e327b0e	0.17429754
223	0xbe66f157	-0.22553001
224	0x3c2f0b2d	0.010683817
225	0xbf16be40	-0.5888405
226	0xbf3e10f1	-0.742446
227	0x3f9575ff	1.1676635
228	0xbf050c33	-0.5197174
229	0xbf8cf845	-1.1013266
230	0xbe972bfb	-0.29525742
231	0x3ec80df6	0.3907315
232	0xbd82442b	-0.06360658
233	0xbe236065	-0.1595474
234	0xbeb15d69	-0.3464158
235	0x3f2e25b8	0.68026304
236	0xbfb89b43	-1.4422382
237	0xbd67a35e	-0.056552283
238	0x3e2dd99a	0.1697754
239	0xbe776a0e	-0.2416155
240	0x3de8fbff	0.113761894
241	0x3e834914	0.25641692
242	0x3e371dd3	0.17882471
243	0xbf492c8a	-0.78583586
244	0xbf151762	-0.58238804
245	0xbf441f8b	-0.7661063
246	0x3ede7ec0	0.43456078
247	0xbf8d23bb	-1.1026529
248	0xbe5b9f22	-0.21447423
249	0xbe450560	-0.19240332
250	0x3eb77be8	0.3583672
251	0xbe92545a	-0.2857998
252	0xbe864385	-0.26223388
253	0xbf166c8f	-0.587594
254	0xbeed816f	-0.46387812
255	0xbf07f0d1	-0.5310183

l2.bias f4 [300]
0	0x3e6734e4	0.2257877
1	0xbe523638	-0.20528495
2	0xbe828975	-0.25495496
3	0xbdbc359c	-0.09189913
4	0xbcbd4810	-0.023105651
5	0x3e41548c	0.18879908
6	0x3f0b6a41	0.54459006
7	0xbd4b55ff	-0.04964256
8	0x3db3034f	0.087408654
9	0xbc1b4ab7	-0.009478263
10	0x3e193426	0.149613
11	0x3e89540e	0.2682194
12	0xbeb28514	-0.34867156
13	0xbcf2197f	-0.029553173
14	0xbcb75794	-0.022380628
15	0xbd8c8e0c	-0.06863031
16	0xbd93e740	-0.07221842
17	0x3eb45587	0.35221502
18	0xbcdacf8b	-0.026710292
19	0xbc76d48d	-0.0150653245
20	0x3aa749b8	0.0012763059
21	0xbd155ffd	-0.036468495
22	0xbef22226	-0.47291678
23	0xbd61586f	-0.055015977
24	0xbdad78dd	-0.084703185
25	0xbdae2917	-0.08503931
26	0xbc5446d7	-0.012956343
27	0xb9157273	-0.00014252383
28	0xbcaf0560	-0.021364868
29	0xbd815b75	-0.06316272
30	0xbc97e2c4	-0.018540747
31	0x3dd2d561	0.10294605
32	0xbd155ab5	-0.036463458
33	0xbd49b61e	-0.049245946
34	0xbbe359c1	-0.0069381897
35	0xbdc677a7	-0.096907906
36	0xbd36f190	-0.044663966
37	0xbd726cbb	-0.059185725
38	0xbe88ce68	-0.26719975
39	0x39a0a69b	0.0003064171
40	0xbd281ef6	-0.04104515
41	0xbcb6eb38	-0.022328958
42	0xbeb13774	-0.3461262
43	0xbed8ab30	-0.42318106
44	0x3b191e7f	0.0023364124
45	0xbedc1212	-0.42982537
46	0xbd18f534	-0.03734322
47	0xbdd5a670	-0.10432136
48	0xbc659e18	-0.014014743
49	0xbd0d0ffe	-0.03443908
50	0x3eb6e050	0.35718012
51	0xbf31811d	-0.69337636
52	0xbd082a8f	-0.033243712
53	0xbd6d6d82	-0.057965763
54	0xbce290d7	-0.027656956
55	0xbe9ef875	-0.31048933
56	0xbcdd96f2	-0.027049515
57	0xbc61ca49	-0.013781139
58	0xbd125c77	-0.035732713
59	0xbd990773	-0.07472124
60	0xbd816928	-0.06318885
61	0xbd91bfa8	-0.07116634
62	0xbe177b68	-0.1479317
63	0xbdc6728c	-0.09689817
64	0x3bc25c4e	0.0059314137
65	0xbd49c813	-0.04926307
66	0xbeb1a471	-0.3469577
67	0xbc8ca2f5	-0.017167548
68	0x3ecb036c	0.39651048
69	0xbd3e8cf7	-0.046521153
70	0xbf22b547	-0.6355786
71	0xbd0849e5	-0.033273596
72	0xbcf30a5e	-0.02966803
73	0xbd9c7b8a	-0.07640751
74	0xbd85123a	-0.06497617
75	0xbe691e12	-0.22765377
76	0xbbb6f883	-0.005583824
77	0xbe7b0e31	-0.24517132
78	0xbdbccac4	-0.09218362
79	0xbecd8ead	-0.40147915
80	0xbd9d5ce3	-0.07683732
81	0xbd9730b6	-0.07382338
82	0x3a52f1b7	0.00080468826
83	0xbd815c28	-0.063164055
84	0xbd30f135	-0.043198783
85	0x3e76f1ea	0.2411572
86	0xbf165c62	-0.58734715
87	0xbd43d609	-0.04781154
88	0xbd94d1b3	-0.072665595
89	0xbedb04a7	-0.42776987
90	0xbcc778ce	-0.024349596
91	0xbf4a4b98	-0.79021597
92	0xbd8698cc	-0.065721124
93	0xbca98270	-0.02069208
94	0xbd6c393c	-0.05767177
95	0xbd6d1806	-0.05788424
96	0xbdb43d6a	-0.08800776
97	0xbdc3a23b	-0.095524274
98	0xbd59b19f	-0.05314791
99	0xbd973f74	-0.073851496
100	0xbece9982	-0.40351492
101	0xbbf468d8	-0.0074587874
102	0xbe8a2958	-0.26984668
103	0xbda3d368	-0.07999307
104	0xbf373fae	-0.7158154
105	0xbd1bd084	-0.038040653
106	0xbd2857fd	-0.041099537
107	0xbdcd9806	-0.10038762
108	0xbcaaf4bf	-0.020868657
109	0xbd37f8af	-0.044914898
110	0xbcbf590a	-0.023357887
111	0xbd434739	-0.047675345
112	0xbf0033ba	-0.5007893
113	0xbd5bb263	-0.05363692
114	0xbd8985ce	-0.06714974
115	0xbdab3b8c	-0.08360967
116	0xbe8698af	-0.26288363
117	0xbd96adaa	-0.073573425
118	0xbd6e8c56	-0.058239304
119	0xbd669361	-0.056292895
120	0xbd1fb313	-0.038989138
121	0xbcb1a40c	-0.021684669
122	0xbea3d193	-0.3199583
123	0xbf05d778	-0.52281904
124	0xbd33b214	-0.043871
125	0xbd9428bf	-0.07234334
126	0xbe531526	-0.20613536
127	0xbeaa8d74	-0.33311045
128	0xbe598dd2	-0.21245506
129	0xbeaa6d4d	-0.33286515
130	0xbd34e509	-0.044163737
131	0xba2acfeb	-0.00065159675
132	0xbe8a0680	-0.26958084
133	0xbf701727	-0.9378533
134	0x3efa6d6e	0.48911613
135	0xbef983e9	-0.48733452
136	0x3f0296c0	0.51011276
137	0xbef21237	-0.47279522
138	0xbe00b82e	-0.12570259
139	0xbc411f24	-0.01178721
140	0xbef7592e	-0.48310226
141	0xbda28283	-0.079350494
142	0x3c7bd343	0.015370193
143	0xbdf57118	-0.119844615
144	0xbe5c0602	-0.21486667
145	0xbd515b03	-0.051112186
146	0xbd8dbd50	-0.06920874
147	0xbe69361d	-0.22774549
148	0xbc4c7b71	-0.012480603
149	0xbec3136c	-0.38100755
150	0xbdac79dc	-0.0842168
151	0xbe5d97aa	-0.21639886
152	0xbd94d18e	-0.07266532
153	0xbcfccec1	-0.030860307
154	0xbeccdc69	-0.4001191
155	0xbdf37340	-0.118872166
156	0xbd6df86e	-0.05809825
157	0x3d9130f7	0.070894174
158	0xbd2ccdc3	-0.042188417
159	0xba997b1f	-0.0011709667
160	0xbdaf225a	-0.08551474
161	0x3f042804	0.5162356
162	0xbcf4434b	-0.029817244
163	0xbd4fbb95	-0.050716
164	0x3df855b1	0.12125719
165	0xbd944ae5	-0.072408475
166	0xbd180370	-0.037112653
167	0xbe31f629	-0.17379059
168	0xbebdf504	-0.37100995
169	0xbeff768d	-0.49895135
170	0xbd170621	-0.03687108
171	0xbc75ede5	-0.015010332
172	0xbc5b4cb0	-0.013384983
173	0xbede0ead	-0.43370572
174	0xbd6b1b10	-0.057398856
175	0xbdc8d3c7	-0.09806018
176	0xbd64df83	-0.05587722
177	0xbdb59d9e	-0.08867954
178	0xbe866179	-0.2624624
179	0xbc25d103	-0.010120633
180	0xbe688830	-0.22708201
181	0xbce8f4ac	-0.028436981
182	0xbd850ac3	-0.06496193
183	0x3c4f9ec2	0.012672128
184	0x3ebf17a4	0.37322724
185	0xbd8c8279	-0.06860823
186	0xbf9359c1	-1.1511766
187	0xbdbd8601	-0.09254075
188	0xbe032981	-0.12808801
189	0x3e8d91b2	0.2765022
190	0x3c80ffe8	0.015747026
191	0xbd8fdedd	-0.0702493
192	0xbdbfdac1	-0.09367896
193	0xbc9080a0	-0.017639458
194	0xbe27b92b	-0.1637923
195	0xbe8feecc	-0.28111875
196	0x3e8d8fb2	0.27648693
197	0xbd1e1b2a	-0.038600124
198	0xbee183ab	-0.44045767
199	0xbed43383	-0.4144555
200	0xbdba2b87	-0.090903334
201	0xbd3c4a19	-0.045969103
202	0xbf7fa0e1	-0.99854857
203	0xbd5458ba	-0.05184243
204	0xbe9517b0	-0.29119635
205	0xbcd0ad59	-0.025473284
206	0xbd3a6169	-0.045503054
207	0xbda96771	-0.08271683
208	0xbd60ddf6	-0.05489918
209	0xbef108de	-0.47077078
210	0xbd0ddb66	-0.034633063
211	0xbf289ccc	-0.65864253
212	0xbe0f7a03	-0.14011388
213	0x3e6eee42	0.23333076
214	0xbf29509f	-0.66138643
215	0xbef3c281	-0.47609332
216	0xbe13292d	-0.14371176
217	0x3e91e453	0.2849451
218	0xbdd36f32	-0.10323943
219	0x3c36141e	0.011113195
220	0xbb9d503c	-0.0048008244
221	0xbea6d086	-0.32580966
222	0xbd9a1845	-0.0752416
223	0xbcf062d2	-0.029343996
224	0xbea961d6	-0.33082455
225	0xbecc1e42	-0.39866835
226	0xbd5d4471	-0.05402035
227	0xbd563d12	-0.052304335
228	0xbe0208b2	-0.1269863
229	0xbdca565b	-0.09879752
230	0xbe888034	-0.2666031
231	0xbd8fb818	-0.07017535
232	0xbf12d0bc	-0.57349753
233	0xbc0f2c2d	-0.00873856
234	0xbd58540d	-0.052814532
235	0x3ea00e1a	0.3126076
236	0xbd8c6aed	-0.06856332
237	0xbd93b510	-0.07212269
238	0xbda671fa	-0.08127208
239	0x3bcdb891	0.0062781055
240	0xbe5806f4	-0.21096402
241	0xbd93b7d8	-0.072128
242	0x3e9e2c05	0.3089296
243	0xbdf2c8f8	-0.11854738
244	0xbbb4df04	-0.0055197496
245	0xbd6865db	-0.056737762
246	0xbd04d0b6	-0.032425605
247	0xbc997eb5	-0.018737176
248	0xbda1cdff	-0.07900619
249	0xbd16ce6c	-0.036817953
250	0xbd677913	-0.05651195
251	0xbeb5673a	-0.35430318
252	0xbd0255aa	-0.031819977
253	0xbca68706	-0.020328056
254	0x3c8fe741	0.017566325
255	0xbe6e472a	-0.23269334

l3.weight f4 [2, 300]
0	0x4013e8ed	2.3110917
1	0x4081b59b	4.0534186
2	0x3e13774f	0.14400981
3	0x3cf63c0f	0.030057935
4	0x3bafa632	0.005360388
5	0xc08144ee	-4.0396643
6	0xc03b6fdc	-2.9287024
7	0xbaf64ea6	-0.001879175
8	0xbf1c13d3	-0.6096775
9	0xbc8a5629	-0.016886787
10	0x40890616	4.281993
11	0x3f58e885	0.84729797
12	0xbe13676f	-0.14394926
13	0x3c9c5329	0.019082623
14	0xbd1c8879	-0.038216088
15	0x3d355958	0.044274658
16	0xbd851860	-0.0649879
17	0x3c79f1bf	0.015255391
18	0xbec48a1a	-0.38386613
19	0x3c9b3906	0.01894809
20	0xbb6a065c	-0.0035709357
21	0x3bd62856	0.00653557
22	0x3e997bb2	0.29977185
23	0x3c9a7d90	0.018858701
24	0xbf0f9953	-0.5609333
25	0x3c5d3d20	0.013503343
26	0x40660e61	3.5946276
27	0xbb9e1eba	-0.0048254402
28	0xbc335d8a	-0.010947594
29	0x3d8249b6	0.063617155
30	0x3d9c250f	0.07624256
31	0x3ef7241e	0.48269743
32	0xbc7794e3	-0.015111181
33	0x3c8e507f	0.017372368
34	0xbc33b6a0	-0.010968834
35	0x3df9ec8f	0.12203323
36	0x3e6ff426	0.23432979
37	0xbd11b2ba	-0.035570838
38	0x40118a7d	2.2740777
39	0xbb0a5649	-0.002110856
40	0x3cb3de20	0.021956503
41	0xbd2734b0	-0.04082173
42	0x40145bac	2.3180952
43	0x3eb1b42c	0.34707773
44	0xba50bc27	-0.0007962607
45	0x3d66bb07	0.056330707
46	0xbcce456c	-0.025179587
47	0xbc6587a1	-0.014009387
48	0x3c8ea867	0.017414285
49	0x3d487335	0.048937995
50	0xbd6f5962	-0.05843485
51	0x3eb9b05d	0.36267367
52	0x3d14f3b1	0.036365215
53	0xbd565dd5	-0.05233558
54	0xbc731f31	-0.01483898
55	0x3e359dfe	0.1773605
56	0xbd059ee0	-0.032622218
57	0x4029dec7	2.6542222
58	0x3bad4810	0.0052881315
59	0x3d24fe86	0.040281795
60	0x3c21ce11	0.00987579
61	0xbc8b0cfd	-0.016973967
62	0x3fa30896	1.2736995
63	0x3db39aac	0.08769736
64	0xbc3730c9	-0.011181065
65	0x3c02c8f1	0.0079824785
66	0xbf23cce4	-0.63984513
67	0x3ceda06f	0.029007165
68	0xbf0bd185	-0.54616576
69	0xbc422122	-0.01184872
70	0x3d79fcfe	0.061032288
71	0xbc8c11d0	-0.017098337
72	0x3cdeef2e	0.02721366
73	0x3f257e5d	0.6464594
74	0x3b4afa22	0.0030971845
75	0xc072b54d	-3.7923157
76	0x3d496303	0.04916669
77	0x3f3f095d	0.7462366
78	0x4026ef46	2.608354
79	0xc03412de	-2.8136516
80	0xbd225e8c	-0.03964095
81	0xbd19e892	-0.037575312
82	0x3cce7189	0.025200622
83	0xbc4a2d34	-0.012339879
84	0xba536700	-0.00080643594
85	0x3e943127	0.2894375
86	0x3f306e5d	0.689184
87	0x3cce5b08	0.025189891
88	0xbb0d0731	-0.002151918
89	0x3f7ca13b	0.9868352
90	0x3c3eb403	0.011639598
91	0xbf247fcc	-0.642575
92	0xbc2e5cd1	-0.010642246
93	0xbd297c81	-0.0413785
94	0xbd3d03dc	-0.04614626
95	0xbc529ce6	-0.01285479
96	0xbe774895	-0.24148782
97	0x3cd7d5ba	0.02634703
98	0xbc28eaca	-0.010309884
99	0xbc0d3bf6	-0.008620253
100	0x3ee0d219	0.43910292
101	0xbce49c5b	-0.027906587
102	0xbf2fbdb8	-0.6864886
103	0x3ce557e3	0.02799601
104	0xbdc1af4f	-0.094572656
105	0xbca73e84	-0.020415552
106	0xbcd7118d	-0.026253486
107	0x3ca0e19d	0.01963883
108	0xbd111782	-0.03542281
109	0xbc8eedb3	-0.017447328
110	0x3cb11aea	0.021619279
111	0x3d60a44c	0.054844186
112	0xbf5a4320	-0.85258675
113	0x3b6eb7db	0.0036425504
114	0xba4f7ada	-0.00079147296
115	0x3d09337e	0.033496372
116	0x3f8bad20	1.0912209
117	0x3f38c24c	0.72171474
118	0x3d809412	0.06278242
119	0x3ba1d323	0.0049384995
120	0xbc1e2bd5	-0.009654005
121	0xbd2de6ef	-0.042456564
122	0x3ebe9557	0.37223312
123	0x3feae4ea	1.8351109
124	0x3c36add6	0.011149844
125	0xbe886f33	-0.26647338
126	0x400583a6	2.0861602
127	0xbf4c80d9	-0.79884106
128	0x3f0b3e8b	0.5439231
129	0x3f9ad7c8	1.2097101
130	0xc0880216	-4.2502546
131	0x3f3d879a	0.74035037
132	0x3ed209b1	0.4102302
133	0xbf9ab065	-1.2085081
134	0xbfea0627	-1.8283128
135	0x3f1b6b35	0.6071046
136	0xbe91172b	-0.28337988
137	0x40440039	3.0625136
138	0x3f6bb5dc	0.9207437
139	0x3bc61316	0.0060447557
140	0xbee4cd7d	-0.44688025
141	0x3f6a0e8f	0.91428465
142	0x3d07e3e3	0.033176314
143	0xc01f8aed	-2.4928544
144	0xbcccf70b	-0.025020143
145	0xbcc22fbc	-0.023704402
146	0x3d214532	0.03937263
147	0x403af2a8	2.9210606
148	0x3d5ad902	0.05342961
149	0x3e1cbb84	0.15305907
150	0x3aeac02e	0.0017910057
151	0x3d829be1	0.06377388
152	0x3d0bb773	0.034110498
153	0x401159e1	2.2711108
154	0xbc58fc4e	-0.013243748
155	0xbe9798a0	-0.2960863
156	0xbd1ecb57	-0.03876814
157	0xbf53e31c	-0.82768416
158	0xbd40ef55	-0.047103245
159	0x3e4eb67a	0.20186797
160	0x3c2fbb79	0.010725849
161	0xbf05c596	-0.5225462
162	0x3ba3f37e	0.0050033918
163	0xbca2f311	-0.019891294
164	0x3ea855fb	0.32878098
165	0xbfb153f9	-1.3853751
166	0xbc386802	-0.011255266
167	0xc04833db	-3.128165
168	0x3ec925b2	0.39286572
169	0x3f83dc60	1.0301628
170	0xbcd539d1	-0.026028546
171	0x3ce5f68b	0.028071662
172	0xbbc1911b	-0.0059071905
173	0xbfcc5803	-1.5964359
174	0x3cce33bf	0.025171159
175	0x3d8ffc0c	0.07030496
176	0x3bd8b920	0.0066138655
177	0xbc48d360	-0.012257427
178	0xbf24eb06	-0.6442112
179	0x3e959738	0.29216933
180	0xbd88098c	-0.06642446
181	0x3cfb7462	0.030695144
182	0x3c9c1fdb	0.019058159
183	0x411bc625	9.735875
184	0xbeb3b5e9	-0.35099724
185	0xbd111686	-0.03542187
186	0x3f15b908	0.5848546
187	0x40db2873	6.8486876
188	0xbcb60093	-0.02221707
189	0x4079493b	3.8950946
190	0x3cd4e54a	0.02598824
191	0xbcb70aac	-0.022343956
192	0x3c721eec	0.01477788
193	0x3d918e94	0.07107273
194	0x405c7e5c	3.4452124
195	0xbf14814c	-0.5800979
196	0xbce041ef	-0.02737519
197	0xbe776148	-0.24158204
198	0xbe9151c3	-0.28382692
199	0x3e4dabaa	0.20085016
200	0xbc9bfc4b	-0.019041201
201	0xbccfdaf4	-0.02537296
202	0xbe0fc0fd	-0.14038463
203	0x3de7abc4	0.113120586
204	0xbc0a82fe	-0.0084540825
205	0x3c9792e9	0.01850267
206	0x3c166bde	0.009180991
207	0xbd1b408f	-0.037903365
208	0x3ca7da51	0.020489844
209	0xbdbac56d	-0.09119687
210	0xbd027543	-0.03185011
211	0x3fcf5aad	1.6199547
212	0x3c5d9039	0.013523155
213	0xbd82d536	-0.06388323
214	0x3fa1a514	1.2628503
215	0xbd5454bd	-0.051838625
216	0xc0105965	-2.2554562
217	0xbcd93000	-0.026512146
218	0x3d77bf70	0.060485303
219	0xbcb3a285	-0.021928081
220	0xbd22488f	-0.03961998
221	0x40945d25	4.63637
222	0xbc0e9671	-0.00870286
223	0xbcb23a3b	-0.021756282
224	0xbf4c7e6e	-0.79880416
225	0xbfa76d6b	-1.3080267
226	0x3ca15768	0.019694999
227	0x3c49844d	0.012299609
228	0x3fcdd0ec	1.6079383
229	0xbe8ef04a	-0.279177
230	0xbf0ade89	-0.5424581
231	0xbd490125	-0.049073357
232	0x3e295a32	0.16538313
233	0xbc7532e0	-0.014965743
234	0xbc3ba1dd	-0.011452165
235	0xbd8be7ee	-0.068313465
236	0xbb567b8b	-0.0032727446
237	0x3d136e19	0.03599367
238	0x3bed1bdf	0.0072359885
239	0x3ad0eb3f	0.001593925
240	0xbeb32167	-0.3498642
241	0x3ca542b9	0.020173417
242	0xbf0ce66c	-0.55039096
243	0x3ca52029	0.020156937
244	0x3c0f2788	0.008737452
245	0xbcb0a069	-0.021560865
246	0xbe8a2e77	-0.26988575
247	0x3f9f6d8f	1.245531
248	0x3b59e3ca	0.0033247345
249	0xbd23a628	-0.03995338
250	0x3cdab72e	0.026698675
251	0xbed31672	-0.41228062
252	0x3c9b2c7c	0.01894211
253	0x3cb16089	0.021652477
254	0xbd6500ea	-0.055909075
255	0x3f262564	0.64900804

l3.bias f4 [2]
0	0xbf33e2af	-0.70267767
1	0x3f5ea5cb	0.8697173
