preTrained/LunarLanderContinuous-v2/TD3_LunarLanderContinuous-v2_0_solved_actor_target.pth (torch_old, 499018 bytes, 6 tensors)

l1.weight f4 [400, 8]
000000 fb 8a ee 3e 6e ae 63 c0 e5 d2 47 bf d8 68 80 3d
       0.4659041 -3.5575213 -0.78056175 0.06269997
000010 ae b1 ab 3f 1b 52 3b be 21 f0 2c be f4 78 55 3e
       1.3413599 -0.1829304 -0.16888477 0.20846921
000020 62 14 c2 3f 6c 57 31 bf 61 ab 4c 3e 43 00 19 3e
       1.516247 -0.6927402 0.19987251 0.14941506
000030 48 08 6b bf 8b 50 e8 bf cc 57 0a bf 07 e6 cf 3d
       -0.9180951 -1.814958 -0.5404022 0.10151296
000040 a7 b9 9e 3f 22 20 6e 3f ac 09 af be 76 24 2a 3b
       1.2400407 0.9301778 -0.34187067 0.0025961674
000050 29 73 07 3f 5d 82 fc bd eb 3d 08 bf 4d a8 49 3f
       0.52910095 -0.12329552 -0.5321948 0.7877243
000060 8e 14 c9 3f 3c 54 65 3e 56 0e 0c 3d 22 ac 0d 3e
       1.5709398 0.22395414 0.03419336 0.13835195
000070 4d 58 7e bf c5 4d 44 bf e8 80 40 3f d7 dc 7e bf
       -0.99353486 -0.76681167 0.75196695 -0.99555725
000080 de 14 a7 3e 43 61 04 be c4 09 dc be e5 e5 a1 bf
       0.32633108 -0.12927727 -0.429762 -1.2648283
000090 26 ce 94 be f8 11 cb bc ed e0 94 bf d7 ba f6 3e
       -0.2906353 -0.024788842 -1.1631142 0.48189422
0000a0 5a d5 54 bf d4 af d4 be 7e 9d 7d 3f 0f 28 e9 3d
       -0.8313805 -0.41540396 0.9906844 0.11384594
0000b0 a0 e5 ef bf 41 c2 a1 bf 05 30 b9 3e b9 ef 1d bf
       -1.8741951 -1.2637407 0.36169448 -0.6169391
0000c0 10 77 a1 3f 7b 0f 91 bf 54 ea ed bd 28 52 19 3f
       1.261446 -1.1332849 -0.1161696 0.59890985
0000d0 06 6b 6f 3e 92 07 4d bf 9b f6 ac be c1 ae 9d be
       0.2338067 -0.80089676 -0.33781895 -0.3079739
0000e0 24 9f d6 3e 20 6c 74 3f e7 ee a9 be 53 ef 37 3f
       0.4191829 0.95477486 -0.3319008 0.71849555
0000f0 08 8b bc be 55 5d b7 3e d0 95 e6 bd 60 ba 9c be
       -0.36824822 0.35813394 -0.11259043 -0.30610943
000100 4a 88 4d 3f 3d 17 82 be 20 7e df 3f 6c bd 98 3d
       0.80286086 -0.25408354 1.7460365 0.07458004
000110 3a ab d1 bf b1 b5 a7 3d e2 5c 72 3e 0d fa 3f 3e
       -1.6380379 0.08188952 0.23668244 0.1874773
000120 c7 a6 23 bf 3d 2f c2 3d 73 98 56 3f 2b 1e 9c bd
       -0.6392636 0.09481666 0.8382637 -0.076229416
000130 53 a4 1b bf 6d 44 e5 bd f9 15 7c bd 53 de 8f 3e
       -0.60797614 -0.11194692 -0.061544392 0.28099307
000140 65 87 10 be 1c fa 78 be 69 53 22 3f 11 b5 27 bf
       -0.14114149 -0.24314159 0.63408524 -0.6551066
000150 72 89 6e 3e 5c b3 73 bf ba 76 88 bf 16 53 16 bf
       0.23294619 -0.95195556 -1.0661232 -0.5872053
000160 ff 15 34 3f 07 0c 3b 3e bd 19 85 3e 21 e0 32 3f
       0.70346063 0.18266307 0.259962 0.69873244
000170 f2 52 20 3f 88 3c d3 bd 14 fc 08 3f e0 df 48 bf
       0.62626565 -0.1031428 0.5350964 -0.78466606
000180 21 c5 0a be 27 28 9f be f7 d9 79 3f 44 04 15 bf
       -0.13551761 -0.3108532 0.9759821 -0.58209634
000190 f1 e8 8b bf 09 d5 43 bf 7e ab a8 3e a4 a4 f9 be
       -1.0930463 -0.7649694 0.32943338 -0.48758423
0001a0 91 ca c3 3e 54 77 4f 3e 0e 2b 10 c0 67 9a 93 3f
       0.38240483 0.20260364 -2.2526278 1.1531495
0001b0 62 e8 47 bf e2 74 e1 be dc f7 03 3f ae 37 41 bf
       -0.78088963 -0.44034487 0.5155008 -0.75475585
0001c0 24 52 ec 3e 81 43 28 be e9 8c f6 bc 5c 53 48 be
       0.46156418 -0.16432 -0.030096488 -0.19563049
0001d0 c9 f9 d6 bd 4c ad 82 bf 10 df fa be 43 0a 91 3e
       -0.104968615 -1.0209136 -0.48998308 0.28328142
0001e0 67 fa da 3f 27 17 b1 be 6f 1c 88 bd d0 0a 86 3c
       1.7107667 -0.34587976 -0.06646048 0.016362578
0001f0 b8 1e ab be c1 96 a1 bf e7 c1 1b 3f b6 20 cf be
       -0.33421874 -1.2624131 0.60842746 -0.40454644
000200 22 22 d0 3e de 99 e2 3e 93 6a 5e bf f8 be 57 3f
       0.4065104 0.44258016 -0.8688137 0.8427577
000210 bd 49 a0 bf eb f0 90 bf ce 57 0c 3f 5d 4d 7c bd
       -1.2522503 -1.1323522 0.5482148 -0.061597217
000220 17 7a 57 3f ea 27 c0 3e fe 0b db 3f 3e 60 c0 3e
       0.8417067 0.37530452 1.7113035 0.37573427
000230 30 f3 0c c0 27 bb fe be 2c 3a dc bd 64 ba 00 bc
       -2.202343 -0.4975216 -0.10753283 -0.007856939
000240 f3 f7 e9 3f 9a 49 73 be 5a 78 e9 3f a7 a7 d6 be
       1.8278793 -0.23758546 1.8239853 -0.41924784
000250 3a c2 49 bf 96 e8 e1 bb a7 a5 51 3e a3 77 5e be
       -0.7881199 -0.0068941815 0.20473348 -0.21725325
000260 41 14 0d 3f 98 27 05 3f 86 21 91 3f 3e 88 d0 be
       0.5510903 0.5201354 1.1338356 -0.40728945
000270 91 31 ce 3e aa a8 20 bf 46 34 2d bf 22 3f 59 bf
       0.4027219 -0.6275736 -0.6765789 -0.8486196
000280 37 04 c2 be cf 77 09 3f 12 cb 9c 3f 40 18 43 3f
       -0.3789384 0.5369844 1.2249472 0.7620888
000290 db 81 2a 3f 50 26 45 3f 35 a1 43 bf ce 3d 9e bf
       0.66604394 0.77011585 -0.7641786 -1.2362611
0002a0 6c 43 a0 bf fe ac 2b 3f 8e d9 8a bf 40 f3 81 3e
       -1.2520576 0.6706084 -1.0847642 0.25380898
0002b0 7a c6 05 bf 4a 41 46 3f 5e 54 b2 be f6 78 a0 be
       -0.52255976 0.77443373 -0.34829992 -0.31342286
0002c0 1d 25 ea 3e e5 10 27 c0 59 4a 3b be ee 32 89 3f
       0.4573144 -2.6104062 -0.1829008 1.0718668
0002d0 fd 14 14 bf a5 4d 4a 3f 4d 78 9c 3d 42 1b 84 3e
       -0.57844526 0.79024726 0.07640133 0.25802046
0002e0 53 58 f8 3b 0f df b6 be fa 70 65 bf 88 7d 35 3e
       0.0075788884 -0.35717055 -0.89625514 0.17723668
0002f0 19 e1 bb 3d 57 1d 25 3e d1 a4 35 be 4e b6 a5 bf
       0.09173793 0.16124474 -0.17738654 -1.294626
000300 e8 1b ee 3e f9 aa 24 3f 67 62 cf 3f fa ce e6 3f
       0.46505666 0.64323384 1.6201905 1.8031914
000310 d5 d8 78 3e ed fd 99 3d 8d 3c 52 3f 73 aa 00 be
       0.24301465 0.075191356 0.82123643 -0.12565021
000320 84 c7 b3 3f 82 40 a1 bd bf 99 7c 3f ce e5 c0 3d
       1.4045262 -0.07873632 0.986721 0.09418832
000330 96 5d 29 bf 8e 59 36 3f 5f 98 42 bf d0 a1 24 bf
       -0.66158426 0.712304 -0.7601375 -0.64309406
000340 5a 06 87 be d0 aa c8 3e fe 0e e3 3f 06 41 63 3f
       -0.26372033 0.3919282 1.773895 0.8877109
000350 46 31 d3 bf fa c9 a5 bd cb cf f4 3e 9a 25 82 bf
       -1.6499412 -0.080951646 0.47814783 -1.0167725
000360 fb d0 4e 3f 18 de ac bd 77 05 d4 3e ff 18 75 bf
       0.8078763 -0.084407985 0.4141042 -0.95741266
000370 3f 2b 26 3f bf 27 f2 3e 60 3b a9 be 38 9a f0 be
       0.6490974 0.4729595 -0.33053112 -0.4699266
000380 0f 94 80 bf 36 1a c9 3d 40 ce fd 3e a1 28 33 bf
       -1.0045184 0.098194525 0.4957142 -0.6998387
000390 45 7e 55 3d 83 6b c4 bf e6 43 ad 3e 6c 90 b4 be
       0.052122373 -1.534531 0.33840865 -0.35266435
0003a0 36 66 06 bd ab 96 19 c0 4f 95 d7 3e 80 7f 32 bf
       -0.03281232 -2.399821 0.421061 -0.697258
0003b0 1c f3 10 bb c7 5d 38 bf 4d 4a a8 be c3 78 4f 3f
       -0.002211756 -0.7201809 -0.32869187 0.8104364
0003c0 ea 20 08 bf 7a 06 4b c0 44 09 7d 3f 00 e9 ab bd
       -0.5317522 -3.1722703 0.98842263 -0.083940506
0003d0 fb 02 bd bf 23 16 1d bf 36 b2 1a bd 56 27 f5 3e
       -1.4766535 -0.613619 -0.03776761 0.47881573
0003e0 5b 5a 46 bf cf 07 da 3e c1 9b d8 3d d8 d9 9b 40
       -0.7748162 0.42584082 0.10576583 4.8703423
0003f0 0b 38 a3 be dd 5a 85 bf c4 92 1a 3f fe 77 f5 bc
       -0.31878695 -1.0418354 0.60380197 -0.029964443

l1.bias f4 [400]
000000 f7 70 05 3e f6 ff 5f bc 3b f7 da be 91 18 d3 be
       0.13031374 -0.013671866 -0.42766747 -0.4122968
000010 f1 33 c1 be 58 0c c0 be ef b6 1d 3e 5e 9b ab 3e
       -0.3773494 -0.37509418 0.15401815 0.33516973
000020 74 a3 4e be f6 f0 28 be 19 6f 24 3d 0d 8f 85 bf
       -0.2017954 -0.1649817 0.040145013 -1.0434281
000030 d7 79 03 bf bc 57 62 bc e0 42 47 bf 32 ca fa be
       -0.5135779 -0.013814863 -0.7783642 -0.48982388
000040 0d 5f 1c 3d 78 58 1b bd 76 53 e4 be 5f e2 6f bd
       0.038176585 -0.037926167 -0.44594926 -0.058565494
000050 47 49 89 bc fd ed 2e bf 38 b7 0d be 7e 28 af 3e
       -0.016758574 -0.6833189 -0.13839424 0.3421058
000060 88 2e e6 be 31 ca 07 be e4 f2 1c be 41 f8 de be
       -0.44957376 -0.13260724 -0.1532703 -0.43548778
000070 b6 f5 06 be f6 f4 02 bf 19 cb c5 be 04 81 7b 3d
       -0.13179669 -0.5115503 -0.38631514 0.061402336
000080 c2 68 ea be 56 f8 b7 3e b0 f2 91 3d 96 c9 33 bf
       -0.4578305 0.35931653 0.07126367 -0.7022947
000090 b9 c7 c2 be 79 f5 1a 3e fc 8e 8e 3e a3 e6 b9 be
       -0.38043 0.15132703 0.27843463 -0.36308774
0000a0 e3 5b c0 3e ba 9c 92 3d a9 85 81 bd ad 4a f4 be
       0.37570104 0.071587995 -0.06324322 -0.47713223
0000b0 52 4d 6c be c0 4e 2f 3d 02 63 8f bd 26 53 b7 3e
       -0.2307637 0.04279971 -0.07001306 0.35805625
0000c0 b2 0e 94 bd 94 50 aa be 89 31 42 bf a4 c3 32 be
       -0.072293654 -0.332646 -0.75856835 -0.17457443
0000d0 c2 fc 5e bf 6a c1 52 3e 42 f1 1b be af 79 cc be
       -0.8710443 0.20581594 -0.15228751 -0.39936587
0000e0 98 01 54 bf 0b 83 5c be 8f 1d 67 be 8c a5 93 3e
       -0.8281493 -0.21534364 -0.2256987 0.2883724
0000f0 d8 7d 3a bf a8 03 86 3d 6e 6c 07 bf e6 00 9b be
       -0.7284827 0.06543666 -0.52899826 -0.30274123
000100 c2 c8 10 bf ec b0 20 3e 91 70 19 3e 18 c5 6e 3e
       -0.5655633 0.1569249 0.14984347 0.23317373
000110 f5 44 b9 be 1d 54 ed bd 8a 7d 7c bc 4f 7b 1c 3e
       -0.36185423 -0.11588309 -0.01541079 0.15281413
000120 3a f0 0f bb 16 fa 88 3e b8 80 2e bf 6b 80 7c be
       -0.0021963255 0.267533 -0.6816516 -0.24658363
000130 99 9c 86 3e 23 30 70 bf 7f 05 00 3e 64 c4 4e be
       0.2629135 -0.9382345 0.12502097 -0.20192105
000140 d2 2e 2b bf ca 1c e7 be 5a 59 82 bd b7 e7 50 3e
       -0.6686832 -0.45139152 -0.06364699 0.20400892
000150 ec aa 3e bc 45 74 db 3b bf 65 5e bf 42 aa 01 bf
       -0.011637431 0.00669721 -0.86874 -0.5065042
000160 6d 5a 53 bf aa 2f b3 3e 5e d7 43 3e 4c d3 e8 3d
       -0.82559854 0.34997302 0.19125125 0.11368427
000170 51 cf 49 3e 32 7d 71 be 61 b8 4e 3e 1f 1d 4f be
       0.19707991 -0.23582914 0.20187522 -0.20225953
000180 d2 f3 88 be 4e a7 1d bf 7d c5 2d be 3f 52 10 be
       -0.2674852 -0.6158341 -0.16969867 -0.14093874
000190 fc 75 55 3e 99 a0 bd be b8 43 ab 3e d2 e4 eb be
       0.20845789 -0.3703659 0.33450103 -0.46073014
0001a0 9e db 65 be 2d ac 08 bf f7 7e 52 be 13 8a 97 be
       -0.22447059 -0.5338772 -0.20556246 -0.2959753
0001b0 50 38 a8 be 60 32 fe be e5 a3 70 be 28 4e 22 be
       -0.32855463 -0.49647808 -0.23500021 -0.15850127
0001c0 6a 7e d0 be d5 0c fb 3d 3c 4e f4 3e 0d 92 8f 3d
       -0.40721446 0.12258307 0.47715938 0.07010279
0001d0 d7 f2 19 bf 48 38 14 be 42 d7 00 bf dd da 82 bf
       -0.6013617 -0.14474595 -0.5032846 -1.0223042
0001e0 a2 2a 0b bf 87 fe 64 3e 33 8e e5 3d c4 32 04 bf
       -0.5436193 0.2236272 0.11208763 -0.5163996
0001f0 33 09 4f be 10 26 88 be 7d 0a 06 bf 91 66 77 be
       -0.20218353 -0.2659154 -0.52359754 -0.2416022
000200 0e f5 5e be d3 2f 12 3d d8 cc 35 3c 4e 12 f6 3d
       -0.21773168 0.03569014 0.011096202 0.1201521
000210 4c 80 40 3d 0e 6e a4 bc b5 02 99 be 44 a3 90 be
       0.046997353 -0.02007201 -0.29884878 -0.28249562
000220 d4 38 a7 be 93 92 02 bf 65 18 b5 be 3e 07 11 bf
       -0.32660544 -0.51004905 -0.35370174 -0.56651676
000230 de 91 9a be a6 c4 0b bf ff ce b2 3e 25 65 9c bf
       -0.30189413 -0.54596937 0.3492355 -1.2218367
000240 a2 27 e9 be 25 8b 85 bf 02 74 80 be 86 48 c5 3e
       -0.4553805 -1.0433089 -0.25088507 0.38531893
000250 5a b0 a8 3e c7 4c 8f be 53 df dc be fd 60 e9 bd
       0.32947046 -0.27988264 -0.43139133 -0.11395452
000260 ff ad 03 3e 57 2e 86 bf 0a 21 08 bf 9d 47 7e be
       0.12859343 -1.0482892 -0.53175414 -0.24832006
000270 74 07 0d be 1e ea 19 bf 90 31 0c bf 70 5f c1 3c
       -0.13772374 -0.6012286 -0.54763126 0.023605078
000280 27 49 b3 be dd 30 83 3e 1a bc 1a bf e5 49 f3 3d
       -0.35016748 0.25623217 -0.6044327 0.11879329
000290 a9 34 8d 3d 2b 9e 1e bf f8 2f be 3a 91 5f 8e be
       0.0689481 -0.61960095 0.0014510145 -0.27807286
0002a0 81 eb e9 be b6 c7 77 3e 0c cb 3a bf d0 d1 9a 3e
       -0.45687488 0.24197277 -0.72966075 0.302382
0002b0 91 76 8c bd de b4 08 3d 06 36 0e bf 88 c7 bb be
       -0.06858552 0.033375613 -0.55551183 -0.36675668
0002c0 14 b3 a3 3e 9d 4d e8 be 01 8b dc be c2 64 c7 be
       0.31972563 -0.45371714 -0.43074802 -0.3894406
0002d0 a5 df a5 be 9b 0b a2 3d 3d e2 26 bf 17 43 9d 3c
       -0.3239719 0.0791237 -0.6518896 0.01919703
0002e0 0a 6e fa 3d d3 02 83 bf 4e 24 1c bf ec fc b7 be
       0.122280195 -1.0235237 -0.60992897 -0.35935152
0002f0 5d 55 71 be 4b 01 20 be 8e e4 36 3f b7 3a 77 be
       -0.2356772 -0.15625493 0.71442497 -0.24143492
000300 89 55 72 bf cd 2e 09 be 10 7b e4 be 73 5b 0c 3e
       -0.94661766 -0.1339676 -0.4462514 0.1370676
000310 73 27 a4 bd b6 d9 48 3e 16 ec 23 3e 63 ce 66 bf
       -0.08015337 0.196143 0.16008028 -0.9015867
000320 ef c2 af be f5 f5 11 be f4 50 bb 3e e5 09 af 3d
       -0.3432841 -0.14253981 0.365852 0.08546809
000330 22 91 b5 be 90 44 4c 3e 98 68 b0 be ab 66 ff be
       -0.3546229 0.1994803 -0.344548 -0.49883017
000340 2b 3b 55 3d 2a 69 b0 be f1 ec 53 be 5a 57 ec be
       0.05205838 -0.34455234 -0.20695855 -0.46160394
000350 b5 4d 2f be 10 50 4f bf 8c a9 f2 be 64 9d a4 be
       -0.17119487 -0.8098154 -0.4739498 -0.3215133
000360 9f 8b 28 bd 2f a2 ac be 72 3b 60 bf 71 38 e5 be
       -0.041148778 -0.33717486 -0.87590706 -0.44769624
000370 1a 87 5f bf 40 cc 23 bf 47 a8 2f bf 26 3d a2 3c
       -0.87315524 -0.63983536 -0.68616146 0.019804548
000380 69 82 51 bd c9 e7 33 bf 75 17 22 be 44 54 b3 be
       -0.05114976 -0.7027555 -0.1582926 -0.35025227
000390 66 3c 19 bf 4e 67 d9 bd 68 6f 58 bf 1a 50 90 be
       -0.59857786 -0.10615407 -0.8454499 -0.28186113
0003a0 7d 7c 0c bf 05 b3 2a bf 5e 6d 5a be 12 ad 52 3e
       -0.54877454 -0.6667941 -0.21330783 0.20573834
0003b0 1b f2 28 be 0a ae 1c bf 80 f7 0c bd 03 82 c0 3e
       -0.16498606 -0.6120306 -0.034415722 0.3759919
0003c0 b6 0c a1 3c 94 4e 37 be 5f 0b b3 3e c1 0c d5 be
       0.019659381 -0.17901069 0.34969613 -0.41611293
0003d0 8e 65 30 bd e6 f3 d1 3e 76 31 f1 be 07 66 b5 be
       -0.0430656 0.41006392 -0.47108048 -0.35429403
0003e0 6a 41 d4 be 9e 8e cb bd 57 1c 18 be 95 1e 8c be
       -0.41456157 -0.099393114 -0.14854561 -0.27367082
0003f0 84 2b 3f 3e e5 03 52 bf b7 c6 d0 be f7 75 d3 3e
       0.18668944 -0.8203719 -0.40776607 0.41300938

l2.weight f4 [300, 400]
000000 86 be 97 be 0b 89 6d bf 44 57 71 be 06 5b 19 3f
       -0.29637545 -0.92787236 -0.23568445 0.59904516
000010 92 c8 d5 be bc 12 75 bf 5e fa 9c 3f 77 7b a4 bf
       -0.41754586 -0.9573171 1.2263906 -1.2850178
000020 28 62 45 3e f3 03 ef be a4 1e fc be 8e 93 17 3f
       0.19275725 -0.466827 -0.49242127 0.59209526
000030 ae da ad 3e 0c d2 fe bd 2d ac 09 be 42 c0 6c 3d
       0.33955902 -0.12442407 -0.13444586 0.05780054
000040 98 01 3d bf 1c e2 06 bf f6 40 1b 3d ce 5d a1 bd
       -0.73830557 -0.52688766 0.03790375 -0.0787922
000050 a9 a8 49 bf 55 78 8b bf 0c 83 07 be 83 6d e6 bd
       -0.7877298 -1.0896097 -0.13233584 -0.112513565
000060 2a 12 60 bf bf 88 24 3f f2 b3 da bd 15 8e 97 be
       -0.87527716 0.6427116 -0.10678853 -0.29600587
000070 6d 6d 33 be e8 60 bd ba a7 73 bd 3e 2a 1b d2 bf
       -0.17522211 -0.0014448436 0.37002298 -1.641454
000080 99 74 47 bf 33 6d 6b bf ac f9 7a bf a7 eb 29 be
       -0.7791229 -0.919635 -0.9803722 -0.165938
000090 2b 11 f5 bc b8 0a bc be 85 53 94 be fc 03 85 3e
       -0.029915413 -0.36726928 -0.2896997 0.25979602
0000a0 59 32 51 bf 7a 8a 80 3e 5f 24 af 3e 40 24 3b be
       -0.8171745 0.2510565 0.34207436 -0.18275547
0000b0 6a bd 6a 3e 85 2f 9a bf 6b 0f 6e be 07 30 35 be
       0.22923818 -1.2045752 -0.23248069 -0.17694102
0000c0 84 fa f4 be 74 24 8d 3e 86 43 1f bf 71 57 c6 3d
       -0.47847378 0.27566874 -0.6221241 0.09684647
0000d0 51 d3 ce be da 25 51 3f 1e 3a 22 3e d0 fd c9 3d
       -0.40395597 0.8169838 0.15842482 0.09862864
0000e0 d0 a0 b3 be e9 7c c9 bf 51 d6 da 3e 7e b9 1f bf
       -0.35083628 -1.5741245 0.42741635 -0.62392414
0000f0 15 54 90 bd ed 88 92 3e 70 c5 bc be 8f bb ba bb
       -0.070472874 0.2862009 -0.36869383 -0.0056986283
000100 54 4e 79 bf 9c c2 05 3f 97 59 a6 bf d1 ff d1 be
       -0.97385144 0.52250075 -1.2996091 -0.41015485
000110 77 b8 37 3f 1e 2a 2d 3f 13 56 7f 3e 2c 56 76 bf
       0.71765846 0.6764239 0.24935178 -0.9622524
000120 ed c2 00 bf b8 8c b7 be a5 74 8f be 89 08 5f bf
       -0.50297433 -0.35849547 -0.2801868 -0.871224
000130 5e 1d 2c bf ce 5b 19 bf 65 37 14 3e f9 3b 52 3e
       -0.6723231 -0.5990571 0.14474256 0.2053069
000140 a3 ed e6 bd c8 b5 3f be bb 36 6f 3f f8 dc b3 be
       -0.11275794 -0.18721688 0.9344289 -0.35129523
000150 6e b1 9e be 8d 20 8d 3c 1a d1 5b 3b 9f f4 b7 3e
       -0.30994743 0.017227435 0.0033541382 0.3592882
000160 92 12 d2 be ac d1 09 3f 86 e8 a9 3d 9c 42 79 bc
       -0.41029793 0.5383556 0.082963035 -0.015213635
000170 02 50 54 bf 5a ff 65 3f 3d 41 19 be 25 f6 88 3e
       -0.8293458 0.8984276 -0.14966293 0.26750293
000180 e0 07 3a bf 4d b3 80 bf b3 14 e7 be e4 29 77 be
       -0.72668266 -1.0054718 -0.4513298 -0.24137074
000190 45 36 1c be ea 66 55 bf 23 6f 80 bf c8 2e 49 3e
       -0.15255077 -0.8336016 -1.0033916 0.19646752
0001a0 65 ca 08 3f 58 b5 37 3e 82 b0 5f be 73 2d 7f be
       0.5343383 0.17940271 -0.21844676 -0.24919681
0001b0 df 4c 22 bd 16 2f 2b 3f d8 7b cb 3e 14 ba ff 3c
       -0.03962409 0.6686872 0.39742923 0.031216659
0001c0 8a 0b 52 bf e1 38 cf be 9f dd 3f 3f 08 32 3d bf
       -0.8204886 -0.40473083 0.7494754 -0.73904467
0001d0 55 83 05 3f 36 73 9c be 96 c4 10 3e 0f f2 b3 3d
       0.5215352 -0.3055665 0.14137492 0.087864034
0001e0 2c df f4 bd 9c af 04 3f 2a a9 e4 bf 7c 56 82 3e
       -0.11956629 0.5183046 -1.7864125 0.25456607
0001f0 88 c0 38 3f 66 6a 18 bf 84 8f 8a bd 65 db 1a bf
       0.7216878 -0.5953735 -0.06765655 -0.6049102
000200 88 93 cc 3e 6f 53 b6 3d 40 1e 3c bf d5 dc 0d bf
       0.39956307 0.089026324 -0.7348366 -0.5541509
000210 9a dd 5b be 26 55 27 3f 3d aa 14 3d 03 1f 71 3f
       -0.21471253 0.653643 0.036295164 0.94187945
000220 ef 0e 37 3f 42 eb 69 3d b9 de 53 be 27 3b a3 3e
       0.7150716 0.057109125 -0.2069043 0.31881067
000230 e6 2f 28 bf 71 0a 57 3e 3f 59 2e bf d2 d4 ed be
       -0.6569809 0.21000077 -0.6810493 -0.46451432
000240 3e 5a 32 3f c5 8d 1c 3e 5d b6 9f 3e 27 c6 a9 be
       0.6966895 0.15288456 0.3119382 -0.3315899
000250 6a c6 5c 3d f2 45 64 bd d7 6b bd 3d 9b 0c 69 be
       0.05390016 -0.055730768 0.092490844 -0.22758715
000260 b7 a6 3b 3f f7 40 34 3d 75 9e 1a 3e 6c a2 fb be
       0.7330126 0.044007268 0.15099509 -0.49147356
000270 46 70 23 3f ff 6d 36 bf cd b9 01 3e 09 26 58 bf
       0.6384319 -0.7126159 0.12668534 -0.8443304
000280 28 c8 ca 3d 54 fe 7d bf 2d aa 01 40 f3 af e3 be
       0.09901458 -0.992162 2.0260117 -0.44470176
000290 c1 28 cd 3d fd 54 04 3e 5c 20 06 3f e4 00 82 3f
       0.10017539 0.12923045 0.52393126 1.0156522
0002a0 87 12 23 bf d0 01 c1 3e b6 d2 23 c0 61 b9 c4 be
       -0.63700145 0.37696695 -2.5597358 -0.38422683
0002b0 a3 bc ea bd 6c f2 8f 3f 27 39 b4 3f ea cb 59 be
       -0.11461761 1.1245856 1.4079942 -0.21269193
0002c0 03 6c 00 bf 58 8e 31 3e 43 4e 66 bf de d8 2c be
       -0.5016481 0.17339456 -0.8996317 -0.16879603
0002d0 47 d7 2f 3f 42 eb d0 be 0b 48 fc be f1 69 5e 3e
       0.6868786 -0.40804487 -0.49273714 0.21720101
0002e0 80 7a 36 bf 4c f8 01 bf bc 0c 0f bf 5c 63 7f be
       -0.7128067 -0.50769496 -0.55878806 -0.24940246
0002f0 08 cf c0 3e cc c6 03 3f 87 f3 23 bd 81 b2 4e bf
       0.37657952 0.51475215 -0.040027168 -0.80741125
000300 79 39 c8 3e 31 e5 d7 3d 2d 98 1d 3f 34 13 7a bf
       0.39106348 0.10541762 0.61560327 -0.9768555
000310 a0 13 b7 3f 47 8c af bf 0e b4 1c be fe 8d a0 3e
       1.4302864 -1.3714684 -0.1530306 0.3135833
000320 c0 53 31 3b 4d 77 8a be 06 d2 1a c0 a1 0b 49 bf
       0.0027057976 -0.27044144 -2.4190688 -0.7853337
000330 fa af 60 3f 15 81 95 3f 26 cd ac 3e 1b 5d ff be
       0.8776852 1.1680018 0.33750266 -0.4987572
000340 65 0e 86 bf 04 db 73 3d 5c fc f2 bc 32 41 ea 3e
       -1.0473143 0.05953504 -0.02966135 0.45752865
000350 f0 77 b2 be 54 a4 8c bd c5 99 1a 3f b8 b0 4a 3d
       -0.3485713 -0.068672806 0.60390884 0.04948494
000360 a7 20 36 3f 58 bb 36 bd bf 49 3b 3f e8 2e bd 3d
       0.71143574 -0.04461226 0.731594 0.09237462
000370 c6 e1 a7 be 29 ac 57 3e 10 7b 32 3e c3 f0 66 be
       -0.3278944 0.21061768 0.17429757 -0.22552781
000380 97 0a 2f 3c 0d bf 16 bf 77 11 3e bf 25 76 95 3f
       0.010683677 -0.5888527 -0.742454 1.167668
000390 cd 0b 05 bf ed f7 8c bf 6d 2c 97 be 80 0e c8 3e
       -0.5197113 -1.1013161 -0.29526082 0.39073563
0003a0 15 44 82 bd a6 60 23 be 20 5d b1 be 76 26 2e 3f
       -0.06360642 -0.15954837 -0.3464136 0.68027437
0003b0 08 9b b8 bf e3 a2 67 bd e6 d9 2d 3e f4 69 77 be
       -1.4422312 -0.056551825 0.16977653 -0.24161512
0003c0 6b fb e8 3d cc 49 83 3e 8f 1e 37 3e 71 2c 49 bf
       0.11376079 0.2564224 0.17882751 -0.7858344
0003d0 d6 16 15 bf 79 1f 44 bf 42 7e de 3e 74 24 8d bf
       -0.5823797 -0.76610523 0.43455702 -1.102675
0003e0 1a 9f 5b be 29 05 45 be 4f 7c b7 3e 95 54 92 be
       -0.21447411 -0.1924025 0.35837027 -0.28580156
0003f0 4c 44 86 be 3e 6c 16 bf 3b 81 ed be 6d f0 07 bf
       -0.2622398 -0.58758914 -0.46387658 -0.53101236

l2.bias f4 [300]
000000 82 35 67 3e a1 ff 52 be d5 88 82 be e8 34 bc bd
       0.22579005 -0.20605327 -0.2549502 -0.091897786
000010 e8 47 bd bc a0 54 41 3e 0c 6b 0b 3f 91 55 4b bd
       -0.023105577 0.18879938 0.54460216 -0.04964215
000020 86 81 b3 3d 56 4a 1b bc 2c ff 17 3e 27 64 86 3e
       0.08764939 -0.009478172 0.14843434 0.26248285
000030 70 84 b2 be 04 19 f2 bc 98 57 b7 bc ad 8d 8c bd
       -0.34866667 -0.029552944 -0.022380635 -0.0686296
000040 ee e6 93 bd ce eb b2 3e 4a cf da bc f4 d3 76 bc
       -0.07221781 0.3494553 -0.026710171 -0.015065182
000050 36 4a a7 3a 7e 5f 15 bd 9c 21 f2 be f3 57 61 bd
       0.0012763205 -0.03646802 -0.47291267 -0.055015516
000060 d9 01 a6 bd cf 28 ae bd 2b 14 5e bc 3e 72 15 b9
       -0.08105821 -0.08503877 -0.013554613 -0.00014252306
000070 1f 05 af bc 45 5b 81 bd 76 e2 97 bc 38 ae cf 3d
       -0.021364747 -0.063162364 -0.018540602 0.101406515
000080 06 5a 15 bd f1 b5 49 bd 3b 59 e3 bb 79 77 c6 bd
       -0.036462806 -0.04924578 -0.0069381273 -0.09690756
000090 40 f1 36 bd 9c 6c 72 bd 4d ce 88 be fe a6 a0 39
       -0.044663668 -0.05918561 -0.26719895 0.00030641997
0000a0 b7 1e 28 bd 00 eb b6 bc 4c b4 b4 be da aa d8 be
       -0.041044917 -0.022328854 -0.35293806 -0.4231785
0000b0 dd 1e 19 3b b9 12 dc be ae f4 18 bd 32 a6 d5 bd
       0.0023364343 -0.42983034 -0.03734272 -0.1043209
0000c0 b3 9d 65 bc 5d 0f 0d bd ed c8 b5 3e f5 b2 30 bf
       -0.014014649 -0.03443848 0.35504857 -0.69023067
0000d0 3d 2a 08 bd eb 6c 6d bd 73 90 e2 bc be f7 9e be
       -0.033243407 -0.0579652 -0.02765677 -0.31048387
0000e0 3a 96 dd bc 03 ca 61 bc 66 5c 12 bd 6e 07 99 bd
       -0.027049173 -0.0137810735 -0.03573265 -0.0747212
0000f0 8d 68 81 bd 5e bf 91 bd 1d 7c 17 be 01 72 c6 bd
       -0.063187696 -0.071165785 -0.14793439 -0.09689713
000100 b0 5c c2 3b e9 c7 49 bd 38 a4 b1 be c5 a2 8c bc
       0.0059314594 -0.049262915 -0.346956 -0.017167458
000110 4b 76 cc 3e e8 8c 3e bd c7 b4 22 bf 7d 49 08 bd
       0.39934 -0.046521097 -0.63557094 -0.03327321
000120 6c 0a f3 bc 06 7b 9c bd 0d 12 85 bd 4d 13 69 be
       -0.029668055 -0.07640652 -0.064975835 -0.22761269
000130 48 f8 b6 bb fc 0d 7b be 20 ca bc bd 51 8e cd be
       -0.0055837967 -0.24517053 -0.0921824 -0.4014764
000140 ce 5c 9d bd 56 30 97 bd 01 f2 52 3a 0d 5c 81 bd
       -0.07683717 -0.07382266 0.00080469256 -0.063163854
000150 88 f0 30 bd 76 d4 78 3e d6 5b 16 bf 09 d6 43 bd
       -0.04319814 0.24299797 -0.5873388 -0.04781154
000160 4e d1 94 bd 6a 04 db be 81 78 c7 bc ca b5 49 bf
       -0.07266484 -0.42776805 -0.024349453 -0.78793013
000170 ad 98 86 bd 2f 82 a9 bc 1b 39 6c bd c3 17 6d bd
       -0.06572089 -0.02069196 -0.057671648 -0.05788399
000180 10 3d b4 bd b1 a1 c3 bd 5a b1 59 bd 2e 3f 97 bd
       -0.08800709 -0.095523246 -0.05314765 -0.073850974
000190 b9 5a cd be 6c 68 f4 bb 4c 12 89 be b7 d2 a3 bd
       -0.40108278 -0.007458737 -0.26771772 -0.07999175
0001a0 60 34 38 bf ee cf 1b bd bf 57 28 bd b1 97 cd bd
       -0.7195492 -0.038040094 -0.041099306 -0.100386985
0001b0 7f f4 aa bc 88 f8 37 bd d0 58 bf bc 11 47 43 bd
       -0.020868538 -0.044914752 -0.023357779 -0.047675196
0001c0 5f 33 00 bf da b1 5b bd 1d 85 89 bd d0 3a ab bd
       -0.50078386 -0.05363641 -0.067148425 -0.08360827
0001d0 ad 98 86 be 16 ad 96 bd a3 8b 6e bd 03 93 66 bd
       -0.26288357 -0.07357232 -0.058238637 -0.056292545
0001e0 76 b2 1f bd 70 a3 b1 bc 27 d1 a3 be ed d6 05 bf
       -0.038988553 -0.021684378 -0.31995508 -0.52281076
0001f0 00 b2 33 bd 8e 28 94 bd 2a 15 53 be 5f 8d aa be
       -0.043870926 -0.07234298 -0.20613542 -0.33310983
000200 6a 8d 59 be 57 6d aa be 08 e5 34 bd 25 05 40 bb
       -0.21245351 -0.33286545 -0.044163734 -0.0029299941
000210 05 06 8a be f4 16 70 bf d3 6d fa 3e 74 83 f9 be
       -0.26957718 -0.93785024 0.48911914 -0.48733103
000220 e4 96 02 3f fc 11 f2 be fd b7 00 be b9 1e 41 bc
       0.5101149 -0.47279346 -0.12570186 -0.01178711
000230 c4 58 f7 be ff 81 a2 bd a3 d3 7b 3c 7c 70 f5 bd
       -0.4830991 -0.07934951 0.015370282 -0.11984345
000240 72 05 5c be fa 5a 51 bd cd bc 8d bd 08 8e 67 be
       -0.21486452 -0.051112153 -0.069207765 -0.22612774
000250 51 7b 4c bc b9 12 c3 be 8f 79 ac bd 02 97 5d be
       -0.012480573 -0.38100222 -0.08421623 -0.21639636
000260 4e d1 94 bd 7a 45 fa bc 31 dc cc be 1c 73 f3 bd
       -0.07266484 -0.030550707 -0.40011743 -0.1188719
000270 c2 f8 6d bd 2d 31 91 3d 27 cd 2c bd 0e 7b 99 ba
       -0.058098562 0.07089458 -0.042187836 -0.0011709647
000280 07 22 af bd 41 ef 03 3f ec 42 f4 bc 59 bb 4f bd
       -0.08551412 0.5153695 -0.029817067 -0.050715778
000290 90 c9 fc 3d ee 4a 94 bd 46 03 18 bd 78 f5 31 be
       0.123431325 -0.07240854 -0.037112497 -0.17378795
0002a0 90 f4 bd be 9e a1 00 bf 26 06 17 bd 7c ed 75 bc
       -0.3710065 -0.5024661 -0.036871098 -0.015010234
0002b0 4a 4c 5b bc 8a 0e de be 63 1a 6b bd 61 d3 c8 bd
       -0.013384888 -0.43370467 -0.05739821 -0.09805942
0002c0 13 df 64 bd 68 9d b5 bd 1e 31 88 be 80 58 10 bc
       -0.055876803 -0.088679135 -0.26599973 -0.008810163
0002d0 ca fa 65 be 63 f4 e8 bc 3d 0a 85 bd 38 9f 4f 3c
       -0.2245895 -0.028436845 -0.064960934 0.012672238
0002e0 c4 2f be 3e f5 81 8c bd 86 59 93 bf a0 85 bd bd
       0.37145817 -0.06860725 -1.1511695 -0.092540026
0002f0 fd 28 03 be d4 91 8d 3e a4 00 81 3c e5 de 8f bd
       -0.12808605 0.2765032 0.015747376 -0.07024936
000300 80 da bf bd 9e 80 90 bc da e5 21 be 85 ee 8f be
       -0.093678474 -0.017639454 -0.15810338 -0.28111663
000310 87 49 8c 3e a6 1a 1e bd b3 83 e1 be 1a 33 d4 be
       0.27399847 -0.038599633 -0.4404579 -0.41445237
000320 08 2b ba bd 00 4a 3c bd 4c a0 7f bf 9a 58 54 bd
       -0.09090239 -0.04596901 -0.9985397 -0.05184231
000330 9e 17 95 be c2 ac d0 bc f0 60 3a bd d7 66 a9 bd
       -0.2911958 -0.025473002 -0.045502603 -0.08271568
000340 4b dd 60 bd 5c 08 f1 be 45 db 0d bd 7f 9c 28 bf
       -0.05489854 -0.4707669 -0.03463294 -0.65863794
000350 55 79 0f be 75 72 6c 3e 17 02 2a bf 1f 7f f8 be
       -0.14011128 0.23090537 -0.6640944 -0.48534486
000360 e3 65 17 be bf bb 95 3e d0 c6 d3 bd ef 14 36 3c
       -0.1478496 0.292448 -0.10340655 0.011113389
000370 86 4f 9d bb ee ba a3 be 16 18 9a bd bc 62 f0 bc
       -0.0048007397 -0.31978554 -0.07524125 -0.029343955
000380 6f 27 ab be 91 1d cc be 32 44 5d bd fa 3c 56 bd
       -0.33428523 -0.39866307 -0.054020114 -0.052304246
000390 b5 08 02 be 19 56 ca bd 2d 80 88 be d5 b7 8f bd
       -0.12698634 -0.09879703 -0.2666029 -0.07017485
0003a0 06 d0 12 bf fd 2b 0f bc 5a 53 58 bd a6 0e a0 3e
       -0.5734867 -0.008738515 -0.052813865 0.31261176
0003b0 85 6a 8c bd ee b4 93 bd cf 71 a6 bd 48 b9 cd 3b
       -0.068562545 -0.07212244 -0.08127176 0.0062781908
0003c0 ca 06 58 be 46 b7 93 bd 1f 26 9e 3e cc c8 f2 bd
       -0.2109634 -0.07212691 0.3088846 -0.11854705
0003d0 c8 de b4 bb 6b 65 68 bd 4d 07 02 bd 2e 7e 99 bc
       -0.0055197217 -0.056737345 -0.031745244 -0.018736925
0003e0 87 cd a1 bd e6 cd 16 bd b3 78 67 bd 61 a6 b3 be
       -0.07900529 -0.036817454 -0.056511592 -0.35087875
0003f0 45 55 02 bd e7 86 a6 bc 7c e7 8f 3c e3 46 6e be
       -0.0318196 -0.020327998 0.017566435 -0.23269229

l3.weight f4 [2, 300]
000000 7e e8 13 40 41 6c 81 40 36 77 13 3e 9c 3b f6 3c
       2.3110652 4.0444646 0.14400944 0.03005772
000010 d6 a6 af 3b 64 45 81 c0 07 70 3b c0 5c 4e f6 ba
       0.0053604646 -4.0397205 -2.9287126 -0.0018791663
000020 ce 92 1f bf 7c 56 8a bc de 46 89 40 ba e7 58 3f
       -0.6233338 -0.016886942 4.289901 0.84728587
000030 ce 66 13 be 2e 53 9c 3c 15 89 1c bd 6f 59 35 3d
       -0.14394686 0.019082632 -0.03821667 0.044274744
000040 4d 18 85 bd 55 05 ea 3c 80 8a c4 be 5e 38 9b 3c
       -0.06498776 0.028566996 -0.38386917 0.018947776
000050 9a 06 6a bb e2 27 d6 3b 0e 7b 99 3e a5 7d 9a 3c
       -0.0035709501 0.006535516 0.29976696 0.01885874
000060 ae bd 10 bf 2a 3d 5d 3c ea 2a 66 40 55 1f 9e bb
       -0.5653943 0.013503352 3.5963693 -0.0048255124
000070 9f 5d 33 bc 8d 49 82 3d 16 25 9c 3d 71 d0 fa 3e
       -0.010947614 0.06361685 0.07624261 0.48987153
000080 b3 95 77 bc 75 50 8e 3c af b6 33 bc eb ec f9 3d
       -0.015111375 0.01737235 -0.010968848 0.12203392
000090 92 f4 6f 3e dd b2 11 bd 05 8b 11 40 7c 56 0a bb
       0.2343314 -0.035570968 2.27411 -0.0021108678
0000a0 c0 dd b3 3c 57 34 27 bd be 15 14 40 d8 b3 b1 3e
       0.021956325 -0.0408214 2.313827 0.34707522
0000b0 61 bc 50 ba db ba 66 3d 6c 45 ce bc 0b 87 65 bc
       -0.0007962641 0.056330543 -0.025179587 -0.0140092475
0000c0 f5 a7 8e 3c 81 72 48 3d 12 a3 43 bd 7e 37 c1 3e
       0.017414073 0.048937324 -0.047762938 0.3773765
0000d0 75 f4 14 3d ca 5d 56 bd 83 1f 73 bc 68 9d 35 3e
       0.036365945 -0.052335538 -0.014839056 0.17735827
0000e0 74 9f 05 bd 26 df 29 40 10 48 ad 3b ef fd 24 3d
       -0.03262277 2.654245 0.0052881315 0.040281232
0000f0 87 cd 21 3c 4c 0d 8b bc 5f 08 a3 3f 90 9a b3 3d
       0.009875662 -0.016974114 1.273693 0.08769715
000100 4f 31 37 bc e5 c8 02 3c 3e cd 23 bf 7b a0 ed 3c
       -0.01118119 0.007982467 -0.6398505 0.029007187
000110 1e 25 0a bf 50 21 42 bc 8c fc 79 3d 3c 12 8c bc
       -0.53962886 -0.011848763 0.061031863 -0.017098539
000120 c2 ee de 3c d6 7e 25 3f f0 fa 4a 3b 63 b6 72 c0
       0.027213458 0.6464666 0.0030972324 -3.792382
000130 59 62 49 3d e7 09 3f 3f 96 ef 26 40 a7 13 34 c0
       0.049166057 0.74624485 2.6083732 -2.8136995
000140 0f 5e 22 bd 35 e9 19 bd a8 71 ce 3c 78 2d 4a bc
       -0.039640483 -0.03757592 0.02520068 -0.012339942
000150 31 67 53 ba 3b cf 94 3e d7 6e 30 3f 01 5b ce 3c
       -0.0008064388 0.29064354 0.6891913 0.025189878
000160 c5 06 0d bb e3 a1 7c 3f f8 b3 3e 3c e5 7a 23 bf
       -0.0021518928 0.9868452 0.011639588 -0.638594
000170 26 5d 2e bc ef 7b 29 bd 28 03 3d bd a1 9d 52 bc
       -0.0106423255 -0.041377958 -0.04614559 -0.0128549645
000180 23 49 77 be 92 d5 d7 3c 9f ea 28 bc e5 3b 0d bc
       -0.24148993 0.026346955 -0.010309844 -0.008620237
000190 3b c8 e2 3e aa 9c e4 bc 34 89 2f bf 2a 58 e5 3c
       0.4429339 -0.027906734 -0.6856873 0.027996141
0001a0 9e cd d5 bd 46 3f a7 bc 41 12 d7 bc 97 e1 a0 3c
       -0.10439609 -0.020415913 -0.026253821 0.01963882
0001b0 66 17 11 bd 7d ed 8e bc b8 1a b1 3c 43 a4 60 3d
       -0.035422705 -0.017447228 0.021619186 0.054844152
0001c0 71 43 5a bf 63 b7 6e 3b 81 7a 4f ba 15 33 09 3d
       -0.8525916 0.0036425225 -0.0007914678 0.03349598
0001d0 74 ad 8b 3f df c2 38 3f db 93 80 3d ff d2 a1 3b
       1.0912309 0.7217235 0.06278201 0.004938483
0001e0 d6 2b 1e bc 67 e6 2d bd b8 94 be 3e 42 e5 ea 3f
       -0.009654006 -0.042456057 0.37222838 1.8351214
0001f0 0f ae 36 3c c4 6f 88 be 1c 84 05 40 90 81 4c bf
       0.011149897 -0.2664777 2.0861883 -0.79885197
000200 4c 3f 0b 3f 45 d8 9a 3f 64 02 88 c0 2e 34 40 3f
       0.5439346 1.209725 -4.250292 0.7507962
000210 f9 09 d2 3e 35 b1 9a bf 9a 06 ea bf ed 6b 1b 3f
       0.41023234 -1.2085329 -1.8283265 0.60711557
000220 65 17 91 be 00 01 44 40 a2 b6 6b 3f b1 12 c6 3b
       -0.2833816 3.062561 0.9207555 0.0060447087
000230 e2 cd e4 be 32 0f 6a 3f ec e3 07 3d 65 8b 1f c0
       -0.44688326 0.91429436 0.033176348 -2.492883
000240 88 f7 cc bc 61 2f c2 bc 96 45 21 3d 03 8c 39 40
       -0.025020376 -0.023704233 0.039373003 2.8991706
000250 aa d8 5a 3d dd bb 1c 3e c3 bf ea 3a 95 9b 82 3d
       0.053429283 0.15306039 0.0017909933 0.06377331
000260 9c b7 0b 3d 78 1c 11 40 e1 fc 58 bc 05 99 97 be
       0.03411065 2.2673626 -0.013243885 -0.29608932
000270 36 cb 1e bd 69 e3 53 bf 11 ef 40 bd 30 b7 4e 3e
       -0.038768016 -0.82768875 -0.04710299 0.20187068
000280 ee bb 2f 3c 34 22 07 bf 4e f4 a3 3b 46 f3 a2 bc
       0.010725958 -0.52786565 0.0050034886 -0.019891392
000290 16 1c aa 3e 87 54 b1 bf 3f 68 38 bc 00 34 48 c0
       0.33224553 -1.3853921 -0.011255323 -3.1281738
0002a0 30 26 c9 3e a1 60 84 3f 61 3a d5 bc c2 f6 e5 3c
       0.39286947 1.0341989 -0.026028814 0.028071765
0002b0 90 91 c1 bb 28 58 cc bf f0 33 ce 3c 94 fc 8f 3d
       -0.005907245 -1.5964403 0.02517125 0.07030597
0002c0 b1 b9 d8 3b 28 d4 48 bc 6f 55 25 bf b8 a4 99 3e
       0.006613933 -0.012257613 -0.64583486 0.30008483
0002d0 8a c5 7a bd 54 74 fb 3c 9e 1f 9c 3c 8d c6 1b 41
       -0.061223544 0.030695118 0.019058045 9.735974
0002e0 25 e0 b3 be d6 15 11 bd 55 b9 15 3f 21 29 db 40
       -0.35131946 -0.035421215 0.5848592 6.8487706
0002f0 d8 ff b5 bc a3 49 79 40 3a e5 d4 3c 07 0b b7 bc
       -0.022216722 3.8951194 0.02598821 -0.022344125
000300 7c 1e 72 3c 26 8e 91 3d a3 a0 5c 40 9d 81 14 bf
       0.014777776 0.07107191 3.4473045 -0.58010274
000310 cb 0a cc bc 5b 61 77 be fd 51 91 be 39 ab 4d 3e
       -0.02490749 -0.24158232 -0.28382865 0.20084848
000320 75 fc 9b bc 60 db cf bc 34 c1 0f be 7b ab e7 3d
       -0.01904128 -0.02537316 -0.14038545 0.11312004
000330 05 83 0a bc c6 92 97 3c 3d 6c 16 3c f5 40 1b bd
       -0.008454089 0.018502604 0.009181079 -0.037903745
000340 f7 d9 a7 3c b7 c5 ba bd 4c 75 02 bd 40 5b cf 3f
       0.020489676 -0.09119742 -0.031850144 1.6199722
000350 c1 90 5d 3c 30 1b 83 bd d9 82 a1 3f cc 43 00 bd
       0.013523282 -0.0640167 1.2618057 -0.031314656
000360 8b 75 10 c0 e7 98 c1 bc da 78 78 3d 27 a3 b3 bc
       -2.2571743 -0.02363248 0.060662128 -0.021928383
000370 f6 48 22 bd eb c2 94 40 c4 96 0e bc ff 3a b2 bc
       -0.039620362 4.6487937 -0.0087029375 -0.021756647
000380 e9 eb 4c bf 5f 6d a7 bf c7 56 a1 3c f1 83 49 3c
       -0.8004747 -1.3080252 0.019694699 0.012299524
000390 80 d1 cd 3f 9c f0 8e be 6d de 0a bf 78 01 49 bd
       1.6079559 -0.27917945 -0.54245645 -0.049073666
0003a0 56 5a 29 3e c4 32 75 bc 07 a2 3b bc 0c e8 8b bd
       0.16538367 -0.014965717 -0.011452205 -0.06831369
0003b0 41 7c 56 bb d6 6d 13 3d 72 1c ed 3b 09 ec d0 3a
       -0.003272787 0.03599342 0.007236057 0.0015939485
0003c0 77 21 b3 be af 42 a5 3c 39 85 0c bf 87 1f a5 3c
       -0.3498647 0.020173399 -0.5489078 0.020156635
0003d0 4d 27 0f 3c d7 a0 b0 bc 69 3c 8b be b5 6d 9f 3f
       0.008737397 -0.02156107 -0.27194527 1.2455355
0003e0 5a e3 59 3b 2f a6 23 bd d9 b7 da 3c 00 0a d4 be
       0.0033247084 -0.039953407 0.026698994 -0.4141388
0003f0 a5 2c 9b 3c 40 60 b1 3c 72 01 65 bd 3f 25 26 3f
       0.018942187 0.02165234 -0.05590958 0.64900583

l3.bias f4 [2]
000000 0f d7 32 bf 03 21 60 3f
       -0.69859403 0.8755037
