preTrained/LunarLanderContinuous-v2/TD3_LunarLanderContinuous-v2_0_solved_crtic_2.pth (torch_old, 501014 bytes, 5 tensors)

l1.weight f4 [400, 10]
0	0xbe5de9a2	-0.21671155
1	0xbe678ff4	-0.22613508
2	0x3ec635e3	0.38712987
3	0x3fd8fdd5	1.6952463
4	0xbe75a1c9	-0.23987497
5	0x3e810057	0.25195572
6	0x3e895ace	0.2682709
7	0xbf7f514f	-0.9973344
8	0xbf8de2de	-1.1084859
9	0xbe32220b	-0.17395799
10	0x3f4395ea	0.76400626
11	0xbf0fbca1	-0.561472
12	0xbf3bf11d	-0.73414785
13	0x3f42ca87	0.7609028
14	0x3e26e1f9	0.16297139
15	0x3f8b6fd7	1.0893506
16	0xbfd689d4	-1.6760812
17	0xbeaeac75	-0.3411595
18	0xbe0b69e5	-0.13614614
19	0x3c53b9f7	0.012922755
20	0xbc46de07	-0.012137896
21	0xbe2eb4a1	-0.17061092
22	0xbf406203	-0.75149554
23	0x3f738da9	0.9513803
24	0xbf140e30	-0.5783415
25	0x3f8ffa13	1.1248192
26	0x3dab88a9	0.08375675
27	0xbe5beb79	-0.21476544
28	0x3c6ca4c7	0.014443583
29	0xbea2cb6d	-0.31795827
30	0x3f5a1f04	0.85203576
31	0x3e891cdb	0.26779827
32	0x3f6b7ebd	0.9199026
33	0x3fc42a6f	1.532545
34	0xc017393a	-2.3628678
35	0x3eee4c47	0.4654257
36	0x3dc36b7f	0.09541988
37	0xbf1865db	-0.5953042
38	0x3e2fa511	0.17152812
39	0xbddb0111	-0.10693563
40	0x3f0ea69f	0.55722994
41	0x3de207e8	0.11036664
42	0x3efd18c2	0.4943295
43	0x3ea22c52	0.3167444
44	0xc02afad8	-2.6715603
45	0xbfb0b451	-1.3805028
46	0xbed82450	-0.42215204
47	0xbf193d50	-0.5985918
48	0x3c84ac35	0.016195396
49	0x3d039c58	0.032131523
50	0xbe3c55f4	-0.18392164
51	0xbf25e419	-0.64801174
52	0xbe3b32c8	-0.1828109
53	0xbeb870e5	-0.36023632
54	0xbfb962f7	-1.4483327
55	0xbf019e02	-0.50631726
56	0xbf0638b5	-0.5243028
57	0xbdbc8efc	-0.092069596
58	0xbe06fa45	-0.13181408
59	0x3d090c9f	0.033459302
60	0xbf0fec8e	-0.5622033
61	0x3f05816b	0.521506
62	0x3fb21fe5	1.3915983
63	0x3ea307c3	0.3184186
64	0xbfbd1a6b	-1.4773687
65	0x3fa734cb	1.3062986
66	0x3ed76582	0.42069632
67	0xbdd1ea5b	-0.10249778
68	0x3d4847ad	0.04889648
69	0xbdfa8571	-0.12232483
70	0x3e029357	0.12751518
71	0xbf9856f3	-1.1901535
72	0xbff340ab	-1.900411
73	0x3f20daec	0.6283405
74	0xbec9408f	-0.39307067
75	0x3ec7d8f1	0.390327
76	0x3e819796	0.25310963
77	0x3f27596f	0.6537084
78	0x3f088a1f	0.53335756
79	0x3cef8de4	0.029242463
80	0xbf80d92c	-1.0066276
81	0x3efd5f59	0.49486807
82	0xbf3baad6	-0.7330755
83	0xbeafd0d9	-0.34339026
84	0x3d4434a4	0.047901765
85	0xc016dbf3	-2.3571746
86	0xbf643413	-0.8914196
87	0x3e7873a6	0.24262866
88	0xbd53b058	-0.051681846
89	0x3d9d89c6	0.07692294
90	0x3ccecf9c	0.02524548
91	0x3edb8540	0.428751
92	0xbeeb6815	-0.45977846
93	0xbeb6fc66	-0.3573944
94	0xbeb20b17	-0.34774086
95	0x3c7b1de8	0.015326954
96	0xbe16ca9c	-0.14725727
97	0xbdaa2fb5	-0.08309881
98	0x3a50835b	0.0007954144
99	0xbee950f4	-0.45569575
100	0xbfbc7ab2	-1.4724944
101	0xbf1dc892	-0.6163417
102	0xbfbfd70f	-1.4987506
103	0x3f8f6681	1.1203157
104	0x3f2d57a2	0.6771184
105	0xbf260baa	-0.6486155
106	0x3ee0451f	0.43802735
107	0xbc5b7075	-0.013393511
108	0x3e3c1cc4	0.18370348
109	0xbd8989a9	-0.0671571
110	0x3e8c99bd	0.27461043
111	0x3f89dd50	1.0770664
112	0x3ea987bb	0.33111367
113	0x3e000701	0.12502672
114	0x3e897d61	0.2685347
115	0xbf1e58e1	-0.6185437
116	0xbdfd6662	-0.123730436
117	0xbfcd69c3	-1.6047901
118	0x3e5288fc	0.20560068
119	0x3e7c6d84	0.24651152
120	0xbfafc3ed	-1.3731667
121	0x3ea8cd22	0.32969004
122	0xbf442733	-0.76622313
123	0xbc28cbb8	-0.010302477
124	0xbe618c4d	-0.22026177
125	0x3e56b193	0.20966177
126	0xbf09c708	-0.5381932
127	0xbe1783c8	-0.14796364
128	0xbb80b12b	-0.00392737
129	0xbc93ebc8	-0.018056765
130	0xbfb380b7	-1.4023656
131	0xbe873e3d	-0.26414672
132	0xbf9da80a	-1.2316906
133	0x3fa80ed7	1.3129529
134	0x3f1fc0e3	0.62403697
135	0xbf13bbed	-0.57708627
136	0x3f90a05f	1.1298941
137	0xbf889ffc	-1.0673823
138	0x3e0b62f2	0.13611963
139	0xb9839036	-0.00025093713
140	0xbe7bdec3	-0.24596696
141	0xbfcff261	-1.6245843
142	0x3c2c732d	0.010525507
143	0x3e812e02	0.25230414
144	0xbe128862	-0.14309838
145	0x3e3e2ae6	0.18571052
146	0x3e88baa4	0.26704895
147	0xbf05f3e6	-0.52325284
148	0x3e1611e7	0.14655267
149	0x3e19cbdf	0.15019177
150	0x3faeb58c	1.3649154
151	0xbf6e3931	-0.9305602
152	0xbf08d76b	-0.534537
153	0x3f65c03b	0.89746445
154	0xbf966582	-1.1749728
155	0x3f6280e8	0.88477945
156	0x3e5369fd	0.206459
157	0xbe9eec69	-0.31039742
158	0xbdacb356	-0.08432643
159	0xbe089635	-0.1333855
160	0xbee82cdb	-0.45346722
161	0xc015cb3d	-2.3405297
162	0xbf7254bc	-0.94660544
163	0xbfa4d522	-1.2877543
164	0x3f204683	0.6260759
165	0xbf20f260	-0.62869835
166	0xbdd4920e	-0.1037942
167	0xbfbd7882	-1.4802401
168	0xbb3ab3a9	-0.0028488433
169	0x3cabd0de	0.02097362
170	0x3ff8fcf1	1.9452192
171	0xbdddf9cc	-0.108386606
172	0xbf0ce80c	-0.55041575
173	0x3db3c1c7	0.087771945
174	0xbf0e28a6	-0.55530775
175	0xbb8fb5b3	-0.004385674
176	0xbe598166	-0.21240768
177	0x3e305c7d	0.17222781
178	0x3f530b0e	0.82438743
179	0x3cc6296b	0.024189672
180	0x3eb34160	0.35010815
181	0xc06aee50	-3.6707954
182	0x3f8179f9	1.0115348
183	0xbf9c65fb	-1.2218622
184	0xbfb13c42	-1.3846514
185	0xbe0e4feb	-0.13897674
186	0xbeaa1598	-0.332196
187	0x3e256cf6	0.16154847
188	0x3de4c82a	0.11170991
189	0xbe7b12e0	-0.24518919
190	0x3fa91ba3	1.3211559
191	0xc0adc037	-5.4297137
192	0x3f4a3051	0.78979975
193	0x3f595a5c	0.849035
194	0x3f4c00e8	0.7968888
195	0x3f104568	0.56355906
196	0xbf506485	-0.8140338
197	0xbf020ed7	-0.50803894
198	0x3cbe51b5	0.02323232
199	0xbe26e8c1	-0.16299726
200	0x3fa2669e	1.2687566
201	0x3f15fba8	0.5858712
202	0xbefc734d	-0.49306718
203	0x3ef338b6	0.47504205
204	0x3fcbdbe4	1.592648
205	0xbe8b1756	-0.2716624
206	0x3f020d22	0.5080129
207	0xbfa1c455	-1.2638041
208	0x3db8108a	0.089875296
209	0x3e26980d	0.1626894
210	0xbec2cafa	-0.38045484
211	0x3ef92439	0.48660448
212	0xbf796edc	-0.97434783
213	0xbe18d777	-0.14925943
214	0xbf618f24	-0.8810904
215	0xbdc1488a	-0.09437664
216	0xbd7ef510	-0.06224543
217	0x3dbccda2	0.09218909
218	0x3df2891c	0.11842558
219	0x3e075bbe	0.1321859
220	0xbf1461f2	-0.5796195
221	0xc002d0eb	-2.0440013
222	0x3dc3a9e9	0.09553892
223	0x3ff78472	1.9337294
224	0xbfefec71	-1.8744031
225	0x3eafde5c	0.34349334
226	0x3f642038	0.8911166
227	0xbf7806e5	-0.9688552
228	0xbf856242	-1.0420611
229	0x3dc4c4eb	0.096078716
230	0x3f7e13e7	0.9924912
231	0xbf1da59b	-0.6158082
232	0x3f0990fa	0.5373684
233	0x3e35fbb0	0.17771792
234	0x3f3da737	0.74083275
235	0xbf7bc94a	-0.9835402
236	0xbfa8b2e2	-1.3179591
237	0xbe19e757	-0.15029655
238	0xbc8e979f	-0.017406283
239	0xbea80ee3	-0.32823858
240	0xbf26457a	-0.6494976
241	0xbe330d83	-0.17485623
242	0xbf92110c	-1.1411452
243	0x3fa8c738	1.3185797
244	0x3f425a48	0.7591901
245	0xbec5f7e8	-0.386657
246	0x3e2f165c	0.17098373
247	0xbf104811	-0.56359965
248	0x3be14f43	0.006875904
249	0xbdb3dfe1	-0.08782936
250	0xbf85d6de	-1.0456197
251	0xbfacd934	-1.3503785
252	0x3fa4482b	1.2834524
253	0xbffb562a	-1.963567
254	0x3f12b896	0.57312906
255	0x3ea68e03	0.3253022

l1.bias f4 [400]
0	0xbf327cb7	-0.6972155
1	0x3e2b2150	0.16711926
2	0x3e41f76a	0.18942037
3	0x3f70f2b3	0.9412033
4	0x3e7d1b94	0.24717551
5	0x3f534f64	0.82543015
6	0xbf902cf2	-1.1263716
7	0xbf2429cd	-0.6412628
8	0xbf0bef97	-0.5466246
9	0x3ecaa618	0.39579844
10	0xbf86805c	-1.0507922
11	0x3e0f74df	0.14009427
12	0xbf6128dd	-0.8795298
13	0xbfb82a2c	-1.438787
14	0xbf662163	-0.89894694
15	0x3f13579f	0.57555574
16	0x3f6bbb6e	0.9208287
17	0xbcd3ebb8	-0.025869235
18	0x3c3d6d13	0.01156165
19	0x3e7b540d	0.24543782
20	0x3f459810	0.77185154
21	0x3f08d05f	0.5344295
22	0xbf47316a	-0.77809775
23	0x3f5b38c3	0.85633487
24	0xbf621059	-0.88306195
25	0xbf308533	-0.68953246
26	0x3dc835bc	0.09775874
27	0x3da6f182	0.08151533
28	0xbf80e384	-1.0069432
29	0x3ea82d49	0.3284705
30	0xbef9c523	-0.48783216
31	0xbf455a57	-0.7709097
32	0xbe0742f1	-0.1320913
33	0x3f7d94c6	0.99055135
34	0xbe33de0c	-0.17565173
35	0x3d769303	0.060198795
36	0x3e9c2b86	0.30501956
37	0xbf9095e0	-1.1295738
38	0xbbc1c391	-0.005913206
39	0xbb97de29	-0.004634638
40	0x3ee1a7d9	0.4407337
41	0x3ca7f48e	0.020502355
42	0x3e46459e	0.19362494
43	0xbf801b35	-1.0008303
44	0xbedaf122	-0.42762095
45	0xbef95fec	-0.48705995
46	0xbf932dd1	-1.1498357
47	0x3f061dd3	0.5238926
48	0x3f03bb65	0.51457816
49	0x3e9f2d62	0.31089312
50	0xbe310c2f	-0.17289804
51	0xbf8f1c9c	-1.1180606
52	0xbe882685	-0.26591888
53	0x3e7858f2	0.2425268
54	0xbee14db1	-0.44004586
55	0xbf959a09	-1.1687633
56	0xbfe05f82	-1.7529147
57	0xbe46a51d	-0.19398923
58	0xbf048397	-0.5176329
59	0x3e5755e9	0.21028866
60	0x3e02ef3e	0.12786576
61	0xbf3346ab	-0.70029706
62	0x39b88e98	0.00035201455
63	0xbfa9df94	-1.3271356
64	0xbf4fc353	-0.81157416
65	0xbfb22dc1	-1.3920213
66	0x3f823626	1.0172775
67	0xbfc0032b	-1.5000967
68	0xbf8fa96c	-1.1223578
69	0xbf716107	-0.94288677
70	0xbf2afe9c	-0.66794753
71	0xbf8f475e	-1.1193655
72	0x3e19a7b2	0.15005377
73	0xbee7bf01	-0.45262912
74	0x3eb707c7	0.3574812
75	0xbe9290bf	-0.28626058
76	0x3edbdad8	0.42940402
77	0xbc40a01f	-0.011756926
78	0x3f8b3ea5	1.0878493
79	0x3f60b835	0.8778108
80	0xbfb71299	-1.430255
81	0x3ef6d7d2	0.48211533
82	0xbf80557d	-1.0026089
83	0xbb9fdf06	-0.0048788814
84	0x3d9fcc06	0.07802586
85	0xbd197403	-0.037464153
86	0xbf0e86ca	-0.5567442
87	0xc000ec58	-2.0144253
88	0x3f0094c8	0.5022702
89	0x3c808152	0.015686665
90	0x3d7c62ac	0.06161754
91	0xbd7aab42	-0.06119848
92	0xc002cb04	-2.043641
93	0xbe1a3386	-0.15058717
94	0xbf5ce121	-0.8628102
95	0xbfa74aeb	-1.3069738
96	0xbf7d879b	-0.9903504
97	0xbe3ae81f	-0.1825261
98	0xbfc35687	-1.5260781
99	0xbf9aebff	-1.210327
100	0xbeb0730c	-0.34462774
101	0x3f7b07e2	0.98058903
102	0xbfc53dae	-1.5409448
103	0xbecd8642	-0.40141493
104	0xbf9bd671	-1.2174817
105	0x3ed2a275	0.4113957
106	0xbc81d12d	-0.015846813
107	0xbdbf04a5	-0.09327058
108	0xbed137d9	-0.4086292
109	0xbfd4b2d4	-1.6617074
110	0xbeea944c	-0.45816267
111	0x3e8ad13f	0.27112767
112	0x3e12a0d7	0.14319168
113	0xbfd4b64e	-1.6618135
114	0xbf18a972	-0.59633553
115	0xbf10e884	-0.5660479
116	0xbdbec4f0	-0.093149066
117	0x3e83e791	0.2576261
118	0xbc80dd17	-0.015730424
119	0xbf86a78c	-1.0519881
120	0x3dc13f9e	0.09435962
121	0x3c68489d	0.014177469
122	0xbe143bb9	-0.14475907
123	0xbf446773	-0.7672035
124	0xbfb8a959	-1.4426681
125	0x3f25ffe1	0.64843565
126	0xc0062af3	-2.0963714
127	0xbf696cf3	-0.9118187
128	0x3ee7ee68	0.45299077
129	0xbea13b59	-0.3149059
130	0xbf7cae03	-0.9870302
131	0x3f92058c	1.1407943
132	0x3e5fae2e	0.21843788
133	0xbe25bf89	-0.16186346
134	0x3faf03fb	1.367309
135	0xbe8b9042	-0.27258497
136	0x3e6081fa	0.21924582
137	0xbe4da319	-0.20081748
138	0xbc53ca1f	-0.012926607
139	0xbe22e9e2	-0.15909532
140	0x3e1749cf	0.1477425
141	0x3ee69460	0.45035076
142	0xbf29f2c7	-0.66386074
143	0xbe5b7ab2	-0.21433523
144	0x3e5c0e39	0.214898
145	0xbf05b8bf	-0.52235025
146	0x3f109ad1	0.5648623
147	0xbfa4fa8e	-1.2888963
148	0x3ec661d9	0.38746527
149	0xbea4d2ca	-0.3219207
150	0x3d30af3a	0.04313586
151	0xbf99d53b	-1.2018198
152	0xbf7b9825	-0.9827903
153	0xbf4e8c38	-0.80682707
154	0xbf4f0d3a	-0.8087956
155	0xbcc0894d	-0.02350297
156	0xbeb4e837	-0.35333416
157	0x3e30f70d	0.17281742
158	0x3ef811ba	0.48451024
159	0xbe1f0304	-0.15528494
160	0x3e49fd13	0.19725446
161	0xbf8211ba	-1.016166
162	0x3f2d0786	0.67589605
163	0xbe850d39	-0.2598665
164	0xbf4cde9f	-0.8002719
165	0xbf812b3b	-1.0091318
166	0x3f27be00	0.6552429
167	0xbeb08043	-0.34472856
168	0xbf5163f0	-0.8179312
169	0x3ee95f4e	0.45580524
170	0xbf29112d	-0.66041833
171	0xbf1c5307	-0.6106419
172	0x3f18388c	0.59461284
173	0x3f424e56	0.7590078
174	0xbf04a6f1	-0.5181723
175	0xbc9c6a6c	-0.019093715
176	0xbe540e1f	-0.20708512
177	0xbef867b6	-0.48516625
178	0x3f51a09d	0.818857
179	0xbd24582c	-0.04012315
180	0xbfb7309f	-1.4311713
181	0xbe01b33d	-0.1266603
182	0x3e93e803	0.28887948
183	0x3f55fc25	0.8358787
184	0xbf0dbb2c	-0.55363727
185	0xbf670032	-0.90234673
186	0x3efecaa6	0.49763983
187	0xbf7c9d0c	-0.98677135
188	0xbf0631bb	-0.5241963
189	0x3f20bff3	0.6279289
190	0x3e9af463	0.30264577
191	0x3ed0f1eb	0.4080957
192	0xbf87bf57	-1.0605267
193	0xbed5415f	-0.41651437
194	0x3ead81e0	0.3388815
195	0xbe01dfec	-0.12683076
196	0xbefd124d	-0.49428025
197	0xbe8dfcad	-0.2773184
198	0x3da54299	0.08069343
199	0xbf7b8a14	-0.98257565
200	0xbf836f57	-1.0268353
201	0xbf00a7ce	-0.5025605
202	0x3e98a18b	0.29810748
203	0xbfa6d543	-1.3033832
204	0xbe8a1709	-0.269707
205	0x3f8d7297	1.1050595
206	0xbe379c01	-0.17930605
207	0xbfa3374a	-1.2751248
208	0xbe9538a6	-0.29144782
209	0xba471ae7	-0.00075952563
210	0xbf292467	-0.6607117
211	0xbe5a6075	-0.21325858
212	0xbd9d8e13	-0.07693114
213	0x3e6f6933	0.23379974
214	0xbe8d2c7d	-0.27573004
215	0x3f0714e2	0.5276624
216	0xbf09b21e	-0.5378741
217	0xbf76b7f4	-0.9637444
218	0x3e3eb62d	0.18624182
219	0xbecec8ff	-0.40387723
220	0xbf0ef421	-0.5584126
221	0xbe101943	-0.14072137
222	0x3ded7f81	0.11596585
223	0x3ed13f3b	0.40868554
224	0x3ecc59f9	0.39912394
225	0xbe311e80	-0.17296791
226	0xbce94bd1	-0.028478535
227	0xbec36364	-0.38161767
228	0xbf888536	-1.0665653
229	0xbf54c247	-0.83108944
230	0xbdebb514	-0.11509147
231	0xbf545134	-0.82936406
232	0xbebf4e30	-0.3736434
233	0xbf896ae0	-1.0735741
234	0xbfacad84	-1.3490453
235	0xbf014992	-0.50502884
236	0x3c0cf41c	0.008603122
237	0xbf80dfab	-1.0068258
238	0xbee2f43f	-0.4432697
239	0xbdf4aedc	-0.11947414
240	0xbe8660a1	-0.26245597
241	0x3f403d21	0.75093275
242	0xbf072eba	-0.52805674
243	0xbfe3a8ef	-1.778593
244	0x3f1bfc3b	0.6093175
245	0xbe967e50	-0.29393244
246	0x3efa6c8d	0.48910943
247	0x3dc432bc	0.09579989
248	0xbf93d461	-1.1549188
249	0x3f74a816	0.9556898
250	0x3e0ecbb7	0.13944899
251	0xbdae81e4	-0.085208684
252	0x3dc66604	0.09687427
253	0xbf29cb3b	-0.6632573
254	0xbedfb667	-0.4369385
255	0xbf12aab3	-0.57291716

l2.weight f4 [300, 400]
0	0xbe1c1535	-0.15242465
1	0xbdf2cc2a	-0.118553475
2	0xbe8961f6	-0.2683255
3	0x3e7c8df8	0.24663532
4	0xbe33dab4	-0.17563897
5	0xbd8c90d7	-0.068635635
6	0x3cd82e6e	0.026389327
7	0xbd954efe	-0.07290457
8	0x3efa1c0d	0.48849526
9	0xbdf48a22	-0.11940409
10	0xbe3f98cd	-0.18710633
11	0xbe96427b	-0.29347596
12	0xbf1abd91	-0.60445505
13	0xbc539a24	-0.012915168
14	0xbd49e694	-0.049292162
15	0xbe64c529	-0.22340836
16	0xbd0413bb	-0.03224538
17	0xbe2d12a3	-0.1690164
18	0xbcad16a5	-0.021128962
19	0xbe81e1e2	-0.25367647
20	0x3e28d972	0.16489199
21	0xbe458d6a	-0.19292226
22	0xbe11e45c	-0.14247268
23	0xbd39ad94	-0.045331553
24	0xbdfb5c64	-0.122734815
25	0xbdf52c5d	-0.11971352
26	0xbe3f57df	-0.18685864
27	0xbe029872	-0.12753466
28	0xbdab2faf	-0.08358704
29	0xbeb3aafb	-0.35091385
30	0xbd82dbc2	-0.06389572
31	0x3e87569d	0.26433268
32	0x3d9fe5b5	0.07807485
33	0x3b764a1e	0.0037580798
34	0xbdcd3d42	-0.100214496
35	0xbe41642f	-0.18885873
36	0x3eb03d0e	0.3442158
37	0x3e3ae968	0.182531
38	0xbebbd340	-0.36684608
39	0xbe0a94f5	-0.13533385
40	0x3da61bd5	0.08110777
41	0xbdf17f1b	-0.117918216
42	0x3a166429	0.0005736971
43	0x3de2f2c4	0.1108146
44	0xbe416f99	-0.18890227
45	0xbe399818	-0.18124425
46	0xbd7aec94	-0.061260775
47	0xbe4e89c9	-0.20169748
48	0xbced05c8	-0.02893342
49	0xbed387d5	-0.4131457
50	0xbe12eb3e	-0.1434755
51	0xbdaa7285	-0.08322624
52	0xbd732b27	-0.059367325
53	0xbe1fc57a	-0.15602675
54	0xbca0e611	-0.019640954
55	0xbe89fde4	-0.26951516
56	0xbc949f9c	-0.018142514
57	0xbe5f4012	-0.21801785
58	0xbe8cf418	-0.2752998
59	0x3d1f2583	0.038854133
60	0x3d0ca1ef	0.03433412
61	0x3d89696a	0.06709559
62	0x3d2f869d	0.042852987
63	0xbea1ce5e	-0.31602758
64	0xbc87da91	-0.016583713
65	0xbe80c83d	-0.2515277
66	0xbe759e18	-0.23986089
67	0xbe47624a	-0.19471088
68	0x3e3c1f95	0.18371423
69	0xbdce7891	-0.1008159
70	0x3e302d61	0.1720481
71	0xbe666d07	-0.22502528
72	0x3df8017a	0.12109657
73	0xbee3833b	-0.44436058
74	0xbe119ff5	-0.14221175
75	0xbe37339a	-0.17890778
76	0xbdbb858c	-0.091563314
77	0xbbb51b5e	-0.005526944
78	0x3e3d1412	0.18464687
79	0xbea46c1a	-0.32113725
80	0xbdaa54dc	-0.08316967
81	0xbe862b71	-0.26205018
82	0xbdad3bac	-0.08458647
83	0xbd5eeac6	-0.054423116
84	0x3e55e9e0	0.20889997
85	0xbe2d47ac	-0.16921872
86	0x3d0b4fca	0.03401164
87	0xbec5acdd	-0.38608447
88	0x3cc6d7d4	0.024272837
89	0x3d62ef7a	0.055404164
90	0xbe291de2	-0.16515306
91	0xbe5b5582	-0.21419337
92	0x3e828b76	0.25497025
93	0xbd996b6f	-0.074911945
94	0xbde6c605	-0.11268238
95	0xbe66143d	-0.22468658
96	0xbda4436f	-0.080206744
97	0xbe84af5a	-0.25915033
98	0xbe5cce0f	-0.2156298
99	0xbe237640	-0.15963078
100	0xbe9adae0	-0.30245113
101	0x3ea35727	0.3190243
102	0x3d043a51	0.032282177
103	0xbe453ff4	-0.19262677
104	0xbe8b3428	-0.2718823
105	0xbe0217b4	-0.12704355
106	0xbe27eb73	-0.1639841
107	0xbe1db540	-0.15401173
108	0xbea821c2	-0.32838255
109	0xbd05fbd8	-0.03271088
110	0x3d794e89	0.060865913
111	0xbec59f06	-0.38597888
112	0xbda01162	-0.078158155
113	0x3e04d236	0.12970814
114	0x3d7ff300	0.062487602
115	0xbe86a99d	-0.2630128
116	0xbf149109	-0.58033806
117	0xbe32d14f	-0.17462657
118	0xbe8a13fe	-0.26968378
119	0xbd3fd9b3	-0.046838474
120	0x3e69b327	0.22822247
121	0x3e99eeee	0.300651
122	0xbe4b0685	-0.19826706
123	0x3e98f2ac	0.29872644
124	0x3d97e426	0.07416563
125	0xbe493e52	-0.1965268
126	0x3e78a726	0.24282512
127	0xbeb04028	-0.34423947
128	0x3e20be2f	0.1569755
129	0x3d49812d	0.049195457
130	0x3cd8055b	0.026369741
131	0xbd35e8db	-0.04441152
132	0xbe0b51db	-0.13605444
133	0xbdd60193	-0.10449519
134	0x3ec426a5	0.38310733
135	0xbe0a749b	-0.13521044
136	0xbee8362d	-0.45353833
137	0x3e2af0b0	0.16693377
138	0xbe80cbc8	-0.25155473
139	0xbdf55543	-0.11979153
140	0xbe2140b1	-0.15747334
141	0xbdcdc658	-0.10047597
142	0x3d948c5d	0.07253335
143	0xbd93a384	-0.072089225
144	0x3e50220a	0.20325485
145	0x3e8b51ce	0.2721085
146	0x3d89c566	0.06727104
147	0x3e832587	0.2561457
148	0xbe9bd856	-0.3043849
149	0xbe3ba04d	-0.18322869
150	0x3e5dfce7	0.21678506
151	0xbe01be24	-0.12670189
152	0x3c57ed07	0.01317907
153	0xbd8c123f	-0.06839418
154	0xbd8519e7	-0.06499081
155	0xbeea9ac0	-0.4582119
156	0x3e1d0d7e	0.15337178
157	0xbd78ef18	-0.060774893
158	0xbe188f26	-0.14898357
159	0xbdb0a123	-0.086244844
160	0xbe026e71	-0.12737443
161	0xbe0da858	-0.1383375
162	0xbc87317d	-0.01650309
163	0xbe1f9ef4	-0.1558798
164	0x3d6cab17	0.05778035
165	0xbe80c5a3	-0.25150785
166	0x3eb49bde	0.35275167
167	0xbc5ba41d	-0.013405827
168	0x3e196053	0.14978151
169	0x3e8d85be	0.276411
170	0xbe590828	-0.21194518
171	0x3e32dfd2	0.17468193
172	0xbd3b8fe5	-0.045791525
173	0x3c53d35b	0.012928809
174	0xbe45ac58	-0.19304025
175	0xbe207823	-0.15670829
176	0xbdfcd57a	-0.12345405
177	0x3d1a3d29	0.037655983
178	0xbe6fd3f7	-0.23420702
179	0xbd8235ab	-0.063578926
180	0xbdba2269	-0.090885945
181	0xbdcbf56e	-0.099589214
182	0xbe92e52b	-0.28690466
183	0xbd2d59a3	-0.042321812
184	0xbf19e57e	-0.601158
185	0x3eba8de8	0.3643639
186	0xbe63321c	-0.22187084
187	0xbca97e0c	-0.020689987
188	0xbd87f14d	-0.06637821
189	0xbd35dcaf	-0.044399913
190	0x3ebe0bed	0.37118474
191	0xbef80d67	-0.48447725
192	0xbdf4d5ff	-0.11954879
193	0xbe2aa9f5	-0.16666396
194	0xbd97030a	-0.073736265
195	0xbdfcc278	-0.123417795
196	0x3e557582	0.20845607
197	0xbd91f7e0	-0.071273565
198	0xbde57745	-0.112043895
199	0xbf117f38	-0.56834745
200	0xbe9883cf	-0.29788062
201	0xbd8c4b26	-0.06850271
202	0xbe1225e9	-0.14272274
203	0xbe60a104	-0.21936423
204	0xbea99d5c	-0.33127868
205	0xbec3a78b	-0.38213763
206	0x3e9df874	0.30853617
207	0xbe0fc9e8	-0.14041865
208	0xbece9e63	-0.40355214
209	0x3c9022fd	0.017594809
210	0xbdabd7d3	-0.083907746
211	0xbe0864f5	-0.13319762
212	0x3dc3672e	0.09541164
213	0x3e7c6562	0.2464805
214	0xbdc41fdb	-0.095763884
215	0x3d31f2c7	0.04344442
216	0x3c708c22	0.014681848
217	0xbe45a8ba	-0.19302645
218	0xbccdc799	-0.02511959
219	0x3e878985	0.26472107
220	0xbe970d21	-0.29502204
221	0xbe8e1d80	-0.27756882
222	0xbe9b64a2	-0.30350214
223	0x3cf0e6eb	0.029406985
224	0xbd8a77e6	-0.0676115
225	0xbe87ce25	-0.26524463
226	0xbe1247c9	-0.14285196
227	0x3c789fbc	0.015174802
228	0xbe30c36d	-0.17262049
229	0xbf827da0	-1.0194588
230	0xbebf208f	-0.37329528
231	0xbd878340	-0.06616831
232	0xbe5f0ab8	-0.21781433
233	0xbed25e67	-0.41087648
234	0xbe4b6d55	-0.19865926
235	0xbe0c1ab0	-0.13682055
236	0xbdba52f9	-0.09097857
237	0xbe280620	-0.16408587
238	0xbe5b58ae	-0.21420547
239	0x3ca14e1a	0.019690562
240	0x3eb17bc7	0.34664747
241	0xbe760018	-0.24023473
242	0x3d83c897	0.06434744
243	0xbdd45de5	-0.103694715
244	0xbe873d1c	-0.2641381
245	0xbcdbe478	-0.02684234
246	0xbdc7e731	-0.09760893
247	0x3d7deea4	0.061995164
248	0x3d0d4c1d	0.034496415
249	0xbde3f9c3	-0.11131623
250	0x3e17d01b	0.1482548
251	0xbbcba5e6	-0.006214845
252	0xbdff8798	-0.12477034
253	0x3dbbbac3	0.09166481
254	0xbd8fe7ff	-0.070266716
255	0xbe018577	-0.12648569

l2.bias f4 [300]
0	0xbe44eb12	-0.19230297
1	0x3f1ac9b5	0.6046403
2	0xbc5b3314	-0.013378877
3	0x3f4c2f9e	0.7976016
4	0xbd330bd1	-0.04371244
5	0xbeb8f941	-0.36127666
6	0xbd314156	-0.0432752
7	0x3edf5f39	0.43627337
8	0xbe2a0126	-0.16602
9	0x3b8d57d0	0.0043134466
10	0xbf16786e	-0.5877751
11	0x3ecb303f	0.39685246
12	0xbd8b2089	-0.06793315
13	0x3c0eb757	0.008710704
14	0x3f0e5e23	0.5561239
15	0x3c2c2b57	0.01050838
16	0xbd574307	-0.052554157
17	0xbde52a34	-0.1118969
18	0xbb5e04f6	-0.0033877469
19	0xbdd5595a	-0.10417433
20	0xbd8124fe	-0.06305884
21	0xbd7fc718	-0.06244573
22	0x3c1815d7	0.009282551
23	0xbd85b5ce	-0.06528817
24	0x3c28f269	0.010311701
25	0xbd02c23c	-0.031923518
26	0xbe3ecc8c	-0.18632716
27	0xbdb6ee0c	-0.089321226
28	0x394c4557	0.00019480787
29	0x3e98d2ab	0.29848227
30	0xbd0d437a	-0.03448818
31	0xbdd02dde	-0.101649985
32	0xbb149d28	-0.002267668
33	0x3ea01387	0.31264898
34	0x3eaf425a	0.3423031
35	0xbf117f22	-0.56834614
36	0xbd0506e7	-0.032477286
37	0x3e1caced	0.15300341
38	0x3e098b19	0.13431968
39	0xbe485264	-0.1956268
40	0x3eb1f77b	0.34759125
41	0xbcfeb0e0	-0.0310902
42	0xbd69bae0	-0.057062984
43	0x3f14919b	0.58034676
44	0xbe4da627	-0.20082913
45	0x3e8f0602	0.2793427
46	0x3f028972	0.50990975
47	0x3a0f49e1	0.0005466026
48	0xbebabdf7	-0.36473057
49	0xbcbf9f0c	-0.02339127
50	0xbd6035fd	-0.054738987
51	0xbe2bf610	-0.16793084
52	0xbe3b0105	-0.18262108
53	0xba877206	-0.0010333664
54	0xbcfeb5d4	-0.031092562
55	0x3e53a7bf	0.20669459
56	0xbd56881f	-0.05237591
57	0x3ed0634a	0.40700752
58	0xbd2963af	-0.04135483
59	0x3db265da	0.08710833
60	0xbcf4ad93	-0.029867923
61	0xbd92785d	-0.07151864
62	0xbd818639	-0.06324429
63	0x3f55545b	0.8333184
64	0xbe4b3ab3	-0.1984661
65	0xb9dce308	-0.0004213082
66	0x3ea14fe0	0.31506252
67	0x3f33484e	0.70032203
68	0x3aa0c0a9	0.0012264448
69	0x3c895d96	0.016768258
70	0xbecdc0a2	-0.4018603
71	0xbe6f3a70	-0.23362136
72	0xbd837765	-0.06419257
73	0xbda3ed06	-0.08004193
74	0x3f05764b	0.52133626
75	0x3caecf64	0.021339126
76	0xbdc3ed0b	-0.09566697
77	0xbdead35b	-0.11466094
78	0x3eafbceb	0.3432382
79	0x3ea3799d	0.3192872
80	0x3e35134e	0.17683145
81	0x3f9bc4a1	1.2169381
82	0x3d4a106e	0.049332075
83	0x3f4db7e0	0.80358696
84	0xbf097e70	-0.53708553
85	0x3ec2d1c7	0.38050672
86	0x3ea6b52c	0.32560098
87	0xbd1ce1dc	-0.038301334
88	0xbee17783	-0.44036493
89	0x3f15dd5e	0.58540905
90	0x3f45734d	0.7712906
91	0x3f64565a	0.8919426
92	0xbd441d73	-0.047879647
93	0x3fa04318	1.2520475
94	0xbc83b05b	-0.016075304
95	0x3f0c0928	0.5470147
96	0xbdb90155	-0.09033457
97	0x3de85f0f	0.11346256
98	0x3f7db7a2	0.99108326
99	0xbf0eb8a1	-0.5575047
100	0x3b34fea5	0.00276176
101	0xbe2e7443	-0.17036538
102	0x3ed2bcef	0.4115977
103	0xbd4eb329	-0.05046383
104	0x3f9cd5da	1.2252762
105	0x3f38c448	0.721745
106	0xbe0164d6	-0.12636122
107	0x3f6730bc	0.9030874
108	0xbdbc5ecf	-0.09197771
109	0x3f29f47e	0.6638869
110	0x3adfeeaf	0.0017084683
111	0xbdc2f6cf	-0.09519731
112	0xbe41ac53	-0.18913393
113	0xbe0d212e	-0.13782188
114	0xbd6f6fb8	-0.058456153
115	0x3d3dd21d	0.046342958
116	0xbdf70099	-0.12060661
117	0xbe4d1d3b	-0.20030682
118	0xbe3de967	-0.18546067
119	0xbe3cdfb8	-0.18444717
120	0x3f956712	1.167208
121	0xbd0c2548	-0.03421524
122	0xbd327414	-0.043567732
123	0x3b0c8e3f	0.002144709
124	0xbe03d05f	-0.12872456
125	0x3eaa5df4	0.33274806
126	0xbf21b44d	-0.6316574
127	0x3f7e35f2	0.99301064
128	0x3ec4bb0b	0.38423952
129	0xbd6e4389	-0.058169875
130	0xbe3851d2	-0.17999962
131	0xbcce5ddf	-0.025191246
132	0x3a3927e9	0.0007063137
133	0xbda75710	-0.08170903
134	0xbe357a21	-0.1772237
135	0xbc2aafb9	-0.010417872
136	0x3c25859c	0.010102656
137	0xbe235087	-0.15948687
138	0x3eda336f	0.42617366
139	0xbc9f7271	-0.01946375
140	0xbd81d89a	-0.063401416
141	0xbf858fb7	-1.0434483
142	0xbd9fc42d	-0.078010894
143	0x3e0b7a85	0.13620956
144	0xbd931ff4	-0.07183829
145	0xbcfe3072	-0.03102896
146	0x3fb6f34b	1.4292997
147	0xbe7dc1bb	-0.24780934
148	0xbdd3879c	-0.103286
149	0xbdacf218	-0.08444613
150	0x3f62b92a	0.8856379
151	0xbcf962a3	-0.030442541
152	0xbe468240	-0.19385624
153	0xbda4c94b	-0.08046206
154	0xbdb5b257	-0.08871906
155	0xbf196e03	-0.5993349
156	0x3f163889	0.58680016
157	0xbe406137	-0.18787085
158	0x3d892857	0.06697147
159	0xbe00bc77	-0.12571894
160	0x3f006991	0.5016108
161	0xbccee39a	-0.025255013
162	0x3f2abe78	0.6669688
163	0x3a8b6604	0.0010635261
164	0xbde01622	-0.109417215
165	0x3f5b773d	0.8572882
166	0x3ecbbdca	0.39793235
167	0xbd718bd3	-0.058971237
168	0x3f4cfb3f	0.8007087
169	0xbe620016	-0.22070345
170	0xbd3af2c4	-0.045641676
171	0x3f7c3f1a	0.98533785
172	0xbe99d20b	-0.30043063
173	0x3e0c53bd	0.13703819
174	0xbe14adab	-0.14519374
175	0xbe2fa67a	-0.1715335
176	0xbd27c57f	-0.04095983
177	0xbd135008	-0.035964996
178	0xbd75f7be	-0.06005072
179	0xbd9fb889	-0.07798869
180	0xbccf9f00	-0.025344372
181	0xbe0cfdec	-0.13768739
182	0xbe0e7bf2	-0.13914469
183	0x3da026be	0.078198895
184	0xbd7111a2	-0.058854707
185	0x3d1ab016	0.037765585
186	0xbd102e57	-0.035200443
187	0xbeca5e68	-0.3952515
188	0xb9af77d8	-0.00033467892
189	0x3f92ba87	1.1463174
190	0xbd8b8245	-0.06811956
191	0xbd803e25	-0.06261853
192	0xbbe3f683	-0.0069568767
193	0xbe603fca	-0.21899334
194	0x3fc7e9c6	1.5618217
195	0xbd476dd1	-0.048688713
196	0x3f8c031b	1.0938448
197	0xbdb66207	-0.08905416
198	0x3f1fe7d3	0.6246311
199	0xbe0b6790	-0.13613725
200	0xbe13fb33	-0.14451294
201	0xbd874793	-0.066054486
202	0x3d76fba1	0.060298566
203	0xbc1d275b	-0.009591903
204	0xbf9006de	-1.1252096
205	0xbb86e1d8	-0.004116278
206	0x3ed71cc0	0.42014122
207	0x3d61ef27	0.055159714
208	0xbd442bae	-0.04789322
209	0x3e83d0dc	0.25745285
210	0x3f81109a	1.0083191
211	0xbd91f095	-0.071259655
212	0xbdbe0577	-0.09278386
213	0x3f8102d8	1.0078993
214	0x3d808ebf	0.06277227
215	0xbcc0ead7	-0.02354948
216	0xbdab47a7	-0.08363276
217	0xbd16a5c2	-0.036779173
218	0x3c62c6c6	0.013841337
219	0x3ef5a19e	0.47974867
220	0xbd80b0e7	-0.062837414
221	0xbd645743	-0.05574728
222	0xbe720cf4	-0.23637754
223	0xbcd67251	-0.026177557
224	0x3e6f335a	0.23359433
225	0x3f4d78a1	0.8026219
226	0x3e127beb	0.14305083
227	0xbd02e044	-0.031952158
228	0xbd0cf214	-0.03441055
229	0xbd649a02	-0.055810936
230	0xbd7f3303	-0.062304508
231	0xbd22d73f	-0.039756056
232	0x3f637979	0.8885723
233	0xbd60ad20	-0.054852605
234	0xbd85426f	-0.06506812
235	0xbccd8b0a	-0.025090713
236	0xbd5d5adb	-0.054041725
237	0xbd394b95	-0.045238096
238	0x3f88435e	1.0645559
239	0xbe514039	-0.20434655
240	0x3a65749f	0.00087530346
241	0x3fd6ccd8	1.6781263
242	0x3f366d0b	0.71260136
243	0xbd736906	-0.05942633
244	0x3ec75c99	0.38937834
245	0xbd701033	-0.0586092
246	0x3f4c2275	0.7974008
247	0xbd8f96a8	-0.07011157
248	0xbb030ea8	-0.001999775
249	0x3f604393	0.8760311
250	0xbcc482a2	-0.023988072
251	0x3f84780f	1.0349139
252	0x3ca9eb8c	0.0207422
253	0xbd5a89e8	-0.053354174
254	0x3f82f01b	1.0229524
255	0xbda68127	-0.081301026

l3.weight f4 [1, 300]
0	0xbe19ae15	-0.15007813
1	0xbfc6e200	-1.553772
2	0x3cb16a2d	0.021657074
3	0xbefe3ccd	-0.49655762
4	0x3c355c26	0.011069333
5	0xbe568c32	-0.20951918
6	0x3c9803c7	0.018556489
7	0x404515d0	3.0794563
8	0xbf79ec81	-0.976265
9	0x3c51d3f7	0.012806884
10	0x3fb5c187	1.4199685
11	0xbfbfee40	-1.4994583
12	0x3c5b1387	0.013371355
13	0xbc99d805	-0.018779764
14	0xbec6f19e	-0.38856214
15	0x3bbd07e2	0.005768762
16	0x3c77c548	0.015122719
17	0x3f17995c	0.5921838
18	0x3d19de3a	0.037565447
19	0x3cbb8fb3	0.02289567
20	0x3c65d284	0.014027242
21	0x3f0cd6ec	0.55015445
22	0x3c114c5c	0.008868303
23	0xbad9b4a9	-0.0016609627
24	0x3ae239b4	0.0017259629
25	0xbc4a7977	-0.012358061
26	0xbe490919	-0.19632377
27	0xbb460114	-0.0030213045
28	0xbc8c0325	-0.017091343
29	0xc00a43ea	-2.1603951
30	0xbc8fff1d	-0.017577702
31	0xbe721d3f	-0.23643969
32	0x3c48bd53	0.01225217
33	0x3fb59f77	1.418929
34	0xbee0a6a9	-0.43877152
35	0x3f57e517	0.8433394
36	0x3c895643	0.016764766
37	0x3c8d9c25	0.01728637
38	0x3f380f3f	0.71898264
39	0xbe8cced2	-0.2750154
40	0xbf6c06d2	-0.92197907
41	0x39971be3	0.00028821742
42	0xbcc3caa2	-0.023900334
43	0xbf0ea519	-0.5572067
44	0xbe3fe1f7	-0.18738542
45	0x38b63c11	8.6896245e-05
46	0x3f5fdba8	0.87444544
47	0xbbc4314b	-0.0059873215
48	0x3f9f0af7	1.2425221
49	0x3e037e59	0.12841167
50	0x3cf6c38d	0.030122543
51	0xbe6cf33d	-0.23139663
52	0xbd12c513	-0.035832476
53	0x3c7551c5	0.014973109
54	0x3cd31439	0.025766479
55	0xbbbd4522	-0.0057760635
56	0xbc7c62c3	-0.015404406
57	0xbf85d79e	-1.0456426
58	0x3c69ea87	0.014277107
59	0x3f23497b	0.63784
60	0xbc87e6c1	-0.016589524
61	0xbb75a136	-0.0037480122
62	0x3d0fa79e	0.03507196
63	0xbf1e6ae8	-0.61881876
64	0xbe809b0b	-0.25118288
65	0xbcc59353	-0.024118101
66	0xbf94f8fb	-1.1638483
67	0xbf22f578	-0.63655806
68	0x3cd401f7	0.025879843
69	0x3c4379f3	0.01193093
70	0x3f4d748d	0.8025597
71	0xbd08ebda	-0.03342805
72	0x3d86b347	0.06577163
73	0x3c897011	0.01677707
74	0xbed32392	-0.41238075
75	0x3ae8d521	0.0017763713
76	0xbcdcc74e	-0.026950505
77	0xbf978461	-1.1837274
78	0xbeb0425a	-0.34425622
79	0x3f2f2715	0.6841901
80	0xbea32baf	-0.31869265
81	0xbe6e07a4	-0.23245102
82	0x3f85ddd9	1.0458328
83	0xbeda4eb9	-0.42638186
84	0xc000bfa4	-2.0116968
85	0xbeda288b	-0.42609057
86	0xbf892051	-1.0712987
87	0x3afa50a9	0.0019097525
88	0x3fc1375e	1.5095022
89	0xbe0f2bda	-0.13981572
90	0xbf8b3013	-1.0874046
91	0xbe278014	-0.16357452
92	0xbc70675e	-0.014673082
93	0xbf417a9e	-0.75577724
94	0xbcdbc03d	-0.026825065
95	0x3f61ad26	0.8815483
96	0x3b8a5987	0.0042220983
97	0xbd9160d4	-0.070985466
98	0xbeaebeb1	-0.3412986
99	0x3fc537c6	1.5407646
100	0x3c01750b	0.00790144
101	0xbe482891	-0.19546725
102	0x3f8314aa	1.0240681
103	0x3dcd3e97	0.10021704
104	0xbf473235	-0.77810985
105	0xbee8eeba	-0.45494634
106	0xbc794363	-0.01521382
107	0xbf12cfdc	-0.5734842
108	0x3f1a1552	0.6018878
109	0xbfc10ff4	-1.5082994
110	0x3c8836b7	0.016627653
111	0xbd78eaf3	-0.06077094
112	0xbe763e56	-0.24047217
113	0xbe7892a7	-0.24274693
114	0x3c87519c	0.016518407
115	0xbda0c6c1	-0.07850409
116	0xbd35829d	-0.044314016
117	0xbfa3fc92	-1.2811453
118	0xbe83a97c	-0.25715244
119	0xbe035aaf	-0.12827562
120	0xbf31bef6	-0.6943201
121	0x3b87f773	0.0041493713
122	0x3d213f7e	0.03936719
123	0xbc74bd00	-0.014937639
124	0xbc686217	-0.014183543
125	0xbf3096f4	-0.68980336
126	0x3fc08e75	1.5043474
127	0x3fd181e9	1.636777
128	0xbfc42013	-1.5322288
129	0x3b1aad87	0.0023601966
130	0xbe2b0fff	-0.16705321
131	0x3ceb42a4	0.0287183
132	0xbcea6552	-0.028612766
133	0xbc870b0f	-0.016484765
134	0xbec540e2	-0.38526064
135	0x3b93ab77	0.004506524
136	0x3d069020	0.032852292
137	0xbe2725a0	-0.16322947
138	0xbf00534e	-0.5012711
139	0x3c9586c9	0.018252747
140	0x3c6b2e47	0.014354295
141	0x3efc25ff	0.4924774
142	0xbdb36e5f	-0.08761286
143	0x3fb23f6d	1.3925606
144	0xbf8db2c1	-1.1070176
145	0x3c2d8763	0.010591361
146	0xbeafc863	-0.3433257
147	0x3fec550b	1.8463453
148	0x3bae7212	0.005323657
149	0xbf2252e4	-0.6340773
150	0xbfaa2823	-1.3293499
151	0xbc81697f	-0.015797375
152	0xbf6ada7b	-0.91739625
153	0x3d0c7125	0.03428759
154	0xbacbf962	-0.0015561993
155	0x3f90bb2d	1.1307122
156	0xbe62862e	-0.22121498
157	0xbe6b55d6	-0.22981963
158	0xbb1a1df2	-0.0023516384
159	0xbe6f894b	-0.23392217
160	0xbe8bf148	-0.2733252
161	0xb710ae31	-8.623626e-06
162	0xbf338d45	-0.70137435
163	0xbb438d02	-0.0029838686
164	0x3df9240c	0.121650785
165	0xbca3af50	-0.019981056
166	0x3b87094d	0.004120982
167	0x3c0df68f	0.008664741
168	0xbf233444	-0.63751626
169	0xbe6ded94	-0.2323516
170	0x3cbf4dcf	0.023352532
171	0xbeca1253	-0.39467105
172	0xbf936709	-1.1515819
173	0x3f665af0	0.8998251
174	0x3c81356b	0.015772542
175	0xbefb7bb0	-0.49117804
176	0x3c62617b	0.0138171865
177	0x3c5c2de7	0.013438678
178	0x3ef2baf1	0.4740825
179	0x3cfe8f3b	0.031074157
180	0x3ffa6293	1.9561332
181	0xbcedea31	-0.029042335
182	0xbf8a4927	-1.0803574
183	0xbec1dab4	-0.3786217
184	0x3cc658ab	0.024212202
185	0xbb983404	-0.0046448726
186	0x3cb3ff37	0.021972282
187	0xbdfbc1fb	-0.12292858
188	0xbba3617c	-0.0049859863
189	0xbf9c0093	-1.2187675
190	0xbc7c4164	-0.01539645
191	0xbcd5de2e	-0.02610692
192	0xbcc5d28d	-0.02414825
193	0xbe4d321b	-0.20038645
194	0xbf939a75	-1.1531512
195	0xbc8daf6c	-0.017295562
196	0xbea37358	-0.31923938
197	0x38eba3c3	0.00011236176
198	0x3f477a34	0.7792084
199	0xbc8cb2e7	-0.017175151
200	0xbe3e3268	-0.18573916
201	0xbba984e3	-0.005173312
202	0xbeace176	-0.33765763
203	0x3b5bf8a6	0.0033564954
204	0x3f9acae4	1.2093167
205	0x3d03cb51	0.03217632
206	0x3f8f2db2	1.118582
207	0x3fc38654	1.5275369
208	0xbbdf2f23	-0.006811039
209	0xbf863a6b	-1.0486578
210	0xbfa551dd	-1.2915608
211	0x3ce80b5f	0.028325735
212	0x3e44c459	0.19215526
213	0xbf9195e2	-1.1373866
214	0xbd23566a	-0.039877333
215	0xbaa7702c	-0.0012774519
216	0xbf62cbf0	-0.88592434
217	0x3cc6feec	0.024291478
218	0xbfe9bb96	-1.8260372
219	0x3f246928	0.64222956
220	0x3c7cf1b6	0.015438488
221	0xbc3dbc38	-0.011580519
222	0xbfbdbe5a	-1.4823716
223	0x3c9f0375	0.019410828
224	0xbf70e6fe	-0.94102466
225	0x3fa52fa9	1.290517
226	0x3f6af1f7	0.9177546
227	0x3bdad9e5	0.006678807
228	0x3ba0171a	0.0048855664
229	0x3c69ff87	0.014282114
230	0xbc7c1b01	-0.015387298
231	0x3f006ae0	0.5016308
232	0xbfa5e6c5	-1.296105
233	0xbabcd05a	-0.0014405355
234	0x3bcd5774	0.0062665287
235	0x3ce7930f	0.028268365
236	0xbba36133	-0.0049859523
237	0xbcc680b5	-0.024231294
238	0xbfbbc3ec	-1.4669166
239	0xbe448981	-0.19193079
240	0xbc973648	-0.0184585
241	0xbfdb69f3	-1.7141708
242	0xbf5ab785	-0.8543628
243	0xbca25b7f	-0.01981902
244	0xbfa93d82	-1.3221896
245	0x3d1acd06	0.03779318
246	0xbf3c511e	-0.73561275
247	0xbb4fcf4e	-0.0031709257
248	0xbf3066b1	-0.68906695
249	0xbde16f47	-0.110075526
250	0x3c131e07	0.008979327
251	0xbfb08c36	-1.3792789
252	0xbc031f8c	-0.008003127
253	0x3c0e1298	0.008671425
254	0x3f4deffe	0.80444324
255	0xbcf8e722	-0.03038365
