preTrained/BipedalWalker-v2/TWO/TD3_BipedalWalker-v2_0_solved_crtic_1.pth (torch_old, 529790 bytes, 5 tensors)

l1.weight f4 [400, 28]
00000000: d011 a73f 2aca efbe 2ac0 2fc0 476f c5bf
00000010: ce46 a0bb 255d a33e 0ae7 863f 90e9 293e
00000020: 743a 40be 005c 833f a859 94be f8dd 77bf
00000030: 4dcf 5a3d 3b03 dabe fe2d 09bf 0153 19bf
00000040: aa74 36bf d095 03bf a74e 24bf b234 f5be
00000050: 34f7 2ebf 413f 0cbf 03c4 97be 3787 843e
00000060: 04cd 29be c758 8c3e 699c 54bd f368 603e
00000070: 0c21 31bc e2b3 b7bf 8d09 4c3e 5548 f6be
00000080: 8118 553e 3784 48bd 4d24 ea3c ab66 7bbd
00000090: 32c7 babf 2a12 d2be a544 b1bc accf bb3e
000000a0: 9244 7fbd cff9 253e 4920 aebe 6693 86be
000000b0: 4604 e6be 5078 aabe 606b fbbe 6265 b6be
000000c0: 5d0b a1be 3719 e6be 4f86 05bf 17fb a8be
000000d0: 4cb2 423d a16d 06bd 37d1 65bd fe6e cb3c
000000e0: b98f 23bd 3c0a d7be 6d49 343e 4c23 c53d
000000f0: da99 dcbe aec7 223c c615 20be 1c41 b83d
00000100: 96dc 38bf ffba bcbe 99d8 c43e d623 3c3d
00000110: 0250 8d3d 863b 29bf e56e 81be 1858 05bf
00000120: 1978 02bf a88a 96be f3c7 17bf 7003 c4be
00000130: afe3 93be 8c44 83be b357 08bf 2f2f 1fbf
00000140: 4f1d 79be e8b9 8c3e 7588 353d d01b c4be
00000150: eb7e 27be 261a 123f e95e de3d 0dfd dc3e
00000160: 2e14 57be 5b6c 5c3f d459 44bf f87e ffbe
00000170: e4ec f7bf 96a7 a4bf c81b 8bbb 3015 dabe
00000180: fe09 c1be 7187 2bbf 6066 3c3d 438d 003e
00000190: 9cfa eb3d d766 cd3d c5a2 8bbd 95a2 003e
000001a0: 4b8c 323e 4234 cabc 071b f9be 6a7d 8cbf
000001b0: 7020 8abe 8adf 45bd ee71 73be a5fb 19be
000001c0: 81e0 62bd f486 a03f c602 debe 8505 dcbf
000001d0: 0365 6c3e fb42 96bd e96a c33e 36ed 633d
000001e0: 6d68 f2be 8daf 303e d372 16bf ac3e 0d3f
000001f0: ea79 b7bc fd5d 323e 7c5b 66bf f559 38bf
00000200: bf7a 70bf 9f1e 60bf 86ac 78bf a3b1 4dbf
00000210: 5e49 49bf 8e89 79bf a496 41bf fa87 51bf
00000220: fb64 c5bd 7172 b53e 7051 723e 98ea 253e
00000230: c514 d2bd 70b1 9d3f a605 84bd fe90 61c0
00000240: 9c4c 0dc0 8c56 2abe 9e99 e5bf 842b 46be
00000250: 9d79 093f bb24 e53e f16c 11bf ec7d 5bbf
00000260: 451a a4be 16cc 16bf 7f51 e4bd 12a7 8d3d
00000270: 9106 d7bc 51cb 713e ca90 763c f672 9a3c
00000280: 9bcc 853e 2e74 c0bc 4350 89bd 9bbc 5cbf
00000290: 159d 37bf c31a f0be 7936 863e 1df8 2cbe
000002a0: 6089 7fbe 0076 eec0 91f3 a9be c483 56bf
000002b0: 82e4 febe 6f3a 673e 3551 49bf a4fc 963e
000002c0: eb11 7d3e 5e1e 933f 010e 9fbf d1c3 e5bd
000002d0: 6aae 243f a404 5c3e a4df 2fbf 5215 10bf
000002e0: 4b2c 35bf da73 38bf 551a 1cbf ee62 27bf
000002f0: 33c3 15bf 524f 2bbf 9388 84bd c433 0fbe
00000300: 7b95 fb3e 5ca6 2e3e 7f0d 86bf a5be 893f
00000310: 0ad5 f73e dfa6 a83f a0f4 f0bf e603 0840
00000320: aead 643f c305 c03e be47 5e3f a481 3f3e
00000330: 018c 86bf f2b4 0a3e f738 5ebe 269c 383f
00000340: a6fc dbbd 8bac 18bf a7af 2cbe 3cb6 1abe
00000350: 40a2 dfbe 4b65 b9be e4d8 d7be 17b3 10bf
00000360: 0e76 97be 549c b8be 85b6 ccbd ada5 8abe
00000370: a4fa 50bc d05f 753e 7dde 253e 76e7 633e
00000380: ddd9 593f 39e2 8440 8956 5ac0 1eb6 973f
00000390: 33b7 c93d b450 483d b377 23bd d37e 2f3e
000003a0: 4879 dfbe 971e 943e e0c8 953d fc5c 653d
000003b0: ecfc 8abe 9cdb cabe d5ba 71be f26e 21be
000003c0: d305 b1be be1b 07bd 4cc3 75bd c800 1dbe
000003d0: 1c7d b6bd 721b 7dbe 6df3 d5be 1108 42bf
000003e0: fdfa 17be 46fc 98be 5202 8d3e 2a4f 683d
000003f0: 9adc 953f b0b2 c9be 563a c13f c698 30c0
1.3052311 -0.46833926 -2.7461038 -1.5424584 -0.004891253 0.31907 1.0539258 0.16593003
-0.18772298 1.0262451 -0.28974652 -0.9682307 0.053420354 -0.4258059 -0.53585804 -0.5989228
-0.71271765 -0.5140047 -0.64182514 -0.47891766 -0.6834595 -0.5478402 -0.29641733 0.2588441
-0.16582114 0.27411482 -0.051906977 0.21915035 -0.010811102 -1.4351771 0.19925518 -0.4810206
0.20810129 -0.048954215 0.028581763 -0.06137721 -1.459204 -0.41029483 -0.021639178 0.3668188
-0.062321253 0.16208576 -0.34009007 -0.2628433 -0.44925135 -0.33294916 -0.49105358 -0.35624224
-0.31453982 -0.44941112 -0.52158064 -0.33004066 0.04753332 -0.032819394 -0.056107726 0.024833199
-0.039931986 -0.41999996 0.17606135 0.09625873 -0.4308613 0.009935303 -0.15633306 0.08996794
-0.7221159 -0.36861417 0.384465 0.045932613 0.06900026 -0.6610645 -0.25279918 -0.52087545
-0.50964504 -0.2940266 -0.59289473 -0.38283873 -0.28884646 -0.25638235 -0.5325882 -0.6218137
-0.24327587 0.27485585 0.04431959 -0.3830247 -0.16357009 0.5707115 0.108579464 0.43161812
-0.21003792 0.8610284 -0.76699567 -0.49901557 -1.9369168 -1.2863643 -0.004245255 -0.4259429
-0.37702936 -0.6700354 0.04599607 0.12553887 0.11522409 0.10029381 -0.06818155 0.1256202
0.1743633 -0.024683122 -0.48653433 -1.0975773 -0.26977873 -0.048308887 -0.2377393 -0.15037401
-0.055389885 1.2541184 -0.4336149 -1.7189184 0.23085408 -0.07336994 0.38167503 0.055646144
-0.47345296 0.17254467 -0.5876896 0.55173755 -0.022397 0.17418666 -0.89983344 -0.72012264
-0.93937296 -0.87546724 -0.9713825 -0.8034918 -0.78627574 -0.97475517 -0.75620484 -0.8184811
-0.09638401 0.35438874 0.23663878 0.16202772 -0.10257868 1.2319775 -0.0644639 -3.5244746
-2.2078009 -0.16634578 -1.7937505 -0.19352537 0.5370119 0.44754586 -0.56806856 -0.85739017
-0.32051292 -0.5890516 -0.11148357 0.06916632 -0.026248248 0.23612715 0.015049169 0.018853646
0.26132664 -0.023492899 -0.06704762 -0.8622529 -0.71724063 -0.46895418 0.26213434 -0.16891523
-0.24954748 -7.4519043 -0.3319364 -0.8379481 -0.49783713 0.22580884 -0.7863954 0.29489625
0.24713866 1.1493642 -1.2426149 -0.1121899 0.64328635 0.21486145 -0.68700624 -0.5628253
-0.7077071 -0.72051775 -0.6097768 -0.6538533 -0.58500975 -0.6691791 -0.06471362 -0.13984591
0.49137482 0.17055649 -1.0472869 1.0761305 0.48404723 1.3175925 -1.8824654 2.125238
0.89327514 0.37504396 0.8682822 0.18701798 -1.0511476 0.13545588 -0.21701418 0.72113264
-0.10741548 -0.5963828 -0.16863881 -0.1510858 -0.43678474 -0.36210093 -0.42157662 -0.5652327
-0.29582256 -0.3605677 -0.0999575 -0.27079526 -0.01275507 0.23962331 0.16198154 0.22256264
0.8509806 4.152615 -3.4115317 1.1852453 0.098493956 0.04890509 -0.039909076 0.17138223
-0.43647218 0.28929588 0.073137045 0.05599688 -0.2714609 -0.39620674 -0.23606427 -0.15764979
-0.34574756 -0.03298544 -0.060000703 -0.1533233 -0.089105815 -0.24717501 -0.41787282 -0.7579356
-0.14841838 -0.2987997 0.27540833 0.05671612 1.1707947 -0.3939414 1.5095928 -2.7593246

l1.bias f4 [400]
00000000: fd09 183f 30f2 a0be 7314 22bf 1f67 9fbf
00000010: ed89 5f3c 474a 8abf 93de 7bbe b4d2 4fbf
00000020: 2ba4 56bf 8c02 493f 4bff e6be faa6 53bf
00000030: 9e7f b4be 2dd0 2fbe 835a 97be 56f7 eabd
00000040: af9d 56bf 4de3 a03e 187a 93be fe1d 65bf
00000050: 9f8b 3fbf ac91 41bf d9c8 6bbe e326 4dbf
00000060: 5d1a 07bf 2f0c fabe de77 3dbf c9bb 09bf
00000070: fa03 42bf c25e 14be af1b 9ebe 8e0f 13be
00000080: 9aff 4cbf dbed 8fbe 9258 603e 98fd fbbe
00000090: 32be 5bbf d9cc 4bbf 14d2 20be 4695 2fbf
000000a0: 5d6d 6abe 73db 52be 84d4 66bf 3834 913d
000000b0: 9af3 24bf e6e7 f6be d036 f5be 0025 87be
000000c0: b33d e6be 4089 a4be 7a02 0dbf c0a9 09bf
000000d0: 32b8 7a3f 0ae5 01bf bc00 29bf af7d b2be
000000e0: c66b 67bf baf9 3dbf d4d2 bdbd 58c1 fcbe
000000f0: 65dd fd3d dd19 95bf ccc5 eebd 092d d7bd
00000100: a649 c2be 6665 69bf cf92 c63c 85b0 21bf
00000110: 14d3 a4be 2421 043f 14a4 62bf 6c35 c8bf
00000120: 3cd5 2abe e5bc 1ebe 64ba 11be 7efd 50bf
00000130: db53 3dbf 98c8 ecbe a5be 08bf 6420 3dbf
00000140: c5ff 95bf 5559 93be e936 fabe 2b18 52be
00000150: 489f 60bf c0c5 3d3f 3951 93bf e973 68be
00000160: e639 adbd 13f1 30bf b5b7 80bd a00f d03e
00000170: 2e74 08bf b5be bebe 9e85 5bbe 6ae2 0fbe
00000180: 3f1c 75be a6cf a5be f643 58bf 942e 64be
00000190: 18cf 7fbf 3ac8 89be 83ee 12bf ced8 1ebe
000001a0: 5054 4bbf b7e0 2e3f 1c80 24bf 749a 4ebf
000001b0: a448 c9bd 7ecb 81bd c82a f9be 8d0d 62bf
000001c0: bf7e 92bf d84d 6cbf bc42 74bf 02e8 eabe
000001d0: 349c b5be fc4d 23bf 945f 6dbf 087c 02b9
000001e0: 894d 9bbe 7593 6bbf 86fe 5ebe 403f a9be
000001f0: d665 a3be 306c 783e 263e 17be cf72 b8be
00000200: 656c 1bbf dad0 44bf 1527 843e c542 4abe
00000210: ecc4 d2be 2425 cfbe 5821 84bf 189a 23be
00000220: b20a 35bf 6777 82be 0550 8fbe 655c eebc
00000230: 1ef3 c0be fb27 8dbe cebb 29bf eb8d 51bf
00000240: ae3f f83d 3bc3 f5be 1186 0dbf 98a7 05bf
00000250: aa70 ddbe 833f 243f 9909 64bf bffd 23be
00000260: d0df 8b3d bb77 a83e 06a0 3abe 9e71 0abf
00000270: 0446 96be 944b 17be 8cfe b13d aa0b 30bf
00000280: b1b3 813f 48cd 04be 8672 583e 42d0 c4be
00000290: 9857 4d3b f2b3 0ebe 3bbb d73c 26c7 273f
000002a0: 4322 c8be a056 78bd 4f81 2cbf 7453 3abe
000002b0: 6162 7dbf 9dd5 203f 3f20 50bf 2b0e b5be
000002c0: a5a7 41bf da68 a0be 6359 0b3f 2afc 4a3e
000002d0: 7ef7 07bf a4d3 a6be 37ed 31be d829 5dbf
000002e0: d9f3 10bf 57da 3ebf 6f99 7dbf 6ece 99be
000002f0: c108 a1be 88fa 55be dfd5 2abf 32ca 09be
00000300: 6720 dfbe b6fa 94be f943 aabb a7df b6bd
00000310: f058 9fbe 608e 36be 9963 73be 2def 0bbf
00000320: 0586 7cbd d221 e5be bd6e 48bf e55c 1abe
00000330: 2e87 fbbe e7bd 01be a7f2 0e3e c863 68bf
00000340: 8df8 13bf 96e6 81be 638b 91bf 9a69 adbe
00000350: f6d5 64bf 42c2 94bf 78c2 7fbf 7e59 b33d
00000360: 168b 8ebe 105e 3dbe a52e 54bd 37b0 b9be
00000370: 09c1 1bbf 5bee 4ebf 021a 30bf c120 95be
00000380: f12c 9bbf 217e babd 61c5 33bf 6043 b0be
00000390: d035 cf3e 48c1 fdbd 2b4b 7fbf f71e 63be
000003a0: d780 55bf 3634 5bbf abfe 6e3e f6c8 3fbf
000003b0: b34e 16bf 352e 2cbf 14de 07bf b1b1 29be
000003c0: 52eb 11bf d5f3 30bf 551a 5abf 5a4e aebe
000003d0: 98aa b4be 9914 14bf 56d7 1fbe 16da bb3e
000003e0: 1ecc 82bf 12e8 cbbe 7de5 17bb a825 a7bf
000003f0: f360 11bf fe88 4dbf e5b1 703f ada9 85bf
0.5939024 -0.31434774 -0.63312453 -1.2453345 0.013643724 -1.0803918 -0.24596624 -0.8118088
-0.8384425 0.7851951 -0.45116648 -0.8267666 -0.35253614 -0.17169257 -0.29561242 -0.11472957
-0.83834356 0.31423417 -0.28804088 -0.8949889 -0.7482242 -0.756129 -0.23025836 -0.8013746
-0.527746 -0.4883742 -0.7401103 -0.5380216 -0.7578732 -0.14489272 -0.30880496 -0.14361402
-0.8007752 -0.28111157 0.21908787 -0.49216914 -0.8583709 -0.7960945 -0.15705138 -0.6858715
-0.22893281 -0.20591526 -0.90168023 0.07090038 -0.64434206 -0.482238 -0.4789338 -0.26395416
-0.44968948 -0.32135963 -0.55081904 -0.5377464 0.9793731 -0.5074011 -0.66016746 -0.34861514
-0.90398824 -0.7420918 -0.09268728 -0.4936626 0.12395743 -1.1648518 -0.116588205 -0.10506637
-0.37946814 -0.91170347 0.024239926 -0.6315997 -0.3219229 0.5161307 -0.88531613 -1.5641303
-0.16682905 -0.15501745 -0.14231259 -0.816368 -0.7395608 -0.4624679 -0.534159 -0.7387755
-1.171868 -0.28779092 -0.48870018 -0.20517032 -0.87743044 0.7412987 -1.1509162 -0.22700466
-0.08458309 -0.6911785 -0.06285039 0.4063692 -0.53302276 -0.37254873 -0.2143769 -0.14051214
-0.23936556 -0.32384986 -0.844787 -0.22283393 -0.99925375 -0.26910573 -0.5739519 -0.15512392
-0.79425526 0.6831164 -0.6425798 -0.80704427 -0.09828308 -0.06337641 -0.48665452 -0.88301927
-1.144493 -0.9230628 -0.9541433 -0.45880133 -0.35470736 -0.6379087 -0.92723966 -0.00012443971
-0.30332592 -0.92021877 -0.2177678 -0.33056068 -0.31913632 0.2426002 -0.14769801 -0.36025092
-0.6071227 -0.7688118 0.25811067 -0.19752033 -0.41165864 -0.40458024 -1.0322676 -0.15976751
-0.70719445 -0.25481722 -0.27990738 -0.029096792 -0.37685484 -0.27569565 -0.6630219 -0.81857175
0.12121521 -0.48000512 -0.55282694 -0.5220885 -0.43250018 0.6415941 -0.89077145 -0.16014765
0.06829798 0.32903847 -0.18225107 -0.54079616 -0.29350293 -0.14774925 0.08691129 -0.687678
1.0132962 -0.12968934 0.21137437 -0.38440138 0.0031332728 -0.13935831 0.026334396 0.6553825
-0.3908864 -0.060629487 -0.6738481 -0.18195897 -0.9897824 0.6282595 -0.81299204 -0.35362372
-0.7564643 -0.31329995 0.5443327 0.19822755 -0.5311202 -0.32583344 -0.17375647 -0.86391973
-0.5662208 -0.7455191 -0.99062246 -0.30040306 -0.3145199 -0.20896351 -0.6673259 -0.13456038
-0.4357941 -0.29097527 -0.0051960913 -0.08929377 -0.3112254 -0.17827749 -0.23768462 -0.5466183
-0.06165125 -0.44752365 -0.78293973 -0.15074499 -0.4912657 -0.12670098 0.13959752 -0.90777254
-0.57801133 -0.25371236 -1.1370662 -0.3386963 -0.8938898 -1.1621783 -0.9990611 0.08757304
-0.2784049 -0.18492913 -0.051802296 -0.36267254 -0.60841423 -0.8083245 -0.68789685 -0.29126552
-1.212309 -0.091060884 -0.7022305 -0.34426403 0.40470743 -0.12390381 -0.9972407 -0.22179781
-0.8339972 -0.8562654 0.23339336 -0.7491602 -0.58713835 -0.67258006 -0.5307324 -0.1657169
-0.56999695 -0.6912206 -0.8519643 -0.34044152 -0.35286403 -0.5784393 -0.15609488 0.36689824
-1.0218542 -0.39825493 -0.0023177557 -1.3058367 -0.5678856 -0.8028716 0.94021446 -1.0442406

l2.weight f4 [300, 400]
00000000: 29fe 8d3c a946 5dbc c565 30bd 34be d63c
00000010: 9bcb 933c e224 53bc 2931 9c3c 8200 45bc
00000020: eb99 aebc 544c 4dbd c989 303d 1b97 0c3d
00000030: f241 31bd 91a4 73bc f2a0 f13c 108b 27bc
00000040: b5f1 063d d8d5 13bc 6374 96bc aab7 313d
00000050: abcb abbc e58e 343d 3909 a13b c0a2 7fbc
00000060: f0ab f63b 1a2b 2d3c 2e25 f33c 6eef 023d
00000070: da61 d6bc 433c 7dbc 1dea 3abd 97c5 4b3d
00000080: 6c40 2f3c 25f1 d2bc 025d 1a3c 2a59 d03c
00000090: 1cfd 623c 1ae1 03bd c01f ce3a a8c2 50bd
000000a0: 952c 023c 4089 d7bb e17f 2abd 534c 3ebd
000000b0: ee37 af3c 107e fabc 58e4 6ebd 6059 fb3a
000000c0: 31c6 833b 6a10 f7bc 9e86 57bd 05a6 65bc
000000d0: 8505 2b3d dbc5 9f3c 6ca2 53bd 4018 e5bb
000000e0: e563 0b3d 1a4e eebc 8bbe bb3c 6690 a43c
000000f0: 80a0 51ba ea45 b6bc 2308 0c3b 37f7 153d
00000100: 33d2 89bc b9ab 4a3d e05c 0f3b 2a7b df3c
00000110: 614f 3b3d e98e 15bc f2aa 2abd ad0e b5bc
00000120: 71d1 273d 5a9d fb3c eb93 443d b5ed 0abd
00000130: 8ef8 cd3c bac0 f0bc 8806 dbbc 179c 2bbd
00000140: 97bf 86bb e1f8 013d a9e1 27bd 9cec 6d3c
00000150: 3b1e 2cbd ac16 cdbc f88a 08bc 031b e9bc
00000160: a09e 74bc 572f 2c3d 9a2b e4bc 3950 09bc
00000170: 6832 a2bc 4755 43bd f51d 303d fbba 57bd
00000180: 703f 923b 273a 72bc 9a02 eebc 00d4 f33a
00000190: 1dca 40bd 445f 08bd 0052 773b 6840 6fbc
000001a0: 6982 39bd 5f1a 053c bc7d e4bc d366 213d
000001b0: 82ae 4b39 b80a 28bd 42ae b33c cf88 393d
000001c0: 7cf9 2b3d 93e9 b1bc 43d7 0e3d 0231 cf3c
000001d0: 9180 9abc 18b3 f53b cc16 0bbd 0d9d a2bc
000001e0: 20b5 99bc f425 233d ff07 243d 802b 3abd
000001f0: e83f 803b fe51 3abd dfce 37bd 6ee1 63bd
00000200: 7d04 333d b55d d6bc a441 bfbc 3471 1dbc
00000210: 8c8a 11bc 80d5 9fb9 8f81 343d 15d5 cd3c
00000220: 3616 033d c6b1 fc3c c279 f73c b149 323d
00000230: 66c9 97bc 0818 42bc f210 da3b 8179 383d
00000240: a075 c53a 891f 1ebd 3023 9cbc 5c70 10bd
00000250: 9b2e 703c 2568 09bd b9d2 063c d8bd 29bc
00000260: 7aef f93c 43e7 acbc 4abf 23bd ec55 12bd
00000270: 60b9 35bd 815a 133d 992f 153d fc4a 173d
00000280: cf91 9dbc ecb4 f3bb 9b3c 8e3c 2d50 333d
00000290: 1688 f13c 2417 00bd 46aa b53c 9231 103c
000002a0: ba7b d4bc 1494 18bd 6d59 cdbc 4914 0d3d
000002b0: 163e 29bd 987c c7bc f6c3 673c 1c33 c739
000002c0: 5029 6abb 0e83 053c feba 163c 5847 613c
000002d0: 4aff 97bc 066b dc3c 65e5 30bd 6e91 f6bb
000002e0: 943c 8bbc ce2b a53c 1a2e f1bc 2daa 3fbc
000002f0: 9b6c fe3c 5793 1f3d 1bfe 3ebd a51c 51bc
00000300: 20e8 14bb d02a da3b 4042 f6ba 0c91 78bc
00000310: b7d8 d1bc 1ade debc 7020 3cbd f4e9 943c
00000320: 5ca5 e2bc 2890 ffbc c584 7ebd 4e91 5ebc
00000330: 284b 4fbd 15e8 a5bc 7a03 ec3c 9dca 313d
00000340: 186b 91bc ee2f 823c 851c a2bc deea 59bd
00000350: 6a54 58bd d74b 40bd 5890 a2bb 4804 00bd
00000360: cc43 d439 d227 ea3c e839 243d 0dde 0c3d
00000370: 384b 37bd 7092 97bb 5168 213d 052c 0dbd
00000380: f82d 11bc 80e6 acbb 82a4 44bd be7b dfbc
00000390: b390 c4bc 2431 17bd 7568 97bc e01c 43bb
000003a0: 562d 32bc 25ae 3abd a288 f93c 19b9 95bc
000003b0: 6d94 36bd 795e 3d3d 9ac6 243b 5876 36bd
000003c0: 430c ff3c 22e0 243a 265a a7bd 25c5 9fbb
000003d0: 739e 02bc 72a3 e4bc 14c8 043c 7763 16bd
000003e0: e2db 833c 89f9 3a3d b139 dd3c d9cf 19bd
000003f0: 5a20 d3bb 8041 083b 86c3 34bd 9278 f53c
0.017333107 -0.013505616 -0.043065805 0.026213743 0.018041423 -0.0128872115 0.01906641 -0.012024047
-0.021313628 -0.05012162 0.043100152 0.034323793 -0.04327578 -0.014870779 0.02949569 -0.010226026
0.032945354 -0.009023152 -0.018366044 0.043388046 -0.02097114 0.044081587 0.0049144295 -0.0156027675
0.0075278208 0.010569358 0.029680815 0.03196662 -0.026169706 -0.015456262 -0.045633424 0.049748983
0.010696512 -0.025749752 0.009421589 0.025433142 0.013854291 -0.032197095 0.0015726015 -0.05096689
0.0079451995 -0.006577641 -0.04162586 -0.046459507 0.021388974 -0.03057769 -0.058323234 0.0019176416
0.004021429 -0.030159194 -0.052618615 -0.014016633 0.04175331 0.019503525 -0.05166857 -0.006991416
0.034030814 -0.029089976 0.022918006 0.020088386 -0.00079966336 -0.022250134 0.0021367155 0.036612716
-0.016823864 0.049480174 0.0021875426 0.027280409 0.04573 -0.009128311 -0.041666932 -0.022101725
0.040971223 0.03071468 0.047992628 -0.0339181 0.025142934 -0.029388774 -0.026736513 -0.041896906
-0.0041121948 0.03173149 -0.04098669 0.014521744 -0.042021018 -0.025035225 -0.008333914 -0.028455263
-0.014930397 0.042037334 -0.027852822 -0.008380943 -0.019799426 -0.04768875 0.04299732 -0.052668553
0.0044631287 -0.014784372 -0.029053975 0.001860261 -0.04706775 -0.033293977 0.0037738085 -0.014602758
-0.045290384 0.008123963 -0.027891986 0.0394047 0.00019424598 -0.041025847 0.021933679 0.045296486
0.041985974 -0.021717822 0.03487326 0.025291923 -0.018860133 0.0074981563 -0.033957288 -0.019850278
-0.018763125 0.039831117 0.04004669 -0.04545164 0.003913868 -0.04548835 -0.044875022 -0.05563491
0.043705452 -0.02616773 -0.02334673 -0.009609509 -0.00888313 -0.00030485913 0.04406887 0.02512602
0.032003604 0.030846488 0.030209426 0.04352731 -0.018528651 -0.01184655 0.006654852 0.04503775
0.0015064962 -0.038604293 -0.019059747 -0.035263404 0.014659549 -0.033546586 0.008228951 -0.010360204
0.0305097 -0.021106368 -0.03997735 -0.035726473 -0.04436624 0.035974983 0.036422346 0.036936745
-0.019234566 -0.007437339 0.017362883 0.043777633 0.029483836 -0.03127207 0.02217592 0.008800881
-0.025937904 -0.037250593 -0.025067056 0.034443174 -0.041318975 -0.024351403 0.014145842 0.00037994317
-0.003573019 0.008148922 0.009199856 0.01374992 -0.018554348 0.026906502 -0.043187518 -0.007524661
-0.01699666 0.02016249 -0.029440928 -0.011698288 0.031057646 0.038958874 -0.046629053 -0.012763177
-0.0022721365 0.0066579357 -0.0018788055 -0.015171301 -0.025616033 -0.027205516 -0.045929372 0.018177964
-0.02766674 -0.031196669 -0.062138338 -0.013584448 -0.050608784 -0.020252267 0.028810252 0.043406118
-0.017751262 0.015891995 -0.01978899 -0.053202502 -0.05281488 -0.046947327 -0.004961055 -0.031254083
0.00040486304 0.02858344 0.040094286 0.03439145 -0.04474947 -0.004625611 0.039406125 -0.03446581
-0.008861057 -0.005276501 -0.04800845 -0.027280685 -0.02399478 -0.0369121 -0.018482426 -0.002977185
-0.010875067 -0.045576233 0.03046066 -0.018276738 -0.044575144 0.046232674 0.002514279 -0.044546455
0.031133777 0.0006289502 -0.08171491 -0.0048757964 -0.007972348 -0.027909968 0.008104343 -0.03671595
0.01609606 0.04564813 0.027005048 -0.037551735 -0.0064430656 0.0020790994 -0.04413178 0.029964719

l2.bias f4 [300]
00000000: 8b16 99bd bbcf 203e 714f 28be 1100 93bd
00000010: ae64 c0bd 17a6 463f daec 8ebd 912c 4a3f
00000020: a64e 67bd c70d e93d 6ff3 cebc 69cc ba3f
00000030: 066b a9bd 1aed 3bbc c90d 99be 050e 273e
00000040: 14c9 1d3e 6338 a33b 1f33 b03e f588 d0bd
00000050: 58b4 363e c282 613e e37b 56bd b313 b4bd
00000060: 8bad 65bd 339a a5bc 100a 73bd ed5d 693e
00000070: 478b ef3e ae2a 7e3e 2867 413f f31f 22bd
00000080: fb4f cb3e 2c03 53bd 2f5d 54bd 3f14 9ebd
00000090: acc5 9fbd 551d 123f e752 5d3f 3dc3 fd3d
000000a0: 5f0b 083c 8d4a c2bd 46ee d8bd 18cf e1be
000000b0: 0711 55bf c103 c9bd 1308 debd 69dc 593e
000000c0: e340 80bd 2053 bc3e 82f3 63bd 150b 863e
000000d0: 72db 97bd 3fed c53b b732 383f cf2d 32be
000000e0: df84 39be 74db 31bf d578 1f3e ce82 38bd
000000f0: f986 d4be 00b5 8b3e 4f49 883e c624 503e
00000100: 7d1a d73d f1d0 013f b60e 233c 0a3b 3b3f
00000110: 7260 0d40 f9af b8bd b685 87bd e9a1 66bd
00000120: c3df 393c 62be 81bd 8855 70bc bed8 403f
00000130: 7107 8dbc 5470 62bc 124b 10bf baf0 8b3e
00000140: 240a 22be 09e2 393e 293b 94be 8f35 f63e
00000150: ed49 61bd 6d90 e7bb 1fe7 d6be c6c4 363e
00000160: 1f16 153f 99ff a5bd d2cf 343e ff1f d1be
00000170: 9848 233e 73c1 dc3c cf77 b3bd fed5 0abe
00000180: 98d2 df3d 3b94 a03c 161b 423e beb3 7e3f
00000190: acc8 433e 7cc3 613f 4e0e 443e d1d6 223e
000001a0: 9302 463f 009e 82bd 62c7 c5bd e846 743d
000001b0: aa1f cb3e 1bf5 e4bb 0b13 183f 464a c9bd
000001c0: 3837 acbd ff82 9fbd 1590 933e 483d c9bd
000001d0: 92b1 ccbc ea3d 763f 6e68 903e 04e1 1b3f
000001e0: 326f b43d fcf9 68bc 4ebe 01bd 52bf 593e
000001f0: 9e19 57bc 3300 3ebd 5db4 04be 9477 82bd
00000200: ba35 d7bc 3efe 653f 0ee6 e4be b3c6 a83d
00000210: 1cf2 9bbd 9eee efbe 4c87 22bd 31b8 46c0
00000220: 37a6 4f3e b229 4fbe b27f 0ebc 9a85 7a3e
00000230: 9864 87be 3f3d 95bd 0738 d2bb 9642 42bd
00000240: 268f 16be 1798 2dbc 843e 113f a15e 2ebe
00000250: d203 093f 1419 bf3f bc35 14bf 6b51 22bd
00000260: ef6c 52bd 27c5 7a3e b33d ea3c e83b 203f
00000270: 50c9 b7bd 4b92 4a3f 0184 2a3f cdf9 803e
00000280: 7882 c5bd 668f 03be 1493 6ebd be13 13bd
00000290: 861c a0bd 2b3f 8c3e 8de6 54bd 42da ff3e
000002a0: b0d0 60be 1d3c 95bd a336 0c3f 7700 bebd
000002b0: 8127 493a 96ec 64bd 438f 133f 80b4 8dbb
000002c0: ea72 fbbc 5a2f 273e a049 91bd f4c6 6d3e
000002d0: f961 6b3e 516f afbb 454b 403f b00e e93d
000002e0: a5ad 393f 56ea 02bf 6b38 7d3e 2c04 503f
000002f0: 5af9 5b3f d003 293f b07a 0f3e b8fc 813e
00000300: fd6f 5fbd e7f0 1fbd df59 103f 647e 04be
00000310: d568 2bbd 863a d23e dbf5 c13e c278 ba3d
00000320: cc19 5e3e 0b80 603f 3116 68bd b8ea e2bb
00000330: 3e91 533d 7fde d33f fdb8 81bd 7f6f e73e
00000340: a8de 01be 5140 babd 4c03 10bf c789 46be
00000350: 2597 e13e ab15 aabd 791a e5bc ed4c c9be
00000360: 575c 573f a528 9bbd 37b1 de3e e460 243f
00000370: 4448 403b 7e02 d3bd d12f c43e 4310 7ebd
00000380: 066e a7bd 900c 6f3d 0d65 9bbd ee14 debd
00000390: f0d5 f73d 7c29 b1be 699a bd3f b9bc 39bd
000003a0: 2c4d 263e dd9e 243e ac3c e1ba 20f4 213f
000003b0: f738 553e 7800 4e3b 729f 7b3e 306b 0d3e
000003c0: fd40 77bd e1aa c23d 9291 c8bc 6090 2cbd
000003d0: 3235 493e 0fed 8cbd 951b 7abe 8917 103e
000003e0: 60a3 b53f 1fcb 3a3c e786 0c3e 2bae c8bc
000003f0: 43a9 a73e eb16 efbd df1c 333f edc6 0bc0
-0.07475003 0.15704243 -0.16436554 -0.07177747 -0.09394203 0.77597183 -0.069787696 0.7897425
-0.05647149 0.11379581 -0.025262563 1.4593631 -0.08272366 -0.011470104 -0.2989333 0.16313942
0.15408736 0.004981087 0.34414002 -0.101823725 0.17842233 0.22022536 -0.05236424 -0.0879282
-0.056073707 -0.02021513 -0.05933577 0.22789736 0.46785948 0.24820969 0.7554803 -0.03958125
0.39709458 -0.051516697 -0.05184668 -0.077187054 -0.07801375 0.5707601 0.86454624 0.12390754
0.008303492 -0.09486876 -0.10592322 -0.44103312 -0.83229107 -0.09815169 -0.10841384 0.21275486
-0.06262376 0.3678217 -0.05565215 0.2618033 -0.07414903 0.006040245 0.71952385 -0.17400287
-0.18117093 -0.69475484 0.15573438 -0.04504662 -0.41509226 0.2728653 0.2661843 0.20326528
0.10503099 0.50709444 0.009952238 0.7313696 2.2090116 -0.09017939 -0.066173 -0.056306753
0.011344853 -0.06335141 -0.01466883 0.7533072 -0.017215462 -0.013820726 -0.5636455 0.27332097
-0.15824181 0.18152632 -0.28951386 0.48087737 -0.05500214 -0.0070667774 -0.41973206 0.178485
0.5823688 -0.08105392 0.17657402 -0.40844724 0.15945661 0.026947713 -0.08763086 -0.13558194
0.109288394 0.019601932 0.18955645 0.99493015 0.19119519 0.8818891 0.19146082 0.15902258
0.7734768 -0.06377792 -0.0965717 0.059637934 0.39672595 -0.0069872267 0.5940406 -0.0982862
-0.0840897 -0.077886574 0.28820863 -0.098261416 -0.024987016 0.96188223 0.28204674 0.6089022
0.08810271 -0.014219757 -0.03167563 0.21264389 -0.013128666 -0.04638691 -0.12959428 -0.06370464
-0.026270736 0.8984107 -0.44706768 0.08241024 -0.07614538 -0.46861738 -0.03967981 -3.1049922
0.2027825 -0.20230749 -0.008697437 0.24465027 -0.26443934 -0.072870724 -0.0064153704 -0.047426783
-0.14703044 -0.010595343 0.56736016 -0.17028286 0.53521454 1.4929528 -0.5789449 -0.039628427
-0.05137342 0.2448927 0.028593874 0.6259141 -0.08973944 0.79129475 0.6660767 0.25190583
-0.096440256 -0.12847671 -0.058245733 -0.0359075 -0.078179404 0.27391943 -0.051977683 0.49971205
-0.21954608 -0.07286856 0.5477087 -0.092774324 0.0007673428 -0.05588969 0.57640475 -0.004324496
-0.030694444 0.16326657 -0.07094121 0.23220426 0.22986592 -0.005353846 0.7511485 0.113797545
0.72530586 -0.5113882 0.24728553 0.81256366 0.85927355 0.6602144 0.14011645 0.25388122
-0.05455016 -0.0390481 0.5638713 -0.12938839 -0.041848022 0.41060275 0.37882885 0.09105064
0.21689528 0.8769538 -0.05666179 -0.0069249533 0.051652186 1.6552275 -0.06334112 0.45202252
-0.12682593 -0.09094299 -0.5625503 -0.19388495 0.44060627 -0.08304914 -0.027966725 -0.39316502
0.84125274 -0.07576112 0.4349458 0.64210343 0.0029339949 -0.1030321 0.3831773 -0.062027227
-0.08175282 0.05836159 -0.07587633 -0.10843836 0.12101352 -0.34601963 1.4812747 -0.045345996
0.16240376 0.16076227 -0.0017184219 0.6326313 0.20822512 0.0031433385 0.24572542 0.1381042
-0.060364712 0.09505249 -0.024483476 -0.042129874 0.19649199 -0.06881153 -0.24424584 0.14071478
1.4190483 0.011400967 0.13723336 -0.024497112 0.32746324 -0.11674293 0.6996593 -2.1840165

l3.weight f4 [1, 300]
00000000: 1431 093c d5c2 b13b bb3a 6ebf d192 c13c
00000010: 64be c9bc 6006 5b3e 08ad e7bb 4ea9 acbf
00000020: 64fc f8bc 8bc7 983c 70f9 3b3d 7154 3fc0
00000030: 3cea ab3c 0782 9abc a115 8abd 2f22 0b3d
00000040: da0d 283d 8267 40bc be25 7e3e e765 dc3c
00000050: 0539 613d 1f0d f23c 056e 9e3c d281 bc3c
00000060: 1d98 f7bc 7a61 3e3d 3382 b0bc d7bc d3bf
00000070: 45e2 e33d 64cb 8c3d 36cc aabf 1bd6 b7bc
00000080: 14cd 453e 579f b43c a47f 3e3b e6f7 89bb
00000090: 4ad0 3f3c 5404 48bf 3bb4 df3e d30d 59bf
000000a0: effb c83c 00f1 5dbf 741a 8c3c 6b62 3d3f
000000b0: 3d63 9fbf 598a b9bc 269c 873c 93d1 543d
000000c0: 99c7 16bc 9922 0dc0 eed2 a4bc 94c4 9dbf
000000d0: 8712 d2bb 452c 333c 960f 883e a0d1 00bf
000000e0: 6ae9 393c 0978 a7be e3b9 e13c 0469 aabb
000000f0: 86cd 24bf 08d8 323f 5e31 a13c ef25 3a3b
00000100: 7d0c 9b3c 2368 5f3e 070d 28bc f11d 903e
00000110: 7c32 27bf dc07 c03d a586 b0bc ad84 273b
00000120: fe2e 283f 843a 8fbc 7b04 ebbc 9285 6f3e
00000130: d092 d93b 76dc f0bc f0a5 e43f 3a59 3dbd
00000140: ffe6 ef3f 5359 4a3d c220 0f40 f5a4 28c0
00000150: fd44 fbbc c772 3740 9089 37bf 328a 58bf
00000160: 6628 933d dbcf a53c 0011 d0bd 4455 923e
00000170: 0999 9e3b 0a30 0ac0 5fe1 483c bee4 93be
00000180: dc58 b73c 76f3 88be 29ff 5ebc 2526 a63e
00000190: a4cf a73d 8d74 113f 66f2 21bc ab2e 8d3c
000001a0: f3f7 46be 849e b7bc 514c a63c b998 d53f
000001b0: cbd5 ca3d e053 89bc 13dd 943e 70b3 f03f
000001c0: 622d 5fbc 32c4 adbc 7619 ebbe 4b61 8fbb
000001d0: 1eaa d33c e926 e23e a40e ee3c 9876 b73d
000001e0: 4054 f03a 17eb fd3c dc48 b73c e0a9 3c3d
000001f0: 9207 5cbc c0fe 1739 16b9 8a3c 2eb3 2cbb
00000200: 59c3 0ebb 80ce 083f a8a6 9cbf 6b86 923c
00000210: 99e9 b33c fd4d 793f f9ab 95bc 0250 c23f
00000220: bf6c e1ba d0ae 90bf e8ed 11bb 2f29 4d3d
00000230: 5ece 1b3f 694a d8bc 09df e43c 496c dc3c
00000240: 6bfa 59bf 855e 193c 0686 d4be 8322 3f3f
00000250: bd2f 7cbd 1397 19bf 8419 10c0 46bf 5e3b
00000260: ad9b a3bc 4bce c3bf 2839 89be 9bda ad3e
00000270: 7307 cebf c7c7 4d3e 6527 2c3e 7f8c 5f3d
00000280: 8143 11bb f819 3fbb 90cc 9fbc e537 493c
00000290: d428 3fbc d03d aebb 5f4c 3e3c a43f 1b3f
000002a0: bc18 953c f787 d7bc 88d9 b5bf b2fa e1bc
000002b0: c067 233c 6113 13bc eacb d4bf 695a 783c
000002c0: ae3d 563b fea5 933c ff80 413b 76f1 58bc
000002d0: 9545 893d 6c82 87bc bf0c 833e 35d1 903c
000002e0: bba4 9a3e 25ec 02bf 024f 043c a900 8d3e
000002f0: 4481 8a3e 10c4 a53d e1ce 87bf f021 dc3c
00000300: 52fa d6bc a973 1040 4ff8 fc3c 4fba 9c3a
00000310: c4dc 5e3c 58a6 10c0 86a7 b8bf f405 3a3f
00000320: 5982 893d 88e5 fc3e 3020 d9bc cd7a 71bc
00000330: a20c afbb 19ff 63bf c635 99bc 8ac2 a43e
00000340: 3735 2e3d 8310 fb3b 7e84 02c0 57df 693f
00000350: 8375 293e 8337 75bc e622 f1bb e6f0 0c40
00000360: 860c 813e 0110 96bf 63c0 8a3d 7692 3f3e
00000370: b05e 4dbb f0ec 52bb a889 c63f 1a1a e739
00000380: 725f d33b ae82 7a3f cd4c 623b be8e af3a
00000390: 9b89 9f3c ef5a c8be 0586 5cbf ed44 ff3c
000003a0: 1c75 1a3e 38b3 9c3c 2909 733c 0d89 e83c
000003b0: 694a f13d 026e 0ebc 8f1f 023e d2d2 933e
000003c0: 50c1 05bc abf1 8cbd 57e8 b5bc 4b48 953b
000003d0: 1527 153b 56e7 f8bc ee84 f23c 1a0a e23c
000003e0: e443 2dbf ebf7 20bc 3357 82c0 0c99 ddbc
000003f0: 24cc 813e 5165 6439 e527 6a3d 1e48 ec3f
0.008373518 0.005424837 -0.93058366 0.023629578 -0.024626918 0.2138915 -0.0070701875 -1.3489168
-0.030393787 0.018649837 0.04589218 -2.989529 0.020985715 -0.01886083 -0.06742407 0.033968147
0.041028835 -0.011743428 0.24819085 0.02690406 0.05498602 0.029547272 0.01933957 0.023011122
-0.0302239 0.04647968 -0.021546459 -1.6542004 0.11127142 0.06874731 -1.334357 -0.02244096
0.19316512 0.022048635 0.002906778 -0.00421046 0.011707375 -0.78131604 0.43692192 -0.8478672
0.024534194 -0.8669586 0.017102458 0.739783 -1.245216 -0.022648977 0.01655395 0.051957678
-0.009202861 -2.2052367 -0.02012011 -1.2325616 -0.0064109 0.010935848 0.2657439 -0.5031986
0.011347154 -0.32708767 0.027554458 -0.005200507 -0.64376104 0.6986089 0.01967686 0.0028403958
0.018926853 0.21817069 -0.010257012 0.28147843 -0.6531141 0.09376499 -0.021548579 0.0025561259
0.65696704 -0.017483957 -0.02868866 0.23390797 0.006639816 -0.029401999 1.786314 -0.04622767
1.874237 0.049401592 2.2363744 -2.6350682 -0.030672545 2.8663805 -0.7169428 -0.8458587
0.0718544 0.020240715 -0.101594925 0.28580678 0.0048400206 -2.159182 0.012260764 -0.28885454
0.022381239 -0.26748246 -0.01361064 0.32450977 0.08193901 0.5681847 -0.009884452 0.017234167
-0.19430523 -0.022414453 0.020300062 1.6687232 0.09904059 -0.016763628 0.29074916 1.880476
-0.01362166 -0.021211717 -0.45917863 -0.004375612 0.025837954 0.4417031 0.029059716 0.08958167
0.0018335655 0.030995889 0.02237361 0.046060443 -0.013429539 0.00014495384 0.016933959 -0.0026351917
-0.0021783917 0.53440094 -1.223836 0.017886361 0.021961974 0.97384626 -0.01827048 1.5180666
-0.0017198547 -1.1303349 -0.0022267047 0.050088104 0.60861766 -0.026402669 0.027938383 0.026907103
-0.8514773 0.009360914 -0.41508502 0.74662036 -0.061568964 -0.59996146 -2.2515574 0.003398852
-0.019971693 -1.5297331 -0.2680142 0.33955845 -1.6096023 0.2009574 0.16811903 0.054577347
-0.002216548 -0.0029159766 -0.019506723 0.012281393 -0.011667449 -0.005317427 0.011614888 0.6064398
0.01820027 -0.02630995 -1.420701 -0.027585361 0.009973466 -0.008976788 -1.662473 0.015158274
0.0032690573 0.018023487 0.002952635 -0.0132411625 0.06702725 -0.016541682 0.25595662 0.017677883
0.30203804 -0.5114158 0.008075478 0.27539566 0.27051747 0.080940366 -1.061001 0.026871651
-0.026242409 2.2570593 0.030880122 0.001195738 0.013602439 -2.2601528 -1.4426124 0.72665334
0.06714315 0.49393868 -0.026504606 -0.014738751 -0.005342082 -0.89061123 -0.018702399 0.32179672
0.04253122 0.0076618805 -2.0393367 0.91356415 0.16548733 -0.014966848 -0.0073588965 2.2022033
0.25204867 -1.1723634 0.06774976 0.18708214 -0.0031336956 -0.0032184683 1.5510759 0.000440792
0.006450587 0.9785565 0.003453064 0.0013393981 0.019474795 -0.39131877 -0.86142 0.031160796
0.15083736 0.019128427 0.014833727 0.028385663 0.11781771 -0.00869322 0.12707351 0.2887178
-0.008163765 -0.06882032 -0.022205515 0.004555737 0.002275889 -0.030383747 0.029604401 0.027592707
-0.6768172 -0.009824733 -4.0731444 -0.027050517 0.2535106 0.00021781518 0.057166953 1.8459508
