preTrained/BipedalWalker-v2/TWO/TD3_BipedalWalker-v2_0_solved_critic_2_target.pth (torch_old, 529794 bytes, 5 tensors)

l1.weight f4 [400, 28]
-0.068011194 -0.08004688 -0.13863905 0.19872655 0.14312133 -0.08255623 0.106308706 0.078231916
-0.23191147 0.08037023 0.010634317 -0.10432835 -0.10401691 0.05458859 -0.06326369 -0.12380865
-0.05886449 0.0067599644 -0.2844128 -0.10708059 -0.32162997 -0.08484059 -0.27928677 -0.28090206
0.004375311 0.09334021 -0.048332337 0.16368495 0.13435727 0.47662708 -1.2189494 -1.1739943
-0.9205144 1.1916149 -0.7483296 -1.2015483 1.0387456 -0.74610835 0.6306331 0.27153942
-0.41363457 -2.0474694 -0.52035683 -0.75590426 -0.4403744 -0.43832707 -0.53837883 -0.7492837
-0.5480168 -0.78780806 -0.26630968 -0.8159131 0.3058058 0.009607208 -0.8951978 0.65456206
-0.13494653 -0.76915693 0.19609499 2.311685 0.14065368 0.24500065 0.014800127 0.16897783
-0.035576187 0.048139364 0.4377995 -0.4086409 -0.06355575 -1.2623919 -0.46094403 -0.32056305
-0.25964704 -0.5654758 -0.32338235 -0.25859204 -0.46944964 -0.26604858 -0.32035443 -0.4262362
-0.3629956 -0.05628733 -0.13567668 0.12782079 -0.1266924 1.5641311 -1.929525 -1.1929383
0.50305015 -0.20150973 0.5748135 -0.3274772 0.4136477 -0.06220978 -0.93970954 1.2213287
-0.5286769 -0.21711458 -0.7879044 -0.5748181 -0.84626406 -0.87443364 -0.6861785 -0.8343789
-0.7330681 -0.86811215 -0.62581474 -0.76964307 -0.025536438 -0.27614123 0.28413016 0.050006554
0.030808365 0.8028455 -0.07812165 -0.7216281 -0.0008235985 -0.0003601166 -0.144376 -0.17816591
0.05792869 0.07748984 -0.137438 0.16214119 0.23236743 -0.6794876 -0.4240964 -0.6775088
-0.5948013 -0.48512566 -0.4542862 -0.6908364 -0.7326193 -0.47499287 -0.7096596 -0.57876766
0.13713104 -0.09387965 0.106854096 0.077464506 0.28502885 2.3926408 0.44410977 1.2494707
0.26031855 -0.7257819 -1.5044336 -1.3213763 0.11869668 0.18451837 -0.48987797 0.38267678
0.043988496 -0.61287135 -0.56484824 -0.4631934 -0.34088045 -0.45081162 -0.14724287 -0.116632186
-0.118025996 -0.22095549 -0.72278666 -0.7158454 1.3065983 0.2723823 -0.43272296 -0.027215457
0.034445185 0.07806055 -0.20393303 0.0033514374 -0.04465994 -0.14027818 -0.005517859 -0.099117406
-0.18226671 -0.046711087 -0.2561661 0.18463002 0.054639254 -0.24718517 -0.09566928 -0.15077755
-0.28699964 -0.43534976 -0.2625796 -0.32207105 -0.2791616 -0.38144925 -0.37564376 -0.13043447
0.09889835 0.2210485 0.035700608 -0.0043382444 0.89049476 -6.470832 -0.42884344 -1.976777
-0.37780938 0.14496292 -0.72148883 0.28213432 -0.057064842 1.9928904 -1.1085259 0.124852635
0.04485718 0.39761278 -0.65687186 -0.45199895 -0.570126 -0.5135702 -0.3712872 -0.5183075
-0.53915966 -0.45824927 -0.28042084 -0.15139353 0.32654503 0.10017685 -0.41422772 0.6826209
0.085198216 0.5350655 1.0003278 0.45727834 0.6107515 -0.78670454 -0.13060135 -0.28366175
-0.83083594 -0.21858086 0.71749157 -0.33452246 -0.45801145 0.13369781 -0.73573065 -0.5843109
-0.5463665 -0.5646771 -0.67107147 -0.65191454 -0.69089603 -0.81687653 -0.58110416 -0.9148428
-0.1892792 -0.5660003 -0.12073007 -0.3315541 -0.8254439 -0.036324322 -1.7930142 -1.0454016
00000000: 7449 8bbd 9eef a3bd 65f7 0dbe f97e 4b3e
00000010: 668e 123e 3e13 a9bd 61b8 d93d 0e38 a03d
00000020: 337a 6dbe 2699 a43d 8f3b 2e3c 1aaa d5bd
00000030: d106 d5bd 4998 5f3d 6590 81bd 648f fdbd
00000040: e41b 71bd b182 dd3b 8e9e 91be 124d dbbd
00000050: afac a4be e7c0 adbd adfe 8ebe 65d2 8fbe
00000060: c55e 8f3b 2729 bf3d 21f8 45bd 079d 273e
00000070: f494 093e 7708 f43e 8906 9cbf 7245 96bf
00000080: d5a6 6bbf d686 983f 8792 3fbf 56cc 99bf
00000090: 9ef5 843f f500 3fbf 2c71 213f 3707 8b3e
000000a0: e9c7 d3be bd09 03c0 1b36 05bf f182 41bf
000000b0: c178 e1be 686c e0be 32d3 09bf 0ed1 3fbf
000000c0: d44a 0cbf caad 49bf be59 88be aedf 50bf
000000d0: 9492 9c3e 8d67 1d3c af2b 65bf 6191 273f
000000e0: 6c2f 0abe 78e7 44bf 20cd 483e a6f2 1340
000000f0: 8507 103e 73e1 7a3e 3b7c 723c 8608 2d3e
00000100: 56b8 11bd c82d 453d 4227 e03e 6139 d1be
00000110: 8429 82bd 0f96 a1bf db00 ecbe d720 a4be
00000120: 75f0 84be 06c3 10bf 5f92 a5be 2d66 84be
00000130: b45b f0be 8537 88be 7f05 a4be a23b dabe
00000140: 8fda b9be 8b8d 66bd d4ee 0abe 74e3 023e
00000150: a7bb 01be 7335 c83f adfa f6bf 34b2 98bf
00000160: e5c7 003f 9158 4ebe fa26 133f 17ab a7be
00000170: a2c9 d33e afcf 7ebd ce90 70bf 8054 9c3f
00000180: 5f57 07bf 4953 5ebe 1ab4 49bf 4727 13bf
00000190: c3a4 58bf e2da 5fbf 65a9 2fbf db99 55bf
000001a0: 5aaa 3bbf 993c 5ebf 6535 20bf 5407 45bf
000001b0: cb31 d1bc 6262 8dbe 8279 913e acd3 4c3d
000001c0: d361 fc3c 4887 4d3f 3efe 9fbd 9fbc 38bf
000001d0: c2e6 57ba 08ce bcb9 4dd7 13be 2071 36be
000001e0: a246 6d3d feb2 9e3d 8cbc 0cbe 5708 263e
000001f0: baf1 6d3e e6f2 2dbf 2a23 d9be 3771 2dbf
00000200: e644 18bf 6462 f8be 3398 e8be a8da 30bf
00000210: f08c 3bbf 4432 f3be 40ac 35bf 1e2a 14bf
00000220: 146c 0c3e f943 c0bd 52d6 da3d b6a5 9e3d
00000230: 4def 913e 0721 1940 5b62 e33e a8ee 9f3f
00000240: 7948 853e d8cc 39bf 4891 c0bf dc22 a9bf
00000250: 3f17 f33d 62f2 3c3e 49d1 fabe 36ee c33e
00000260: 482d 343d 23e5 1cbf e599 10bf af27 edbe
00000270: e287 aebe c8d0 e6be d6c6 16be dbdc eebd
00000280: 9db7 f1bd 2842 62be 8c08 39bf a541 37bf
00000290: 9d3e a73f b175 8b3e dd8d ddbe f3f2 debc
000002a0: 6516 0d3d 36de 9f3d d2d3 50be caa3 5b3b
000002b0: 57ed 36bd 15a5 0fbe 28cf b4bb 11fe cabd
000002c0: 20a4 3abe 2054 3fbd 3428 83be a70f 3d3e
000002d0: 69cd 5f3d 1c1e 7dbe 41ee c3bd 6e65 1abe
000002e0: 9ef1 92be 2ae6 debe d570 86be 7fe6 a4be
000002f0: 45ee 8ebe 514d c3be 6154 c0be 9d90 05be
00000300: 388b ca3d 8a5a 623e cd3a 123d d527 8ebb
00000310: 77f7 633f 0e11 cfc0 5e91 dbbe 0707 fdbf
00000320: 3b70 c1be 2971 143e 7eb3 38bf e973 903e
00000330: d3bc 69bd 0817 ff3f 2de4 8dbf bdb2 ff3d
00000340: 2abc 373d e793 cb3e c128 28bf 686c e7be
00000350: c7f3 11bf 5679 03bf 5b19 bebe cdaf 04bf
00000360: 5e06 0abf a69f eabe 5293 8fbe e806 1bbe
00000370: e930 a73e 8529 cd3d a815 d4be 3ec0 2e3f
00000380: 677c ae3d 0dfa 083f be0a 803f 6320 ea3e
00000390: 365a 1c3f 7865 49bf 5cbc 05be 1d3c 91be
000003a0: aab1 54bf a9d3 5fbe 87ad 373f 8746 abbe
000003b0: 7a80 eabe 14e8 083e d858 3cbf 6695 15bf
000003c0: adde 0bbf ae8e 10bf 57cb 2bbf dfe3 26bf
000003d0: 90de 30bf d21e 51bf 3ec3 14bf 2333 6abf
000003e0: 68d2 41be 65e5 10bf 5441 f7bd 76c1 a9be
000003f0: 4b50 53bf d0c8 14bd 7d81 e5bf b8cf 85bf

l1.bias f4 [400]
-0.23298733 -1.2488236 -0.26794997 -0.10899572 -0.16980933 -0.97980136 -0.26681152 -0.3657933
-0.75835663 -0.6701577 -0.6310056 -0.42498946 -0.366727 0.05944265 -0.34992117 -0.7168479
-0.55714303 -0.23042135 -0.8281166 0.14774446 -0.30125707 -0.3510449 -0.7384486 -0.30205348
-1.2932625 -0.2758893 -0.16914771 0.13218199 -0.17900634 -0.21190515 -0.05038097 -0.33707923
-0.24009812 0.0501952 -0.1272486 -0.5660884 -0.17577052 -1.2149184 -0.37250853 -0.2816531
-0.7525046 -0.62331617 -0.67954725 -0.1277165 -0.16855763 -1.0074745 -0.7924907 -0.80347735
-0.14667377 0.29536682 0.094841205 -0.16571747 -0.3200743 -0.23706132 -0.06964139 0.02369298
-0.8726589 -0.5517187 -0.35472843 -0.6105608 -0.41911277 -0.36882484 0.09354453 -1.0980378
-0.2334731 -0.026421834 -0.045939896 -0.5864924 -0.42438847 -0.18499959 -0.1293139 -1.1756538
-1.2756817 -0.17224121 -0.86561155 -0.118753 0.779953 -0.21799377 -0.013324802 -0.70147353
0.8558265 -1.0883795 -0.55053884 -0.24869 -0.13634725 -0.20095865 -1.1670737 -0.9764565
-0.20844808 0.48260376 -0.28675357 -0.5488222 -0.9622231 -0.9825828 -0.0035997282 -0.6393129
-0.18870443 -0.86223567 -0.66991514 -0.15407667 -0.29780596 -0.2785894 -0.6048844 -0.539135
-0.34222338 -0.2629253 -0.77644414 0.69271934 0.8860776 -0.5330747 -0.6040269 -0.27546015
-0.5495025 -0.062455118 -0.15439257 -0.6829365 -0.40762538 -0.71469474 -1.1833819 0.031487998
-0.10965785 -0.29331774 -0.37758687 -0.4459773 -0.96211004 -0.29352635 -0.53595954 -0.8783235
0.2832053 -0.2782437 -0.6595275 0.44497594 -0.079151325 -0.5712075 -0.30982226 0.04245245
0.8707684 -0.39661267 -0.619715 -0.96890426 -0.28415054 -0.27644363 -0.12388465 -0.22392146
-0.16715692 -0.4048858 -0.16680823 -0.14727715 -0.37412977 -0.62464756 -1.3353127 -0.2142357
-0.25133815 0.64186615 -0.31257603 0.03423496 0.6439103 -1.2118046 -0.034395523 -0.9884188
-0.8852861 -0.16526447 0.7738286 0.0030651484 0.9205166 -0.49148548 0.038743604 -0.18120575
-0.26719895 -0.3112647 -1.0203253 -0.8804338 -0.27226534 -0.59214294 -0.4854833 -1.5062754
-0.2785119 -0.654778 -0.22563212 0.10667493 -0.24800175 -0.33758888 -0.77460486 -0.68978584
-1.4418664 -0.0981086 -0.10781645 -0.4390572 -1.1732477 1.0230346 -0.22776 -1.3091972
-0.58549744 -0.96732664 -0.41522723 0.8041606 -0.20398965 -0.41739088 -0.5559152 -0.17404723
0.3211529 0.16255587 -1.0191754 -0.7940479 -1.1118304 -0.23722821 0.8525217 0.5529079
-0.38693282 -0.042614754 -0.11429872 -0.21771362 -0.2419489 1.5015346 -0.26971427 -0.66088283
-0.8880803 -0.020829795 -0.52908796 -0.4702797 -0.17619896 0.48883435 -0.08655572 -0.46331093
-0.29720137 0.74234253 0.11170012 -0.55795366 -0.94501835 -0.31677815 -0.63722795 0.9236231
-0.54827386 -0.29049248 -0.48582304 -1.6544324 -0.9285201 -0.25458065 -0.31772587 0.011163915
-0.5285527 -0.21769276 -0.44714087 -0.7230439 -0.14742357 0.34268615 -0.21311215 0.013067306
-1.0705246 -1.0252893 -0.6621797 -0.020107461 -0.8224618 -0.42332155 -0.30042812 -0.30654317
00000000: 3b94 6ebe 74d9 9fbf bd30 89be 2639 dfbd
00000010: 7fe2 2dbe 43d4 7abf 859b 88be 4249 bbbe
00000020: a923 42bf 748f 2bbf 9589 21bf 3898 d9be
00000030: a4c3 bbbe 237a 733d de28 b3be 5883 37bf
00000040: eda0 0ebf 93f3 6bbe 73ff 53bf 534a 173e
00000050: 5e3e 9abe 28bc b3be f80a 3dbf c1a6 9abe
00000060: a089 a5bf 5d41 8dbe 0f35 2dbe b75a 073e
00000070: 704d 37be aafd 58be 475c 4ebd a695 acbe
00000080: 48dc 75be 7b99 4d3d 754d 02be 2beb 10bf
00000090: 30fd 33be 7282 9bbf 70b9 bebe d634 90be
000000a0: 24a4 40bf a691 1fbf cff6 2dbf 1dc8 02be
000000b0: 5f9a 2cbe edf4 80bf ace0 4abf b1b0 4dbf
000000c0: a631 16be 523a 973e 1b3c c23d d7b1 29be
000000d0: c7e0 a3be 34c0 72be 25a0 8ebd c817 c23c
000000e0: 9366 5fbf 703d 0dbf f79e b5be b64d 1cbf
000000f0: f395 d6be 9cd6 bcbe 4694 bf3d 818c 8cbf
00000100: 9313 6fbe 9a72 d8bc 792b 3cbd 5e24 16bf
00000110: 7249 d9be 8870 3dbe dd6a 04be d37b 96bf
00000120: 8a49 a3bf 0060 30be b898 5dbf c634 f3bd
00000130: 00ab 473f c239 5fbe 4550 5abc c593 33bf
00000140: 7217 5b3f 0550 8bbf 1df0 0cbf 97a8 7ebe
00000150: 9d9e 0bbe 1bc8 4dbe ac62 95bf 0ef9 79bf
00000160: 6a73 55be d717 f73e 5dd1 92be 9d7f 0cbf
00000170: 4154 76bf 8c8a 7bbf 6be9 6bbb 03aa 23bf
00000180: bc3b 41be 7abb 5cbf 8f7f 2bbf 46c6 1dbe
00000190: 067a 98be 45a3 8ebe b4d9 1abf c004 0abf
000001a0: e737 afbe 259e 86be 0bc5 46bf 0e56 313f
000001b0: fbd5 623f 9577 08bf 82a1 1abf 1d09 8dbe
000001c0: 32ac 0cbf f0d0 7fbd 1619 1ebe edd4 2ebf
000001d0: 46b4 d0be 3cf6 36bf 0f79 97bf 8ff9 003d
000001e0: 4b94 e0bd be2d 96be 1153 c1be 2357 e4be
000001f0: d84c 76bf 1649 96be a534 09bf cfd9 60bf
00000200: 4900 913e f575 8ebe cbd6 28bf e3d3 e33e
00000210: 171a a2bd a83a 12bf 06a1 9ebe 9fe2 2d3d
00000220: aeea 5e3f d110 cbbe a4a5 1ebf 1c0a 78bf
00000230: 2e7c 91be 058a 8dbe 3cb7 fdbd ab4b 65be
00000240: 2f2b 2bbe 314d cfbe c7cf 2abe d2cf 16be
00000250: f08d bfbe e7e8 1fbf 87eb aabf 9a60 5bbe
00000260: 65af 80be 5751 243f f709 a0be f539 0c3d
00000270: 4ed7 243f 6a1c 9bbf 52e2 0cbd 0409 7dbf
00000280: 1ca2 62bf 173b 29be a219 463f a8e0 483b
00000290: faa6 6b3f fca3 fbbe 9db1 1e3d 008e 39be
000002a0: 4dce 88be 165e 9fbe 059a 82bf 1c64 61bf
000002b0: 5d66 8bbe ae96 17bf 4491 f8be a2cd c0bf
000002c0: 1d99 8ebe 889f 27bf 1b0c 67be 6378 da3d
000002d0: 2cf4 7dbe 73d8 acbe 814c 46bf ce95 30bf
000002e0: 148f b8bf 29ed c8bd dfce dcbd 1bcc e0be
000002f0: fb2c 96bf ccf2 823f eb39 69be c693 a7bf
00000300: 29e3 15bf b8a2 77bf aa98 d4be 78dd 4d3f
00000310: aae2 50be 42b4 d5be 7550 0ebf 7039 32be
00000320: 276e a43e 0c75 263e 5774 82bf b946 4bbf
00000330: 7550 8ebf f4eb 72be dd3e 5a3f 5f8b 0d3f
00000340: 0f1c c6be cf8c 2ebd 7315 eabd 52f0 5ebe
00000350: 74c1 77be 4932 c03f fd17 8abe 9e2f 29bf
00000360: 3b59 63bf 3fa3 aabc 4f72 07bf 80c8 f0be
00000370: 806d 34be 7f48 fa3e 2044 b1bd 1737 edbe
00000380: c72a 98be 290a 3e3f 08c3 e43d 0dd6 0ebf
00000390: b9ec 71bf bf30 a2be 5f21 23bf 9072 6c3f
000003a0: ad5b 0cbf 6ebb 94be ccbd f8be 71c4 d3bf
000003b0: 7eb3 6dbf 6558 82be f7ac a2be dae8 363c
000003c0: 3b4f 07bf daea 5ebe a6ef e4be 6819 39bf
000003d0: 34f6 16be 8f74 af3e 123a 5abe 4118 563c
000003e0: f306 89bf ae3c 83bf 9c84 29bf 67b8 a4bc
000003f0: db8c 52bf 9abd d8be b7d1 99be 3af3 9cbe

l2.weight f4 [300, 400]
0.025986347 -0.56996995 0.10997441 -0.7379121 0.15418692 -0.21380992 -0.03623407 -1.0425409
0.7901497 -1.8643038 0.5262288 -1.0941159 -0.8566445 -0.036461312 -0.07690819 -0.48224673
0.27918544 -0.32693478 0.34852955 -0.7679888 -0.024212735 -0.08102737 -0.10123038 -1.2030008
-0.3488042 -0.17860399 0.3279838 0.38206705 -0.07296286 -0.23152702 -0.31195882 -2.7662482
-1.7684507 0.8089216 0.13081296 -0.47004387 -2.5411973 -1.0793577 0.1290874 -0.020861087
-1.8112515 -0.21620563 0.45105562 0.016732717 -0.034994293 0.17471181 -0.4858588 -0.29469457
-0.019510295 0.33624038 -1.8862386 0.09253704 0.24429435 0.042694476 -0.118675195 -1.4073981
0.47873008 0.5049507 -1.2205492 -1.4903202 0.34596062 -2.388599 -0.030172285 0.10121548
-0.2721759 0.58745795 0.7832885 -0.12836021 -1.9077677 -0.079874024 -0.022230132 0.4091118
-1.0533223 -2.0162363 0.09527057 -0.661726 0.11476661 0.10393496 0.5954093 1.1506758
0.88810086 -0.6680494 -1.371993 0.20031671 -0.21524599 0.92481625 -1.7233446 0.38217047
-0.6807512 -1.7550895 -0.46290383 -0.07905447 0.038681585 0.9760091 0.09293342 0.044376075
0.1650618 0.46104535 0.19900072 0.046786334 0.64647853 -0.18836129 0.4110433 0.30963892
-0.05367217 0.054566983 0.8818072 -1.477994 -0.13345863 0.07067405 -0.92238873 0.010739929
-1.7263803 -0.45998183 -0.21029283 -0.21442771 -0.72154176 -0.45581755 -0.5850857 0.2664337
0.2594742 0.07267229 0.1538591 -0.3881607 -0.7550892 -0.29461712 0.3145072 -1.0202394
-0.3188809 -0.31851262 0.5313643 -2.0951052 -0.00057349156 -0.1426445 -0.38885808 1.3360633
0.7647139 0.29442638 -0.052855007 -0.8185454 0.016330013 0.028345948 0.35407874 0.018657947
-0.28086627 -0.07295094 0.06905428 -0.06911684 -0.22590034 -0.9934614 -0.33992517 -0.53401643
0.09013646 -0.3922256 -0.4588459 0.088746294 -0.74589723 0.35598925 0.15829515 0.624389
-1.0318235 0.1457916 0.16960464 -0.25870526 -0.14610595 -0.24080448 0.03309995 -0.0084043555
0.34426785 -1.4228476 0.39284566 0.4533146 -0.014028433 -0.10681684 -0.47453392 -1.8228414
-0.03199394 0.48057187 -0.345144 -1.0685335 0.0559446 -0.053058244 0.36111212 0.14186919
-0.85216355 -0.030086404 -0.051489893 0.23227207 -0.10828759 0.6089382 0.028709909 0.68705744
0.8518763 0.40287116 0.42046052 0.25024286 -0.02121499 0.51865035 -0.2073156 -0.038538538
-0.06684778 -0.80593306 0.06944028 0.5226677 0.7888861 -0.0037562838 0.2325701 0.33682817
-0.9573528 0.009954638 0.35885307 -0.049670458 0.10137493 0.58142406 0.18648969 -0.1856865
-0.46949133 -0.055272557 0.15953512 0.039085466 -1.8482345 -2.6637886 -0.08714431 -0.2502178
-0.434408 0.07225224 0.694222 0.19381215 0.82853514 -0.012632005 0.8582063 0.2322918
-0.3660712 -0.07917963 0.005159206 -0.58537656 -1.016749 0.030501403 -0.043866456 -1.2976567
-0.19297469 -0.22702985 -0.8040233 0.007956663 -0.93858814 0.29268298 0.052593328 0.04054051
0.28676715 -0.95933175 -0.5643006 -0.2722117 -1.0954596 0.061280712 0.2720053 0.024862213
00000000: 52e1 d43c 8de9 11bf 433a e13d cfe7 3cbf
00000010: 2de3 1d3e fdf0 5abe 2d6a 14bd fb71 85bf
00000020: 4047 4a3f 82a1 eebf eeb6 063f fd0b 8cbf
00000030: 0e4d 5bbf 7558 15bd 0b82 9dbd 0be9 f6be
00000040: 65f1 8e3e ff63 a7be 7772 b23e ea9a 44bf
00000050: c959 c6bc aef1 a5bd e051 cfbd eefb 99bf
00000060: 7796 b2be f7e3 36be 7eed a73e 4b9e c33e
00000070: 8d6d 95bd 6b15 6dbe 11b9 9fbe 360a 31c0
00000080: 985c e2bf 7c15 4f3f d5f3 053e 97a9 f0be
00000090: faa2 22c0 6528 8abf 7d2f 043e dfe4 aabc
000000a0: 17d7 e7bf 0265 5dbe c3f0 e63e 0d13 893c
000000b0: 2d56 0fbd a7e7 323e 7cc2 f8be 35e2 96be
000000c0: 0ed4 9fbc b327 ac3e 4470 f1bf 0f84 bd3d
000000d0: 4c28 7a3e 67e0 2e3d fb0b f3bd 9f25 b4bf
000000e0: 1c1c f53e 7344 013f f53a 9cbf d0c2 bebf
000000f0: c021 b13e cede 18c0 de2b f7bc 104a cf3d
00000100: a45a 8bbe a563 163f 9885 483f dc70 03be
00000110: bb31 f4bf fe94 a3bd f71b b6bc 1a77 d13e
00000120: 44d3 86bf 040a 01c0 371d c33d e066 29bf
00000130: c20a eb3d dadb d43d be6c 183f 5849 933f
00000140: 945a 633f 4905 2bbf 779d afbf d31f 4d3e
00000150: 7269 5cbe c2c0 6c3f 8e96 dcbf d9ab c33e
00000160: b645 2ebf c6a6 e0bf bb01 edbe 4fe7 a1bd
00000170: 9570 1e3d bbdb 793f e053 be3d b0c3 353d
00000180: f605 293e 230e ec3e d8c6 4b3e 07a3 3f3d
00000190: 9e7f 253f c8e1 40be 4474 d23e fe88 9e3e
000001a0: 59d7 5bbd a181 5f3d 1ebe 613f e82e bdbf
000001b0: 61a9 08be 8ebd 903d ab21 6cbf 87f6 2f3c
000001c0: 08fa dcbf bd82 ebbe 0157 57be f092 5bbe
000001d0: f6b6 38bf eb60 e9be 2dc8 15bf ff69 883e
000001e0: cdd9 843e 36d5 943d 3d8d 1d3e 00bd c6be
000001f0: 874d 41bf 0ed8 96be 1607 a13e 3497 82bf
00000200: 5b44 a3be 1614 a3be 7e07 083f 3416 06c0
00000210: 5e56 16ba 6611 12be 6818 c7be 1f04 ab3f
00000220: 4ac4 433f 0ebf 963e 7e7e 58bd 318c 51bf
00000230: 85c6 853c c335 e83c cf49 b53e 8dd8 983c
00000240: b4cd 8fbe 4d67 95bd 556c 8d3d 218d 8dbd
00000250: 6b52 67be 7c53 7ebf ac0a aebe 4db5 08bf
00000260: 7799 b83d cbd1 c8be daed eabe 9ec0 b53d
00000270: 1ff3 3ebf 3944 b63e 2018 223e f5d7 1f3f
00000280: cb12 84bf 654a 153e d7ac 2d3e 0475 84be
00000290: cc9c 15be 7395 76be d093 073d 6cb2 09bc
000002a0: e043 b03e df1f b6bf 1123 c93e da18 e83e
000002b0: 83d7 65bc cac2 dabd 1cf6 f2be de52 e9bf
000002c0: 140c 03bd 840d f63e b7b6 b0be b5c5 88bf
000002d0: 2a26 653d 9a53 59bd b0e3 b83e 2846 113e
000002e0: 6427 5abf c377 f6bc 11e7 52bd bbd8 6d3e
000002f0: e2c5 ddbd 60e3 1b3f 0b31 eb3c ffe2 2f3f
00000300: 9114 5a3f 2145 ce3e 9a46 d73e d51f 803e
00000310: 0fcb adbc 45c6 043f 8a4a 54be 96da 1dbd
00000320: 7de7 88bd a151 4ebf b536 8e3d 8dcd 053f
00000330: 70f4 493f fc2b 76bb db26 6e3e be74 ac3e
00000340: 1315 75bf c718 233c 97bb b73e 4073 4bbd
00000350: a99d cf3d 35d8 143f 27f7 3e3e 9a24 3ebe
00000360: 2b61 f0be 7a65 62bd 2d5d 233e 1518 203d
00000370: f392 ecbf 837b 2ac0 b778 b2bd 8c1c 80be
00000380: ba6a debe fbf8 933d 88b8 313f b176 463e
00000390: e11a 543f 78f6 4ebc 68b3 5b3f e7dd 6d3e
000003a0: af6d bbbe ee28 a2bd 8f0e a93b 3ddb 15bf
000003b0: d524 82bf 14de f93c 50ad 33bd 9d19 a6bf
000003c0: 289b 45be 837a 68be 79d4 4dbf aa5c 023c
000003d0: 5047 70bf 8bda 953e 1a6c 573d ce0d 263d
000003e0: 25d3 923e c496 75bf 0176 10bf 555f 8bbe
000003f0: 0538 8cbf 7c01 7b3d 4744 8b3e d7ab cb3c

l2.bias f4 [300]
0.0493792 -0.019348618 0.94920677 1.0002346 -0.039451983 -0.31408998 -0.081066124 -0.06691299
0.29002753 0.91795635 -0.06980232 -0.088796854 -0.01356791 -0.28971267 0.56256413 -0.07544391
0.007034146 2.157596 0.22217205 -0.10231818 -0.018137153 0.08987184 0.0018423324 -0.27391225
0.85556465 0.75671154 0.16668305 0.46965867 0.20696093 -0.012177148 -0.019581823 -0.112133585
-0.015502531 -0.043375462 0.09711468 -0.046061397 0.23493342 -1.9273334 1.7661761 -0.64571583
0.5127932 0.16939804 -0.02336523 -0.008272295 0.2734753 0.20376314 -0.04583937 0.78299683
1.0557033 0.23101966 -0.078106746 0.21043436 1.9322597 -0.0040848316 -0.09314799 0.14251633
1.2054963 0.25673234 -0.063160874 -0.11394855 -0.015036497 0.82974774 0.7175733 -0.065491416
1.0718751 0.2897891 -0.0840091 -0.1329145 -0.08615488 0.93979275 1.9477763 -0.08607143
-0.13158782 0.22339097 0.26574457 0.41860223 -0.3656063 0.8411675 -0.5011892 -0.12172249
-0.010046466 1.747271 -0.041955378 -0.10538931 0.26397285 -0.30958343 0.21544565 -0.016644055
0.0072583156 -0.033905763 0.002338297 0.5183863 -2.0941217 0.05395082 0.50481594 -0.023494871
0.35252956 -0.33066782 1.9571416 1.1639857 -0.10598238 0.12485311 0.22317639 -0.076697096
-0.5065864 1.1029664 0.16077027 0.20619203 0.16641483 -0.026119713 0.054175287 -0.03914204
-0.06604574 -0.007637644 0.19076633 -0.02331084 0.85883087 -0.36194155 0.017641688 0.4362611
1.0553881 0.9094311 0.82068264 -0.06257974 -0.03543686 -0.034068186 -0.046144098 0.07290971
-0.4307052 -0.05387781 -0.05933164 -0.1224601 -0.10724805 0.8109361 -0.020028485 1.6001105
-0.059302583 0.24142437 -0.16577111 -0.03177117 0.20121801 0.13013539 0.763603 -0.064446844
-0.066121735 0.74205804 -0.030112855 -0.04045036 -1.8406489 0.7864404 -0.00021736072 1.3202152
-0.055776965 -0.08034342 -0.085563295 -0.10744865 -0.07532917 0.611872 1.062318 -0.07956856
0.6139295 -0.07508628 0.2733978 -0.09788955 -0.054638512 -0.0927397 0.17598437 -0.16636416
0.016084269 -0.014330181 1.005156 0.75581133 0.471202 -0.069972195 -0.16419457 1.9738934
0.25864565 1.0264442 1.8563248 0.4055088 -0.06757758 -0.085429184 -0.03062769 0.0868624
0.8076903 -0.037284605 0.82904774 -0.023106694 1.5536253 0.005120322 -0.026251588 -0.058792964
0.12198474 -0.089439094 0.0008537133 0.2813312 -0.043791205 0.6530789 0.20027626 -0.021959677
-0.012461946 -0.02829454 0.86386 -0.07730208 -0.2594563 -0.5706777 -0.04905728 -0.021571502
-0.09413744 0.08289896 0.70053875 -0.043377697 -0.060076088 -0.020368977 0.14166994 0.26029074
0.06366079 0.5713054 0.0025492883 0.41309226 0.14240389 -0.054980498 0.00366208 0.39780474
-0.4788851 -0.17914319 -0.09065801 0.6796783 -1.9136249 -0.04461077 -0.07546775 -0.05481137
0.20603718 -0.340322 0.24741165 -0.04166108 0.07880417 -0.081972115 0.74856895 0.7550723
-0.41807827 0.23941271 -0.003923736 -0.15133783 -0.051823683 0.6791466 -0.01917949 -0.09156698
0.31561852 0.7364671 0.1567559 0.89498246 -0.039548095 -0.009617126 0.96648043 0.6498635
00000000: d841 4a3d fe80 9ebc 37ff 723f b007 803f
00000010: 6798 21bd 67d0 a0be ff05 a6bd ad09 89bd
00000020: 7d7e 943e 30ff 6a3f 85f4 8ebd 20db b5bd
00000030: f04b 5ebc 3855 94be 3404 103f 5682 9abd
00000040: b27e e63b 0e16 0a40 1281 633e 328c d1bd
00000050: 5e94 94bc ba0e b83d 6b7a f13a 3a3e 8cbe
00000060: 4906 5b3f d9b7 413f f6ae 2a3e 1a77 f03e
00000070: 91ed 533e a982 47bc 0f6a a0bc 4ba6 e5bd
00000080: 54fe 7dbc 78aa 31bd 10e4 c63d e0aa 3cbd
00000090: 6392 703e dcb2 f6bf 0f12 e23f a24d 25bf
000000a0: 6a46 033f ae76 2d3e 7068 bfbc 8588 07bc
000000b0: f404 8c3e 49a7 503e 10c2 3bbd 7b72 483f
000000c0: 4921 873f 6b90 6c3e 6ef6 9fbd 1b7c 573e
000000d0: 4954 f73f 0dda 85bb 60c4 bebd cdef 113e
000000e0: b44d 9a3f 6c72 833e 7d5a 81bd db5d e9bd
000000f0: a45b 76bc 596a 543f e2b2 373f 5d20 86bd
00000100: 3433 893f 3d5f 943e f70c acbd bd1a 08be
00000110: f871 b0bd 4296 703f bc50 f93f 3846 b0bd
00000120: f5be 06be 9ac0 643e ac0f 883e 0853 d63e
00000130: c030 bbbe c156 573f ef4d 00bf a449 f9bd
00000140: ef99 24bc 93a6 df3f 67d9 2bbd 5ad6 d7bd
00000150: 7327 873e b881 9ebe c99d 5c3e 1d59 88bc
00000160: 2ad7 ed3b c5e0 0abd 1d3e 193b f7b4 043f
00000170: 1706 06c0 89fb 5c3d 9e3b 013f 5178 c0bc
00000180: c17e b43e 4b4d a9be 9e83 fa3f 7cfd 943f
00000190: 4a0d d9bd fdb2 ff3d 5a88 643e 5e13 9dbd
000001a0: a5af 01bf 012e 8d3f f6a0 243e 0124 533e
000001b0: a668 2a3e 02f9 d5bc e8e6 5d3d 6753 20bd
000001c0: fd42 87bd 3445 fabb 4058 433e 60f6 bebc
000001d0: 57dc 5b3f 6750 b9be 4d85 903c 9d5d df3e
000001e0: f516 873f 7ad0 683f 4218 523f cf29 80bd
000001f0: 3e26 11bd 158b 0bbd 9801 3dbd b051 953d
00000200: 6485 dcbe faae 5cbd bc05 73bd 5ccc fabd
00000210: dea4 dbbd 8299 4f3f c712 a4bc 6cd0 cc3f
00000220: 44e7 72bd f337 773e e7bf 29be 7d22 02bd
00000230: 180c 4e3e 3642 053e 7c7b 433f b5fc 83bd
00000240: d56a 87bd 84f7 3d3f 3caf f6bc 47af 25bd
00000250: 629a ebbf 2854 493f 53eb 63b9 d0fc a83f
00000260: 6376 64bd 178b a4bd cf3b afbd 0a0e dcbd
00000270: 2e46 9abd a5a3 1c3f 09fa 873f d7f4 a2bd
00000280: 7c2a 1d3f d6c6 99bd ccfa 8b3e 517a c8bd
00000290: a2cc 5fbd 50ee bdbd 3f35 343e 5e5b 2abe
000002a0: 28c3 833c 23c9 6abc f4a8 803f da7c 413f
000002b0: 6341 f13e 954d 8fbd 9f22 28be 8aa8 fc3f
000002c0: 346d 843e 8662 833f 0d9c ed3f d99e cf3e
000002d0: 1d66 8abd 7ff5 aebd ece6 fabc eae4 b13d
000002e0: cbc4 4e3f beb7 18bd 793c 543f 404a bdbc
000002f0: 32dd c63f 60c8 a73b 920d d7bc e4d0 70bd
00000300: 23d3 f93d d82b b7bd bbcb 5f3a a50a 903e
00000310: 685e 33bd 2e30 273f 3815 4d3e c8e4 b3bc
00000320: 312d 4cbc f3c9 e7bc ee25 5d3f 8e50 9ebd
00000330: 75d7 84be ef17 12bf 49f0 48bd b8b6 b0bc
00000340: 21cb c0bd eec6 a93d 8256 333f d0ac 31bd
00000350: 5812 76bd d7dc a6bc ed11 113e d444 853e
00000360: 9760 823d 1241 123f f611 273b d480 d33e
00000370: 53d2 113e 3b33 61bd 82ff 6f3b 10ad cb3e
00000380: 6e30 f5be 5071 37be e8aa b9bd 66ff 2d3f
00000390: a9f1 f4bf c8b9 36bd d68e 9abd e381 60bd
000003a0: 69fb 523e af3e aebe 7b59 7d3e cfa4 2abd
000003b0: 1564 a13d ffe0 a7bd 37a2 3f3f 6b4c 413f
000003c0: 5b0e d6be 9b28 753e af92 80bb 4ef8 1abe
000003d0: 1245 54bd 8ddc 2d3f 4e1e 9dbc 7887 bbbd
000003e0: c098 a13e 1c89 3c3f 9e84 203e 921d 653f
000003f0: 2ffd 21bd 2691 1dbc 436b 773f 745d 263f

l3.weight f4 [1, 300]
2.256021 0.0035704847 0.38054752 -0.16979541 -0.003207315 -1.0464797 0.022288993 -0.020009857
-0.5965894 0.3798622 -0.013997699 -0.02563915 -0.13741054 -0.19020368 0.14185408 -0.011840195
-0.016393341 -0.58635694 0.005887781 0.04274365 -0.02783223 1.2654933 -0.00016012506 -0.9689412
0.3011499 0.9646604 -0.94456166 -0.23401405 -0.0215566 -0.111592665 0.0178965 0.0072056963
-0.0250811 -0.012725325 -0.0030861034 0.041923337 0.009478358 1.374344 -0.8998575 -4.0630093
-0.638922 -0.0065752836 0.007509308 0.00865991 -0.6952948 0.015321668 0.0037956787 -0.46585256
-2.1349182 0.052334595 -0.025079982 0.08963954 -0.72898656 0.012304739 -0.018341672 -0.0051704748
0.7174108 0.00459827 -0.01917502 -0.03037735 0.03599938 0.0944067 -0.26129398 0.010351009
0.41730562 -1.7578976 0.015235055 -0.1946061 0.027635535 0.21978526 -0.5433989 0.01206036
0.02529605 -0.7764168 0.021017177 -0.40335307 0.78453493 0.23454802 -0.14023644 -0.051768545
0.033249367 -0.38130492 -0.010749242 -0.007626096 -0.565157 0.1460185 -1.0380397 0.009705601
0.01110389 0.0029078943 0.028727418 0.039836984 1.4545089 -0.0030258002 -0.80182475 0.0075976904
0.045880854 1.9120607 -0.6785691 -0.18635795 0.00152992 -0.12729414 0.011359446 0.010954693
0.6858176 -1.434853 0.023628237 0.02985432 -0.32419294 0.015306395 -0.3459206 -0.023305997
0.008757327 0.022755772 -0.011356838 -0.013917605 0.24322148 -0.6638203 -0.028413747 0.27489284
1.6556846 0.35644174 -0.21391779 2.0330627 -0.026121946 0.020472165 -0.021025745 -0.029279787
-0.4902654 -0.0025873329 -0.07888608 -0.007319969 -2.1236382 0.33999145 0.008045796 -1.7881073
-0.039922856 0.0255788 0.026637528 0.007048209 -0.0029534828 -0.45550302 0.106418334 -0.00979892
-0.026925866 0.10742686 -0.016283445 -0.009221686 0.9510211 0.23236965 -0.0046857214 -2.7611465
0.02452715 -0.018994715 -0.0023404856 0.0072026234 0.020470677 0.1449631 0.3745596 -0.5053823
-0.10954784 -0.015188303 0.008231503 0.016918236 0.027222399 -0.03824722 -1.4066352 -0.45448065
0.07744963 0.011204846 0.37407124 0.41782242 -1.1784683 -0.023327976 -0.013962122 -0.5370896
-0.71964926 1.1615117 -0.8970049 -0.38750204 -0.003141936 0.0012207207 -0.010222114 -0.7803237
0.092724815 -0.0320908 -1.0025809 -0.036958266 -0.7951471 0.6913417 -0.01992455 -0.005684938
-0.008293902 0.01620298 -1.065963 -2.0103235 -0.020295588 0.12500498 -0.0066331187 0.022648856
-0.034019753 0.02228862 0.3409785 -0.00498449 -0.5927866 -2.0543156 -0.03353621 -0.009927257
0.036863647 -0.19239354 -0.2857223 -0.022567272 0.7444 -0.020150302 -0.015271749 -0.76990795
0.66404605 -1.9241213 0.019162726 -1.0711795 -0.4583465 0.008731622 -0.0028011182 -0.23073426
-0.02682683 1.2385716 -0.020624904 -0.26043975 0.6468502 -0.030061074 0.026514221 -0.009141964
-0.1534346 -0.161113 -0.49232587 0.020406602 1.1361217 0.03049507 -0.36200944 0.42075083
-2.8424876 -0.03125466 0.0025225128 3.091505 -0.0032539277 -0.081603475 0.004253773 -0.007126534
-1.750104 1.6430947 -0.37816006 -1.4842166 -0.030963339 -0.029684074 0.13648339 -0.0016652801
00000000: a662 1040 cbfe 693b 20d7 c23e d9de 2dbe
00000010: d131 52bb 0cf3 85bf 6897 b63c b6eb a3bc
00000020: 15ba 18bf 4c7d c23e 9b56 65bc 3209 d2bc
00000030: 59b5 0cbe c1c4 42be 3242 113e 61fd 41bc
00000040: 544b 86bc 7d1b 16bf 49ee c03b f713 2f3d
00000050: 6b00 e4bc affb a13f 3ee7 27b9 880c 78bf
00000060: 5230 9a3e fcf3 763f cbce 71bf 61a1 6fbe
00000070: 7897 b0bc b28a e4bd ae9b 923c c31d ec3b
00000080: e176 cdbc e27d 50bc 3940 4abb ceb7 2b3d
00000090: 1d4b 1b3c 81ea af3f 105d 66bf 2c04 82c0
000000a0: 6490 23bf 7a75 d7bb a410 f63b 4ce2 0d3c
000000b0: d7fe 31bf bc07 7b3c ecc0 783b 3a84 eebe
000000c0: 80a2 08c0 cd5c 563d 8974 cdbc ef94 b73d
000000d0: dd9e 3abf d199 493c 4641 96bc 166d a9bb
000000e0: 3ca8 373f 16ad 963b ee14 9dbc ecd9 f8bc
000000f0: 1674 133d 4d58 c13d 53c8 85be 4797 293c
00000100: 15a9 d53e ca02 e1bf 749c 793c d246 47be
00000110: eb63 e23c 630f 613e 311c 0bbf d198 453c
00000120: a939 cf3c 40c3 46bf 372c ac3c 4b84 cebe
00000130: 48d7 483f 5b2d 703e 249a 0fbe 410b 54bd
00000140: 7d30 083d 663a c3be 971d 30bc 54e4 f9bb
00000150: 21ae 10bf e085 153e 7cde 84bf 3e04 1f3c
00000160: 17ed 353c 5f92 3e3b c355 eb3c 1b2c 233d
00000170: 592d ba3f 814c 46bb 6344 4dbf 0cf6 f83b
00000180: 90ed 3b3d 68be f43f b4b6 2dbf 9ed4 3ebe
00000190: 9987 c83a 6559 02be f81c 3a3c 507b 333c
000001a0: be91 2f3f 43a9 b7bf 0190 c13c 0c91 f43c
000001b0: 9efc a5be acc7 7a3c 811c b1be 38ec bebc
000001c0: e47a 0f3c 506a ba3c 0812 3abc ab06 64bc
000001d0: 0d0f 793e 21f0 29bf f2c3 e8bc c1be 8c3e
000001e0: 79ed d33f 887f b63e 440d 5bbe b31d 0240
000001f0: b1fd d5bc 3eb5 a73c 2f3e acbc 2adc efbc
00000200: 1104 fbbe 3e90 29bb 068f a1bd 5adc efbb
00000210: b0e9 07c0 5c13 ae3e 84d2 033c b3e0 e4bf
00000220: 2686 23bd a28a d13c f236 da3c aaf4 e63b
00000230: 388f 41bb b137 e9be dbf1 d93d a68b 20bc
00000240: a293 dcbc 9d02 dc3d dc64 85bc 8e16 17bc
00000250: 1e76 733f 4ff2 6d3e ae8a 99bb a0b6 30c0
00000260: 29ed c83c ce9a 9bbc d562 19bb fc03 ec3b
00000270: 1fb2 a73c 3571 143e 47c6 bf3e bc60 01bf
00000280: 9e5a e0bd 5cd8 78bc 6ddd 063c 1d98 8a3c
00000290: 8201 df3c 1ea9 1cbd 9f0c b4bf b0b1 e8be
000002a0: e99d 9e3d 8894 373c 4486 bf3e d2ec d53e
000002b0: 0dd8 96bf 501a bfbc 62c1 64bc b47e 09bf
000002c0: ef3a 38bf 6aac 943f 1da2 65bf ab66 c6be
000002d0: f0e8 4dbb 9700 a03a a77a 27bc 4bc3 47bf
000002e0: 82e6 bd3d a571 03bd 9254 80bf 8d61 17bd
000002f0: c38e 4bbf c5fb 303f cf38 a3bc b748 babb
00000300: 25e3 07bc 1dbc 843c 7a71 88bf 24a9 00c0
00000310: ef42 a6bc 4e01 003e a25a d9bb 188a b93c
00000320: 4c58 0bbd a096 b63c bc94 ae3e ef54 a3bb
00000330: ddc0 17bf e879 03c0 445d 09bd efa5 22bc
00000340: 56fe 163d d002 45be 314a 92be 00df b8bc
00000350: 0091 3e3f 3f12 a5bc 5c36 7abc b018 45bf
00000360: ecfe 293f 9b49 f6bf 26fb 9c3c 691c 89bf
00000370: 64ac eabe 140f 0f3c f792 37bb 9a45 6cbe
00000380: f1c3 dbbc 8489 9e3f 8ff5 a8bc 5c58 85be
00000390: fa97 253f a442 f6bc 5a34 d93c 2dc8 15bc
000003a0: f61d 1dbe cefa 24be 2312 fcbe bf2b a73c
000003b0: 706c 913f ccd0 f93c 4d59 b9be a76c d73e
000003c0: 51eb 35c0 e304 00bd be50 253b 38db 4540
000003d0: d93f 55bb b91f a7bd 3c63 8b3b b385 e9bb
000003e0: 6803 e0bf ed50 d23f 329e c1be cffa bdbf
000003f0: d4a6 fdbc 042c f3bc 4dc2 0b3e 8745 daba
