preTrained/BipedalWalker-v2/TWO/TD3_BipedalWalker-v2_0_solved_crtic_2.pth (torch_old, 529790 bytes, 5 tensors)

l1.weight f4 [400, 28]
-0.06801075 -0.08004554 -0.13863955 0.19872715 0.14312164 -0.08255614 0.10630727 0.07823091
-0.23191212 0.0803692 0.010634384 -0.10432887 -0.10401543 0.054588 -0.06326472 -0.12380901
-0.05886462 0.006759931 -0.28441352 -0.107080534 -0.32163534 -0.084841706 -0.27928922 -0.28090367
0.0043753763 0.09333889 -0.04833239 0.1636849 0.13112175 0.48016572 -1.2204353 -1.1728649
-0.91678727 1.1897403 -0.7469498 -1.199923 1.0368489 -0.7479612 0.6277268 0.27500367
-0.4119476 -2.0474725 -0.52219856 -0.75774443 -0.4422087 -0.44015375 -0.5402235 -0.7511576
-0.54997647 -0.7898565 -0.26816908 -0.8177444 0.3041391 0.005935911 -0.8935103 0.65269184
-0.13494582 -0.76915216 0.19609405 2.3117027 0.14065152 0.24499828 0.014799964 0.16897501
-0.035576392 0.048139073 0.437797 -0.40863976 -0.06355452 -1.2623949 -0.46094775 -0.32056677
-0.2596488 -0.5654802 -0.32338294 -0.25859272 -0.46945468 -0.2660512 -0.32035527 -0.42624038
-0.3629931 -0.056287598 -0.13567375 0.12781774 -0.12946372 1.5611149 -1.9265687 -1.1903721
0.50010383 -0.20232931 0.57186675 -0.327477 0.41365227 -0.05930737 -0.9396948 1.2183789
-0.5283577 -0.21711345 -0.791588 -0.57850176 -0.84994453 -0.8781154 -0.68986195 -0.8380665
-0.73675716 -0.8718055 -0.6295137 -0.7733918 -0.028235484 -0.27945495 0.28742892 0.047062352
0.030808134 0.80283445 -0.07812306 -0.721627 -0.00082360866 -0.00036012003 -0.14437331 -0.1781664
0.0579284 0.07749041 -0.13743615 0.16214384 0.23236601 -0.6794838 -0.42409962 -0.6775199
-0.5948084 -0.48512754 -0.4542884 -0.690836 -0.7326246 -0.4749964 -0.70966816 -0.57877225
0.13712898 -0.09388061 0.10685529 0.07746478 0.28866377 2.3866763 0.4436476 1.2555418
0.27034658 -0.7130711 -1.498125 -1.314456 0.12243649 0.18262808 -0.4846033 0.38843077
0.046259355 -0.6241604 -0.56746733 -0.4658565 -0.3436139 -0.45355684 -0.14999585 -0.11932993
-0.12055409 -0.22338122 -0.7252958 -0.7193699 1.3044189 0.2654461 -0.43169284 -0.01908636
0.034445465 0.0780613 -0.20393577 0.0033514625 -0.04465952 -0.14027847 -0.005517901 -0.09911845
-0.18226773 -0.046711545 -0.25616524 0.1846297 0.054638594 -0.24718715 -0.09567023 -0.15077825
-0.28699955 -0.43535408 -0.26258516 -0.3220727 -0.27916285 -0.38145107 -0.37564427 -0.1304369
0.09889697 0.221047 0.035700407 -0.004338275 0.8997981 -6.47053 -0.4314116 -1.9718314
-0.37842697 0.14361809 -0.72503424 0.2870305 -0.0716756 1.9894667 -1.1114638 0.13008791
0.058844976 0.39259768 -0.65968037 -0.45485464 -0.5730602 -0.5165448 -0.37429327 -0.52134174
-0.54218334 -0.4613053 -0.28349742 -0.15439193 0.32284188 0.103986144 -0.40877283 0.6691716
0.08519831 0.53506666 1.0003102 0.4572824 0.610754 -0.7866966 -0.1305987 -0.2836585
-0.8308447 -0.21857886 0.717488 -0.33452475 -0.45800754 0.13369615 -0.73573726 -0.5843179
-0.54637104 -0.56468165 -0.6710765 -0.6519171 -0.6908968 -0.8168821 -0.58110976 -0.9148534
-0.18927737 -0.565994 -0.12072998 -0.33155334 -0.85872364 -0.06464167 -1.7581722 -1.0839846
00000000: 3849 8bbd ebee a3bd 87f7 0dbe 217f 4b3e
00000010: 7b8e 123e 3213 a9bd a0b7 d93d 8737 a03d
00000020: 5f7a 6dbe 9b98 a43d d73b 2e3c 60aa d5bd
00000030: 0b06 d5bd ab97 5f3d ef90 81bd 948f fdbd
00000040: 071c 71bd 6982 dd3b a69e 91be 0a4d dbbd
00000050: 63ad a4be 7dc1 adbd fffe 8ebe 9bd2 8fbe
00000060: 515f 8f3b 7628 bf3d 2ff8 45bd 049d 273e
00000070: c844 063e 48d8 f53e 3937 9cbf 7020 96bf
00000080: 92b2 6abf 6949 983f 1a38 3fbf 1497 99bf
00000090: 77b7 843f 637a 3fbf b4b2 203f 48cd 8c3e
000000a0: ccea d2be ca09 03c0 ceae 05bf 8afb 41bf
000000b0: 2e69 e2be d55b e1be 164c 0abf dd4b 40bf
000000c0: 42cb 0cbf 0934 4abf 754d 89be b257 51bf
000000d0: 1fb8 9b3e 0882 c23b 17bd 64bf d016 273f
000000e0: 3d2f 0abe 28e7 44bf e1cc 483e f0f2 1340
000000f0: f406 103e d4e0 7a3e 8c7b 723c c907 2d3e
00000100: 8db8 11bd 7a2d 453d ee26 e03e 3b39 d1be
00000110: df28 82bd 2896 a1bf 5801 ecbe 5421 a4be
00000120: b0f0 84be 4fc3 10bf 7392 a5be 4466 84be
00000130: 5d5c f0be dd37 88be 9b05 a4be 2e3c dabe
00000140: 3bda b9be d38d 66bd 0fee 0abe a7e2 023e
00000150: 2392 04be 9dd2 c73f ce99 f6bf 1d5e 98bf
00000160: ce06 003f 6a2f 4fbe dc65 123f 11ab a7be
00000170: 3bca d33e 49ec 72bd d78f 70bf d7f3 9b3f
00000180: 7342 07bf fd52 5ebe 83a5 4abf b118 14bf
00000190: f795 59bf 2ccc 60bf cb9a 30bf 878b 56bf
000001a0: 1e9c 3cbf a52e 5fbf cf27 21bf 01fd 45bf
000001b0: 1a4e e7bc b814 8fbe e229 933e 74c4 403d
000001c0: 5761 fc3c 8f86 4d3f fcfe 9fbd 8cbc 38bf
000001d0: 71e7 57ba 7ece bcb9 99d6 13be 4171 36be
000001e0: 5446 6d3d 4bb3 9e3d 10bc 0cbe 0909 263e
000001f0: 5bf1 6d3e a6f2 2dbf 9623 d9be f271 2dbf
00000200: 5d45 18bf a362 f8be 7d98 e8be a1da 30bf
00000210: 498d 3bbf ba32 f3be d0ac 35bf 6b2a 14bf
00000220: 8a6b 0c3e 7a44 c0bd f2d6 da3d dba5 9e3d
00000230: bdcb 933e 4ebf 1840 c725 e33e 98b5 a03f
00000240: de6a 8a3e d48b 36bf 8fc2 bfbf 1840 a8bf
00000250: fcbf fa3d db02 3b3e ec1d f8be 66e0 c63e
00000260: 737a 3d3d fac8 1fbf 8a45 11bf be84 eebe
00000270: 29ee afbe 9a38 e8be 8398 19be 4063 f4bd
00000280: 10e5 f6bd 0cbe 64be fcac 39bf a028 38bf
00000290: 33f7 a63f 8de8 873e d806 ddbe ff5a 9cbc
000002a0: b016 0d3d 9ade 9f3d 8ad4 50be 36a4 5b3b
000002b0: e7ec 36bd 29a5 0fbe 82cf b4bb 9dfe cabd
000002c0: 64a4 3abe 9b54 3fbd 1728 83be 910f 3d3e
000002d0: b8cc 5f3d a11e 7dbe c1ee c3bd 9d65 1abe
000002e0: 9bf1 92be bbe6 debe 9071 86be b7e6 a4be
000002f0: 6fee 8ebe 8e4d c3be 7254 c0be 4091 05be
00000300: 7f8a ca3d 255a 623e 973a 123d 1728 8ebb
00000310: 2b59 663f 950e cfc0 fbe1 dcbe f964 fcbf
00000320: 2ec1 c1be 9f10 133e d89b 39bf a9f5 923e
00000330: a8ca 92bd d8a6 fe3f 7244 8ebf c435 053e
00000340: 6e07 713d 9002 c93e d0e0 28bf b5e2 e8be
00000350: 13b4 12bf 483c 04bf 5ea3 bfbe a776 05bf
00000360: 87cc 0abf 3530 ecbe 9326 91be eb18 1ebe
00000370: 884b a53e b0f6 d43d ac4a d1be d44e 2b3f
00000380: 747c ae3d 21fa 083f 2a0a 803f eb20 ea3e
00000390: 605a 1c3f f364 49bf aabb 05be b03b 91be
000003a0: 3db2 54bf 23d3 5fbe 4bad 373f d446 abbe
000003b0: f77f eabe a5e7 083e 4759 3cbf dc95 15bf
000003c0: f9de 0bbf fa8e 10bf abcb 2bbf 0ae4 26bf
000003d0: 9dde 30bf 2f1f 51bf 9cc3 14bf d533 6abf
000003e0: edd1 41be fce4 10bf 4841 f7bd 5cc1 a9be
000003f0: 50d5 5bbf da62 84bd c90b e1bf 02c0 8abf

l1.bias f4 [400]
-0.23298873 -1.2506474 -0.2679524 -0.111940406 -0.16981089 -0.98360044 -0.26681262 -0.36871657
-0.75836545 -0.63237584 -0.6279236 -0.4262806 -0.36295357 0.059442084 -0.35450196 -0.71685135
-0.55714303 -0.23042396 -0.8374361 0.14839792 -0.3012574 -0.35104546 -0.73845905 -0.30005217
-1.2904987 -0.27589408 -0.16914827 0.13549677 -0.17900689 -0.2119077 -0.047356334 -0.34115627
-0.22846709 0.04564409 -0.12725134 -0.5786659 -0.17670393 -1.2115568 -0.3725105 -0.28165856
-0.772926 -0.6233228 -0.6795551 -0.12771659 -0.1685589 -1.0074888 -0.78876084 -0.803484
-0.14667527 0.29043478 0.10332852 -0.16572012 -0.32007766 -0.2370614 -0.069641486 0.020843182
-0.87640053 -0.5464006 -0.35472548 -0.6105639 -0.41976136 -0.3645998 0.09004963 -1.0998063
-0.23347545 -0.026421864 -0.062165115 -0.58650374 -0.42439207 -0.18500148 -0.12931542 -1.1692761
-1.2778515 -0.17224377 -0.8662043 -0.12133229 0.7919967 -0.21799509 -0.01200781 -0.67565215
0.849656 -1.094576 -0.55054456 -0.24783482 -0.13634767 -0.20784551 -1.1657687 -0.9797684
-0.2084507 0.48477012 -0.29401338 -0.54883057 -0.9592454 -0.9727003 -0.0035997662 -0.6488852
-0.19133267 -0.8622397 -0.6699208 -0.15407765 -0.29780844 -0.27858984 -0.6349441 -0.5609339
-0.3422253 -0.2629309 -0.7803376 0.68018556 0.8756227 -0.533077 -0.5943221 -0.27546024
-0.555182 -0.05765229 -0.15439352 -0.68256676 -0.40392852 -0.71539885 -1.1959649 0.032109767
-0.10966067 -0.2933182 -0.37759113 -0.44597888 -0.9609017 -0.29352838 -0.5359629 -0.8712195
0.26667085 -0.27824876 -0.65997154 0.44498023 -0.07915191 -0.5777814 -0.30982372 0.04385602
0.8772141 -0.39661527 -0.60958785 -0.9689112 -0.28415143 -0.27644533 -0.12388499 -0.2239229
-0.16715944 -0.4048907 -0.16680811 -0.14327292 -0.37413082 -0.6198244 -1.3264832 -0.2142374
-0.25134298 0.64677376 -0.31257737 0.015443249 0.63802886 -1.2177057 -0.04063091 -0.98841816
-0.8747786 -0.16526635 0.77496296 0.003065133 0.91450953 -0.49148828 0.039854687 -0.181207
-0.26720172 -0.31126606 -1.0203379 -0.8817782 -0.2722682 -0.5921426 -0.48548365 -1.5145365
-0.2785152 -0.6452826 -0.22563368 0.105097495 -0.24800363 -0.327011 -0.77460885 -0.6827612
-1.4394032 -0.09810913 -0.10803693 -0.43905818 -1.1604285 1.014873 -0.22776213 -1.3094004
-0.5880716 -0.9748987 -0.4152303 0.8029584 -0.20399031 -0.41739625 -0.5559152 -0.17404933
0.31604758 0.16226533 -1.0169848 -0.7940553 -1.1118441 -0.23722905 0.86600006 0.5509441
-0.38924187 -0.042614833 -0.11429897 -0.2177159 -0.24195024 1.502042 -0.26971552 -0.66372705
-0.88808453 -0.020829787 -0.53944504 -0.45954826 -0.17620029 0.48473534 -0.08655677 -0.47857845
-0.31295496 0.7549072 0.11359399 -0.5579584 -0.9507982 -0.31677985 -0.6372318 0.92384124
-0.54828465 -0.29049534 -0.48582846 -1.6484219 -0.9251671 -0.25458157 -0.317728 0.01298246
-0.5290302 -0.2176941 -0.44546664 -0.72063005 -0.14896268 0.34020984 -0.21311453 0.013067245
-1.0695593 -1.0172999 -0.6550657 -0.020107495 -0.8182894 -0.42332408 -0.2889722 -0.31906036
00000000: 9994 6ebe 3715 a0bf 0f31 89be 0341 e5bd
00000010: e8e2 2dbe 3dcd 7bbf aa9b 88be 6bc8 bcbe
00000020: 3d24 42bf 62e3 21bf 9abf 20bf 7341 dabe
00000030: 0dd5 b9be 8b79 733d 4881 b5be 9283 37bf
00000040: eda0 0ebf 42f4 6bbe 3662 56bf a0f5 173e
00000050: 693e 9abe 3bbc b3be a70b 3dbf 70a0 99be
00000060: 102f a5bf fd41 8dbe 3435 2dbe aabf 0a3e
00000070: 954d 37be 55fe 58be b7f8 41bd 09ac aebe
00000080: 47f3 69be 4cf5 3a3d 2d4e 02be 7323 14bf
00000090: e0f1 34be 4b14 9bbf b2b9 bebe 8d35 90be
000000a0: 7ade 45bf 1592 1fbf 53f7 2dbf 23c8 02be
000000b0: b49a 2cbe 65f5 80bf 3bec 49bf 21b1 4dbf
000000c0: 0b32 16be deb3 943e e79d d33d 89b2 29be
000000d0: 38e1 a3be 39c0 72be 32a0 8ebd 52bf aa3c
000000e0: c95b 60bf e9e0 0bbf 949e b5be ea4d 1cbf
000000f0: f6ea d6be d3ac babe f16b b83d 74c6 8cbf
00000100: 3014 6fbe aa72 d8bc d9a0 7ebd 1c25 16bf
00000110: eb49 d9be 0771 3dbe 436b 04be d7aa 95bf
00000120: a390 a3bf ac60 30be 91bf 5dbf 107d f8bd
00000130: 4cc0 4a3f 1b3a 5fbe 68bc 44bc 8af7 2cbf
00000140: 0e83 593f 111b 8cbf 7df0 0cbf 69c8 7dbe
00000150: b99e 0bbe 74d5 54be e937 95bf 1ad2 7abf
00000160: 1a74 55be ca33 f83e ec88 96be 2980 0cbf
00000170: 1b91 75bf e302 79bf 0eea 6bbb 571d 26bf
00000180: b6ec 43be bebb 5cbf ee7f 2bbf 88c6 1dbe
00000190: 597a 98be 54a3 8ebe b28b 22bf 5d99 0fbf
000001a0: 2838 afbe e19e 86be 34c4 47bf a420 2e3f
000001b0: cf28 603f bc77 08bf 7e25 18bf 2009 8dbe
000001c0: 6820 0ebf cf24 6cbd 5619 1ebe b2bc 2ebf
000001d0: b8cf cebe 6124 37bf 6115 99bf 8885 033d
000001e0: c695 e0bd ce2d 96be a053 c1be 5857 e4be
000001f0: a7fd 75bf 5a49 96be dd34 09bf 3e08 5fbf
00000200: 1589 883e 9f76 8ebe e5f3 28bf 73d4 e33e
00000210: 661a a2bd 7be9 13bf 37a1 9ebe 5fa2 333d
00000220: 1a91 603f 2811 cbbe f30d 1cbf 900a 78bf
00000230: 4c7c 91be 3e8a 8dbe 6ab7 fdbd 0b4c 65be
00000240: d82b 2bbe d54d cfbe bfcf 2abe 23b6 12be
00000250: 138e bfbe d0ac 1ebf 34ca a9bf 0d61 5bbe
00000260: 07b0 80be f792 253f 240a a0be ae05 7d3c
00000270: dc55 233f c8dd 9bbf 996c 26bd f908 7dbf
00000280: 7ef1 5fbf 953b 29be f963 463f 66e0 483b
00000290: 4c1d 6a3f 5aa4 fbbe ab3e 233d 548e 39be
000002a0: aace 88be 445e 9fbe 6f9a 82bf 37bc 61bf
000002b0: bd66 8bbe a896 17bf 5091 f8be 55dc c1bf
000002c0: 8b99 8ebe 3e31 25bf 840c 67be 5b3d d73d
000002d0: aaf4 7dbe fc6d a7be c44c 46bf 70c9 2ebf
000002e0: 5d3e b8bf 71ed c8bd 7742 ddbd 3ccc e0be
000002f0: ec88 94bf 5ce7 813f 7a3a 69be 6f9a a7bf
00000300: dc8b 16bf f692 79bf 1199 d4be af8e 4d3f
00000310: d6e2 50be f6b4 d5be 7550 0ebf fd39 32be
00000320: fdd0 a13e e228 263e 8f2c 82bf 3547 4bbf
00000330: e850 8ebf 2cec 72be 2eb2 5d3f ac0a 0d3f
00000340: b64a c7be e48c 2ebd 9415 eabd ebf0 5ebe
00000350: cec1 77be ea42 c03f 2718 8abe 04ea 29bf
00000360: 8259 63bf 3ba3 aabc 1219 0abf e949 ebbe
00000370: d96d 34be 3b2f f83e ad44 b1bd 3c08 f5be
00000380: a23b a0be 9941 413f f7a3 e83d 5dd6 0ebf
00000390: 8367 73bf f830 a2be a021 23bf dc80 6c3f
000003a0: 625c 0cbf cebb 94be 82be f8be 7dff d2bf
000003b0: c0d7 6cbf 8458 82be 3fad a2be 62b4 543c
000003c0: 866e 07bf 34eb 5ebe 3414 e4be 367b 38bf
000003d0: ac89 18be fc2f ae3e b23a 5abe ff17 563c
000003e0: 52e7 88bf e236 82bf 63b2 27bf 79b8 a4bc
000003f0: 6a7b 51bf efbd d8be 2af4 93be e15b a3be

l2.weight f4 [300, 400]
0.025986416 -0.5699609 0.10997505 -0.7379038 0.15418462 -0.2250286 -0.036234003 -1.0676059
0.7901396 -1.8642933 0.5216382 -1.0941327 -0.88006365 -0.03646067 -0.08096285 -0.48224422
0.27918828 -0.32693467 0.3485246 -0.7680333 -0.024212848 -0.08102687 -0.10123006 -1.1995323
-0.35776025 -0.1786009 0.32798213 0.3771804 -0.072961606 -0.23152949 -0.29710644 -2.7487965
-1.7472806 0.82329094 0.1308137 -0.46949983 -2.55487 -1.0793641 0.12908807 -0.02086126
-1.8176656 -0.21620607 0.45105588 0.01673279 -0.034994885 0.17471156 -0.4858615 -0.29469287
-0.019510431 0.32081002 -1.8862383 0.09253657 0.24429597 0.04269447 -0.11867469 -1.407388
0.47873402 0.49762955 -1.2205464 -1.490326 0.3459625 -2.388597 -0.04749415 0.10121523
-0.2721705 0.58744967 0.79498374 -0.12835757 -1.90776 -0.07987351 -0.022230105 0.40911525
-1.0533128 -2.016214 0.101370126 -0.6338272 0.11476578 0.10393519 0.59541607 1.1625407
0.8777487 -0.6680886 -1.3720005 0.199316 -0.21524629 0.92448604 -1.7270354 0.38217372
-0.6807499 -1.7667251 -0.46373504 -0.07905517 0.03868131 0.97600687 0.09293416 0.04437646
0.16506068 0.4610477 0.19899887 0.046785593 0.6464732 -0.18836036 0.4086454 0.30119067
-0.053672064 0.054566443 0.88214695 -1.478007 -0.12913695 0.070675336 -0.92239404 0.010740066
-1.730885 -0.4705026 -0.21029067 -0.20318338 -0.71634847 -0.45569056 -0.5850768 0.26086926
0.2594785 0.07267332 0.1538569 -0.38815713 -0.7661485 -0.29461747 0.31450605 -1.0416633
-0.33010745 -0.3185101 0.5216516 -2.0950751 -0.0005734958 -0.1426453 -0.38885543 1.3360794
0.77680254 0.29442704 -0.04130588 -0.8185345 0.01633 0.028346177 0.35407695 0.018657776
-0.28086424 -0.072949946 0.06905456 -0.06096799 -0.22590104 -0.99346787 -0.318601 -0.5340181
0.09013594 -0.37201783 -0.45884112 0.088912204 -0.7624429 0.3509338 0.16906185 0.6243831
-1.049166 0.1457899 0.17014876 -0.2586993 -0.16201815 -0.24080382 0.030983746 -0.008404307
0.3442677 -1.4228321 0.39284644 0.45331004 -0.014028485 -0.10681686 -0.4745388 -1.8015951
-0.031993575 0.48057595 -0.34513846 -1.0685328 0.05594393 -0.053058725 0.36111635 0.1279264
-0.85001826 -0.030086178 -0.051489666 0.23227258 -0.108288184 0.603929 0.028710196 0.6870655
0.8518742 0.40287533 0.4204638 0.2591771 -0.021215279 0.5186522 -0.20731665 -0.03853898
-0.084103435 -0.80593246 0.06932482 0.52266973 0.7888808 -0.003756306 0.2325724 0.3330809
-0.9573486 0.009954734 0.35884994 -0.049670268 0.10137611 0.57462794 0.18648663 -0.18563433
-0.46948773 -0.05527244 0.15978144 0.03362286 -1.8482338 -2.6702814 -0.087143146 -0.24911761
-0.43440947 0.07930679 0.69422835 0.19381407 0.82852715 -0.01263192 0.8581937 0.23310784
-0.36606854 -0.07917888 0.005159221 -0.5834829 -1.0167644 0.030501721 -0.043866627 -1.30738
-0.19297223 -0.22703218 -0.8066373 0.00035812476 -0.9386021 0.28772303 0.052593984 0.040539823
0.28676447 -0.9605739 -0.5625111 -0.2722146 -1.1009407 0.06128069 0.27595732 0.0038430495
00000000: 77e1 d43c f5e8 11bf 993a e13d 43e7 3cbf
00000010: 93e2 1d3e e66d 66be 1b6a 14bd 4fa7 88bf
00000020: 9746 4a3f 2aa1 eebf 158a 053f 8a0c 8cbf
00000030: da4b 61bf c957 15bd dacf a5bd b7e8 f6be
00000040: c4f1 8e3e fb63 a7be d171 b23e d59d 44bf
00000050: 065a c6bc 6af1 a5bd b551 cfbd 468a 99bf
00000060: 5a2c b7be 28e3 36be 46ed a73e ca1d c13e
00000070: e56c 95bd 1116 6dbe 561e 98be 48ec 2fc0
00000080: e4a6 dfbf 32c3 523f 07f4 053e 4862 f0be
00000090: fd82 23c0 9a28 8abf aa2f 043e 3ce5 aabc
000000a0: 44a9 e8bf 2065 5dbe ccf0 e63e 3413 893c
000000b0: cc56 0fbd 96e7 323e d7c2 f8be fce1 96be
000000c0: 57d4 9fbc 3641 a43e 4270 f1bf d083 bd3d
000000d0: b928 7a3e 66e0 2e3d b70b f3bd 4a25 b4bf
000000e0: a01c f53e 4dc9 fe3e dd3a 9cbf 01c3 bebf
000000f0: ff21 b13e c6de 18c0 3a89 42bd ee49 cf3d
00000100: ef59 8bbe 1a63 163f 0e84 4b3f 2b70 03be
00000110: 7b31 f4bf b994 a3bd e91b b6bc 8e77 d13e
00000120: f4d2 86bf a609 01c0 249b cf3d 8042 22bf
00000130: 520a eb3d f9db d43d 306d 183f 22ce 943f
00000140: 24b4 603f db07 2bbf b69d afbf 7e19 4c3e
00000150: 8669 5cbe 1eab 6c3f 7f0f ddbf 46ac c33e
00000160: a045 2ebf 0c24 e2bf ae6e edbe ade7 a1bd
00000170: 4b70 1e3d 96db 793f 4454 be3d 17c4 353d
00000180: ab05 293e 720e ec3e 5cc6 4b3e 40a2 3f3d
00000190: 457f 253f 8ae1 40be f839 d13e aa35 9a3e
000001a0: 3dd7 5bbd 1081 5f3d 62d4 613f 552f bdbf
000001b0: 7a3c 04be 3bbe 903d 0422 6cbf 1af7 2f3c
000001c0: a48d ddbf b7e5 f0be 7056 57be 4e0f 50be
000001d0: 9d62 37bf 4650 e9be 98c7 15bf a890 853e
000001e0: 5eda 843e c0d5 943d aa8c 1d3e 88bc c6be
000001f0: 4f22 44bf 1ad8 96be f006 a13e 3955 85bf
00000200: d803 a9be c113 a3be f68a 053f b615 06c0
00000210: a756 16ba 9c11 12be 0f18 c7be a604 ab3f
00000220: 88dc 463f 24bf 963e 5b30 29bd 7a8b 51bf
00000230: 7ec6 853c 3e36 e83c 9349 b53e 31d8 983c
00000240: 70cd 8fbe c866 95bd 7a6c 8d3d 92b9 79bd
00000250: 9a52 67be e953 7ebf ac1f a3be 69b5 08bf
00000260: 3199 b83d 1f79 bebe 39ed eabe 9a17 b63d
00000270: 752f 43bf 98ad b33e 8d1e 2d3e 92d7 1f3f
00000280: 124b 86bf f349 153e 7a3b 2e3e 3c74 84be
00000290: 16e8 25be 4795 76be a0d1 fd3c 38b2 09bc
000002a0: db43 b03e 5d1f b6bf 2b23 c93e 4118 e83e
000002b0: bbd7 65bc ccc2 dabd c0f6 f2be ab9a e6bf
000002c0: b20b 03bd 0d0e f63e fdb5 b0be afc5 88bf
000002d0: 7625 653d 1b54 59bd 3ee4 b83e 23ff 023e
000002e0: cc9a 59bf 4a77 f6bc d4e6 52bd ddd8 6d3e
000002f0: 32c6 ddbd 179b 1a3f a531 eb3c 86e3 2f3f
00000300: 6d14 5a3f ad45 ce3e 0847 d73e dcb2 843e
00000310: aacb adbc 64c6 043f d14a 54be 0ddb 1dbd
00000320: 6c3e acbd 9751 4ebf 2cfa 8d3d afcd 053f
00000330: 18f4 493f 5b2c 76bb 7627 6e3e 9489 aa3e
00000340: cc14 75bf 2e19 233c 2ebb b73e 0d73 4bbd
00000350: 479e cf3d d11a 133f 5af6 3e3e ed16 3ebe
00000360: b260 f0be 5b65 62bd bf9d 233e 20b8 093d
00000370: ed92 ecbf e4e5 2ac0 1b78 b2bd b018 7fbe
00000380: eb6a debe 996b a23d f3b8 313f 3277 463e
00000390: 5b1a 543f 1df6 4ebc 95b2 5b3f d2b3 6e3e
000003a0: 566d bbbe 8928 a2bd af0e a93b 235f 15bf
000003b0: 5625 82bf bfde f93c 7ead 33bd 3a58 a7bf
000003c0: 839a 45be 207b 68be c87f 4ebf b1c2 bb39
000003d0: 3a48 70bf 6f50 933e ca6c 573d 160d 263d
000003e0: cbd2 923e 2ce8 75bf ba00 10bf b65f 8bbe
000003f0: a0eb 8cbf 7601 7b3d 474a 8d3e acdb 7b3b

l2.bias f4 [300]
0.044046577 -0.019348852 0.94936717 1.0004929 -0.0394522 -0.31409243 -0.08106628 -0.06691389
0.29002672 0.91719335 -0.06980294 -0.08879803 -0.019410465 -0.28942284 0.562997 -0.075444266
0.0070341127 2.1549401 0.22216976 -0.10231861 -0.018137487 0.13619672 0.0018423254 -0.2735355
0.8567095 0.7567113 0.16668227 0.4643259 0.2069579 -0.012177184 -0.019581929 -0.11213485
-0.0155026 -0.043376144 0.09711436 -0.0460614 0.23493037 -1.9292502 1.770913 -0.63307184
0.5136985 0.1693968 -0.02336528 -0.008272402 0.2734707 0.20376267 -0.0458397 0.7889726
1.0407733 0.23584044 -0.07810713 0.2064544 1.928694 -0.0040848902 -0.093149215 0.14251588
1.2054954 0.2567265 -0.0631611 -0.113949016 -0.015036634 0.8307258 0.72090447 -0.06549199
1.0714035 0.28978544 -0.0840092 -0.13606547 -0.086154915 0.94000244 1.9441376 -0.086071655
-0.13158853 0.2233885 0.26574317 0.41413033 -0.36560902 0.8419432 -0.5011944 -0.12172313
-0.010046469 1.7481402 -0.04195598 -0.10538969 0.26200995 -0.30215266 0.21544296 -0.016644228
0.0072583025 -0.033905923 0.0023382911 0.51737154 -2.0939374 0.053950474 0.50182605 -0.023495207
0.3537457 -0.33792263 1.9548918 1.1549196 -0.10598284 0.13097669 0.22317325 -0.07669723
-0.5065873 1.0949582 0.16076809 0.20619126 0.16641188 -0.02611975 0.053509597 -0.039142378
-0.066046335 -0.007637721 0.19076337 -0.023311118 0.85889494 -0.36027846 0.017641502 0.42914575
1.0593165 0.9095151 0.8222998 -0.042709753 -0.035437472 -0.034068283 -0.046144437 0.06998031
-0.4034259 -0.053878475 -0.059332304 -0.12246122 -0.10540131 0.81165147 -0.02002874 1.588246
-0.059303164 0.24142265 -0.1657737 -0.03177123 0.20121491 0.13591588 0.7642631 -0.064448215
-0.06612289 0.7417768 -0.030113176 -0.040450566 -1.8388994 0.78869873 -0.00021736213 1.3056293
-0.055777162 -0.08034346 -0.08556463 -0.107449144 -0.07532995 0.6118663 1.0627716 -0.07956932
0.6157036 -0.075087085 0.27339685 -0.09789051 -0.054638695 -0.09273988 0.17598172 -0.16409996
0.019489177 -0.01433017 1.0057693 0.7440372 0.47119808 -0.06997227 -0.16419736 1.9827645
0.2586438 1.0294838 1.8598087 0.40653932 -0.067578 -0.08542918 -0.030627884 0.08789329
0.8082835 -0.03728498 0.82904166 -0.023106685 1.5481366 -0.00071333355 -0.026251834 -0.058792945
0.12198442 -0.08944035 -0.004416639 0.28132805 -0.043791313 0.65458107 0.20027362 -0.021960028
-0.012462068 -0.028294625 0.8652901 -0.07730249 -0.25946006 -0.5733466 -0.049057484 -0.021571612
-0.09413741 0.08289813 0.70092595 -0.04337835 -0.053972334 -0.020369297 0.14166823 0.26028898
0.05733334 0.56283784 0.0025492664 0.41411513 0.14317475 -0.054981153 0.0036620463 0.39779925
-0.47889808 -0.18658368 -0.09065814 0.67966723 -1.9122752 -0.044611245 -0.075468756 -0.054811407
0.20548742 -0.34032387 0.24741034 -0.041661736 0.07449954 -0.08197264 0.74983424 0.7554287
-0.4152291 0.23941098 -0.0039237663 -0.15133983 -0.051824372 0.6811998 -0.01917963 -0.0915671
0.30996737 0.7322359 0.15671861 0.8949725 -0.039548364 -0.009617127 0.9668764 0.6399299
00000000: 2f6a 343d 7c81 9ebc ba09 733f 2710 803f
00000010: a198 21bd b9d0 a0be 1406 a6bd 260a 89bd
00000020: 627e 943e 2fcd 6a3f d8f4 8ebd bedb b5bd
00000030: b202 9fbc 3b2f 94be 9220 103f 8682 9abd
00000040: 6a7e e63b 8aea 0940 7880 633e 6b8c d1bd
00000050: 1195 94bc 2777 0b3e 2f7a f13a d80c 8cbe
00000060: 5051 5b3f d5b7 413f c2ae 2a3e 20bc ed3e
00000070: c6ec 533e d082 47bc 486a a0bc f5a6 e5bd
00000080: 9efe 7dbc 2fab 31bd e5e3 c63d e1aa 3cbd
00000090: 9691 703e acf1 f6bf 47ad e23f ff10 22bf
000000a0: bf81 033f 5b76 2d3e 8b68 bfbc f888 07bc
000000b0: 5a04 8c3e 29a7 503e 69c2 3bbd 1cfa 493f
000000c0: 0f38 853f 2880 713e a2f6 9fbd c868 533e
000000d0: 72df f63f 8bda 85bb 04c5 bebd afef 113e
000000e0: ac4d 9a3f a871 833e 9b5a 81bd 1a5e e9bd
000000f0: 375c 76bc 72aa 543f 328d 383f aa20 86bd
00000100: c023 893f c25e 943e 040d acbd bf54 0bbe
00000110: fd71 b0bd 00a4 703f 80d9 f83f 5646 b0bd
00000120: 25bf 06be f4bf 643e 7d0f 883e e408 d43e
00000130: 1b31 bbbe 9789 573f 474e 00bf fa49 f9bd
00000140: f299 24bc 0fc3 df3f 09da 2bbd 8dd6 d7bd
00000150: 2b26 863e c1b3 9abe 149d 5c3e 7a59 88bc
00000160: 0ed7 ed3b f0e0 0abd 043e 193b 7672 043f
00000170: 1203 06c0 2cfb 5c3d ac77 003f 0579 c0bc
00000180: 281e b53e 3204 adbe e539 fa3f 68d4 933f
00000190: 880d d9bd c11e 063e 8787 643e 7013 9dbd
000001a0: b5af 01bf 9727 8c3f 64a0 243e cd23 533e
000001b0: e067 2a3e 16f9 d5bc e12c 5b3d c253 20bd
000001c0: 4d43 87bd d945 fabb 7957 433e f5f6 bebc
000001d0: 8ae0 5b3f 6b76 b8be e984 903c feb8 db3e
000001e0: af97 873f fbd5 683f 3d82 523f 6cf0 2ebd
000001f0: e226 11bd 2f8b 0bbd f301 3dbd d651 8f3d
00000200: d78d cebe adaf 5cbd 6e06 73bd f3cc fabd
00000210: a4dc d7bd 64c8 4f3f 5013 a4bc a54b cb3f
00000220: e0e7 72bd 8037 773e 95c0 29be 8d22 02bd
00000230: 480b 4e3e 882d 0b3e bfa6 433f 6dfd 83bd
00000240: 706b 87bd 16e5 3d3f e8af f6bc 7eaf 25bd
00000250: 0e61 ebbf 29e8 493f b4eb 63b9 dc1e a73f
00000260: 9876 64bd 1d8b a4bd 823c afbd 4c0e dcbd
00000270: 9746 9abd 45a3 1c3f e608 883f 3df5 a2bd
00000280: c09e 1d3f 42c7 99bd acfa 8b3e d27a c8bd
00000290: d3cc 5fbd 68ee bdbd 8d34 343e d209 28be
000002a0: c4a7 9f3c 17c9 6abc 0cbd 803f 3979 3e3f
000002b0: e040 f13e 9f4d 8fbd 5a23 28be 3acb fd3f
000002c0: f66c 843e 20c6 833f 360e ee3f ec25 d03e
000002d0: 5666 8abd 7ef5 aebd 54e7 fabc 6601 b43d
000002e0: abeb 4e3f 23b8 18bd 133c 543f 3b4a bdbc
000002f0: 5729 c63f 01ff 3aba 160e d7bc dfd0 70bd
00000300: f8d2 f93d 812c b7bd 74b9 90bb 3b0a 903e
00000310: 855e 33bd a092 273f 8714 4d3e 84e5 b3bc
00000320: b42d 4cbc 21ca e7bc a783 5d3f c550 9ebd
00000330: f3d7 84be d8c6 12bf 80f0 48bd f3b6 b0bc
00000340: 1dcb c0bd 7fc6 a93d e26f 333f 7fad 31bd
00000350: 1812 5dbd 83dd a6bc 7a11 113e 9944 853e
00000360: 5dd6 6a3d 2416 103f 9811 273b e606 d43e
00000370: 679c 123e eb33 61bd f1fe 6f3b 58ac cb3e
00000380: 2132 f5be cb0f 3fbe faaa b9bd acfe 2d3f
00000390: 6fc5 f4bf 48ba 36bd 5d8f 9abd ed81 60bd
000003a0: 4b6b 523e ee3e aebe 2359 7d3e 7fa5 2abd
000003b0: 3793 983d 45e1 a7bd 23f5 3f3f c663 413f
000003c0: e998 d4be 2728 753e f092 80bb d4f8 1abe
000003d0: cb45 54bd 1c63 2e3f 991e 9dbc 8887 bbbd
000003e0: 0bb4 9e3e d073 3b3f d87a 203e eb1c 653f
000003f0: 77fd 21bd 2791 1dbc 3685 773f 72d2 233f

l3.weight f4 [1, 300]
2.261361 0.0035705087 0.3795488 -0.17383218 -0.0032072782 -1.0464756 0.022288984 -0.020009523
-0.59657747 0.37972218 -0.013997859 -0.025639152 -0.13156757 -0.1881067 0.1412457 -0.011840211
-0.016393272 -0.58610153 0.0058877766 0.042744137 -0.027832251 1.3074545 -0.00016012273 -0.9591055
0.3007202 0.96466404 -0.9445498 -0.23634341 -0.021556826 -0.111592025 0.017896676 0.0072057117
-0.025081158 -0.0127253905 -0.0030861301 0.041922856 0.009478245 1.3695493 -0.9009632 -4.0807734
-0.6415837 -0.006575343 0.0075093186 0.008659862 -0.69529086 0.015321683 0.0037956862 -0.4623777
-2.1339147 0.052484825 -0.025080279 0.08972297 -0.7194173 0.01230484 -0.018341726 -0.0051703807
0.71719867 0.0045983214 -0.019175135 -0.030377332 0.035999414 0.093869984 -0.2646268 0.010351057
0.4169526 -1.7578889 0.015235177 -0.18628046 0.027635576 0.21925715 -0.55035126 0.012060484
0.02529613 -0.77641046 0.021017361 -0.40436676 0.7845254 0.23400317 -0.14023569 -0.05176806
0.033249646 -0.38134187 -0.010749219 -0.0076261796 -0.56836873 0.14613006 -1.0380243 0.009705755
0.011103753 0.002907855 0.02872776 0.038384907 1.4505814 -0.003025819 -0.8049 0.007597726
0.04942598 1.909836 -0.68029755 -0.18047367 0.0015299291 -0.12340504 0.011359477 0.010954749
0.6858084 -1.4200898 0.02362825 0.029854458 -0.32418895 0.015306413 -0.34599745 -0.023306014
0.008757316 0.02275595 -0.0113569815 -0.013917666 0.24341376 -0.66487324 -0.028413365 0.2782216
1.6566743 0.35689273 -0.21619926 2.0420196 -0.026121834 0.020471971 -0.021025786 -0.027451536
-0.5175463 -0.0025872923 -0.07888497 -0.007319881 -2.127674 0.33967596 0.008045787 -1.7807207
-0.03992243 0.025579013 0.026637811 0.0070481948 -0.0029534614 -0.4584286 0.10686421 -0.009798848
-0.02692591 0.10855958 -0.016283358 -0.009221749 0.94990087 0.23179284 -0.004685732 -2.7595367
0.02452743 -0.018994793 -0.0023404707 0.0072027096 0.020470735 0.14496219 0.37438056 -0.505374
-0.111960806 -0.015188446 0.008231673 0.016918393 0.027222425 -0.038247384 -1.4066156 -0.4530021
0.08647347 0.011204978 0.3744757 0.40879354 -1.1784505 -0.02332829 -0.013962072 -0.5389514
-0.71964705 1.1582565 -0.8980088 -0.39231563 -0.0031419294 0.0012207356 -0.010222254 -0.76517296
0.09309719 -0.032090835 -1.0025622 -0.036957778 -0.7982844 0.6953499 -0.019924847 -0.0056848777
-0.008293936 0.016202973 -1.0630985 -2.0103014 -0.020295583 0.1313996 -0.006633186 0.022648942
-0.0340196 0.022288617 0.34056294 -0.0049845446 -0.59277695 -2.054102 -0.033535767 -0.009927367
0.036863893 -0.1923924 -0.2874749 -0.022567453 0.7446004 -0.020150334 -0.01527184 -0.7698988
0.65946394 -1.9207941 0.019163042 -1.0761317 -0.458855 0.008731606 -0.002801113 -0.23073265
-0.026811112 1.2265086 -0.020625075 -0.260434 0.6423117 -0.030061254 0.026514329 -0.009141889
-0.1529953 -0.16111067 -0.4923241 0.02040666 1.131329 0.030495338 -0.36431262 0.4207305
-2.8434608 -0.031254847 0.0025224767 3.0914826 -0.0032538841 -0.08543493 0.0042537223 -0.0071265413
-1.7527897 1.6456904 -0.3788811 -1.4842131 -0.030963557 -0.02968427 0.13623516 -0.0031535802
00000000: 23ba 1040 32ff 693b 3854 c23e 1001 32be
00000010: 3331 52bb eaf2 85bf 6397 b63c 03eb a3bc
00000020: 4db9 18bf f26a c23e 4757 65bc 3309 d2bc
00000030: a6b9 06be 0b9f 40be b6a2 103e 72fd 41bc
00000040: 2f4b 86bc c00a 16bf 40ee c03b 7a14 2f3d
00000050: 7600 e4bc ab5a a73f 9ee6 27b9 f087 75bf
00000060: 00f8 993e 39f4 763f 04ce 71bf 0204 72be
00000070: f197 b0bc 5c8a e4bd 0d9c 923c e41d ec3b
00000080: 0077 cdbc 287e 50bc ac40 4abb 4db7 2b3d
00000090: a44a 1b3c 644d af3f 86a5 66bf b295 82c0
000000a0: d43e 24bf fa75 d7bb bb10 f63b 18e2 0d3c
000000b0: 95fe 31bf cc07 7b3c 0cc1 783b c5bc ecbe
000000c0: 0f92 08c0 54fa 563d 2875 cdbc adc0 b73d
000000d0: bb2b 38bf 3d9a 493c 6341 96bc 4c6c a9bb
000000e0: 559a 373f 84ad 963b 2c15 9dbc e2d9 f8bc
000000f0: 1f74 133d e83e c03d 2a7d 87be 7b97 293c
00000100: d07a d53e 8102 e1bf f79c 793c 4ec0 3ebe
00000110: 0164 e23c f284 603e d2e3 0cbf 5699 453c
00000120: d439 cf3c d6c2 46bf 9a2c ac3c 2909 cfbe
00000130: a8d6 483f 879e 6f3e f299 0fbe bf0a 54bd
00000140: c830 083d 3e3f c3be 7e1d 30bc 08e5 f9bb
00000150: 9d80 11bf 1ea3 153e fbdd 84bf e304 1f3c
00000160: 84ec 353c b691 3e3b 7b56 eb3c 7e39 1d3d
00000170: a7ac b93f d24c 46bb ed0d 4ebf 58f6 f83b
00000180: e572 4a3d 8275 f43f fb27 2ebf 17ce 38be
00000190: e787 c83a c8bb fcbd 1a1d 3a3c 8c7b 333c
000001a0: 2491 2f3f 81c5 b5bf 0890 c13c 5691 f43c
000001b0: 18fc a5be c0c7 7a3c 9426 b1be 41ec bebc
000001c0: d87a 0f3c b06a ba3c a212 3abc ec06 64bc
000001d0: 7541 793e 2235 2abf 25c3 e8bc 1073 8e3e
000001e0: e70d d43f a5ba b63e 5763 5dbe 73b0 0240
000001f0: 75fd d5bc d6b4 a73c 453e acbc 0be2 e0bc
00000200: ea7d 04bf 908f 29bb 718e a1bd 9ddb efbb
00000210: d02b 08c0 02ea ad3e 7ad2 033c a8ee e3bf
00000220: b485 23bd 148b d13c 8a37 da3c 8bf4 e63b
00000230: dc8e 41bb 27b7 eabe 9fdb da3d 598b 20bc
00000240: ba93 dcbc 7c54 de3d ad64 85bc d216 17bc
00000250: b42c 733f 1a5b 6d3e c58a 99bb 409c 30c0
00000260: c0ed c83c f89a 9bbc 9562 19bb b504 ec3b
00000270: 3eb2 a73c f870 143e cfae bf3e 3160 01bf
00000280: b54b e5bd f6d8 78bc 24de 063c 7198 8a3c
00000290: 9001 df3c 4aa9 1cbd fb0b b4bf e4ef e7be
000002a0: 0119 b13d 1695 373c 47bb bf3e 634d d13e
000002b0: 77d7 96bf f81a bfbc 2dc1 64bc b8f8 09bf
000002c0: ca3a 38bf c041 943f e8e3 65bf 98dd c8be
000002d0: d4e8 4dbb 1701 a03a 3e7b 27bc 60e2 43bf
000002e0: bda9 be3d ae71 03bd f553 80bf 0a61 17bd
000002f0: 5e5c 4cbf 7302 323f 6f39 a3bc 3648 babb
00000300: 4ae3 07bc 19bc 843c 9d13 88bf c7a8 00c0
00000310: ec42 a6bc 9e8d 063e 325b d9bb 468a b93c
00000320: 2358 0bbd 9e96 b63c 445e ae3e 6455 a3bb
00000330: 3bc0 17bf 6876 03c0 cd5c 09bd 65a6 22bc
00000340: 98fe 163d 8302 45be e92f 93be 61df b8bc
00000350: 229e 3e3f 5012 a5bc bd36 7abc 1618 45bf
00000360: a1d2 283f 95dc f5bf d0fb 9c3c afbe 89bf
00000370: 0bef eabe 030f 0f3c e192 37bb 2e45 6cbe
00000380: faa2 dbbc 3cfe 9c3f ebf5 a8bc 9b57 85be
00000390: 8a6e 243f 0543 f6bc 9434 d93c ddc7 15bc
000003a0: cdaa 1cbe 32fa 24be e811 fcbe de2b a73c
000003b0: 64cf 903f 5cd1 f93c 2f87 babe fd69 d73e
000003c0: 43fb 35c0 1505 00bd 2350 253b dada 4540
000003d0: 1e3f 55bb 82f8 aebd cf62 8b3b c385 e9bb
000003e0: 6a5b e0bf fca5 d23f b4fc c1be b2fa bdbf
000003f0: 49a7 fdbc 6d2c f3bc 3b81 0b3e 4cac 4ebb
