preTrained/BipedalWalker-v2/TWO/TD3_BipedalWalker-v2_0_solved_actor_target.pth (torch_old, 527002 bytes, 6 tensors)

l1.weight f4 [400, 24]
-0.3470156 0.39431193 -0.9599278 0.74399185 0.2512964 -0.0762441 -0.06743899 -0.39846635
0.14482303 -0.11506613 0.12154665 -0.40262675 -0.4418705 0.4443322 -0.39037803 -0.5384272
-0.50253326 -0.6555862 -0.433806 -0.44052944 -0.61822593 -0.72559786 -0.66821045 -0.65016216
2.1943803 6.5515704 0.22231486 1.7866179 1.0808431 0.08630425 0.7751003 0.19758293
-0.011161805 0.16730972 0.16719064 -0.10280932 0.101154074 -0.20265375 0.32472357 0.40282652
0.24163319 0.08577378 0.29415813 0.42792523 0.5281894 0.29554975 -0.07862935 -0.46923846
-0.47598228 -0.9943077 0.53890395 1.4865532 0.051216457 -0.65241516 0.7545062 -1.1903416
-0.66269106 -0.42544943 -0.18068123 -0.11755463 -0.03726374 0.1619713 -0.7253356 -0.73857975
-0.55361444 -0.5590027 -0.79470354 -0.80438334 -0.8218237 -0.6637282 -0.76651055 -0.38100818
0.029126769 -0.7747836 0.94433516 0.33923122 -0.17958747 0.16369686 0.34948322 0.25300705
-0.42351225 0.16032623 0.014275977 0.09462619 0.1915263 -0.024626615 -0.47760952 -0.27829733
-0.17261672 -0.20259787 -0.34615135 -0.18350947 -0.42329174 -0.16088055 -0.29138654 -0.3857706
1.2773814 0.6364519 -1.1872393 0.68293834 0.1630481 1.1553125 0.017950282 0.13806385
-0.17491448 -0.4038257 0.78020823 0.19331245 -0.1358518 -0.40171704 -0.6393671 -0.5167234
-0.53964823 -0.34389374 -0.64244163 -0.3522325 -0.564836 -0.503015 -0.6667961 -0.23449752
1.5466261 2.0374427 -3.436156 2.8867533 1.8142248 -0.25160596 0.6020783 0.26370928
0.62465733 0.61828387 -0.2831153 0.1801683 -0.3645291 0.40458202 -0.075802766 -0.12888397
-0.12831107 -0.019822856 -0.14307062 -0.11544895 0.17498277 0.07581532 -0.19189426 0.21743257
-0.7561302 -0.5465237 -1.8090883 1.9189575 -1.089893 -0.8758365 0.044309583 0.07455215
-2.242291 0.9636055 -0.5638711 0.47055453 0.08800744 0.38585213 -0.16526327 -0.12713277
-0.30294296 -0.32552978 -0.36624807 -0.072617106 -0.25149003 -0.1060934 -0.122117124 -0.20841426
-0.9416671 -2.2992413 0.27405283 -0.5757803 -0.60940886 0.6896692 0.14513367 -0.06861481
-0.08676456 0.89647174 -0.7346281 1.4499518 0.69013745 0.19515091 -0.25848323 -0.36188847
-0.3161786 -0.14854284 -0.33795634 -0.36370674 -0.024005475 -0.044197302 -0.35777667 -0.35886407
-1.0433111 -1.9496207 1.3102363 -1.4425844 -1.4392143 0.67103827 0.33946136 -0.42862073
-0.6812609 -1.0014935 1.0779308 -0.2647076 0.94284815 -0.25355437 -0.35034853 -0.3728813
-0.3156027 -0.26514366 -0.28645846 -0.2442409 -0.35132635 -0.25229037 -0.11085251 -0.2874921
-0.107837565 0.031841207 -0.20095575 0.5281275 -0.13188583 0.54466176 -0.027049545 0.47158346
-1.0038445 0.18019842 -0.42171815 0.1733707 0.25192228 -0.8459397 -0.315294 -0.29458135
-0.48043478 -0.34071538 -0.3657434 -0.24840409 -0.11235114 -0.23558313 -0.45367226 -0.5301421
0.11653345 1.5320486 -0.5278924 4.198894 -0.013590771 -0.39558738 0.23336154 0.48843536
0.0152781345 0.89467186 0.47498313 0.39758244 -0.04667964 -0.96305233 -0.06891162 -0.18798605
00000000: 07ac b1be 41e3 c93e d4bd 75bf 4076 3e3f
00000010: eca9 803e de25 9cbd 741d 8abd c803 ccbe
00000020: 7d4c 143e cba7 ebbd 73ed f83d 1825 cebe
00000030: da3c e2be 837f e33e a1df c7be 5dd6 09bf
00000040: 05a6 00bf 7fd4 27bf d21b debe 138d e1be
00000050: 0e44 1ebf c8c0 39bf d70f 2bbf 0771 26bf
00000060: ba70 0c40 77a6 d140 82a6 633e e5af e43f
00000070: 1159 8a3f 48c0 b03d f96c 463f 2e53 4a3e
00000080: 01e0 36bc 3d53 2b3e 0634 2b3e b18d d2bd
00000090: de29 cf3d 7784 4fbe 2b42 a63e 473f ce3e
000000a0: b16e 773e 2aaa af3d e59b 963e 0419 db3e
000000b0: 6c37 073f 4c52 973e 6d08 a1bd 0640 f0be
000000c0: f3b3 f3be f38a 7ebf 9cf5 093f 6047 be3f
000000d0: 59c8 513d ae04 27bf 5127 413f 1d5d 98bf
000000e0: 1fa6 29bf 82d4 d9be 8004 39be 7bc0 f0bd
000000f0: dda1 18bd cedb 253e 98af 39bf 9013 3dbf
00000100: adb9 0dbf cd1a 0fbf b171 4bbf 11ec 4dbf
00000110: 0a63 52bf 17ea 29bf 093a 44bf 8113 c3be
00000120: 439b ee3c 3858 46bf f3bf 713f b7af ad3e
00000130: c7e5 37be 26a0 273e 77ef b23e 248a 813e
00000140: 99d6 d8be 8f2c 243e cae5 693c 60cb c13d
00000150: 781f 443e c1bd c9bc 3c89 f4be fd7c 8ebe
00000160: 70c2 30be d175 4fbe c03a b1be e8e9 3bbe
00000170: b2b9 d8be dfbd 24be 9e30 95be b983 c5be
00000180: 3c81 a33f 83ee 223f 75f7 97bf 0cd5 2e3f
00000190: 15f6 263e 48e1 933f 780c 933c 9c60 0d3e
000001a0: c81c 33be 3ec2 cebe babb 473f b3f3 453e
000001b0: bc1c 0bbe dbad cdbe 90ad 23bf fc47 04bf
000001c0: 6326 0abf d712 b0be 0e77 24bf d157 b4be
000001d0: 1899 10bf 97c5 00bf 26b3 2abf 1e20 70be
000001e0: d8f7 c53f 7665 0240 fbe9 5bc0 91c0 3840
000001f0: 8538 e83f 7fd2 80be ce21 1a3f e704 873e
00000200: 8be9 1f3f da47 1e3f 7df4 90be 0a7e 383e
00000210: 8fa3 babe 6025 cf3e 7b3e 9bbd 29fa 03be
00000220: fa63 03be 8b63 a2bc 1b81 12be 8070 ecbd
00000230: af2e 333e 1045 9b3d ee7f 44be a5a6 5e3e
00000240: c091 41bf fae8 0bbf 3590 e7bf 66a0 f53f
00000250: 9d81 8bbf d236 60bf f77d 353d ccae 983d
00000260: b281 0fc0 daae 763f db59 10bf 86ec f03e
00000270: 3f3d b43d 698e c53e c63a 29be 182f 02be
00000280: 571b 9bbe d7ab a6be de84 bbbe 47b8 94bd
00000290: 4dc3 80be 7f47 d9bd 8b18 fabd 8c6a 55be
000002a0: 1811 71bf c526 13c0 a750 8c3e 5666 13bf
000002b0: 3802 1cbf 298e 303f ec9d 143e ec85 8cbd
000002c0: 9eb1 b1bd 2c7f 653f 9610 3cbf 0598 b93f
000002d0: d9ac 303f a4d5 473e ea57 84be 7249 b9be
000002e0: 29e2 a1be 9d1b 18be 9d08 adbe c537 babe
000002f0: 21a7 c4bc 3b08 35bd 812e b7be 08bd b7be
00000300: 388b 85bf 2c8d f9bf d3b5 a73f 9ba6 b8bf
00000310: 2d38 b8bf 2ac9 2b3f e1cd ad3e 2d74 dbbe
00000320: 1d67 2ebf f030 80bf a3f9 893f c187 87be
00000330: 7f5e 713f e1d1 81be e260 b3be 4cea bebe
00000340: ad96 a1be e9c0 87be afaa 92be 491a 7abe
00000350: 0ce1 b3be 342c 81be a406 e3bd 2a32 93be
00000360: f1d9 dcbd ed6b 023d 58c7 4dbe 5d33 073f
00000370: 140d 07be f46e 0b3f 0297 ddbc 6373 f13e
00000380: fa7d 80bf ef85 383e 71eb d7be 1788 313e
00000390: f5fb 803e 818f 58bf 376e a1be 5ed3 96be
000003a0: 8cfb f5be 3f72 aebe b842 bbbe a45d 7ebe
000003b0: 5b18 e6bd b43c 71be bb47 e8be 65b7 07bf
000003c0: 17a9 ee3d 2b1a c43f f523 07bf 575d 8640
000003d0: d3ab 5ebc 6e8a cabe 54f6 6e3e 3314 fa3e
000003e0: 2451 7a3c 3709 653f fd30 f33e ed8f cb3e
000003f0: 2633 3fbd 998a 76bf 8921 8dbd 6a7f 40be

l1.bias f4 [400]
-0.72974634 -0.42379305 -0.3654096 -0.62450826 0.011477902 0.2579025 -0.08929314 0.32262853
0.57813174 -0.59163034 -0.4915185 -0.29621452 0.1995869 -0.27449456 -0.68511844 0.17996807
0.11773881 -0.92143506 -0.42906147 -0.61832356 -0.36585975 0.0072487285 -0.02614379 -0.3464916
-0.45131913 -0.38504997 0.5208882 0.15764746 -0.2703645 0.18749776 -0.28760853 -0.5069475
-0.31993088 0.06485039 -0.21489629 -0.4333232 0.12987271 -0.26884574 -0.5281301 -0.82838756
-0.3161096 -0.53214496 -0.8656689 -0.21304631 -0.39646962 -0.06009391 -0.17672484 -0.36011454
-0.54519427 -0.14706929 0.060267553 -0.6547994 -0.22344542 -0.7381029 0.099460766 -0.47916296
-0.33900577 -0.643124 0.056705263 -0.37744695 -0.48011947 -0.05628025 0.33331785 0.19007403
-0.09442913 -0.42217383 -0.23548362 -0.57944894 -0.8300254 -0.29027468 -0.096700065 -0.56034976
-0.08776353 -0.20591998 0.07658906 -0.7140117 -0.34933424 0.2027139 -0.6378324 -0.3911629
-0.32478306 -0.451828 -0.22226602 -0.11150908 -0.07881077 -0.1243993 -0.4942204 -0.47398937
-0.14896648 -0.56026506 0.40537274 0.16709644 0.042965185 -0.8072563 -0.19622456 0.20350377
-0.08423917 0.22594962 -0.5411515 -0.1864343 -0.48721182 0.34099272 0.0853582 0.6183104
-0.48232773 -0.36459303 -0.23072831 -0.67693657 -0.19119133 0.20095335 -0.40541387 -0.5255598
-0.108931154 0.4498325 -0.47203347 -0.20636481 -0.19530098 -0.54352933 0.27434883 0.39958602
0.5899193 -0.03480787 0.11265946 -0.03946838 -0.14195904 -0.3855567 -0.0288648 -0.10238027
-0.099839486 -0.9770582 0.22625528 -0.29117754 -0.114945605 -0.46933043 -0.08675152 -0.04462132
-0.63917106 -0.161904 -0.12436279 -0.3038177 0.49708447 -0.5589538 -0.8135029 -0.5005693
0.122700386 -0.76888657 -0.6993074 -0.031792525 -0.54199165 0.008452136 -0.21191913 -0.46111396
-0.06226329 -0.5323356 -0.12103437 0.4168075 0.2304432 0.016045945 0.11113895 0.35413888
0.50738245 0.40229788 -0.091316804 0.13568166 -0.2080352 -0.64596 -0.60195386 -0.08984348
0.6112513 0.047092367 0.09852621 0.07843284 0.34557864 0.5053549 -0.54588336 -0.2506512
0.12952699 0.19840936 -0.14791995 -0.229441 0.3287114 0.5002452 -0.389374 -0.38068283
-0.17682779 -0.15102738 -0.20900494 -0.04418666 -0.11866832 -0.034784645 -0.21140447 -0.31143874
-0.56142265 0.2837564 -0.12604544 -0.44015393 0.10157943 -0.5192569 0.17943785 -0.2714813
-0.1254402 0.2592876 -0.1922505 0.29261652 -0.51092595 -0.33298466 -0.28049383 0.13244611
-0.35033238 -0.12406116 0.25339288 -0.075782165 -0.42174202 0.36597922 0.46814644 -0.060879346
-0.2345403 -0.63585705 0.23515019 -0.34355837 -0.09916752 -0.075075 0.19656762 -0.49693602
-0.71695125 -0.37173963 -0.24450296 0.33757982 -0.45237288 -0.46621922 -0.5125633 0.53461623
-0.75934607 0.12018794 -0.1523961 0.09762189 -0.39019278 0.28200424 -0.10855266 -0.16962157
-0.60200155 -0.591082 -0.057510152 0.15839311 0.25169098 -0.05632141 -0.63825315 -0.2932119
-0.10265156 -0.65580076 -0.46836218 -0.2795648 -0.07593565 -0.6132351 -0.22081026 -0.5110547
00000000: a8d0 3abf 67fb d8be f816 bbbe c6df 1fbf
00000010: cf0d 3c3c cc0b 843e 52df b6bd 912f a53e
00000020: 7100 143f 1675 17bf 50a8 fbbe 6ea9 97be
00000030: 8260 4c3e 8d8a 8cbe ec63 2fbf 8d49 383e
00000040: 0c21 f13d 2be3 6bbf f2ad dbbe 744a 1ebf
00000050: f851 bbbe be86 ed3b 802b d6bc 5967 b1be
00000060: 4d13 e7be 4525 c5be ee58 053f 566e 213e
00000070: 376d 8abe 6aff 3f3e 6d41 93be 50c7 01bf
00000080: fbcd a3be 48d0 843d c60d 5cbe 8adc ddbe
00000090: 5afd 043e 26a6 89be 8933 07bf 3511 54bf
000000a0: 1ed9 a1be a73a 08bf 7a9c 5dbf d028 5abe
000000b0: 11fe cabe 0825 76bd 5bf7 34be ef60 b8be
000000c0: da91 0bbf 5599 16be 1cdb 763d efa0 27bf
000000d0: e0ce 64be 50f4 3cbf 16b2 cb3d d954 f5be
000000e0: 2a92 adbe c6a3 24bf c743 683d ba40 c1be
000000f0: 38d2 f5be 1f86 66bd a3a8 aa3e c4a2 423e
00000100: 0f64 c1bd 2b27 d8be 9e22 71be c456 14bf
00000110: 8b7c 54bf e29e 94be af0a c6bd 1573 0fbf
00000120: 5ebd b3bd b0dc 52be bada 9c3d 79c9 36bf
00000130: f0db b2be 3c94 4f3e fc48 23bf 8146 c8be
00000140: f749 a6be 0056 e7be b499 63be df5e e4bd
00000150: 8a67 a1bd 0fc5 febd 750a fdbe bcae f2be
00000160: ab8a 18be 886d 0fbf 048d cf3e 541b 2b3e
00000170: 43fc 2f3d 59a8 4ebf 17ef 48be 4b63 503e
00000180: 9685 acbd 565f 673e e888 0abf a2e8 3ebe
00000190: d473 f9be 9996 ae3e 48d0 ae3d 9749 1e3f
000001a0: a9f3 f6be f0ab babe 0b44 6cbe b74b 2dbf
000001b0: a9c7 43be b7c6 4d3e 6892 cfbe 168b 06bf
000001c0: 4c17 dfbd 7250 e63e 5fae f1be 4c51 53be
000001d0: fbfc 47be bd24 0bbf 7377 8c3e 8a96 cc3e
000001e0: f404 173f b292 0ebd 01ba e63d 99a9 21bd
000001f0: b65d 11be b067 c5be e075 ecbc bfac d1bd
00000200: a578 ccbd 7c20 7abf 77af 673e 3915 95be
00000210: 9a68 ebbd 144c f0be c8aa b1bd d8c4 36bd
00000220: b7a0 23bf 2aca 25be ebb1 febd fe8d 9bbe
00000230: db81 fe3e 9917 0fbf ba41 50bf 4f25 00bf
00000240: 574a fb3d c0d5 44bf cf05 33bf e138 02bd
00000250: f7bf 0abf d47a 0a3c 5401 59be 2117 ecbe
00000260: cb07 7fbd 2547 08bf dee0 f7bd cb67 d53e
00000270: 4df9 6b3e c972 833c d19c e33d b151 b53e
00000280: d1e3 013f fdf9 cd3e 4e04 bbbd 22f0 0a3e
00000290: 2e07 55be a25d 25bf a619 1abf dcff b7bd
000002a0: f77a 1c3f ede3 403d 1cc8 c93d 66a1 a03d
000002b0: afef b03e f05e 013f 03bf 0bbf 5b55 80be
000002c0: b9a2 043e d32b 4b3e 5478 17be 95f2 6abe
000002d0: dc4c a83e 1210 003f 075c c7be dce8 c2be
000002e0: 5812 35be eca6 1abe 6405 56be 12fd 34bd
000002f0: 6008 f3bd 587a 0ebd 6a7a 58be e674 9fbe
00000300: 65b9 0fbf 8548 913e 0e12 01be db5b e1be
00000310: e008 d03d 05ee 04bf 8ebe 373e 99ff 8abe
00000320: 6573 00be 58c1 843e 51dd 44be d5d1 953e
00000330: 0bcc 02bf f77c aabe e39c 8fbe f49f 073e
00000340: c45e b3be c713 febd b6bc 813e ae33 9bbd
00000350: 92ee d7be a161 bb3e e4b0 ef3e 9f5c 79bd
00000360: 552b 70be 87c7 22bf 36cb 703e e2e6 afbe
00000370: 5718 cbbd ecc0 99bd 0649 493e 666e febe
00000380: 1e8a 37bf a854 bebe fc5e 7abe 43d7 ac3e
00000390: 6b9d e7be 49b4 eebe 5937 03bf 9cdc 083f
000003a0: 8164 42bf 1825 f63d b90d 1cbe fced c73d
000003b0: 59c7 c7be dc62 903e db50 debd 47b1 2dbe
000003c0: c61c 1abf 2651 17bf c48f 6bbd ce31 223e
000003d0: a4dd 803e 47b1 66bd 8f64 23bf df1f 96be
000003e0: fb3a d2bd 8fe2 27bf 2bcd efbe 1e23 8fbe
000003f0: 2684 9bbd fafc 1cbf 161c 62be 7bd4 02bf

l2.weight f4 [300, 400]
-0.012091466 -0.019449573 -0.036838315 -0.029913552 -0.18369424 0.014909464 -0.104279175 -0.09763176
0.03751855 0.0016767896 -0.045307394 -0.11230942 -0.039498176 0.025674911 -0.07818126 -0.012493239
0.023485556 -0.032148167 -0.03627356 -0.113033615 0.028705064 -0.06794415 -0.04791436 -0.0164373
-0.11887637 -0.04921523 0.036631186 -0.16121136 -0.060189947 0.036673654 -0.09892518 0.028453235
-0.042222854 -0.06488494 -0.06016089 -0.08431011 -0.16248988 -0.0944146 0.055765785 -0.14322266
0.0133303115 -0.021576717 -0.15082225 0.040189587 0.038485635 0.06478956 -0.04608822 -0.1298861
-0.020072816 -0.006684714 -0.06255179 -0.029579394 -0.061297104 -0.033382732 -0.02011752 -0.01352589
-0.026454989 -0.016586686 0.044873025 0.0887581 0.04911912 -0.09382004 -0.047436778 -0.036630444
-0.21231642 0.02140088 -0.07465266 -0.026024718 -0.11913415 -0.09954507 -0.040936884 -0.050322387
0.032003626 -0.06952218 -0.013160811 -0.1158395 -0.031151839 -0.049465567 0.025820198 -0.044094443
0.021177363 -0.060906693 -0.057442915 0.010454198 -0.05101753 0.03700446 -0.018149074 -0.032246515
-0.07196002 -0.119093925 -0.074898526 0.023728818 -0.054416485 -0.05512653 -0.032207776 -0.00064974366
-0.07211647 0.016594134 0.007415337 -0.13662441 0.041842125 -0.12585981 -0.017080287 0.06279318
-0.012116053 0.02537167 -0.0024742705 -0.004172376 -0.05462361 -0.07484786 -0.00395575 -0.021130053
-0.097576626 -0.11259849 0.08087389 -0.110732876 0.020824205 -0.12228873 -0.0008306649 0.0086804
0.046382513 -0.12660189 -0.106079236 -0.034835596 0.019959193 -0.03917184 -0.0042052516 -0.058427136
-0.07004223 -0.053412147 -0.03515672 -0.037385188 0.077023424 0.0039350744 -0.15388593 -0.022341147
0.025939407 0.012733707 -0.022992328 -0.09289765 0.019648504 -0.08987123 -0.009929864 -0.05550204
-0.048697416 0.0034895528 -0.12375054 -0.12785955 -0.02021624 -0.06607404 0.11796441 -0.0019246615
0.017080657 -0.057818424 -0.021379275 -0.10446097 -0.036552213 -0.061619714 -0.07401191 -0.012511865
0.021254104 -0.00038573964 0.01774339 -0.04465249 0.1294182 -0.14196202 -0.18934478 0.076004185
-0.0043909573 -0.0885927 -0.043227196 -0.04086461 -0.0018142996 -0.06681911 -0.0503507 -0.031759843
-0.04633856 -0.17839241 -0.07923775 -0.0081551345 -0.035256557 -0.06878606 -0.11062112 0.021494014
0.0144809075 -0.09381259 -0.022423849 -0.03183003 -0.16701387 0.12442407 0.051532365 -0.10884936
-0.008456324 -0.10806109 -0.05065915 0.030813953 0.027057739 -0.12581211 -0.032157112 0.037158687
-0.09647692 -0.04221764 0.03812748 -0.052781828 -0.047696058 -0.03883209 -0.023361877 0.06520531
0.082608394 -0.036066435 0.02201481 -0.061606303 0.06793967 -0.17150508 -0.04075658 -0.11901495
-0.06485811 -0.044406045 0.02214296 -0.15452668 -0.16763674 0.01602193 -0.053497083 -0.040289428
-0.01847094 -0.0563745 0.017785113 -0.0529219 -0.047365252 -0.07458858 -0.19956101 0.050839458
-0.1440899 -0.06580285 -0.014597657 0.03171529 -0.06798289 0.027712647 -0.12818141 -0.019089563
0.016686894 -0.057799052 -0.00023726193 -0.046581447 -0.17296839 -0.05628584 -0.039399084 -0.05269838
-0.039065298 0.011617235 -0.060604945 -0.008984199 -0.04302603 0.08854651 0.058792215 -0.11203225
00000000: 491b 46bc b654 9fbc c6e3 16bd 440d f5bc
00000010: 581a 3cbe d346 743c 5290 d5bd 29f3 c7bd
00000020: 0dad 193d b9c7 db3a 3f94 39bd 7b02 e6bd
00000030: d7c8 21bd 3154 d23c 7f1d a0bd 71b0 4cbc
00000040: c864 c03c ccad 03bd 9693 14bd 2b7e e7bd
00000050: e226 eb3c 4d26 8bbd d941 44bd 84a7 86bc
00000060: 7475 f3bd e995 49bd 950a 163d 9714 25be
00000070: bc89 76bd 1d37 163d 4999 cabd c216 e93c
00000080: dff1 2cbd 65e2 84bd 446b 76bd c7aa acbd
00000090: bf63 26be 715c c1bd aa6a 643d f6a8 12be
000000a0: 6167 5a3c a8c1 b0bc 2671 1abe d69d 243d
000000b0: 1da3 1d3d 64b0 843d 00c7 3cbd dd00 05be
000000c0: bf6f a4bc 720b dbbb 271b 80bd 7c50 f2bc
000000d0: ac12 7bbd 55bc 08bd 7fcd a4bc b29b 5dbc
000000e0: 22b8 d8bc cde0 87bc c7cc 373d cfc6 b53d
000000f0: 2131 493d b924 c0bd 114d 42bd ce09 16bd
00000100: 7a69 59be e650 af3c 7ee3 98bd ca31 d5bc
00000110: 9bfc f3bd 49de cbbd 6fad 27bd d91e 4ebd
00000120: 3c16 033d a561 8ebd 71a0 57bc 433d edbd
00000130: 2432 ffbc 689c 4abd e184 d33c 609c 34bd
00000140: 267c ad3c 4c79 79bd 4349 6bbd 1648 2b3c
00000150: c2f7 50bd fd91 173d 5ead 94bc ec14 04bd
00000160: c65f 93bd 84e7 f3bd 6664 99bd f062 c23c
00000170: d2e3 5ebd 5bcc 61bd 4dec 03bd 8f53 2aba
00000180: cdb1 93bd 6cf0 873c 5bfc f23b 45e7 0bbe
00000190: a662 2b3d 65e1 00be f5eb 8bbc b699 803d
000001a0: 6982 46bc 40d8 cf3c 5f27 22bb 6db8 88bb
000001b0: 02bd 5fbd d649 99bd 3c9f 81bb ef18 adbc
000001c0: 41d6 c7bd 0a9a e6bd 36a1 a53d ebc7 e2bd
000001d0: 8697 aa3c 8472 fabd fac0 59ba 3d38 0e3c
000001e0: 97fb 3d3d eda3 01be 1240 d9bd c5af 0ebd
000001f0: 7681 a33c a772 20bd 35cc 89bb 4b51 6fbd
00000200: 4d72 8fbd b2c6 5abd 7e00 10bd 3621 19bd
00000210: 75be 9d3d ccf1 803b 4694 1dbe c804 b7bc
00000220: e17e d43c 0aa1 503c 685a bcbc 2041 bebd
00000230: e6f5 a03c 680e b8bd deb0 22bc 1b56 63bd
00000240: f176 47bd fbb0 643b ec70 fdbd 9ded 02be
00000250: 879c a5bc d451 87bd 5397 f13d ec44 fcba
00000260: bcec 8b3c 03d3 6cbd 9723 afbc a2ef d5bd
00000270: c6b7 15bd f464 7cbd 8e93 97bd 91fe 4cbc
00000280: 161d ae3c 193d cab9 965a 913c 88e5 36bd
00000290: 3486 043e 7e5e 11be 99e3 41be 15a8 9b3d
000002a0: 05e2 8fbb 1770 b5bd 000f 31bd a661 27bd
000002b0: cbcd edba 75d8 88bd 893c 4ebd 9c16 02bd
000002c0: 80cd 3dbd 80ac 36be 6747 a2bd 1d9d 05bc
000002d0: 2e69 10bd b5df 8cbd 538d e2bd 3714 b03c
000002e0: 5441 6d3c d120 c0bd 38b2 b7bc 3560 02bd
000002f0: af05 2bbe 0cd2 fe3d 9a13 533d 6aec debd
00000300: 658c 0abc 224f ddbd f87f 4fbd 8b6d fc3c
00000310: 31a8 dd3c e4d4 00be 2db7 03bd b533 183d
00000320: b195 c5bd 67ec 2cbd 8f2b 1c3d c231 58bd
00000330: f15c 43bd 660e 1fbd 6861 bfbc 5d8a 853d
00000340: 972e a93d 66ba 13bd 6758 b43c e456 7cbd
00000350: f423 8b3d 079f 2fbe 5ff0 26bd 1cbe f3bd
00000360: 54d4 84bd 1de3 35bd 2765 b53c 3e3c 1ebe
00000370: f7a8 2bbe 6c40 833c c21f 5bbd 8706 25bd
00000380: 5e50 97bc f3e8 66bd 16b2 913c a2c4 58bd
00000390: 1102 42bd e6c1 98bd b959 4cbe 093d 503d
000003a0: 4e8c 13be a5c3 86bd 032b 6fbc e4e7 013d
000003b0: 9d3a 8bbd a205 e33c fd41 03be b761 9cbc
000003c0: f4b2 883c b3be 6cbd 84c9 78b9 30cc 3ebd
000003d0: a01e 31be fb8b 66bd ef60 21bd 42da 57bd
000003e0: ef02 20bd 3756 3e3c e43c 78bd 7632 13bc
000003f0: 103c 30bd df57 b53d 1bd0 703d 2a71 e5bd

l2.bias f4 [300]
-0.14862582 -0.055214446 0.10692392 0.11659351 -0.021448938 -0.10045553 -0.06165026 -0.045389354
-0.092283726 -0.06030543 0.19524524 -0.098279476 -0.097835906 -0.3247118 -0.37620404 -0.0066194283
-0.33265683 -0.0005754856 -0.11667099 0.035760958 -0.0611317 -0.036520176 -0.041258004 -0.043194413
0.17876093 -0.030779682 0.40654603 -0.064713575 -0.2436536 -0.2333956 -0.1756655 -0.035021115
0.49918306 -0.4155729 -0.09361589 -0.09811456 -0.24543685 -0.24349564 -0.05346728 -0.36655602
-0.2463507 -0.22129595 -0.08496725 -0.049890254 0.08783423 0.71756923 -0.058581363 -0.09520138
-0.03739562 -0.40039757 -0.0687354 -0.23399761 -0.036482923 -0.037082694 -0.09391541 -0.13973577
-0.22214524 -0.03336336 -0.06759099 -0.029955648 -0.01693649 0.15870944 -0.3338847 -0.031964142
-0.106706575 -0.041871186 -0.040393736 -0.0029845892 -0.05134014 -0.38360098 -0.04556817 -0.05901499
-0.08374386 -0.3744576 -0.103099 -0.035558306 -0.009971215 -0.6733126 0.0029500835 -0.06078525
-1.1020175 0.7804425 -0.054544635 -0.07177822 -0.7075496 -0.102798 -0.02096018 0.008654509
-0.075958 -0.1625167 -0.0076837447 -0.019154157 -0.030120678 -0.0901767 -0.6922312 -0.35575366
-0.07867747 0.049524426 -0.025784064 -0.0073338468 0.0017869186 -0.07899784 -0.15070145 0.041423388
-0.089448035 -0.07653318 -0.03359731 -0.16100214 -0.28462142 -0.049812768 -0.055493098 -0.15945189
-0.090228856 -0.045218736 -0.04927558 -0.046763986 -0.024280908 -0.007094124 -0.0051917094 0.24284594
-0.35738087 -0.038383566 -0.12948377 -0.011540063 -0.31904313 -0.06107135 -0.0076365266 -0.021245537
0.031178707 -0.042938855 -0.06340227 -0.30283064 -0.046845198 0.21641125 -0.043984175 -0.019047614
-0.21139853 1.1479237 1.0182381 -0.04448709 -0.011718751 -0.14025135 -0.52661353 -0.003605875
-0.5127614 -0.031579692 -0.06533942 -0.08796388 -0.03969487 -0.012300641 -0.059806243 -0.0763353
0.31444758 -0.047372703 -0.019237977 -0.07921838 -0.07280746 -0.101278074 -0.03729578 -0.1533719
-0.067158855 0.59019476 -0.54930395 -0.10304834 -0.0521001 -0.05992098 0.12241095 0.36639982
-0.04624915 -0.3333933 -0.07250242 -0.03163855 0.43685573 -0.01303676 -0.075521395 -0.0969776
0.44198972 -0.77466446 -0.077050194 -0.0471015 0.6018304 -0.06854466 -0.09946311 -0.082888536
-0.083003275 -0.08096927 0.14999075 -0.4203293 0.1748191 0.6852888 -0.051245518 -0.003092157
-0.08934671 -0.4026685 -0.08683139 -0.21493605 -0.050704602 -0.048246656 0.0004001402 -0.056247097
0.42669594 -0.051431783 0.87517446 0.1484223 0.6714041 -0.016222725 -0.18800665 -0.07986807
-0.3845785 -0.38673618 0.05892111 -0.12655799 -0.06374202 -0.14860496 -0.010482139 -0.13812049
-0.1641141 -0.09634579 -0.5232995 -0.0784316 0.42364967 0.5685007 0.18114613 -0.11516448
-0.07387631 -0.051015295 -0.029053753 0.0031974795 -0.10990735 -0.06889931 -0.0860908 -0.017425993
-0.025040867 -0.04663956 0.54898 -0.049034182 -0.24233335 -0.046965156 -0.065865435 -0.061434194
-0.099963784 -0.019166078 -0.069729306 0.07934652 -0.5180662 -0.081257775 -0.4661177 -0.03965911
0.19240233 -0.08474671 -0.09283506 0.08879783 -0.095897265 -0.065475024 -0.07247858 -0.39170125
00000000: 5e31 18be 8b28 62bd eefa da3d 94c8 ee3d
00000010: afb5 afbc a1bb cdbd fc84 7cbd 30ea 39bd
00000020: 40ff bcbd d402 77bd 5eee 473e c046 c9bd
00000030: 315e c8bd a040 a6be d19d c0be cae7 d8bb
00000040: ff51 aabe 2fdc 16ba 33f1 eebd 157a 123d
00000050: 3c65 7abd 2e96 15bd 27fe 28bd a0ec 30bd
00000060: 1b0d 373e ac25 fcbc cd26 d03e 8d88 84bd
00000070: 5480 79be 42ff 6ebe a8e1 33be 4d72 0fbd
00000080: ec94 ff3e f9c5 d4be b0b9 bfbd 49f0 c8bd
00000090: cc53 7bbe ec56 79be 8200 5bbd 3bad bbbe
000000a0: 5c43 7cbe 689b 62be 4f03 aebd b959 4cbd
000000b0: 6fe2 b33d 9eb2 373f 03f3 6fbd f1f8 c2bd
000000c0: 262c 19bd e900 cdbe 25c5 8cbd 129d 6fbe
000000d0: 1e6f 15bd 06e4 17bd b956 c0bd e516 0fbe
000000e0: 0b7a 63be 05a8 08bd 256d 8abd 8c65 f5bc
000000f0: 65be 8abc ba84 223e eff2 aabe d5ec 02bd
00000100: fa88 dabd 1f81 2bbd e773 25bd 1999 43bb
00000110: 0a4a 52bd 5967 c4be b0a5 3abd b4b9 71bd
00000120: e781 abbd e8b8 bfbe 9225 d3bd 96a5 11bd
00000130: 4f5e 23bc 375e 2cbf 3056 413b f4f9 78bd
00000140: e90e 8dbf 14cb 473f 326a 5fbd 7600 93bd
00000150: f821 35bf c287 d2bd afb4 abbc a4cb 0d3c
00000160: de8f 9bbd c76a 26be ecc7 fbbb 2ee9 9cbc
00000170: a4bf f6bc 90ae b8bd 1036 31bf 5825 b6be
00000180: a721 a1bd 20da 4a3d 1a39 d3bc c450 f0bb
00000190: 0a37 ea3a 9fc9 a1bd 7b51 1abe 92ab 293d
000001a0: 8830 b7bd 6ebd 9cbd 559d 09bd bfdd 24be
000001b0: e6b9 91be 7908 4cbd bb4c 63bd 5b47 23be
000001c0: e8c9 b8bd 4837 39bd 31d5 49bd 988b 3fbd
000001d0: c1e8 c6bc d375 e8bb 371f aabb 9bac 783e
000001e0: a0fa b6be 1638 1dbd 6597 04be 8812 3dbc
000001f0: 9f59 a3be f425 7abd d43b fabb 1f0b aebc
00000200: 7d6a ff3c a7e0 2fbd 0dd9 81bd 9e0c 9bbe
00000210: c0e0 3fbd e99a 5d3e c028 34bd be09 9cbc
00000220: db78 58be 2aef 923f a055 823f 1838 36bd
00000230: 0100 40bc 0d9e 0fbe 25d0 06bf 8b50 6cbb
00000240: 5544 03bf b559 01bd add0 85bd 6826 b4bd
00000250: 1797 22bd a188 49bc 64f7 74bd af55 9cbd
00000260: 46ff a03e e109 42bd f698 9dbc 3f3d a2bd
00000270: 141c 95bd e16a cfbd 76c3 18bd 860d 1dbe
00000280: 958a 89bd 0117 173f 2f9f 0cbf 020b d3bd
00000290: ea66 55bd b46f 75bd 98b2 fa3d c298 bb3e
000002a0: c06f 3dbd 87b2 aabe 267c 94bd 6d97 01bd
000002b0: 8eab df3e 2298 55bc f6aa 9abd 319c c6bd
000002c0: 7a4c e23e 6950 46bf 7ecc 9dbd 81ed 40bd
000002d0: 8f11 1a3f 2561 8cbd 51b3 cbbd 77c1 a9bd
000002e0: 9ffd a9bd 37d3 a5bd 2d97 193e 6735 d7be
000002f0: c703 333e 166f 2f3f d2e6 51bd c9a5 4abb
00000300: 68fb b6bd 912a cebe a8d4 b1bd 3218 5cbe
00000310: a1af 4fbd 499e 45bd e9c9 d139 5b63 66bd
00000320: e477 da3e 22aa 52bd 6f0b 603f 04fc 173e
00000330: 24e1 2b3f 85e5 84bc d184 40be df91 a3bd
00000340: 79e7 c4be 4902 c6be 4357 713d 6b98 01be
00000350: 2d8b 82bd e62b 18be 47bd 2bbc 756f 0dbe
00000360: 870d 28be f150 c5bd f5f6 05bf bfa0 a0bd
00000370: 9ce8 d83e 4389 113f 5f7e 393e 5bdb ebbd
00000380: 764c 97bd 6af5 50bd 2302 eebc ce8c 513b
00000390: 1b17 e1bd 151b 8dbd 6050 b0bd f5c0 8ebc
000003a0: 8122 cdbc 2009 3fbd f489 0c3f 11d8 48bd
000003b0: 3c26 78be 895e 40bd 75e4 86bd 6ca2 7bbd
000003c0: d0b9 ccbd 2e02 9dbc 3dce 8ebd 6e80 a23d
000003d0: fd9f 04bf 7a6a a6bd fba6 eebe 9771 22bd
000003e0: 1e05 453e af8f adbd 4f20 bebd a3db b53d
000003f0: c965 c4bd c517 86bd a66f 94bd 118d c8be

l3.weight f4 [4, 300]
0.052224524 -0.00947929 0.41465545 -0.42636138 -0.04551452 0.004139686 -0.013640257 0.00131369
0.055341847 0.042200502 -0.860268 -0.7821293 0.017624553 0.06710066 -0.30290213 0.030578142
0.7342643 0.006817427 -0.014502475 -0.10306175 0.037622113 0.052587368 0.03313686 0.012314983
0.9761074 -0.0024813486 0.73001826 -0.026168512 -0.37299725 -0.51841193 0.15506609 0.033169646
0.12117527 -1.4675512 0.035982244 0.41749814 -0.06592424 1.3483179 0.0125817135 0.35839152
0.3335151 0.09898834 -0.0084213065 -0.03645461 -0.9842941 1.9764527 -0.034965236 -0.08768523
0.005067284 0.060432088 -0.0044343574 -0.5074327 0.036309324 -0.02206473 0.011355162 0.16919836
0.8054323 -0.028014023 -0.021001156 0.06001337 -0.0042145643 -0.060934525 0.17746854 -0.12656611
-0.001116785 0.02512543 -0.020490047 -0.021126328 -0.00040693305 -0.6351179 -0.017811935 0.016195158
0.005803123 0.6993718 -0.023156613 -0.0055578128 -0.00056495826 1.4572037 0.7101364 -0.013144979
2.6969416 0.639338 -0.07201366 0.030008174 -0.40649515 -0.00773981 0.07392399 -0.018321926
0.018108467 -0.03011397 -0.018316338 0.0021877019 0.02142733 -0.0028077308 -0.111072615 -0.5008851
-0.05059135 1.1337172 0.03067649 0.038928203 0.028664459 0.0038138393 -1.2691833 0.29814404
0.39859748 -0.03709238 0.048327122 -0.2575505 -0.30771223 0.0124112815 -0.008219581 0.3174265
-0.057033133 -0.047277335 0.01976883 0.026278783 0.02521372 -0.01889711 0.016376205 -0.6677216
0.21917394 -0.0469361 0.0047783875 0.3760995 -0.023561927 -0.014687065 0.025433887 0.091878414
0.20902963 -0.012920903 0.04064929 0.4792665 -0.058083665 0.2320873 0.08346074 -0.043143
-0.64334863 -0.33706513 0.18300024 -0.06261288 -0.018336454 -0.011723593 -1.1595379 -0.028291931
0.18900801 -0.03869723 -0.011549621 0.04714993 0.069854476 0.006440428 0.015853921 -0.8564468
0.025535313 0.031101918 0.01508325 0.008616138 -0.0222074 0.0032609594 0.01615902 0.1661417
0.060580358 -0.35578623 0.6286917 0.009120917 0.060129598 -0.026153984 -0.5431763 0.6755643
1.0605702 0.8424465 0.003149433 0.017236749 -0.43598667 -0.007871267 -0.016412713 -1.1120687
1.5661373 0.62163526 -0.9565031 0.039285835 0.3558637 -0.02908728 0.03335665 0.015317757
-0.019561334 0.007535292 -0.015052143 -0.96548665 -0.43999296 -0.6952925 -0.007476898 -0.010865658
0.0073220185 -0.5677765 -0.048532013 0.4104767 0.004311236 0.00068799773 0.024535717 -0.00058265345
-0.5206254 0.011121772 -0.025159154 -0.06628978 0.6250227 0.007850825 -0.23108593 -0.0032478278
-1.4459742 0.0032124373 -1.2500179 0.38467762 0.0039673913 0.012802998 0.018348748 0.096268296
0.19830875 -0.032017037 0.37866572 -0.0040497207 1.5638764 0.37022626 -0.86115086 0.04435
0.044817895 0.013026887 0.03179129 -0.023345465 -0.007912246 0.04789573 -0.024152383 -0.0006487424
0.0040275548 0.0038708365 0.11692508 0.006579567 0.010557016 -0.0064984495 0.020513888 -0.08032852
0.01797772 -0.033998895 0.0026039104 0.24520032 -1.1512649 0.019245781 -0.2694713 -0.0030074997
0.46785003 0.0024370172 0.2554866 0.065421864 -0.009205854 -0.047482226 0.6370372 -1.0367761
00000000: 62e9 553d 064f 1bbc b84d d43e 0a4c dabe
00000010: 6f6d 3abd 34a6 873b 627b 5fbc 1f30 ac3a
00000020: 22ae 623d 6fda 2c3d 863a 5cbf a039 48bf
00000030: 5e61 903c 126c 893d fd15 9bbe 037f fa3c
00000040: bff8 3b3f b964 df3b ca9b 6dbc 0a12 d3bd
00000050: a519 1a3d da65 573d 84ba 073d c8c4 493c
00000060: 2de2 793f 1f9e 22bb 7ae2 3a3f 595f d6bc
00000070: 7ff9 bebe a5b6 04bf a5c9 1e3e e5dc 073d
00000080: bd2a f83d b8d8 bbbf 1e62 133d 51c2 d53e
00000090: 4a03 87bd ae95 ac3f 8823 4e3c 187f b73e
000000a0: 7ec2 aa3e 66ba ca3d 85f9 09bc 6e51 15bd
000000b0: b3fa 7bbf 67fc fc3f b537 0fbd 5094 b3bd
000000c0: 760b a63b a387 773d 164e 91bb 1ce7 01bf
000000d0: 16b9 143d 18c1 b4bc 000b 3a3c 5642 2d3e
000000e0: d030 4e3f aa7d e5bc 9e0a acbc 94d0 753d
000000f0: 541a 8abb 7b96 79bd 50ba 353e 8c9a 01be
00000100: 1661 92ba d9d3 cd3c beda a7bc 1f11 adbc
00000110: a159 d5b9 1697 22bf 56ea 91bc b5ab 843c
00000120: 2028 be3b 080a 333f f0b2 bdbc 501e b6bb
00000130: b519 14ba a785 ba3f 80cb 353f 0a5e 57bc
00000140: b19a 2c40 a8ab 233f e67b 93bd b4d3 f53c
00000150: 2220 d0be 3b9e fdbb 7665 973d dd17 96bc
00000160: 3558 943c 93b1 f6bc 250c 96bc 8c5f 0f3b
00000170: 5e88 af3c e801 38bb 0a7a e3bd 023a 00bf
00000180: e038 4fbd a51d 913f 434d fb3c 2e73 1f3d
00000190: bad1 ea3c 9bf1 793b 9974 a2bf 56a6 983e
000001a0: f814 cc3e 2eee 17bd a9f2 453d a9dd 83be
000001b0: 758c 9dbe b058 4b3c 6cab 06bc ba85 a23e
000001c0: 939b 69bd e1a5 41bd 3ef2 a13c 9a46 d73c
000001d0: 018d ce3c 1dce 9abc 6427 863c ceef 2abf
000001e0: 226f 603e 1140 40bd 0594 9c3b 1d90 c03e
000001f0: f104 c1bc 04a2 70bc ba5a d03c c02a bc3d
00000200: dd0b 563e 32b2 53bc df7f 263d 6b62 f53e
00000210: 23e9 6dbd 4ba8 6d3e 77ed aa3d b7b6 30bd
00000220: 7fb2 24bf cd93 acbe 6a64 3b3e 2e3b 80bd
00000230: 5536 96bc 5014 40bc bd6b 94bf 7bc4 e7bc
00000240: 518b 413e fd80 1ebd 9f3a 3dbc 4920 413d
00000250: dd0f 8f3d 3a0a d33b 15e0 813c 1940 5bbf
00000260: 6f2f d13c 73c9 fe3c bc1f 773c b42a 0d3c
00000270: 4bec b5bc d2b5 553b ec5f 843c 0d21 2a3e
00000280: 1c23 783d 9d29 b6be f0f1 203f e66f 153c
00000290: 744a 763d e140 d6bc 9a0d 0bbf c8f1 2c3f
000002a0: c4c0 873f 93aa 573f b866 4e3b 1534 8d3c
000002b0: a539 dfbe 7df6 00bc f473 86bc 4458 8ebf
000002c0: 3077 c83f 7d23 1f3f 63dd 74bf 2fea 203d
000002d0: c433 b63e 7348 eebc fca0 083d 54f7 7a3c
000002e0: 173f a0bc 9cea f63b 439d 76bc 222a 77bf
000002f0: c246 e1be b0fe 31bf c400 f5bb df05 32bc
00000300: 8bed ef3b cd59 11bf 81c9 46bd 012a d23e
00000310: 4545 8d3b bf5a 343a 21ff c83c 36bd 18ba
00000320: b547 05bf 1838 363c 921a cebc f0c2 87bd
00000330: 7d01 203f bfa0 003c caa1 6cbe 82d9 54bb
00000340: af15 b9bf c187 523b 9600 a0bf 77f4 c43e
00000350: e400 823b aac3 513c 1d50 963c 5028 c53d
00000360: 7311 4b3e 4c24 03bd 79e0 c13e 85b3 84bb
00000370: 1a2d c83f 4c8e bd3e 6274 5cbf 58a8 353d
00000380: f892 373d b96e 553c 9537 023d fd3e bfbc
00000390: 5da2 01bc 502e 443d 38db c5bc 5e10 2aba
000003a0: 94f9 833b dcad 7d3b 6b76 ef3d 6999 d73b
000003b0: 56f7 2c3c f2f0 d4bb be0c a83c 4783 a4bd
000003c0: 0346 933c 6d42 0bbd 5ea6 2a3b cb15 7b3e
000003d0: a65c 93bf 54a9 9d3c 24f8 89be 7919 45bb
000003e0: 0a8a ef3e 5db6 1f3b 24cf 823e e6fb 853d
000003f0: 26d4 16bc b97c 42bd df14 233f 14b5 84bf

l3.bias f4 [4]
0.6163169 0.20906368 -0.6292437 0.12807806
00000000: f2c6 1d3f ca14 563e 1d16 21bf e526 033e
