preTrained/BipedalWalker-v2/TWO/TD3_BipedalWalker-v2_0_solved_critic_1_target.pth (torch_old, 529790 bytes, 5 tensors)

l1.weight f4 [400, 28]
000000 a6 9d a6 3f 36 61 f0 be 8a 85 2f c0 79 15 c5 bf
       1.301686 -0.46949166 -2.7425256 -1.5397178
000010 57 b4 9d bb ec d8 a2 3e e5 04 87 3f 48 d5 28 3e
       -0.004812758 0.31806123 1.0548369 0.1648761
000020 fc f6 2e be 34 39 83 3f b8 b0 93 be 56 06 75 bf
       -0.17086405 1.0251832 -0.28845763 -0.9571279
000030 ab b0 54 3d c1 11 d8 be 53 16 09 bf 30 37 19 bf
       0.051926296 -0.42201045 -0.5354969 -0.59849834
000040 20 55 36 bf b4 73 03 bf ef 2a 24 bf a0 eb f4 be
       -0.7122364 -0.51348424 -0.6412801 -0.47836018
000050 84 d2 2e bf ef 1f 0c bf dd e2 96 be 7d 88 84 3e
       -0.6828997 -0.54736227 -0.29469958 0.25885382
000060 9b e0 2b be 74 e5 8d 3e 2f a9 95 bd 85 ae 79 3e
       -0.16784899 0.2771412 -0.0730766 0.2438298
000070 bf 21 31 bc 8f b4 b7 bf 08 0a 4c 3e e3 48 f6 be
       -0.010811268 -1.4351977 0.19925702 -0.48102483
000080 c9 18 55 3e b1 83 48 bd 4b 24 ea 3c 0b 67 7b bd
       0.20810236 -0.048953716 0.028581759 -0.061377566
000090 80 c6 ba bf ca 11 d2 be 20 44 b1 bc 1f d0 bb 3e
       -1.4591827 -0.41029197 -0.02163893 0.3668222
0000a0 e3 44 7f bd 46 fa 25 3e 37 20 ae be 35 93 86 be
       -0.062321555 0.16208753 -0.34008953 -0.26284185
0000b0 0b 04 e6 be 47 78 aa be f4 6a fb be 68 65 b6 be
       -0.4492496 -0.3329489 -0.49105036 -0.35624242
0000c0 ff 0a a1 be 23 19 e6 be ad 85 05 bf 07 fb a8 be
       -0.31453702 -0.44941053 -0.521571 -0.3300402
0000d0 a0 b2 42 3d b4 6d 06 bd 43 d1 65 bd 91 6e cb 3c
       0.04753363 -0.032819465 -0.05610777 0.024832996
0000e0 4e 90 23 bd 71 0a d7 be 8f 49 34 3e d9 22 c5 3d
       -0.03993254 -0.42000154 0.17606185 0.09625787
0000f0 a9 9a dc be 4e c8 22 3c 76 16 20 be 2f 41 b8 3d
       -0.43086746 0.009935452 -0.15633568 0.08996808
000100 a7 dc 38 bf 47 bb bc be 68 d9 c4 3e b8 23 3c 3d
       -0.7221169 -0.3686163 0.38447118 0.0459325
000110 34 50 8d 3d de 3b 29 bf cd 6e 81 be 95 57 05 bf
       0.06900063 -0.66106975 -0.25279847 -0.52086765
000120 a5 77 02 bf ee 89 96 be e6 c7 17 bf 59 03 c4 be
       -0.50963813 -0.29402107 -0.59289396 -0.38283804
000130 06 e3 93 be 55 44 83 be 8d 57 08 bf 36 2f 1f bf
       -0.28884143 -0.2563807 -0.5325859 -0.62181413
000140 e3 1d 79 be 34 ba 8c 3e 50 88 35 3d 58 1c c4 be
       -0.24327807 0.27485812 0.04431945 -0.38302875
000150 56 7f 27 be fe 19 12 3f 01 5f de 3d 52 fc dc 3e
       -0.16357169 0.5707091 0.10857964 0.43161255
000160 99 14 57 be 91 6c 5c 3f 10 5a 44 bf 7b 7f ff be
       -0.21003951 0.8610316 -0.76699924 -0.49901947
000170 6c ec f7 bf fe a7 a4 bf 24 1c 8b bb 92 14 da be
       -1.9369025 -1.2863767 -0.004245298 -0.4259382
000180 a1 09 c1 be 5f 87 2b bf e7 66 3c 3d 9a 8d 00 3e
       -0.3770266 -0.67003435 0.045996573 0.12554017
000190 62 fb eb 3d 40 67 cd 3d 85 a2 8b bd 16 a3 00 3e
       0.11522557 0.10029459 -0.068181075 0.12562212
0001a0 07 8d 32 3e b9 33 ca bc c4 1a f9 be 45 7d 8c bf
       0.1743661 -0.024682866 -0.48653233 -1.0975729
0001b0 94 20 8a be e8 df 45 bd 53 72 73 be f5 fb 19 be
       -0.2697798 -0.048309237 -0.2377408 -0.1503752
0001c0 23 e0 62 bd be 87 a0 3f 99 03 de be 72 05 dc bf
       -0.055389535 1.2541425 -0.4336212 -1.7189162
0001d0 db 64 6c 3e 9d 43 96 bd 39 6a c3 3e e3 ec 63 3d
       0.23085348 -0.07337115 0.3816698 0.055645835
0001e0 ec 67 f2 be e8 ae 30 3e 7e 72 16 bf 3d 3e 0d 3f
       -0.4734491 0.17254221 -0.5876845 0.55173093
0001f0 f7 79 b7 bc 60 5d 32 3e 52 5c 66 bf 2f 5a 38 bf
       -0.022397025 0.17418432 -0.8998462 -0.7201261
000200 f3 7a 70 bf 72 1f 60 bf 9b ac 78 bf 40 b2 4d bf
       -0.93937606 -0.8754798 -0.97138375 -0.8035011
000210 20 4a 49 bf b3 89 79 bf 08 97 41 bf 49 88 51 bf
       -0.7862873 -0.9747574 -0.7562108 -0.8184858
000220 79 64 c5 bd 70 72 b5 3e 44 51 72 3e df e9 25 3e
       -0.09638304 0.3543887 0.23663813 0.16202496
000230 e8 25 e3 bd 61 74 9d 3f 0c f1 7b bd 29 75 62 c0
       -0.110912144 1.2301141 -0.061509177 -3.538401
000240 eb 8a 0d c0 fa 10 2e be d2 c4 e5 bf 25 20 4c be
       -2.2116039 -0.16998664 -1.795069 -0.19934137
000250 42 ee 09 3f 55 0f e7 3e cd 67 0e bf 3e 6b 5b bf
       0.5387918 0.45128885 -0.5562714 -0.85710514
000260 33 32 a0 be ed 12 18 bf 00 81 da bd fc 2e 97 3d
       -0.312883 -0.5940388 -0.10669136 0.073820084
000270 c2 92 b1 bc 2f 70 76 3e e2 2f a0 3c 44 1a c0 3c
       -0.021676425 0.24066232 0.019554082 0.023450024
000280 d3 34 88 3e 98 75 98 bc e8 34 80 bd 52 75 5b bf
       0.26602802 -0.01861076 -0.06260091 -0.8572589
000290 70 b5 39 bf 96 a3 eb be f0 ca 8a 3e fa 61 30 be
       -0.72542477 -0.46023244 0.27107954 -0.17224875
0002a0 2f fc 7d be 22 7a ee c0 0d a3 a6 be e0 b9 56 bf
       -0.24803232 -7.452409 -0.32546273 -0.8387737
0002b0 04 fd f9 be 57 c1 79 3e 84 eb 4f bf 88 84 8d 3e
       -0.48825848 0.2439016 -0.81218743 0.27640176
0002c0 ea 1f 76 3e cf 42 94 3f 0f 6a 9f bf aa 07 f0 bd
       0.24035612 1.1582888 -1.2454242 -0.11720212
0002d0 8f 17 1d 3f 89 e5 5f 3e 13 9c 2d bf bd cd 0d bf
       0.6136407 0.21864904 -0.67816275 -0.55392057
0002e0 fe db 32 bf f4 10 36 bf 96 b2 19 bf 28 f5 24 bf
       -0.6986693 -0.7111962 -0.60038126 -0.6443658
0002f0 0b 46 13 bf 14 ae 28 bf 85 21 67 bd bc 85 06 be
       -0.5752875 -0.6589062 -0.05642845 -0.13136953
000300 ee ba 02 3f 8e 46 22 3e 82 fe 86 bf b4 d1 8a 3f
       0.5106648 0.15847227 -1.054642 1.0845246
000310 88 b4 00 3f 2d 4b aa 3f 81 90 f3 bf 28 7b 07 40
       0.5027547 1.3304192 -1.9028474 2.1168919
000320 d9 91 68 3f 2f f8 bf 3e 05 1a 62 3f 2e ac 46 3e
       0.90847546 0.37494037 0.8832095 0.19401619
000330 65 8b 86 bf 82 7f fb 3d de 8d 6b be 00 a9 36 3f
       -1.051129 0.122801796 -0.23003337 0.71351624
000340 e2 95 bf bd 81 57 15 bf e2 08 1d be 76 0f 0b be
       -0.0935476 -0.58336645 -0.1533542 -0.13580117
000350 e1 ce d7 be f0 91 b1 be 50 06 d0 be 34 cc 0c bf
       -0.42150024 -0.34681654 -0.40629816 -0.5499909
000360 cb ad 8f be 3d da b0 be 6a 87 ad bd 11 30 83 be
       -0.2806228 -0.34541503 -0.08473094 -0.2562261
000370 30 20 33 3b fe e3 82 3e db 4a 15 3e d8 df 65 3e
       0.0027332418 0.2556457 0.14579336 0.22448671
000380 dc 6d 5c 3f 2e 23 85 40 f2 eb 5a c0 98 62 96 3f
       0.8610513 4.1605444 -3.420651 1.1748838
000390 53 b5 dc 3d 33 53 48 3d 1b 96 fa bc dd 82 2f 3e
       0.10776772 0.04890747 -0.030589154 0.17139764
0003a0 0a 79 df be 16 ff 8e 3e 23 c2 95 3d ea 3e 87 3d
       -0.43647033 0.2792899 0.07312419 0.06603797
0003b0 99 fc 8a be e9 da ca be 5b db 69 be 2e 8f 19 be
       -0.27145842 -0.3962014 -0.22837584 -0.14996025
0003c0 22 16 ad be 05 3b cf bc 17 45 56 bd 6a 21 15 be
       -0.33805948 -0.025296697 -0.052311983 -0.14563528
0003d0 1f be a6 bd e9 3b 75 be ca 0b d2 be 58 f1 3f bf
       -0.081417315 -0.23948635 -0.4102462 -0.74977636
0003e0 7e a1 0e be 0c 2b 94 be 83 33 88 3e f4 ba 87 3d
       -0.13928792 -0.28939092 0.266018 0.06627455
0003f0 1e 3c 96 3f 97 87 c5 be f4 30 c0 3f 11 ad 2f c0
       1.1737096 -0.3858001 1.5014939 -2.7449381

l1.bias f4 [400]
000000 21 10 18 3f ff f1 a0 be d7 13 22 bf ae 66 9f bf
       0.5939961 -0.31434628 -0.63311523 -1.245321
000010 72 89 5f 3c c6 a4 89 bf b8 1f 73 be 00 f0 4b bf
       0.013643609 -1.075341 -0.23742568 -0.79663086
000020 f6 43 54 bf c1 c6 46 3f f7 fa e5 be 3d 92 52 bf
       -0.829162 0.77647024 -0.44918033 -0.8225439
000030 06 c1 af be 97 91 2f be 86 5a 97 be 3c 51 ed bd
       -0.34326953 -0.17145382 -0.2956125 -0.1158776
000040 5e b4 53 bf 93 74 a3 3e da 7c 8f be a8 40 68 bf
       -0.82697093 0.31924877 -0.28024942 -0.9072366
000050 9c a3 40 bf 91 91 41 bf 74 8b 6d be 80 e3 4a bf
       -0.7524965 -0.7561274 -0.23197728 -0.7925339
000060 5d 1a 07 bf fe 05 fb be 57 78 3d bf 3d b8 09 bf
       -0.527746 -0.4902801 -0.7401175 -0.5379675
000070 a1 03 42 bf 76 5e 14 be 95 84 9e be 4e 0f 13 be
       -0.7578679 -0.14489159 -0.30960527 -0.14361307
000080 59 ff 4c bf bd ed 8f be 87 c8 5d 3e 53 55 fb be
       -0.8007713 -0.28111067 0.21658526 -0.49088535
000090 92 bd 5b bf f3 b9 4c bf f7 d1 20 be a6 95 2f bf
       -0.85836136 -0.79971236 -0.15705095 -0.6858772
0000a0 f3 6c 6a be 5a db 52 be db d3 66 bf 4d 34 91 3d
       -0.22893123 -0.20591488 -0.90167016 0.07090054
0000b0 ff f2 24 bf 7c e7 f6 be ac 36 f5 be 85 24 87 be
       -0.6443328 -0.48223484 -0.47893274 -0.2639505
0000c0 13 af e4 be bf 88 a4 be 3c 1d 0a bf 0d a9 09 bf
       -0.4466482 -0.3213558 -0.5395086 -0.53773576
0000d0 e4 9b 7c 3f 0e fa 00 bf 7f 00 29 bf 68 7d b2 be
       0.9867537 -0.50381553 -0.6601638 -0.34861302
0000e0 6b 6b 67 bf 40 f9 3d bf 30 d2 bd bd 13 0e fa be
       -0.9039828 -0.7420845 -0.09268606 -0.48838863
0000f0 72 14 e0 3d 4d 14 95 bf 73 c5 ee bd 20 60 e5 bd
       0.109414 -1.164682 -0.11658754 -0.11199975
000100 c2 be c2 be e3 64 69 bf 4b 32 d8 3c d7 af 21 bf
       -0.38036162 -0.91169566 0.026391169 -0.63158935
000110 f7 d2 a4 be 93 98 02 3f c2 dc 60 bf 6e f5 c7 bf
       -0.32192203 0.5101406 -0.8783685 -1.5621774
000120 3f d5 2a be ae 17 16 be 12 2f 1d be 1d 2c 56 bf
       -0.1668291 -0.1465747 -0.15349987 -0.8366106
000130 0c 52 3c bf 13 c8 ec be 6d 25 0b bf d3 43 3f bf
       -0.73562694 -0.46246395 -0.5435398 -0.74712867
000140 cf b5 94 bf be 58 93 be 47 6b fd be 0a 18 52 be
       -1.1617984 -0.28778642 -0.4949591 -0.20516983
000150 cb 9e 60 bf cb e2 3d 3f 73 b5 92 bf 85 32 67 be
       -0.877423 0.74174184 -1.1461624 -0.22577865
000160 bf 39 ad bd fc fa 2f bf fc b7 80 bd 0e e4 d0 3e
       -0.0845828 -0.68742347 -0.06285092 0.40798992
000170 ad 73 08 bf 6f 38 c2 be 52 85 5b be 05 e2 0f be
       -0.5330151 -0.3793368 -0.21437576 -0.14051063
000180 1c 1c 75 be 4f cf a5 be ba 43 58 bf 83 2e 64 be
       -0.23936504 -0.32384726 -0.8447834 -0.22283368
000190 24 a8 81 bf 85 c7 89 be 7e ee 12 bf de d4 27 be
       -1.0129437 -0.26910034 -0.5739516 -0.16389796
0001a0 cf e1 47 bf 0c 95 2f 3f 2a 64 25 bf 49 9a 4e bf
       -0.7807893 0.685868 -0.64605963 -0.8070417
0001b0 91 48 c9 bd fd ca 81 bd 64 2a f9 be 33 0d 62 bf
       -0.09828294 -0.06337545 -0.48665154 -0.8830139
0001c0 d5 cd 95 bf 6b b9 6e bf 70 d7 6e bf 9b e7 ea be
       -1.170344 -0.93251675 -0.9329748 -0.45879826
0001d0 d8 9b b5 be e7 4d 23 bf dc 5e 6d bf aa df 1e 3b
       -0.35470462 -0.63790745 -0.9272287 0.00242422
0001e0 76 4d 9b be 77 06 6c bf 69 31 62 be ff 3e a9 be
       -0.30332536 -0.92197365 -0.22089161 -0.33055875
0001f0 57 65 a3 be 8b 6c 78 3e 9e 3d 17 be 7d c1 b8 be
       -0.31913254 0.24260156 -0.14769599 -0.3608512
000200 76 a0 1a bf 6e ac 40 bf 3a f0 7c 3e 91 42 4a be
       -0.60401094 -0.75263107 0.24701014 -0.19751956
000210 3d 2d d2 be 91 24 cf be e1 63 85 bf af 99 23 be
       -0.4105014 -0.40457585 -1.0421106 -0.15976594
000220 08 9f 36 bf dd 76 82 be f2 b4 8d be fb 5b ee bc
       -0.7133641 -0.2548131 -0.27677113 -0.029096594
000230 e7 ff bc be 95 27 8d be 63 9a 29 bf c2 8d 51 bf
       -0.36913988 -0.2756926 -0.662512 -0.8185693
000240 03 40 f8 3d 84 c2 f5 be 5f 3d 0d bf 5f a4 07 bf
       0.12121584 -0.47999966 -0.5517177 -0.52985185
000250 f2 6f dd be bb b1 25 3f 03 09 64 bf af fd 23 be
       -0.4324947 0.6472432 -0.8907625 -0.16014741
000260 3c e0 8b 3d da 6b a5 3e 70 9f 3a be 0d 71 0a bf
       0.06829879 0.32308847 -0.18224883 -0.5407875
000270 f3 8e 90 be e6 4a 17 be bf 2b c3 3d a0 0b 30 bf
       -0.28234062 -0.14774665 0.09529828 -0.6876774
000280 dd fd 82 3f 52 03 19 be 8d 08 44 3e 09 d0 c4 be
       1.0233723 -0.14942673 0.19143887 -0.38439968
000290 68 58 4d 3b ad b3 0e be e3 da e8 3c f5 a4 27 3f
       0.0031333212 -0.13935728 0.028424686 0.6548608
0002a0 09 22 c8 be 2a 78 86 bd 6a d1 28 bf e0 52 3a be
       -0.39088467 -0.06565888 -0.6594454 -0.18195677
0002b0 b8 60 7b bf 2e 3c 21 3f 22 20 50 bf 0e ab b6 be
       -0.98194456 0.6298245 -0.8129903 -0.3567738
0002c0 71 a7 41 bf 9c 09 a6 be 61 c6 09 3f 80 fc 4a 3e
       -0.7564612 -0.32429206 0.5381833 0.19822884
0002d0 75 f7 07 bf 77 d3 a6 be ad 82 45 be 24 11 5d bf
       -0.53111964 -0.3258321 -0.1928813 -0.8635428
0002e0 2c 8c 0f bf cd 9e 3e bf c4 98 7d bf 9b fe 94 be
       -0.5607326 -0.7446106 -0.99061227 -0.291005
0002f0 a7 08 a1 be 92 fa 55 be 3f d5 2a bf 28 46 f4 bd
       -0.31451914 -0.20896366 -0.6673164 -0.11927444
000300 b8 19 d7 be b6 fa 94 be ef 43 aa bb 48 df b6 bd
       -0.4201181 -0.29097527 -0.0051960866 -0.08929306
000310 9e 58 9f be b2 20 3a be 06 ae 6a be 15 ef 0b bf
       -0.31122297 -0.18176535 -0.22917947 -0.54661685
000320 b6 36 8a bd d5 5c e4 be c9 cb 47 bf 07 90 0e be
       -0.067487165 -0.44602075 -0.78045326 -0.1392213
000330 14 87 fb be b5 bd 01 be dc 69 13 3e 5a 0f 64 bf
       -0.49126494 -0.12670024 0.14395851 -0.89085925
000340 1e f8 13 bf 0d ec 7f be ad fb 8f bf 16 c7 a4 be
       -0.5780047 -0.2499239 -1.124868 -0.3218314
000350 fd b9 65 bf 16 1c 93 bf 3d 20 81 bf 1b d3 d8 3d
       -0.8973692 -1.1492946 -1.0087963 0.1058714
000360 3c 5a 95 be 9f 14 3b be 6a 2e 54 bd 90 3b be be
       -0.29170406 -0.18269585 -0.051802076 -0.37154818
000370 9a ab 1b bf 03 b1 4e bf f2 4e 31 bf 36 20 95 be
       -0.6080872 -0.8073885 -0.69261086 -0.29126137
000380 a6 2c 9b bf 6b 4d b4 bd ec d2 34 bf 32 5b b1 be
       -1.2123001 -0.08803829 -0.7063434 -0.3463989
000390 8d c0 c9 3e 9c c0 fd bd bc dd 80 bf a3 1e 63 be
       0.39404717 -0.12390253 -1.0067668 -0.22179656
0003a0 34 89 53 bf a3 a5 59 bf 49 ea 65 3e 72 c4 40 bf
       -0.8263123 -0.85018367 0.22452654 -0.7529975
0003b0 a3 f8 14 bf c7 2d 2c bf 8e fa 07 bf 0f b1 29 be
       -0.5819189 -0.6725735 -0.5311669 -0.16571449
0003c0 00 89 0f bf 4f de 2f bf b4 96 5c bf 9f d8 ac be
       -0.5606842 -0.6869859 -0.86167455 -0.3375902
0003d0 2b 59 b9 be 3e 14 14 bf 2e d7 1f be 18 2c bd 3e
       -0.36200842 -0.5784339 -0.15609428 0.36947703
0003e0 64 e5 82 bf a9 e7 cb be 68 30 f5 3a 01 98 a7 bf
       -1.0226254 -0.3982518 0.0018706443 -1.3093263
0003f0 d6 60 11 bf d9 88 4d bf 72 29 72 3f 44 19 84 bf
       -0.56788385 -0.8028694 0.9459449 -1.032021

l2.weight f4 [300, 400]
000000 6c fe 8d 3c 8a 46 5d bc 78 65 30 bd a9 be d6 3c
       0.017333232 -0.013505587 -0.04306552 0.02621396
000010 5d cc 93 3c ca 24 53 bc 95 31 9c 3c 79 00 45 bc
       0.018041784 -0.012887189 0.019066611 -0.0120240385
000020 4f 99 ae bc e9 4b 4d bd c9 89 30 3d 1b 97 0c 3d
       -0.021313338 -0.05012122 0.043100152 0.034323793
000030 f2 41 31 bd 54 a4 73 bc f2 a0 f1 3c 0f 8b 27 bc
       -0.04327578 -0.014870722 0.02949569 -0.010226025
000040 84 f2 06 3d d8 d5 13 bc 0e 74 96 bc bf b7 31 3d
       0.032946125 -0.009023152 -0.018365886 0.043388125
000050 57 cb ab bc e5 8e 34 3d 6e 09 a1 3b a4 a2 7f bc
       -0.020970983 0.044081587 0.004914454 -0.015602741
000060 f0 ab f6 3b ae 2b 2d 3c c3 25 f3 3c f4 ef 02 3d
       0.0075278208 0.010569496 0.029681092 0.03196712
000070 da 61 d6 bc cc 3b 7d bc 1d ea 3a bd 97 c5 4b 3d
       -0.026169706 -0.015456151 -0.045633424 0.049748983
000080 7e 40 2f 3c 72 f0 d2 bc 9d 5d 1a 3c f1 59 d0 3c
       0.0106965285 -0.025749419 0.009421733 0.025433512
000090 1c fd 62 3c 95 e0 03 bd c0 1f ce 3a a2 c2 50 bd
       0.013854291 -0.0321966 0.0015726015 -0.050966866
0000a0 a4 2c 02 3c 40 89 d7 bb 4f 7f 2a bd 53 4c 3e bd
       0.0079452135 -0.006577641 -0.041625317 -0.046459507
0000b0 ee 37 af 3c 10 7e fa bc eb e3 6e bd 60 59 fb 3a
       0.021388974 -0.03057769 -0.05832283 0.0019176416
0000c0 cc c6 83 3b 1c 10 f7 bc aa 86 57 bd 83 a5 65 bc
       0.004021501 -0.030159049 -0.05261866 -0.014016512
0000d0 ae 05 2b 3d fd c5 9f 3c ca a1 53 bd 40 18 e5 bb
       0.041753463 0.019503588 -0.051667966 -0.006991416
0000e0 04 64 0b 3d 1a 4e ee bc ef be bb 3c 66 90 a4 3c
       0.03403093 -0.029089976 0.022918193 0.020088386
0000f0 82 a0 51 ba ea 45 b6 bc dc 08 0c 3b 37 f7 15 3d
       -0.0007996635 -0.022250134 0.0021367585 0.036612716
000100 ad d1 89 bc b9 ab 4a 3d e0 5c 0f 3b 61 7b df 3c
       -0.016823614 0.049480174 0.0021875426 0.027280511
000110 61 4f 3b 3d 5e 8e 15 bc 47 aa 2a bd ad 0e b5 bc
       0.04573 -0.009128181 -0.041666295 -0.022101725
000120 71 d1 27 3d 5a 9d fb 3c eb 93 44 3d 45 ed 0a bd
       0.040971223 0.03071468 0.047992628 -0.033917684
000130 91 f8 cd 3c ba c0 f0 bc fa 05 db bc af 9b 2b bd
       0.02514294 -0.029388774 -0.026736248 -0.04189652
000140 f5 be 86 bb e1 f8 01 3d ff e0 27 bd 9c ec 6d 3c
       -0.0041121193 0.03173149 -0.040986057 0.014521744
000150 27 1e 2c bd 01 16 cd bc f8 8a 08 bc ab 1a e9 bc
       -0.042020943 -0.025034906 -0.008333914 -0.0284551
000160 a0 9e 74 bc 57 2f 2c 3d 9a 2b e4 bc fd 4f 09 bc
       -0.014930397 0.042037334 -0.027852822 -0.008380887
000170 4f 32 a2 bc 21 55 43 bd f5 1d 30 3d 02 bb 57 bd
       -0.01979938 -0.047688607 0.04299732 -0.05266858
000180 70 3f 92 3b d4 39 72 bc 9a 02 ee bc 00 d4 f3 3a
       0.0044631287 -0.014784295 -0.029053975 0.001860261
000190 1d ca 40 bd 44 5f 08 bd 83 52 77 3b 68 40 6f bc
       -0.04706775 -0.033293977 0.003773839 -0.014602758
0001a0 48 82 39 bd a4 1a 05 3c 6b 7d e4 bc d3 66 21 3d
       -0.04529026 0.008124027 -0.027891835 0.0394047
0001b0 a0 ae 4b 39 b8 0a 28 bd 42 ae b3 3c cf 88 39 3d
       0.00019424642 -0.041025847 0.021933679 0.045296486
0001c0 36 fa 2b 3d 93 e9 b1 bc 43 d7 0e 3d 02 31 cf 3c
       0.041986667 -0.021717822 0.03487326 0.025291923
0001d0 fe 7f 9a bc 18 b3 f5 3b ad 16 0b bd 8f 9c a2 bc
       -0.01885986 0.0074981563 -0.033957172 -0.019850044
0001e0 20 b5 99 bc 0e 26 23 3d ff 07 24 3d 80 2b 3a bd
       -0.018763125 0.039831214 0.04004669 -0.04545164
0001f0 e8 3f 80 3b 50 51 3a bd df ce 37 bd 2b e1 63 bd
       0.003913868 -0.045487702 -0.044875022 -0.05563466
000200 8f 04 33 3d 02 5d d6 bc 60 41 bf bc 34 71 1d bc
       0.04370552 -0.026167396 -0.023346603 -0.009609509
000210 8c 8a 11 bc 80 d5 9f b9 8f 81 34 3d 68 d5 cd 3c
       -0.00888313 -0.00030485913 0.04406887 0.025126174
000220 04 17 03 3d c6 b1 fc 3c c2 79 f7 3c b1 49 32 3d
       0.03200437 0.030846488 0.030209426 0.04352731
000230 ae c8 97 bc 08 18 42 bc 71 11 da 3b 81 79 38 3d
       -0.018528309 -0.01184655 0.006654911 0.04503775
000240 a9 75 c5 3a 56 1f 1e bd 30 23 9c bc 36 70 10 bd
       0.0015064973 -0.038604103 -0.019059747 -0.035263263
000250 2b 2f 70 3c 25 68 09 bd 44 d3 06 3c d8 bd 29 bc
       0.014659683 -0.033546586 0.008229081 -0.010360204
000260 7a ef f9 3c ef e6 ac bc 4a bf 23 bd 5e 55 12 bd
       0.0305097 -0.021106211 -0.03997735 -0.035725944
000270 c0 b8 35 bd 81 5a 13 3d 99 2f 15 3d ad 4b 17 3d
       -0.044365644 0.035974983 0.036422346 0.036937404
000280 26 91 9d bc bc b4 f3 bb ec 3c 8e 3c 2d 50 33 3d
       -0.019234251 -0.0074373167 0.017363034 0.043777633
000290 7b 88 f1 3c db 16 00 bd 46 aa b5 3c b5 31 10 3c
       0.029484024 -0.031271797 0.02217592 0.008800914
0002a0 c2 7b d4 bc ce 93 18 bd 6d 59 cd bc 49 14 0d 3d
       -0.025937919 -0.037250333 -0.025067056 0.034443174
0002b0 6f 3d 29 bd 69 7c c7 bc 7a c4 67 3c c0 33 c7 39
       -0.041318353 -0.024351316 0.014145965 0.00037994795
0002c0 50 29 6a bb 54 83 05 3c 25 bb 16 3c 8a 47 61 3c
       -0.003573019 0.008148987 0.009199892 0.013749966
0002d0 4a ff 97 bc 06 6b dc 3c d0 e4 30 bd c4 90 f6 bb
       -0.018554348 0.026906502 -0.043186963 -0.0075245816
0002e0 94 3c 8b bc ce 2b a5 3c dc 2d f1 bc 10 aa 3f bc
       -0.01699666 0.02016249 -0.029440813 -0.011698261
0002f0 43 6d fe 3c fd 93 1f 3d 68 fd 3e bd 7a 1c 51 bc
       0.03105796 0.038959492 -0.046628386 -0.012763137
000300 20 e8 14 bb d0 2a da 3b 40 42 f6 ba 7c 90 78 bc
       -0.0022721365 0.0066579357 -0.0018788055 -0.0151711665
000310 c2 d8 d1 bc 1a de de bc 70 20 3c bd 4d ea 94 3c
       -0.025616053 -0.027205516 -0.045929372 0.01817813
000320 c3 a4 e2 bc e4 8f ff bc b4 84 7e bd 02 91 5e bc
       -0.027666455 -0.031196542 -0.062138274 -0.013584377
000330 d9 4a 4f bd 87 e7 a5 bc fa 03 ec 3c 47 cb 31 3d
       -0.05060849 -0.020252002 0.02881049 0.04340675
000340 fe 6a 91 bc 8c 30 82 3c 6f 1c a2 bc 62 ea 59 bd
       -0.017751213 0.01589229 -0.019788949 -0.05320204
000350 22 54 58 bd d7 4b 40 bd 58 90 a2 bb 1b 04 00 bd
       -0.05281461 -0.046947327 -0.004961055 -0.031253915
000360 49 44 d4 39 d2 27 ea 3c 9e 3a 24 3d 24 de 0c 3d
       0.00040486667 0.02858344 0.040094964 0.034391537
000370 18 4b 37 bd 70 92 97 bb be 68 21 3d 7d 2b 0d bd
       -0.04474935 -0.004625611 0.03940653 -0.0344653
000380 f8 2d 11 bc 27 e6 ac bb 82 a4 44 bd 62 7b df bc
       -0.008861057 -0.0052764597 -0.04800845 -0.027280513
000390 f9 8f c4 bc 1e 31 17 bd ce 67 97 bc e1 1c 43 bb
       -0.023994433 -0.036912076 -0.018482115 -0.0029771852
0003a0 f0 2c 32 bc 80 ad 3a bd a2 88 f9 3c 8e b8 95 bc
       -0.010874972 -0.04557562 0.03046066 -0.01827648
0003b0 48 94 36 bd 79 5e 3d 3d 3e c7 24 3b 58 76 36 bd
       -0.044575006 0.046232674 0.0025143172 -0.044546455
0003c0 a3 0c ff 3c 3e e0 24 3a d7 59 a7 bd 6e c4 9f bb
       0.031133955 0.0006289518 -0.081714325 -0.004875711
0003d0 ed 9d 02 bc eb a2 e4 bc 14 c8 04 3c de 62 16 bd
       -0.007972223 -0.027909717 0.008104343 -0.03671538
0003e0 e5 db 83 3c 89 f9 3a 3d 09 3a dd 3c 6e cf 19 bd
       0.016096065 0.04564813 0.027005212 -0.037551336
0003f0 1a 20 d3 bb 80 41 08 3b 70 c3 34 bd 92 78 f5 3c
       -0.006443036 0.0020790994 -0.044131696 0.029964719

l2.bias f4 [300]
000000 46 16 99 bd 66 d0 20 3e 27 4f 28 be ae ff 92 bd
       -0.074749514 0.15704498 -0.16436444 -0.07177673
000010 01 64 c0 bd a4 7d 46 3f b5 ec 8e bd 69 21 4a 3f
       -0.09394074 0.7753546 -0.06978742 0.7895723
000020 83 4e 67 bd 2a 0e e9 3d 59 f3 ce bc f2 43 bc 3f
       -0.05647136 0.11379655 -0.025262522 1.4708235
000030 bf 6a a9 bd 08 ed 3b bc ae 0d 99 be d6 0e 27 3e
       -0.08272313 -0.011470087 -0.2989325 0.16314253
000040 65 c9 1d 3e ce 38 a3 3b 3d da b2 3e d2 88 d0 bd
       0.15408857 0.004981137 0.34932128 -0.101823464
000050 17 b5 36 3e ea 82 61 3e 7a 7b 56 bd a8 13 b4 bd
       0.17842518 0.22022596 -0.05236385 -0.08792812
000060 53 ad 65 bd 2f 9a a5 bc a4 09 73 bd a2 5e 69 3e
       -0.056073498 -0.020215122 -0.059335366 0.22790006
000070 55 e9 ef 3e db 2a 7e 3e eb 46 41 3f 8f 1f 22 bd
       0.46857706 0.24821036 0.7549884 -0.039580878
000080 ed 0f c9 3e 32 03 53 bd 82 5c 54 bd 9e 13 9e bd
       0.39269963 -0.05151672 -0.051846035 -0.077185854
000090 36 c5 9f bd 2e bf 13 3f 8a 05 5d 3f bb c3 fd 3d
       -0.07801287 0.5771359 0.86336577 0.12390848
0000a0 c4 0b 08 3c 36 59 c5 bd 0a ee d8 bd b3 ce e1 be
       0.008303586 -0.09636156 -0.10592277 -0.4410301
0000b0 32 0d 57 bf 09 03 c9 bd 82 07 de bd 19 dd 59 3e
       -0.8400451 -0.09815032 -0.10841276 0.21275748
0000c0 a7 40 80 bd 98 52 bc 3e 23 f3 63 bd 6c 83 8a 3e
       -0.062623315 0.36781764 -0.055651795 0.27053392
0000d0 6e db 97 bd f8 ed c5 3b 95 4d 38 3f de b9 32 be
       -0.074149 0.006040331 0.7199338 -0.17453715
0000e0 a0 84 39 be c0 76 36 bf 6d 79 1f 3e d0 82 38 bd
       -0.18116999 -0.7127495 0.15573664 -0.045046628
0000f0 3d 37 d5 be ac 9f 8d 3e b5 8e 88 3e 99 25 50 3e
       -0.41643706 0.27660882 0.26671377 0.20326842
000100 d9 1a d7 3d ba 98 01 3f 66 0f 23 3c 17 19 3b 3f
       0.10503168 0.5062367 0.009952402 0.7308516
000110 6c b0 0d 40 58 af b8 bd 65 85 87 bd db a1 66 bd
       2.213893 -0.09017819 -0.0661724 -0.0563067
000120 3f ab 5e 3b b5 bd 81 bd 74 55 70 bc 08 93 40 3f
       0.0033976582 -0.06335012 -0.014668811 0.7522435
000130 c5 06 8d bc a3 6f 62 bc d1 62 11 bf 6c f1 8b 3e
       -0.017215142 -0.013820562 -0.56791407 0.27332628
000140 af 09 22 be 5f e2 39 3e 3b 84 95 be 23 36 f6 3e
       -0.15824006 0.1815276 -0.29202446 0.48088178
000150 e3 49 61 bd 19 b4 5e bc a7 df d6 be 7f c5 36 3e
       -0.055002104 -0.013592743 -0.41967508 0.17848776
000160 ab 64 15 3f f7 fe a5 bd 78 91 36 3e a0 b7 da be
       0.5835673 -0.08105271 0.1782893 -0.4271822
000170 36 49 23 3e 74 54 d5 3c 68 77 b3 bd d5 d5 0a be
       0.15945897 0.026041247 -0.08763009 -0.13558133
000180 e1 d2 df 3d 4d a0 cf 3c d8 1b 42 3e 0f 6d 7e 3f
       0.10928894 0.025344992 0.18955934 0.9938516
000190 c0 c8 43 3e 22 84 61 3f 10 0f 44 3e 26 d7 22 3e
       0.19119549 0.88092244 0.19146371 0.15902385
0001a0 a0 2f 46 3f ed 9d 82 bd e9 c6 c5 bd aa c5 8e 3d
       0.7741642 -0.06377778 -0.0965708 0.06971295
0001b0 c0 63 ca 3e f3 f4 e4 bb d9 28 18 3f 6f 10 c6 bd
       0.39529228 -0.006987208 0.5943733 -0.09671103
0001c0 27 37 ac bd ce 82 9f bd 75 65 93 3e d9 3c c9 bd
       -0.08408957 -0.07788621 0.28788343 -0.09826059
0001d0 39 b1 cc bc c7 30 76 3f 2d 69 90 3e 00 00 1c 3f
       -0.02498685 0.9616818 0.28205243 0.609375
0001e0 d7 6f b4 3d db f9 68 bc b5 bd 01 bd 69 bf 59 3e
       0.08810394 -0.014219726 -0.03167506 0.21264423
0001f0 4a 19 57 bc 80 ff 3d bd 4d b4 04 be dd 76 82 bd
       -0.013128588 -0.046386242 -0.12959404 -0.063703276
000200 6a 35 d7 bc 31 df 65 3f 94 46 e5 be 76 c7 a8 3d
       -0.026270587 0.8979369 -0.4478041 0.08241169
000210 86 f1 9b bd 3f 59 ec be af 86 22 bd dc c9 46 c0
       -0.07614426 -0.4616184 -0.039679226 -3.1060705
000220 08 a7 4f 3e d4 03 51 be 55 7f 0e bc 0b 86 7a 3e
       0.20278561 -0.20411617 -0.0086973505 0.24465196
000230 95 64 87 be 1e 3d 95 bd 12 38 d2 bb 21 42 42 bd
       -0.26443925 -0.07287048 -0.0064153755 -0.047426347
000240 48 d4 0e be 7f 97 2d bc 13 c6 11 3f 25 96 38 be
       -0.13948166 -0.0105952015 0.5694286 -0.18026026
000250 14 5e 09 3f 13 e0 be 3f 0e 35 14 bf c7 50 22 bd
       0.53659177 1.4912132 -0.57893455 -0.039627817
000260 6a 6c 52 bd 8c c4 7a 3e 12 3e ea 3c c9 46 20 3f
       -0.051372923 0.24489039 0.02859405 0.6260801
000270 cb a7 a0 bd 59 b1 4a 3f 56 4e 2a 3f 64 fa 80 3e
       -0.07844504 0.7917686 0.6652578 0.25191033
000280 29 82 c5 bd 55 8f 03 be ab 92 6e bd 36 13 13 bd
       -0.09643967 -0.12847646 -0.058245342 -0.035906993
000290 ef 1b a0 bd 8c 3f 8c 3e 02 e6 54 bd 69 c6 ff 3e
       -0.07817828 0.27392232 -0.051977165 0.49956062
0002a0 03 d0 60 be 8e 3b 95 bd 88 a7 0d 3f 48 00 be bd
       -0.2195435 -0.0728675 0.5533376 -0.092773974
0002b0 c0 27 49 3a 5b ec 64 bd 6d 8f 13 3f 35 b4 8d bb
       0.0007673465 -0.05588947 0.57640725 -0.004324461
0002c0 c4 72 fb bc a6 2f 27 3e 66 49 91 bd 8a c7 6d 3e
       -0.030694373 0.1632677 -0.07094078 0.2322065
0002d0 6c 9b 74 3e 97 6e af bb 4a 07 40 3f f2 0e e9 3d
       0.23887414 -0.0053537595 0.7501112 0.11379804
0002e0 dc f6 39 3f 34 65 02 bf ab 38 7d 3e 7e fe 4f 3f
       0.726423 -0.50935674 0.24728648 0.812477
0002f0 08 d0 5b 3f ea af 28 3f 64 3a 15 3e fc fc 81 3e
       0.85864305 0.65893424 0.14573056 0.25388324
000300 aa 6f 5f bd 72 d7 23 bd 08 9c 10 3f 65 7e 04 be
       -0.05454985 -0.040000387 0.56488085 -0.1293884
000310 1f 68 2b bd 31 3b d2 3e 58 f6 c1 3e f0 c1 b5 3d
       -0.041847344 0.41060784 0.37883258 0.08874881
000320 41 1a 5e 3e ac 5f 60 3f bb 15 68 bd 4b ea e2 bb
       0.21689703 0.87645984 -0.05666135 -0.0069249026
000330 61 91 53 3d b3 e3 d3 3f 05 b9 81 bd 11 28 e7 3e
       0.051652316 1.6553863 -0.06334118 0.45147756
000340 85 de 01 be 20 40 ba bd 04 58 0e bf 0d dd 5a be
       -0.1268254 -0.09094262 -0.5560305 -0.21373387
000350 ba 6f e2 3e 0f 15 aa bd 73 1a e5 bc cb 16 c8 be
       0.44225866 -0.08304798 -0.027966714 -0.3907989
000360 1d 59 57 3f 41 9e 98 bd a5 95 de 3e 4f 4f 24 3f
       0.8412035 -0.074520595 0.43473545 0.64183515
000370 a8 48 40 3b 6a 02 d3 bd 98 87 c7 3e 4c 10 7e bd
       0.0029340181 -0.10303195 0.38970637 -0.06202726
000380 5f 6d a7 bd 43 cf 77 3d e6 64 9b bd ca 14 de bd
       -0.08175158 0.060500395 -0.07587604 -0.10843809
000390 8b d6 f7 3d c8 28 b1 be b0 e5 bd 3f 18 bc 39 bd
       0.12101468 -0.34601426 1.483572 -0.045345396
0003a0 de 4d 26 3e 66 9f 24 3e 9b 3c e1 ba 11 65 22 3f
       0.16240641 0.1607643 -0.00171842 0.63435465
0003b0 99 39 55 3e 28 01 4e 3b 78 73 7d 3e ce e8 0d 3e
       0.20822753 0.0031433795 0.24751079 0.13858339
0003c0 8c 40 77 bd 98 ab c2 3d f9 90 c8 bc 37 90 2c bd
       -0.06036429 0.09505385 -0.02448319 -0.04212972
0003d0 d0 35 49 3e fd ec 8c bd 04 1b 7a be ed 17 10 3e
       0.19649434 -0.068811394 -0.24424368 0.14071627
0003e0 d3 12 b5 3f 2f cb 3a 3c d6 4c ec 3d e1 ad c8 bc
       1.414637 0.011400982 0.11538093 -0.024496974
0003f0 f8 03 a8 3e b3 16 ef bd 15 c8 33 3f 75 fb 0b c0
       0.32815528 -0.116742514 0.70227176 -2.1872227

l3.weight f4 [1, 300]
000000 84 31 09 3c 77 c3 b1 3b 2a 3b 6e bf 59 92 c1 3c
       0.008373622 0.0054249126 -0.9305903 0.023629354
000010 c1 bd c9 bc c3 8a 5b 3e 0b ad e7 bb a7 c8 ac bf
       -0.024626615 0.21439652 -0.007070189 -1.3498734
000020 4c fc f8 bc 5e c7 98 3c 87 f9 3b 3d 52 17 40 c0
       -0.030393742 0.018649753 0.045892265 -3.0014234
000030 cf e9 ab 3c 8e 81 9a bc 6c 16 8a bd 64 22 0b 3d
       0.020985512 -0.018860605 -0.06742558 0.033968344
000040 4e 0e 28 3d 21 67 40 bc 70 20 80 3e 8a 65 dc 3c
       0.041029267 -0.011743338 0.25024748 0.026903886
000050 7a 39 61 3d 84 0c f2 3c 76 6d 9e 3c 78 81 bc 3c
       0.054986455 0.029546984 0.019339304 0.023010954
000060 d3 98 f7 bc 28 61 3e 3d 98 81 b0 bc 21 bd d3 bf
       -0.03022424 0.046479374 -0.02154617 -1.6542093
000070 7a 9c e6 3d 2c cc 8c 3d 39 1b ab bf 60 d5 b7 bc
       0.11260314 0.0687488 -1.3367683 -0.022440612
000080 74 a0 45 3e b8 9e b4 3c a0 7f 3e 3b 2d f7 89 bb
       0.1929949 0.02204834 0.002906777 -0.004210374
000090 57 d0 3f 3c 57 6a 48 bf 59 d9 df 3e 11 0e 59 bf
       0.011707387 -0.7828726 0.4372051 -0.8478709
0000a0 00 fc c8 3c 6b bf 5e bf 0d 1a 8c 3c 77 62 3d 3f
       0.024534225 -0.8701083 0.017102266 0.7397837
0000b0 db b4 9d bf 18 8a b9 bc 0d 9c 87 3c b1 d1 54 3d
       -1.2320818 -0.022648856 0.016553903 0.05195779
0000c0 de c6 16 bc 1d 22 0d c0 f7 d2 a4 bc f7 3f 9e bf
       -0.009202687 -2.205207 -0.020120127 -1.236327
0000d0 92 12 d2 bb 67 2c 33 3c 68 74 88 3e 84 46 01 bf
       -0.006410905 0.010935879 0.2665131 -0.50498223
0000e0 2f ea 39 3c 10 cb a0 be 9b b9 e1 3c 6e 69 aa bb
       0.011347338 -0.31404924 0.027554324 -0.0052005565
0000f0 3f 61 25 bf ba 69 32 3f da ba d5 3c 90 25 3a 3b
       -0.6460151 0.69692576 0.026090074 0.0028403737
000100 9d 0c 9b 3c b5 c2 5e 3e 86 0d 28 bc b8 47 90 3e
       0.018926913 0.21753962 -0.0102571305 0.28179717
000110 35 f5 29 bf 98 08 c0 3d 48 86 b0 bc 07 84 27 3b
       -0.6638978 0.09376639 -0.021548405 0.0025560872
000120 f5 b4 25 3f 0d 3a 8f bc 83 04 eb bc a5 c2 6f 3e
       0.64729244 -0.017483735 -0.028688675 0.23414095
000130 1a 92 d9 3b d4 db f0 bc da 30 e4 3f df 59 3d bd
       0.006639731 -0.029401697 1.7827408 -0.046228286
000140 4a e7 ef 3f 00 5a 4a 3d d1 53 0f 40 16 a5 28 c0
       1.8742459 0.049402237 2.2394907 -2.635076
000150 ac 44 fb bc bc 6c 36 40 9b 8d 37 bf d1 8a 58 bf
       -0.030672394 2.8503866 -0.7170045 -0.8458682
000160 e5 cc 95 3d 4f cf a5 3c 75 d7 d0 bd 63 77 8c 3e
       0.07314471 0.020240454 -0.10197345 0.27434835
000170 6e 98 9e 3b d1 13 0a c0 70 e1 48 3c 5d e5 93 be
       0.0048399484 -2.1574595 0.01226078 -0.28885928
000180 60 58 b7 3c 55 6d 86 be f1 ff 5e bc d5 68 a6 3e
       0.022381008 -0.2625529 -0.013610826 0.32501855
000190 ce cf a7 3d de 88 11 3f 3f f2 21 bc 64 2f 8d 3c
       0.081939325 0.5684947 -0.009884416 0.017234512
0001a0 87 c2 45 be e8 9d b7 bc 4f 4c a6 3c 01 8c d4 3f
       -0.19312488 -0.022414163 0.020300059 1.6605226
0001b0 2d d8 c9 3d e5 53 89 bc d1 96 95 3e 6e 55 f0 3f
       0.098556854 -0.016763637 0.29216626 1.8776071
0001c0 09 2e 5f bc 07 c4 ad bc 4f 3e ea be 1d 61 8f bb
       -0.0136218155 -0.021211637 -0.45750663 -0.0043755905
0001d0 9a a9 d3 3c 1c 44 e2 3e 6a 0f ee 3c 0f 7f b8 3d
       0.025837708 0.44192588 0.029060084 0.090086095
0001e0 e4 53 f0 3a cc ea fd 3c c0 48 b7 3c 17 aa 3c 3d
       0.0018335548 0.030995749 0.022373557 0.046060648
0001f0 02 07 5c bc 5d ff 17 39 ed b8 8a 3c 97 b2 2c bb
       -0.013429405 0.00014495612 0.016933883 -0.0026351565
000200 14 c4 0e bb 31 ea 08 3f 5d 50 9c bf ce 85 92 3c
       -0.0021784352 0.5348235 -1.2212025 0.017886069
000210 78 e9 b3 3c 4e 38 78 3f 46 ab 95 bc bc 8b c2 3f
       0.021961913 0.96960914 -0.018270146 1.5198894
000220 43 6c e1 ba 80 cb 90 bf 76 ed 11 bb 88 29 4d 3d
       -0.0017198402 -1.1312103 -0.0022266782 0.050088435
000230 25 cf 1b 3f fa 49 d8 bc 13 df e4 3c 91 6c dc 3c
       0.6086295 -0.026402462 0.027938401 0.026907237
000240 3e 3f 5c bf ed 5e 19 3c fa db d4 be 68 1a 43 3f
       -0.86034 0.009361011 -0.4157408 0.7621217
000250 37 8c 78 bd 6b 4f 19 bf 45 1a 10 c0 1a bf 5e 3b
       -0.060680594 -0.5988681 -2.2516034 0.0033988417
000260 3f 9b a3 bc 39 ce c3 bf 54 39 89 be 27 77 ad 3e
       -0.019971488 -1.5297309 -0.2680155 0.3387997
000270 63 71 ce bf 62 f2 4e 3e 72 8c 2c 3e 91 8c 5f 3d
       -1.6128353 0.20209649 0.1685045 0.054577414
000280 26 43 11 bb 4f 1a 3f bb 05 cd 9f bc 61 37 49 3c
       -0.0022165268 -0.0029159968 -0.01950694 0.01228127
000290 27 29 3f bc 1f 3d ae bb d7 4c 3e 3c 5c 9b 1b 3f
       -0.011667526 -0.005317345 0.011615 0.60783935
0002a0 66 18 95 3c 72 87 d7 bc 03 a8 b6 bf 73 fa e1 bc
       0.01820011 -0.026309703 -1.4270023 -0.027585244
0002b0 76 68 23 3c 36 13 13 bc 39 cc d4 bf cc 59 78 3c
       0.009973636 -0.008976748 -1.6624824 0.015158128
0002c0 fa 3c 56 3b 15 a6 93 3c 61 80 41 3b 2a f1 58 bc
       0.0032690153 0.01802353 0.0029525983 -0.013241092
0002d0 90 12 ba 3d 45 82 87 bc 09 d2 82 3e 16 d1 90 3c
       0.09085572 -0.01654161 0.2555087 0.017677825
0002e0 c2 fc 9a 3e d9 54 04 bf 84 4f 04 3c d1 1a 8d 3e
       0.30270964 -0.5169197 0.008075599 0.27559522
0002f0 ef 50 8a 3e f5 db a5 3d 5a aa 88 bf 92 21 dc 3c
       0.27014872 0.08098594 -1.0676987 0.026871476
000300 0a fa d6 bc a5 4f 10 40 c6 06 fe 3c 4e ba 9c 3a
       -0.026242275 2.254861 0.03100909 0.0011957379
000310 ca dc 5e 3c 1e a6 10 c0 4f a8 b8 bf da 24 39 3f
       0.013602445 -2.260139 -1.4426364 0.72321856
000320 c4 82 89 3d 7c 23 fd 3e d1 20 d9 bc 6c 7a 71 bc
       0.06714395 0.49441135 -0.026504906 -0.01473866
000330 27 0c af bb a4 03 64 bf 86 35 99 bc f0 a9 a4 3e
       -0.005342025 -0.89068055 -0.01870228 0.32160902
000340 87 34 2e 3d 54 10 fb 3b 6e 47 02 c0 49 92 67 3f
       0.042530563 0.0076618586 -2.0356097 0.9045759
000350 df 80 2c 3e 3b 38 75 bc ec 22 f1 bb 93 7c 0c 40
       0.16846035 -0.01496702 -0.0073588993 2.1951034
000360 82 8b 81 3e 9d f7 95 bf 2a 9c 8a 3d bd 8b 3f 3e
       0.2530175 -1.171619 0.06768067 0.1870565
000370 a9 5e 4d bb 8a ec 52 bb 29 11 c7 3f 2a 1a e7 39
       -0.003133694 -0.0032184445 1.5552112 0.00044079247
000380 62 5f d3 3b 17 75 7a 3f 42 4d 62 3b 66 8f af 3a
       0.0064505795 0.97834915 0.0034530913 0.0013394176
000390 0e 89 9f 3c 10 5b c8 be 46 72 5c bf e4 44 ff 3c
       0.019474532 -0.39131975 -0.8611187 0.03116078
0003a0 d5 75 1a 3e 7e b2 9c 3c dc 08 73 3c 60 26 f7 3c
       0.15084012 0.01912808 0.014833655 0.030169666
0003b0 c3 4a f1 3d 5d 6d 0e bc dc 82 10 3e e9 d3 93 3e
       0.11781838 -0.008693066 0.14112419 0.28872612
0003c0 0d c1 05 bc 74 f2 8c bd a0 e7 b5 bc 0e 48 95 3b
       -0.008163703 -0.06882182 -0.022205174 0.0045557087
0003d0 3d 27 15 3b 34 e7 f8 bc d4 84 f2 3c 13 0a e2 3c
       0.0022758984 -0.030383684 0.029604353 0.027592694
0003e0 c9 ce 2c bf 77 f7 20 bc eb 8f 81 c0 92 98 dd bc
       -0.6750303 -0.009824625 -4.048818 -0.02705029
0003f0 7f 47 83 3e fa 65 64 39 f1 38 68 3d 74 60 ec 3f
       0.25640485 0.00021781764 0.05669493 1.8466935
