preTrained/BipedalWalker-v2/TWO/TD3_BipedalWalker-v2_0_solved_actor.pth (torch_old, 527002 bytes, 6 tensors)

l1.weight f4 [400, 24]
-0.3470118 0.39431617 -0.95992786 0.74399763 0.25129172 -0.07624487 -0.0674386 -0.3984609
0.14482008 -0.11506625 0.12154653 -0.4026229 -0.44186792 0.44433364 -0.39038035 -0.5384359
-0.5025415 -0.6555899 -0.43381116 -0.44053218 -0.6182262 -0.72560894 -0.6682176 -0.65016294
2.1911166 6.552871 0.22254556 1.7832321 1.0928142 0.079258226 0.7688202 0.2051104
-0.005035682 0.16718018 0.16919507 -0.1036502 0.10024969 -0.19166873 0.32850838 0.40654743
0.24536975 0.08960368 0.29805622 0.43197003 0.5324853 0.2998378 -0.07563062 -0.4665862
-0.47597894 -0.9942964 0.53889924 1.4865589 0.051216323 -0.6524105 0.7545135 -1.1903352
-0.66269046 -0.4254513 -0.18068403 -0.117553815 -0.037263256 0.1619683 -0.72534347 -0.7385837
-0.5536249 -0.5590054 -0.7947073 -0.8043836 -0.8218256 -0.66373336 -0.76651436 -0.3810087
0.029126756 -0.7747748 0.94432324 0.3392317 -0.17958643 0.16369392 0.34947842 0.25300288
-0.4235089 0.16032746 0.01427591 0.094624706 0.19152364 -0.024626628 -0.47760972 -0.27829808
-0.17261842 -0.20260037 -0.34615293 -0.18350935 -0.42329705 -0.16088223 -0.29139215 -0.385772
1.2773712 0.63632894 -1.1871779 0.6829548 0.16297401 1.1551192 0.01788063 0.13806163
-0.17491592 -0.4041019 0.780397 0.19359139 -0.13586718 -0.40191197 -0.63943213 -0.5167829
-0.53971165 -0.34395227 -0.6425003 -0.35229233 -0.5648914 -0.5030788 -0.6668568 -0.2345579
1.547955 2.0399454 -3.4357054 2.893753 1.8148658 -0.2533471 0.59984684 0.2658324
0.6260937 0.6130557 -0.28693473 0.18514003 -0.35536036 0.40798625 -0.07908128 -0.13216105
-0.1315899 -0.023105662 -0.14638975 -0.1188043 0.17159306 0.07247114 -0.1946745 0.21465263
-0.75582296 -0.545433 -1.8086513 1.9220178 -1.0933367 -0.8783902 0.037544675 0.06577218
-2.2373884 0.96777624 -0.5691574 0.4691593 0.10215204 0.38558215 -0.15999235 -0.12185209
-0.2976655 -0.3202451 -0.3609532 -0.067364745 -0.24616712 -0.10075024 -0.117006466 -0.20322809
-0.9500647 -2.3167503 0.2733268 -0.5818961 -0.60735697 0.68603367 0.1493099 -0.062771104
-0.09279836 0.89520586 -0.7328143 1.4568197 0.6970753 0.18975303 -0.25933444 -0.36267588
-0.31690255 -0.14919028 -0.33856016 -0.3642353 -0.02446475 -0.04456738 -0.35912314 -0.3605695
-1.0327046 -1.9370501 1.298949 -1.427385 -1.4447364 0.66535175 0.35394695 -0.42178082
-0.67688745 -1.0037303 1.0727675 -0.2678533 0.9538054 -0.26434466 -0.3585604 -0.38107756
-0.32378757 -0.27331048 -0.29454386 -0.25224122 -0.35932797 -0.2603951 -0.11890233 -0.29703125
-0.10783658 0.031841584 -0.2009534 0.52813214 -0.13188484 0.5446517 -0.027049677 0.47158012
-1.0038266 0.1801962 -0.42171735 0.17337045 0.25192362 -0.8459387 -0.31529656 -0.2945842
-0.48043555 -0.34072098 -0.36574414 -0.24840492 -0.112351716 -0.23558363 -0.45367733 -0.53014284
0.11874753 1.5335594 -0.5248053 4.1958084 -0.010086133 -0.397995 0.22912095 0.49122557
0.014065256 0.8977375 0.47219613 0.3959262 -0.045172572 -0.9591524 -0.06609679 -0.18523404
00000000: 88ab b1be cfe3 c93e d5bd 75bf a176 3e3f
00000010: 4fa9 803e 4526 9cbd 401d 8abd 1103 ccbe
00000020: b74b 143e dba7 ebbd 63ed f83d 9724 cebe
00000030: 833c e2be b37f e33e efdf c7be efd6 09bf
00000040: 8fa6 00bf bdd4 27bf 7f1c debe 6f8d e1be
00000050: 1244 1ebf 82c1 39bf 4f10 2bbf 1471 26bf
00000060: 413b 0c40 1fb1 d140 fce2 633e f340 e43f
00000070: 56e1 8b3f 2352 a23d 67d1 443f 7608 523e
00000080: 5d02 a5bb 4831 2b3e 7941 2d3e 8e46 d4bd
00000090: b64f cd3d cf44 44be 4032 a83e fc26 d03e
000000a0: 3542 7b3e 2282 b73d d39a 983e 2d2b dd3e
000000b0: f550 083f 5784 993e 3ae4 9abd 63e4 eebe
000000c0: 83b3 f3be 358a 7ebf 4df5 093f 9047 be3f
000000d0: 35c8 513d 6004 27bf cc27 413f e75c 98bf
000000e0: 15a6 29bf c1d4 d9be 3c05 39be 0ec0 f0bd
000000f0: 5ba1 18bd 05db 253e 1cb0 39bf d213 3dbf
00000100: 5dba 0dbf fa1a 0fbf f071 4bbf 15ec 4dbf
00000110: 2a63 52bf 6eea 29bf 493a 44bf 9313 c3be
00000120: 3c9b ee3c a457 46bf 2bbf 713f c7af ad3e
00000130: 81e5 37be 619f 273e d6ee b23e 9889 813e
00000140: 29d6 d8be e22c 243e 82e5 693c 99ca c13d
00000150: c61e 443e c8bd c9bc 4389 f4be 167d 8ebe
00000160: e2c2 30be 7976 4fbe f53a b1be e0e9 3bbe
00000170: 64ba d8be 50be 24be 5a31 95be e883 c5be
00000180: e680 a33f 74e6 223f 72f5 97bf 20d6 2e3f
00000190: a9e2 263e f2da 933f 667a 923c 0760 0d3e
000001a0: 291d 33be 72e6 cebe 19c8 473f d23c 463e
000001b0: c420 0bbe 68c7 cdbe d3b1 23bf e24b 04bf
000001c0: 8b2a 0abf 831a b0be e67a 24bf a95f b4be
000001d0: b99c 10bf c6c9 00bf 21b7 2abf f22f 70be
000001e0: 6423 c63f 778e 0240 99e2 5bc0 4033 3940
000001f0: 864d e83f b6b6 81be 908f 193f 2f1b 883e
00000200: ad47 203f 38f1 1c3f 1ce9 92be 5995 3d3e
00000210: cbf1 b5be 93e3 d03e 5ef5 a1bd 3a55 07be
00000220: 81bf 06be 1648 bdbc 32e7 15be ab4f f3bd
00000230: 17b6 2f3e c06b 943d c158 47be e6cd 5b3e
00000240: 9d7d 41bf 7fa1 0bbf e381 e7bf ae04 f63f
00000250: 75f2 8bbf 2ede 60bf 72c8 193d 91b3 863d
00000260: 5f31 0fc0 2fc0 773f 4db4 11bf a635 f03e
00000270: 1735 d13d 066b c53e 09d5 23be 978d f9bd
00000280: 9d67 98be 2af7 a3be dcce b8be 87f6 89bd
00000290: 3c13 7cbe 2456 cebd 16a1 efbd 061b 50be
000002a0: 7137 73bf a345 14c0 7ef1 8b3e 25f7 14bf
000002b0: bf7b 1bbf e79f 2f3f b2e4 183e 238e 80bd
000002c0: 110d bebd 362c 653f b899 3bbf 1179 ba3f
000002d0: 8773 323f 9e4e 423e 7cc7 84be a7b0 b9be
000002e0: 0d41 a2be 56c5 18be c257 adbe 0d7d babe
000002f0: 4d6a c8bc 498c 36bd fdde b7be 919c b8be
00000300: aa2f 84bf 42f1 f7bf f643 a63f 8db4 b6bf
00000310: 1fed b8bf 7e54 2a3f 8938 b53e a8f3 d7be
00000320: 7f48 2dbf 3c7a 80bf 7250 893f 1124 89be
00000330: 972c 743f 2f58 87be 3b95 b7be 991c c3be
00000340: 7cc7 a5be 5aef 8bbe 74ce 96be c325 81be
00000350: d6f9 b7be 8252 85be 1183 f3bd 7b14 98be
00000360: 6dd9 dcbd 526c 023d bac6 4dbe ab33 073f
00000370: d20c 07be 4b6e 0b3f 4997 ddbc f372 f13e
00000380: 647d 80bf 5a85 383e 56eb d7be 0688 313e
00000390: 22fc 803e 708f 58bf 8d6e a1be bed3 96be
000003a0: a6fb f5be fb72 aebe d142 bbbe dc5d 7ebe
000003b0: a818 e6bd d63c 71be 6548 e8be 71b7 07bf
000003c0: e831 f33d ad4b c43f a459 06bf 1044 8640
000003d0: 4f40 25bc 00c6 cbbe af9e 6a3e eb81 fb3e
000003e0: f671 663c 20d2 653f b1c3 f13e d7b6 ca3e
000003f0: e006 39bd 038b 75bf c15d 87bd fead 3dbe

l1.bias f4 [400]
-0.72975695 -0.4211409 -0.36541453 -0.6245182 0.011408752 0.25511742 -0.08418212 0.3208831
0.5683529 -0.5916339 -0.4888685 -0.29621527 0.20083992 -0.2744991 -0.6879826 0.17395622
0.111590326 -0.9214446 -0.42906132 -0.61300665 -0.35897622 0.0055820835 -0.030902203 -0.34467137
-0.45024967 -0.3921061 0.51549566 0.15064025 -0.24894324 0.18676287 -0.28813434 -0.5147973
-0.32284105 0.07095543 -0.20961854 -0.43332726 0.1367155 -0.27227005 -0.51718813 -0.83008385
-0.31736106 -0.5241031 -0.8656744 -0.20380516 -0.39647406 -0.061412316 -0.17132245 -0.36460075
-0.542236 -0.15077662 0.053657178 -0.654808 -0.22764279 -0.7381053 0.0964198 -0.4747992
-0.3419629 -0.6431012 0.055310894 -0.37018326 -0.48074707 -0.05190553 0.3283528 0.18960205
-0.091625184 -0.4189697 -0.2171672 -0.57704705 -0.83075535 -0.28628466 -0.09513491 -0.56035733
-0.08165725 -0.2134162 0.087128215 -0.71552366 -0.34933525 0.21525304 -0.641685 -0.3984208
-0.32478657 -0.44851047 -0.22902934 -0.10560123 -0.07676019 -0.122648686 -0.49415624 -0.4729597
-0.14920923 -0.56033766 0.3975984 0.17469673 0.039353367 -0.80726457 -0.19632438 0.20606633
-0.094208635 0.22603214 -0.5365158 -0.18419892 -0.48721227 0.34098583 0.08790173 0.6328208
-0.48993364 -0.36459735 -0.23073097 -0.676945 -0.19397174 0.20151822 -0.40823844 -0.52410465
-0.099123985 0.45752868 -0.47572753 -0.19092114 -0.19132282 -0.5435378 0.27039504 0.40927222
0.5830268 -0.03934137 0.11721422 -0.044243395 -0.14196058 -0.3855365 -0.012082192 -0.09689459
-0.0976945 -0.97706074 0.2214591 -0.28616846 -0.114597544 -0.46933314 -0.08095372 -0.05229952
-0.63917524 -0.16463377 -0.12827684 -0.3109387 0.49357283 -0.56282926 -0.8135033 -0.50057304
0.12274432 -0.7714521 -0.6991639 -0.03207098 -0.542395 -0.005442038 -0.21029346 -0.45912632
-0.0677864 -0.5323363 -0.11547776 0.41525468 0.22289722 0.031315487 0.12809885 0.35416272
0.50684714 0.40227208 -0.09950004 0.1363668 -0.2061164 -0.640693 -0.6019565 -0.09193355
0.61325085 0.04211345 0.086736724 0.0869213 0.3376117 0.49897143 -0.54960686 -0.25065336
0.1380937 0.19131875 -0.16652253 -0.22867242 0.33505306 0.503504 -0.38772437 -0.38234437
-0.1768294 -0.16488627 -0.2103094 -0.03339899 -0.11776737 -0.041958492 -0.21140647 -0.31064737
-0.5614269 0.28218377 -0.12983032 -0.44015387 0.096839346 -0.5194468 0.18768075 -0.2664842
-0.1270304 0.26004666 -0.19225074 0.29066992 -0.5124343 -0.33298522 -0.2867044 0.13244538
-0.35374576 -0.13354939 0.26311097 -0.07578269 -0.42174447 0.37145612 0.47141558 -0.059248637
-0.24313529 -0.6358634 0.23165439 -0.3455783 -0.09599963 -0.07091849 0.19893767 -0.50224763
-0.72091323 -0.3717405 -0.24450293 0.33917108 -0.4523742 -0.46566844 -0.5136783 0.5356234
-0.7593535 0.13048334 -0.15800622 0.10281835 -0.3905192 0.27775592 -0.12129951 -0.16962267
-0.6020036 -0.59108895 -0.060895886 0.15481499 0.25929204 -0.06017846 -0.6382579 -0.3002036
-0.10414289 -0.65580076 -0.46295318 -0.2775787 -0.075935826 -0.6277412 -0.2208956 -0.50399417
00000000: 5ad1 3abf c89f d7be 9d17 bbbe 6de0 1fbf
00000010: c6eb 3a3c c09e 823e ad67 acbd ca4a a43e
00000020: 937f 113f 5275 17bf f94c fabe 87a9 97be
00000030: fba8 4d3e 258b 8cbe a11f 30bf 9421 323e
00000040: 7889 e43d cbe3 6bbf edad dbbe 01ee 1cbf
00000050: bbcb b7be e9e9 b63b 9e26 fdbc c478 b0be
00000060: 2087 e6be 21c2 c8be 86f7 033f 7041 1a3e
00000070: faea 7ebe c43e 3f3e 5886 93be c1c9 03bf
00000080: 6c4b a5be 1551 913d 3ea6 56be 12dd ddbe
00000090: 26ff 0b3e fb66 8bbe 7166 04bf 6080 54bf
000000a0: 267d a2be 9f2b 06bf d69c 5dbf 4db2 50be
000000b0: a6fe cabe 7b8b 7bbd 276f 2fbe f3ac babe
000000c0: facf 0abf 3065 1abe a1c7 5b3d 7fa1 27bf
000000d0: 311b 69be 78f4 3cbf be77 c53d e118 f3be
000000e0: c315 afbe 48a2 24bf ad8d 623d a988 bdbe
000000f0: 7b24 f6be e59a 54bd dc1d a83e 0a27 423e
00000100: fca5 bbbd 3283 d6be 1461 5ebe 5bb9 13bf
00000110: 62ac 54bf e793 92be 17d6 c2bd 9473 0fbf
00000120: eb3b a7bd c789 5abe 4770 b23d 8f2c 37bf
00000130: 12dc b2be 4b6b 5c3e 7845 24bf d0fd cbbe
00000140: 6d4a a6be 2aa3 e5be ab86 6abe 7545 d8bd
00000150: 7234 9dbd 3c2f fbbd 0c02 fdbe c627 f2be
00000160: 4eca 18be 4a72 0fbf 0492 cb3e b3e3 323e
00000170: ff30 213d e4a8 4ebf 4209 49be 0d03 533e
00000180: 75f0 c0bd f874 673e 1959 09bf a49e 3cbe
00000190: e373 f9be b295 ae3e d205 b43d 8b00 223f
000001a0: 95d8 fabe 81ac babe bd44 6cbe 444c 2dbf
000001b0: 87a0 46be cb5a 4e3e a104 d1be b92b 06bf
000001c0: 8401 cbbd 3341 ea3e 8f92 f3be d580 43be
000001d0: 21ea 43be 4b25 0bbf 3871 8a3e 218c d13e
000001e0: 3f41 153f 6b24 21bd 020e f03d 9038 35bd
000001f0: 1d5e 11be 0a65 c5be 63f4 45bc ac70 c6bd
00000200: 0e14 c8bd a720 7abf 2dc6 623e ac84 92be
00000210: 1eb2 eabd 6f4c f0be 10cb a5bd 0538 56bd
00000220: fda0 23bf c195 28be 015b 03be 5b33 9fbe
00000230: 94b5 fc3e 9415 10bf c141 50bf 8e25 00bf
00000240: 6061 fb3d e37d 45bf 68fc 32bf dc5c 03bd
00000250: 66da 0abf 2053 b2bb 2b57 57be 9b12 ebbe
00000260: 99d3 8abd 3147 08bf 9b7f ecbd 439c d43e
00000270: 2b3f 643e ab44 003d 582c 033e d154 b53e
00000280: bcc0 013f 9bf6 cd3e adc6 cbbd bda3 0b3e
00000290: 2d10 53be 7504 24bf d219 1abf a847 bcbd
000002a0: 02fe 1c3f 277f 2c3d 06a3 b13d cb03 b23d
000002b0: 71db ac3e 2f79 ff3e 09b3 0cbf a355 80be
000002c0: 6f68 0d3e 10e9 433e e284 2abe 1a29 6abe
000002d0: 138c ab3e a3e5 003f cf83 c6be a4c2 c3be
000002e0: c412 35be f2d7 28be 595b 57be 61cd 08bd
000002f0: 0530 f1bd abdc 2bbd f07a 58be 2c0d 9fbe
00000300: acb9 0fbf 647a 903e 3df2 04be d95b e1be
00000310: b553 c63d 77fa 04bf 622f 403e 9e70 88be
00000320: 4214 02be d624 853e 61dd 44be b0d2 943e
00000330: e52e 03bf 0a7d aabe ebca 92be c39f 073e
00000340: 2a1e b5be 2cc1 08be 7bb6 863e f433 9bbd
00000350: e4ee d7be 7f2f be3e 625d f13e b3ae 72bd
00000360: 75f8 78be f2c7 22bf cf36 6d3e a4ef b0be
00000370: 749b c4bd b73d 91bd 51b6 4b3e 4d93 00bf
00000380: c58d 38bf c554 bebe fa5e 7abe d5a7 ad3e
00000390: 979d e7be 186c eebe 6c80 03bf 9d1e 093f
000003a0: fe64 42bf 6d9d 053e 62cc 21be 6d92 d23d
000003b0: 22f2 c7be 0636 8e3e e16b f8bd 91b1 2dbe
000003c0: e81c 1abf 9b51 17bf f76d 79bd d287 1e3e
000003d0: edc1 843e b07d 76bd df64 23bf 49b4 99be
000003e0: de48 d5bd 8fe2 27bf 3308 edbe cc1e 8ebe
000003f0: 3e84 9bbd a6b3 20bf 7532 62be c305 01bf

l2.weight f4 [300, 400]
-0.012091599 -0.019449867 -0.036838543 -0.029913751 -0.18369703 0.014909346 -0.10427986 -0.09763222
0.037518453 0.0016767769 -0.0453071 -0.11230965 -0.039498594 0.025674706 -0.07818202 -0.012493254
0.023485254 -0.032147534 -0.0362737 -0.11303462 0.028705014 -0.067945205 -0.047914807 -0.016436929
-0.1188773 -0.04921555 0.036630545 -0.16121368 -0.060190443 0.036672924 -0.09892615 0.028453039
-0.042223196 -0.06488577 -0.06016084 -0.084310494 -0.16249022 -0.09441551 0.055765655 -0.1432231
0.013330241 -0.021576801 -0.15082458 0.04018928 0.038485102 0.06478875 -0.046088375 -0.12988621
-0.020072928 -0.0066847093 -0.06255244 -0.029579667 -0.061297618 -0.033382736 -0.020117836 -0.013525896
-0.026455017 -0.01658682 0.04487264 0.08875677 0.049119093 -0.09382108 -0.04743738 -0.036630534
-0.21231797 0.021400804 -0.0746533 -0.026024785 -0.11913372 -0.099545576 -0.040937547 -0.050322518
0.032003023 -0.06952292 -0.013160656 -0.11583986 -0.031152118 -0.049464986 0.025820147 -0.04409469
0.021177296 -0.060907204 -0.05744328 0.010454103 -0.051018134 0.037004337 -0.018149162 -0.03224584
-0.071961164 -0.11909403 -0.074899085 0.023728486 -0.054416634 -0.055126518 -0.03220783 -0.00064974936
-0.07211572 0.016594041 0.00741527 -0.13662548 0.041841447 -0.12586157 -0.017080624 0.06279206
-0.012116163 0.025371483 -0.0024742743 -0.0041723736 -0.05462389 -0.074848354 -0.00395571 -0.021130154
-0.09757767 -0.11259697 0.08087309 -0.110733375 0.020823976 -0.12228942 -0.00083067524 0.008680522
0.046382297 -0.12660414 -0.10608059 -0.03483611 0.019958874 -0.039172206 -0.0042052944 -0.05842744
-0.070042975 -0.05341273 -0.035156734 -0.03738517 0.07702192 0.0039350237 -0.15388763 -0.022341486
0.02593922 0.012733868 -0.02299232 -0.09289849 0.019648405 -0.08987178 -0.009929725 -0.055502575
-0.048697874 0.0034895611 -0.1237512 -0.12786216 -0.020216558 -0.06607376 0.11796294 -0.0019246748
0.017080477 -0.057818916 -0.021379612 -0.104461856 -0.03655251 -0.06162002 -0.07401284 -0.012512019
0.02125406 -0.00038574496 0.017743403 -0.044652484 0.12941763 -0.14196303 -0.18934599 0.07600353
-0.004390996 -0.08859116 -0.043227486 -0.040863875 -0.0018143012 -0.06681968 -0.05035066 -0.031759843
-0.046338994 -0.17839234 -0.07923866 -0.008155256 -0.03525681 -0.06878681 -0.1106223 0.021493992
0.0144809075 -0.09381392 -0.022424132 -0.031830713 -0.16701643 0.12442456 0.05153298 -0.10885
-0.008456493 -0.10806184 -0.05065884 0.030813573 0.027057612 -0.12581034 -0.03215762 0.03715861
-0.09647737 -0.042218056 0.03812748 -0.0527823 -0.047696393 -0.03883234 -0.023362074 0.06520552
0.08260904 -0.036066636 0.022014575 -0.061606713 0.06793941 -0.17150539 -0.04075682 -0.119014956
-0.06485723 -0.044406045 0.022142934 -0.15452717 -0.16763704 0.0160216 -0.053497277 -0.040289678
-0.018471187 -0.056374907 0.017785294 -0.052922223 -0.047365293 -0.074589595 -0.19956368 0.05083929
-0.14409055 -0.06580398 -0.014597722 0.03171485 -0.06798402 0.027712423 -0.12818424 -0.019089563
0.016686749 -0.057799384 -0.00023726371 -0.046581715 -0.17296903 -0.056286238 -0.03939907 -0.05269855
-0.03906567 0.011617117 -0.060604982 -0.008984197 -0.04302653 0.088545494 0.058792036 -0.11203143
00000000: d81b 46bc 5455 9fbc 03e4 16bd af0d f5bc
00000010: 131b 3cbe 5446 743c ae90 d5bd 67f3 c7bd
00000020: f3ac 193d 4cc7 db3a f093 39bd 9a02 e6bd
00000030: 47c9 21bd c353 d23c e51d a0bd 81b0 4cbc
00000040: 2664 c03c 22ad 03bd bb93 14bd b27e e7bd
00000050: c726 eb3c db26 8bbd 5142 44bd bda6 86bc
00000060: f175 f3bd 3f96 49bd e909 163d 3315 25be
00000070: 418a 76bd 5936 163d cb99 cabd 5916 e93c
00000080: 3bf2 2cbd d5e2 84bd 376b 76bd fbaa acbd
00000090: d663 26be eb5c c1bd 876a 643d 14a9 12be
000000a0: 1567 5a3c d5c1 b0bc c271 1abe 849d 243d
000000b0: 8ea2 1d3d f7af 843d 2ac7 3cbd e400 05be
000000c0: fb6f a4bc 680b dbbb 7e1b 80bd 0f51 f2bc
000000d0: 3613 7bbd 56bc 08bd 29ce a4bc b89b 5dbc
000000e0: 31b8 d8bc 15e1 87bc 60cc 373d 1cc6 b53d
000000f0: 1a31 493d 4425 c0bd b34d 42bd e609 16bd
00000100: e269 59be bd50 af3c d4e3 98bd ee31 d5bc
00000110: 61fc f3bd 8dde cbbd 21ae 27bd fc1e 4ebd
00000120: 9a15 033d 0862 8ebd cb9f 57bc 733d edbd
00000130: ba32 ffbc cc9b 4abd c684 d33c a29c 34bd
00000140: 027c ad3c d579 79bd a549 6bbd b047 2b3c
00000150: 64f8 50bd dc91 173d 8dad 94bc 3714 04bd
00000160: 6060 93bd 92e7 f3bd b164 99bd 3e62 c23c
00000170: fae3 5ebd 58cc 61bd 5cec 03bd f153 2aba
00000180: 68b1 93bd 3af0 873c cbfb f23b 8de7 0bbe
00000190: f061 2b3d dbe1 00be aaec 8bbc 2099 803d
000001a0: df82 46bc dbd7 cf3c 6f27 22bb 68b8 88bb
000001b0: 4dbd 5fbd 184a 99bd e79e 81bb 2519 adbc
000001c0: cdd6 c7bd 3d99 e6bd caa0 a53d 2ec8 e2bd
000001d0: 0b97 aa3c e072 fabd acc1 59ba c038 0e3c
000001e0: 5dfb 3d3d 84a4 01be c840 d9bd 4fb0 0ebd
000001f0: cb80 a33c 0973 20bd 91cc 89bb 9c51 6fbd
00000200: b172 8fbd 4fc7 5abd 8200 10bd 3121 19bd
00000210: abbd 9d3d 5ff1 803b b894 1dbe 7e05 b7bc
00000220: 7d7e d43c b7a1 503c 645a bcbc 9041 bebd
00000230: b1f5 a03c b20e b8bd 49b0 22bc ab56 63bd
00000240: 6c77 47bd 1fb1 643b 4571 fdbd 4cee 02be
00000250: 329d a5bc ae51 87bd 8e96 f13d 5f45 fcba
00000260: 5bec 8b3c 87d3 6cbd 4c24 afbc 19f0 d5bd
00000270: 16b8 15bd 4665 7cbd 0b94 97bd 36ff 4cbc
00000280: ff1c ae3c d03d cab9 9d5a 913c 86e5 36bd
00000290: 0e86 043e c25e 11be eae3 41be bda7 9b3d
000002a0: 58e2 8fbb 486f b5bd 4e0f 31bd e160 27bd
000002b0: d9cd edba c2d8 88bd 7e3c 4ebd 9c16 02bd
000002c0: f5cd 3dbd 7bac 36be e147 a2bd 9f9d 05bc
000002d0: 7269 10bd 19e0 8cbd f28d e2bd 2b14 b03c
000002e0: 5441 6d3c 8321 c0bd d0b2 b7bc ec60 02bd
000002f0: 5b06 2bbe 4ed2 fe3d 3f14 533d c0ec debd
00000300: 1a8d 0abc 874f ddbd a57f 4fbd bf6c fc3c
00000310: eda7 dd3c 6dd4 00be b5b7 03bd a033 183d
00000320: ed95 c5bd d7ec 2cbd 8f2b 1c3d 4132 58bd
00000330: 4b5d 43bd a90e 1fbd d261 bfbc 798a 853d
00000340: ee2e a93d 9cba 13bd e957 b43c 5257 7cbd
00000350: d123 8b3d 1c9f 2fbe a0f0 26bd 1dbe f3bd
00000360: ded3 84bd 1de3 35bd 1965 b53c 5f3c 1ebe
00000370: 0ba9 2bbe bb3f 833c f61f 5bbd ca06 25bd
00000380: e350 97bc 60e9 66bd 77b2 913c f9c4 58bd
00000390: 1c02 42bd 6ec2 98bd 6c5a 4cbe dc3c 503d
000003a0: 798c 13be 3dc4 86bd 492b 6fbc 6ee7 013d
000003b0: 353b 8bbd 2a05 e33c bb42 03be b761 9cbc
000003c0: a6b2 883c 0cbf 6cbd fec9 78b9 78cc 3ebd
000003d0: cb1e 31be 668c 66bd eb60 21bd 6fda 57bd
000003e0: 5303 20bd b855 3e3c ee3c 78bd 7432 13bc
000003f0: 963c 30bd 5757 b53d ebcf 703d bc70 e5bd

l2.bias f4 [300]
-0.14862718 -0.05521463 0.10675753 0.11659488 -0.021449015 -0.100456595 -0.061650213 -0.045389768
-0.092284836 -0.060305662 0.1931699 -0.08948108 -0.09783704 -0.3316995 -0.37620392 -0.006619455
-0.33266205 -0.0005754646 -0.11667199 0.035760693 -0.061132252 -0.036520693 -0.04125816 -0.043194827
0.17988817 -0.030779867 0.4030381 -0.06471374 -0.24365628 -0.23339534 -0.17566705 -0.03502167
0.5047121 -0.41556674 -0.0936167 -0.09811532 -0.24602872 -0.243498 -0.053467263 -0.37792346
-0.24635142 -0.23415597 -0.08496859 -0.049890254 0.08783269 0.71850306 -0.058581695 -0.09520254
-0.037396066 -0.40040055 -0.0687356 -0.23399699 -0.036482904 -0.037082955 -0.09391668 -0.13973567
-0.2221473 -0.03336375 -0.06759151 -0.029955853 -0.01693665 0.15434653 -0.3338892 -0.031964444
-0.106706545 -0.04187146 -0.040393874 -0.0029846262 -0.05134076 -0.3836057 -0.045568664 -0.059015665
-0.08374481 -0.374458 -0.10309971 -0.035558786 -0.009971332 -0.673316 0.002950062 -0.060785234
-1.1027204 0.77437854 -0.05454526 -0.07177902 -0.7075599 -0.1027992 -0.02096046 0.008654375
-0.0759585 -0.16251765 -0.007683797 -0.019154305 -0.030120665 -0.09017694 -0.69223976 -0.355756
-0.078678414 0.049524058 -0.025784325 -0.007333909 0.0017869145 -0.078997895 -0.15825702 0.042677008
-0.08944852 -0.07653429 -0.033597317 -0.16403744 -0.28462413 -0.04981342 -0.055493157 -0.16176078
-0.0902292 -0.045218956 -0.049275998 -0.04676465 -0.024281103 -0.0070941225 -0.0051917452 0.24284475
-0.35738435 -0.038383804 -0.12948595 -0.00830687 -0.31904826 -0.06107166 -0.007636565 -0.02124573
0.031484615 -0.04293905 -0.06340268 -0.30283064 -0.046845324 0.21640965 -0.04398434 -0.019047929
-0.20879649 1.1490269 1.0350206 -0.044487387 -0.011718775 -0.14025354 -0.5266225 -0.0036058745
-0.5127653 -0.031579684 -0.06534055 -0.08796425 -0.039694857 -0.012300696 -0.059806835 -0.07958342
0.31444326 -0.047373205 -0.019238234 -0.079219386 -0.07230719 -0.10127883 -0.037296176 -0.15438715
-0.06715982 0.59611446 -0.53897697 -0.10304845 -0.052100085 -0.059921578 0.11987401 0.363647
-0.046249647 -0.3366908 -0.07250299 -0.0316386 0.4492982 -0.013036887 -0.07552171 -0.09697811
0.4419846 -0.77466464 -0.07403673 -0.047101915 0.59549713 -0.06854544 -0.09946304 -0.08288927
-0.08300353 -0.080970615 0.14998873 -0.42961773 0.17481774 0.6941295 -0.05124585 -0.0030921719
-0.089347765 -0.4026698 -0.08683224 -0.21493752 -0.05070519 -0.048246995 0.00040013582 -0.056247354
0.42500597 -0.051431924 0.88082266 0.14383432 0.6732996 -0.016222984 -0.18800794 -0.079868585
-0.3845837 -0.3867402 0.058920346 -0.12498385 -0.063742936 -0.14860521 -0.010482228 -0.13812202
-0.16411598 -0.09634622 -0.5233054 -0.07843177 0.42360744 0.56976914 0.18114342 -0.11516473
-0.07387655 -0.051015902 -0.029053789 0.013789853 -0.109908156 -0.06890045 -0.08609201 -0.017426314
-0.025041055 -0.046640158 0.55977076 -0.049034547 -0.24233472 -0.04696573 -0.065865405 -0.06143446
-0.0999631 -0.019166136 -0.06972939 0.079345904 -0.5180665 -0.08233091 -0.47113174 -0.039659634
0.18003036 -0.0847474 -0.09283365 0.094916515 -0.09589768 -0.06547555 -0.0724789 -0.3917045
00000000: b931 18be bc28 62bd b1a3 da3d 4cc9 ee3d
00000010: d8b5 afbc 30bc cdbd ef84 7cbd 9fea 39bd
00000020: d5ff bcbd 1203 77bd 55ce 453e db41 b7bd
00000030: c95e c8bd 84d4 a9be cd9d c0be 03e8 d8bb
00000040: ae52 aabe c7da 16ba b9f1 eebd ce79 123d
00000050: d065 7abd b996 15bd 51fe 28bd 0fed 30bd
00000060: 9b34 383e 0f26 fcbc 035b ce3e a388 84bd
00000070: 0881 79be 30ff 6ebe 10e2 33be e272 0fbd
00000080: d034 013f 2ac5 d4be 1dba bfbd aff0 c8bd
00000090: f4ee 7bbe 8a57 79be 7d00 5bbd 2f7f c1be
000000a0: 8c43 7cbe 95c6 6fbe 0304 aebd b959 4cbd
000000b0: a0e1 b33d d1ef 373f 5cf3 6fbd 8df9 c2bd
000000c0: 9e2c 19bd 4d01 cdbe 40c5 8cbd e89c 6fbe
000000d0: 196f 15bd 4ce4 17bd 6357 c0bd de16 0fbe
000000e0: 957a 63be 6da8 08bd 6b6d 8abd fa65 f5bc
000000f0: bbbe 8abc 040d 1e3e 86f3 aabe 26ed 02bd
00000100: f688 dabd 6881 2bbd 0c74 25bd b899 43bb
00000110: b04a 52bd f767 c4be 35a6 3abd 69ba 71bd
00000120: 6682 abbd f5b8 bfbe f125 d3bd 17a6 11bd
00000130: cc5e 23bc 705e 2cbf d455 413b f0f9 78bd
00000140: f125 8dbf ac3d 463f da6a 5fbd e100 93bd
00000150: a522 35bf 6388 d2bd 45b5 abbc 14cb 0d3c
00000160: 2190 9bbd 076b 26be 5cc8 fbbb 7de9 9cbc
00000170: 9dbf f6bc b0ae b8bd a036 31bf a725 b6be
00000180: 2622 a1bd bdd9 4a3d a639 d3bc 4a51 f0bb
00000190: e736 ea3a a6c9 a1bd 210e 22be 16ce 2e3d
000001a0: c930 b7bd 03be 9cbd 579d 09bd 6ef9 27be
000001b0: 41ba 91be 2809 4cbd cb4c 63bd 9ea4 25be
000001c0: 16ca b8bd 8337 39bd a1d5 49bd 4a8c 3fbd
000001d0: 2ae9 c6bc d075 e8bb 841f aabb 4bac 783e
000001e0: 15fb b6be 5638 1dbd f797 04be 8a19 08bc
000001f0: 4b5a a3be 4726 7abd 263c fabb 860b aebc
00000200: 03f6 003d dbe0 2fbd 44d9 81bd 9e0c 9bbe
00000210: e2e0 3fbd 7e9a 5d3e ec28 34bd 670a 9cbc
00000220: bfce 55be 5013 933f 8e7b 843f 6838 36bd
00000230: 1b00 40bc a09e 0fbe bbd0 06bf 8950 6cbb
00000240: 9644 03bf b359 01bd 44d1 85bd 9a26 b4bd
00000250: 1397 22bd dc88 49bc 03f8 74bd a2fc a2bd
00000260: b5fe a03e 680a 42bd 8099 9dbc c63d a2bd
00000270: cb15 94bd 466b cfbd e0c3 18bd aa17 1ebe
00000280: 168b 89bd f59a 183f 65fa 09bf 110b d3bd
00000290: e666 55bd 5470 75bd 8180 f53d f12f ba3e
000002a0: 4570 3dbd bd62 acbe 737c 94bd 7a97 01bd
000002b0: 6a0a e63e ab98 55bc 20ab 9abd 769c c6bd
000002c0: ce4b e23e 6c50 46bf 92a0 97bd f0ed 40bd
000002d0: 8072 183f 8d61 8cbd 47b3 cbbd d9c1 a9bd
000002e0: c1fd a9bd ecd3 a5bd a596 193e dbf6 dbbe
000002f0: 6c03 333e 79b2 313f 2be7 51bd 09a6 4abb
00000300: f6fb b6bd bc2a cebe 1ad5 b1bd 9518 5cbe
00000310: 3fb0 4fbd a49e 45bd 52c9 d139 a063 66bd
00000320: 629a d93e 48aa 52bd 987d 613f 4e49 133e
00000330: 5d5d 2c3f 10e6 84bc 2785 40be 2492 a3bd
00000340: 28e8 c4be d002 c6be 7656 713d 88f7 ffbd
00000350: a88b 82bd f72b 18be a7bd 2bbc dc6f 0dbe
00000360: 050e 28be 2b51 c5bd 58f7 05bf d6a0 a0bd
00000370: 13e3 d83e 64dc 113f a97d 393e 7cdb ebbd
00000380: 974c 97bd 0df6 50bd 3602 eebc d6ee 613c
00000390: 8717 e1bd ae1b 8dbd 0251 b0bd a1c1 8ebc
000003a0: e622 cdbc c009 3fbd 234d 0f3f 73d8 48bd
000003b0: 9826 78be 235f 40bd 71e4 86bd b3a2 7bbd
000003c0: 74b9 ccbd 4d02 9dbc 48ce 8ebd 1b80 a23d
000003d0: 02a0 04bf 1c9d a8bd 2e38 f1be 2472 22bd
000003e0: e159 383e 0b90 adbd 921f bebd 9763 c23d
000003f0: 0166 c4bd 0c18 86bd d16f 94bd 7e8d c8be

l3.weight f4 [4, 300]
0.052224815 -0.009479355 0.39754462 -0.42636457 -0.04551441 0.004139666 -0.013640288 0.0013136924
0.055341177 0.042200886 -0.85828465 -0.796017 0.017624686 0.057810202 -0.30289736 0.030577766
0.7342597 0.006817364 -0.014502404 -0.10306283 0.037621506 0.05258752 0.03313655 0.0123149175
0.9762395 -0.0024813595 0.72597355 -0.026168402 -0.37299183 -0.51842225 0.15506558 0.03317011
0.12051653 -1.4675735 0.035982296 0.41749603 -0.06675893 1.3483089 0.012581599 0.35371923
0.3335142 0.096509404 -0.008421393 -0.036454994 -0.9842925 1.9764128 -0.03496552 -0.08768542
0.00506721 0.060431615 -0.004434378 -0.5074255 0.036309395 -0.022064786 0.011355221 0.1691956
0.8054198 -0.028013933 -0.02100094 0.060013518 -0.0042145085 -0.06180859 0.17747042 -0.1265638
-0.0011168063 0.025125569 -0.02048974 -0.021126328 -0.00040693 -0.6351144 -0.017812058 0.016195334
0.005803185 0.69938064 -0.023156704 -0.005557817 -0.0005649516 1.4571975 0.7101358 -0.01314504
2.6988058 0.63697696 -0.07201362 0.03000848 -0.4064988 -0.0077397404 0.07392519 -0.018321866
0.018108187 -0.030113848 -0.01831631 0.002187689 0.021427013 -0.0028077543 -0.11107115 -0.5008798
-0.050590683 1.1337155 0.030676264 0.038928583 0.028664263 0.0038138297 -1.2712224 0.26589763
0.3985956 -0.037092395 0.048327226 -0.25665236 -0.30771017 0.012411245 -0.008219571 0.32698822
-0.057033733 -0.04727764 0.019768609 0.026279088 0.025213936 -0.018897055 0.016375946 -0.6677196
0.21917078 -0.046936307 0.004778361 0.38404837 -0.0235622 -0.014687193 0.025434006 0.09187921
0.22961426 -0.012920972 0.040649313 0.47926447 -0.058084346 0.23208949 0.083461404 -0.043142788
-0.643123 -0.329802 0.18205005 -0.06261178 -0.01833617 -0.011723447 -1.1595322 -0.02829191
0.18900968 -0.03869688 -0.011549512 0.047150414 0.06985573 0.0064404225 0.015854022 -0.86277324
0.025534563 0.031101856 0.015083275 0.008615999 -0.040624198 0.003261003 0.016158815 0.16454111
0.060580388 -0.35181248 0.62663084 0.009120931 0.060129635 -0.026153885 -0.540592 0.67201483
1.0605502 0.8308845 0.003149397 0.017236765 -0.44314942 -0.007871331 -0.016412534 -1.1120515
1.5661197 0.62162334 -0.9589541 0.039286315 0.3061143 -0.029087396 0.03335624 0.015317884
-0.019561317 0.007535286 -0.015052111 -0.95379454 -0.4399877 -0.69894004 -0.007476982 -0.010865645
0.007322064 -0.56776744 -0.048532043 0.41047266 0.0043112943 0.00068799057 0.024535894 -0.00058265874
-0.5136561 0.011121811 -0.034286175 -0.07486757 0.63526225 0.007850873 -0.23108312 -0.0032478713
-1.4459718 0.0032123919 -1.2499962 0.38539848 0.003967351 0.012803132 0.018348495 0.096268035
0.19830775 -0.032016285 0.3786686 -0.004049799 1.5638541 0.3630424 -0.8611591 0.04435038
0.044817906 0.013026792 0.031791307 -0.015091132 -0.007912367 0.047895245 -0.0241522 -0.0006487415
0.004027542 0.0038708532 0.08535779 0.0065794946 0.010556942 -0.0064984616 0.020513674 -0.08032884
0.017977707 -0.033999518 0.0026038846 0.24519977 -1.151286 0.020319285 -0.2707653 -0.0030075065
0.47336718 0.002437014 0.25548273 0.09961899 -0.009205881 -0.047482703 0.63704497 -1.0367718
00000000: b0e9 553d 4c4f 1bbc f88a cb3e 754c dabe
00000010: 516d 3abd 09a6 873b 847b 5fbc 3430 ac3a
00000020: 6ead 623d d6da 2c3d 8bb8 5bbf c5c7 4bbf
00000030: a561 903c 64ca 6c3d 5d15 9bbe 397e fa3c
00000040: 72f8 3b3f 3264 df3b 7e9b 6dbc 9b12 d3bd
00000050: 0219 1a3d 0366 573d 31ba 073d 82c4 493c
00000060: d5ea 793f 4e9e 22bb 67d9 393f 1e5f d6bc
00000070: c9f8 bebe 52b7 04bf 83c9 1e3e 62dd 073d
00000080: 5fd1 f63d 73d9 bbbf 2c62 133d 0ac2 d53e
00000090: e8b8 88bd 6395 ac3f 0d23 4e3c b01a b53e
000000a0: 60c2 aa3e b9a6 c53d e2f9 09bc d551 15bd
000000b0: 98fa 7bbf 18fb fc3f 0138 0fbd 6a94 b3bd
000000c0: d70a a63b 2487 773d 424e 91bb a3e6 01bf
000000d0: 29b9 143d 36c1 b4bc 400b 3a3c 9d41 2d3e
000000e0: fe2f 4e3f 7a7d e5bc 2a0a acbc bcd0 753d
000000f0: dc19 8abb 012b 7dbd ceba 353e f199 01be
00000100: cd61 92ba 23d4 cd3c 19da a7bc 1f11 adbc
00000110: 3859 d5b9 db96 22bf 98ea 91bc 14ac 843c
00000120: a528 be3b 9c0a 333f 21b3 bdbc 591e b6bb
00000130: 4319 14ba 7385 ba3f 76cb 353f 4b5e 57bc
00000140: 3cb9 2c40 ec10 233f e07b 93bd 58d4 f53c
00000150: 9c20 d0be a69d fdbb 1766 973d bd17 96bc
00000160: 9f57 943c 51b1 f6bc 160c 96bc 555f 0f3b
00000170: b487 af3c 4d02 38bb 4579 e3bd a939 00bf
00000180: 2d38 4fbd 971d 913f ca4c fb3c 9473 1f3d
00000190: 51d1 ea3c 72f1 793b 6ab7 a2bf bc23 883e
000001a0: b914 cc3e 32ee 17bd c5f2 453d f067 83be
000001b0: 308c 9dbe 8958 4b3c 61ab 06bc 006b a73e
000001c0: 349c 69bd 33a6 41bd c7f1 a13c 3e47 d73c
000001d0: 758d ce3c ffcd 9abc d926 863c acef 2abf
000001e0: 4e6e 603e 4940 40bd cc93 9c3b fda1 c43e
000001f0: 8405 c1bc 8da2 70bc fa5a d03c 2b2b bc3d
00000200: 0020 6b3e 7cb2 53bc e57f 263d 2762 f53e
00000210: dae9 6dbd dea8 6d3e d0ed aa3d 7eb6 30bd
00000220: b5a3 24bf cfdb a8be 546b 3a3e 9b3a 80bd
00000230: bc35 96bc b313 40bc 8d6b 94bf 70c4 e7bc
00000240: c18b 413e 9f80 1ebd 2a3a 3dbc cb20 413d
00000250: 8510 8f3d 2e0a d33b 4be0 813c b5de 5cbf
00000260: dc2d d13c 52c9 fe3c d71f 773c 1e2a 0d3c
00000270: 8f65 26bd 8db6 553b 7e5f 843c 777d 283e
00000280: 2423 783d c420 b4be e16a 203f f56f 153c
00000290: 7e4a 763d ac40 d6bc 3d64 0abf 2a09 2c3f
000002a0: 1cc0 873f d9b4 543f 1d66 4e3b 1e34 8d3c
000002b0: 7be4 e2be c1f6 00bc 9473 86bc b457 8ebf
000002c0: 9c76 c83f b522 1f3f 047e 75bf b0ea 203d
000002d0: 03bb 9c3e b148 eebc 8da0 083d ddf7 7a3c
000002e0: 0e3f a0bc 8fea f63b 219d 76bc e12b 74bf
000002f0: 1146 e1be bced 32bf 7901 f5bb d105 32bc
00000300: eded ef3b 3559 11bf 89c9 46bd 7929 d23e
00000310: c245 8d3b 445a 343a 80ff c83c 91bd 18ba
00000320: f77e 03bf 4238 363c a96f 0cbd 2b54 99bd
00000330: 8ca0 223f f3a0 003c 0ea1 6cbe 3dda 54bb
00000340: 9b15 b9bf fe86 523b e0ff 9fbf f352 c53e
00000350: 8d00 823b 3ac4 513c 954f 963c 2d28 c53d
00000360: 3011 4b3e 8223 03bd dae0 c13e 2db4 84bb
00000370: 5f2c c83f b2e0 b93e ec74 5cbf bea8 353d
00000380: fb92 373d 536e 553c 9a37 023d cc40 77bc
00000390: dfa2 01bc ce2d 443d d6da c5bc 4e10 2aba
000003a0: 79f9 833b 24ae 7d3b 11d0 ae3d cd98 d73b
000003b0: 06f7 2c3c 0cf1 d4bb 4b0c a83c 7283 a4bd
000003c0: fc45 933c 1443 0bbd efa5 2a3b a615 7b3e
000003d0: 575d 93bf a174 a63c c0a1 8abe 9619 45bb
000003e0: 2f5d f23e 4fb6 1f3b a2ce 823e 0b05 cc3d
000003f0: 43d4 16bc 397d 42bd 6115 233f f0b4 84bf

l3.bias f4 [4]
0.61207145 0.19982654 -0.6254341 0.1242614
00000000: b7b0 1c3f 549f 4c3e 731c 20bf c37c fe3d
